src/checkpoints/checkpoint_epoch_10.pth (torch, 139260 bytes, 78 tensors)

gnn.convs.0.att_src f4 [1, 1, 50]
000000 9b c8 8f bd 81 de f2 3c e6 50 00 3d 55 61 58 bd
       -0.07020684 0.029647114 0.03132715 -0.052827198
000010 44 45 cc 3c 5f d7 3b bd 91 b4 03 bd 1c 1a ac 3d
       0.024935372 -0.04585969 -0.032154623 0.084034175
000020 63 4b 50 3d b7 28 bb bd 6b 04 4c bd d4 12 2f 3d
       0.050853144 -0.09138625 -0.0498089 0.042742565
000030 07 40 7b bd e1 e4 a1 3c 91 a3 22 3d 0a ec 5e bd
       -0.061340358 0.019762458 0.03970677 -0.054424323
000040 aa a7 07 bd 13 00 1b bd 27 0f 17 bd 12 4c d6 3d
       -0.03311888 -0.037841868 -0.036879685 0.10463728
000050 59 31 e6 3d 7c 46 26 3e 5b 3f 7e bd 1e 10 9c 3c
       0.11239881 0.16237825 -0.06207214 0.019050654
000060 7b cd ef 3d 5e 14 a6 bc 11 13 22 3e 9c 3f 9b bd
       0.11709114 -0.020273384 0.15827586 -0.07580492
000070 69 1d 64 3d ab 9a 3f 3d b4 bf e0 3d f5 19 c2 3d
       0.05569211 0.046778362 0.109740645 0.09477607
000080 46 8a 9c 3d c5 06 88 3d 95 13 90 bd 6f 06 a6 bb
       0.07643561 0.06641916 -0.07034985 -0.005066685
000090 77 4d cf bc 70 7f 71 bc fd 23 09 bd 62 2e 06 3d
       -0.025305493 -0.014739856 -0.033481587 0.032759078
0000a0 c0 9f 8f bd 3a 4b e8 3a a7 40 94 bd 39 c2 e4 bc
       -0.07012892 0.0017722615 -0.07238894 -0.027924644
0000b0 ce 5e ba bc a6 72 94 3d a5 02 98 bd c1 29 00 3d
       -0.022750285 0.0724843 -0.074223794 0.03128982
0000c0 c8 22 b2 bd b7 ec 65 3d
       -0.0869804 0.056133952

gnn.convs.0.att_dst f4 [1, 1, 50]
000000 a4 7a de ba c7 56 a4 3a fa 90 9e b9 f4 a5 fc b9
       -0.0016973806 0.0012538069 -0.00030244124 -0.0004818883
000010 f4 32 18 ba fd 2b 36 bb db b5 cd 39 1a db 13 3b
       -0.00058059325 -0.0027797215 0.0003923614 0.0022561015
000020 4d 27 07 3a 08 53 37 b9 20 36 c5 b9 5a 2d f3 39
       0.00051556976 -0.00017483172 -0.00037615094 0.0004638236
000030 1c 2d 2b bb 23 80 a5 bb ca 94 24 3b 6f 11 20 3a
       -0.0026119417 -0.0050506755 0.00251131 0.00061061134
000040 c5 37 9c 3b ba 19 c8 bb a4 9b 12 3b 11 bd 86 3a
       0.0047673904 -0.0061065825 0.00223706 0.0010279735
000050 c1 5d dd 3b 0c 81 99 3b 45 cf 1e bb d0 fc ae 3a
       0.006755561 0.004684573 -0.002423243 0.001335049
000060 e4 ac af 3a a4 60 d9 b9 8e 7b aa 3a fd f7 5a bb
       0.0013402966 -0.00041461468 0.0013006793 -0.0033411973
000070 10 cd 1d b9 1a 0d c8 bb f8 73 57 ba b8 14 78 3b
       -0.00015049079 -0.0061050775 -0.000821888 0.0037854146
000080 dd dd b2 39 00 9d 99 39 5b c6 0c bb 51 b2 80 ba
       0.00034116107 0.00029299408 -0.0021480534 -0.0009818767
000090 66 b7 62 3b b7 04 ac 3a 58 a4 5e bb 6a 30 c4 3b
       0.0034594177 0.0013123964 -0.0033972468 0.0059872167
0000a0 2b 26 01 ba 0e cb 37 3a e6 6a bc 39 08 35 b8 b8
       -0.0004926647 0.00070111535 0.000359378 -8.7836816e-05
0000b0 c2 8a 0a bb e5 76 fc ba 15 e4 80 bb 96 ca 80 ba
       -0.0021139835 -0.0019261508 -0.0039334395 -0.0009826
0000c0 30 29 b1 b9 06 0d 3d bb
       -0.00033790758 -0.0028846874

gnn.convs.0.att_edge f4 [1, 1, 50]
000000 9d 21 ea be 85 b2 e2 b8 a5 b8 a4 3e dd 9a 0b bf
       -0.4572877 -0.000108097716 0.32172123 -0.5453318
000010 52 b7 92 be 64 a6 76 3e a3 ea 99 bd fa 11 86 be
       -0.28655487 0.2408691 -0.075154565 -0.2618559
000020 69 74 aa 3e 39 2b 48 bd 8b eb 48 be b1 00 a1 37
       0.3329194 -0.048869345 -0.19621103 1.9193018e-05
000030 6e 49 da be 01 4a c4 3e 3e ca 6e 3e ac 24 b9 3e
       -0.42634147 0.3833771 0.23319337 0.3616079
000040 76 98 e7 3e d4 d9 8b 3e 8b 56 ae 3e 45 26 02 3f
       0.45233506 0.27314627 0.34050402 0.50839645
000050 91 5d cb be a0 0a e5 bd 1f 0a ff 3d 3b 98 a0 3e
       -0.39719823 -0.11183667 0.12453102 0.31366143
000060 6e 6f c8 3e bd 7b 8b 3e 3c 38 9d be 7e 8b 91 be
       0.39147514 0.27242842 -0.30706966 -0.28426737
000070 63 11 0b 3e 5c fb 4b 3e eb 72 c1 be 42 47 b2 be
       0.13580851 0.19920105 -0.37782988 -0.3481999
000080 0c 3c b0 be ea 14 09 bf 4a a2 d6 be 31 65 02 bf
       -0.34420812 -0.5354754 -0.41920692 -0.50935656
000090 bf 0a 48 3e 95 e9 cb bd ef 95 83 3e 6d a6 c8 be
       0.1953535 -0.099566616 0.25700328 -0.39189473
0000a0 6c a1 0a 3f b4 66 c0 3e 54 f4 8b be cc 8a a2 be
       0.5415256 0.37578356 -0.27334845 -0.3174652
0000b0 dd 94 07 3e 8d 6f 3c 3d 07 45 a4 3e 2c 11 78 3e
       0.1324038 0.04600482 0.32083914 0.242253
0000c0 7b e8 bc be b0 20 0c 3e
       -0.3689612 0.13684344

gnn.convs.0.bias f4 [50]
000000 d2 5e b5 ba 3d d3 12 3a 71 91 89 ba 17 83 b0 b7
       -0.0013837463 0.0005600935 -0.0010495615 -2.1041878e-05
000010 c4 cf b8 3a af 8e a9 3a a7 bf 5d ba 13 63 81 bb
       0.0014100005 0.00129362 -0.00084590394 -0.003948578
000020 75 f1 a1 ba be b3 01 bb bb 9f 68 3a 34 be 18 ba
       -0.0012355285 -0.0019790973 0.00088738994 -0.00058266823
000030 15 62 21 3a a8 b7 16 3a e8 2c 68 3b 2e 2d 59 3a
       0.0006156278 0.0005749413 0.0035427157 0.00082846254
000040 93 61 7a ba a1 65 e2 3a f9 b5 9c 3a 50 2e b7 b9
       -0.0009551283 0.0017272719 0.0011956088 -0.00034938985
000050 33 1a b8 ba 16 77 91 3b a2 8e 2c 3b b1 1b 65 3b
       -0.0014045894 0.004439245 0.0026330133 0.0034959132
000060 8b c6 99 ba be 66 4e 3a 98 43 4c 3a b5 1e e2 ba
       -0.0011732144 0.0007873586 0.00077920547 -0.0017251583
000070 db 7f 77 ba 02 63 b1 ba e0 32 5a ba b6 72 13 39
       -0.0009441354 -0.0013533535 -0.0008323621 0.00014061746
000080 c6 bf d6 ba d7 f3 b5 3a 41 aa 70 3a bd d5 f2 3a
       -0.0016384057 0.0013881874 0.0009180643 0.0018526834
000090 f2 ea 4e 3b 08 04 92 3a d7 ac 3a ba 42 7f cb 3a
       0.0031573144 0.0011140117 -0.0007121092 0.0015525597
0000a0 88 38 9f ba ed cd 0f ba 8e 2e 88 3a 24 aa 0e bb
       -0.0012147585 -0.00054857024 0.0010389851 -0.0021768892
0000b0 5e 06 39 3b fb 52 7a b9 44 66 0f ba aa 26 48 3a
       0.0028232555 -0.0002387277 -0.0005470256 0.0007635156
0000c0 dd 71 2a b9 75 fa 8b 3b
       -0.00016254881 0.0042718

gnn.convs.0.lin.weight f4 [50, 50]
000000 f4 99 a3 bb 77 8f fd 3d 60 da 0b be d8 e5 20 be
       -0.004992718 0.12380879 -0.13657522 -0.15712678
000010 38 e8 1f 3e b5 0f 99 3e f3 21 ad be 42 95 c1 3e
       0.15615928 0.29894796 -0.33814964 0.37809187
000020 08 8f c8 3c fb f9 21 bf ce 0c 7a bd ba 98 14 3e
       0.024482265 -0.63272065 -0.061047368 0.14511386
000030 ac 32 c7 bd 22 60 ac bc e0 6e 4a 3c df 92 d5 3d
       -0.09726462 -0.021041933 0.012355536 0.10428404
000040 69 0c 36 be 2e 23 50 bd f8 c6 24 3c 14 5e 8f 3c
       -0.17778172 -0.0508148 0.0100572035 0.017500915
000050 6d 95 87 be 73 fd af 3d e2 d7 eb 3d e3 a4 93 3e
       -0.2648119 0.085932635 0.11515786 0.28836736
000060 34 d1 b8 bd 24 12 84 be 80 59 17 be 3d d5 a1 3e
       -0.09024277 -0.2579509 -0.14780235 0.31608
000070 9a 0a 9d 3e 4a 97 85 3d c1 00 b2 be a2 d5 07 3e
       0.3067215 0.06522997 -0.347662 0.13265088
000080 f7 48 3a 3c 15 c0 d6 3d 07 54 82 3e bf 5b e0 3c
       0.011369935 0.104858555 0.25454733 0.027387498
000090 22 65 7b 3e 0c 99 82 3d 40 4c 0c 3c 37 78 84 be
       0.24550298 0.063768476 0.008563101 -0.25872967
0000a0 1c 56 57 be b5 40 27 3e 7e 7d 32 3e cb 1a e8 3c
       -0.21028942 0.16333278 0.17430684 0.028333088
0000b0 ae c8 e1 3d 2f 2a 08 be 11 8b a4 bd 5b 7b 67 be
       0.11024605 -0.13297342 -0.08034337 -0.2260565
0000c0 60 fb f8 bd b2 50 cc be 9c 0e 91 3b 84 a6 57 bd
       -0.12157321 -0.39905316 0.0044267904 -0.052649036
0000d0 2a 26 71 3d 2b 23 94 3b 71 72 cc 3c 6e a4 7a 3d
       0.058874287 0.004520794 0.024956914 0.06119197
0000e0 4a 63 67 bc 59 ed d8 bd 1c da 88 3e 64 58 4e 3e
       -0.014122793 -0.105921455 0.26728904 0.20150906
0000f0 11 18 fb 3d 37 54 92 be be 7a c0 3e 91 4a a3 bd
       0.1226045 -0.28579876 0.37593645 -0.07973207
000100 9c 68 a6 3e 3b ff 63 be ca 38 b3 bd ad 8a 96 be
       0.32501686 -0.22265331 -0.08751066 -0.29402676
000110 29 55 a2 3e f5 02 e1 3d 5f a4 e5 bc a9 64 6a bd
       0.31705597 0.10986892 -0.02803248 -0.057224903
000120 fd 2e 49 bf 31 90 98 be bf c5 84 be 47 c5 26 3e
       -0.78587323 -0.2979751 -0.25932118 0.16286193
000130 0b 8d dd bd 9e df d0 3d 1f 34 1a be 83 6c 8b bd
       -0.108179174 0.101989016 -0.15058945 -0.06807806
000140 be 4c c6 3c cb 9a 14 be b2 26 83 3e cc fd 43 3e
       0.024206515 -0.14512174 0.2561546 0.19139785
000150 b8 21 3f 3c 3b 2d 15 3e 14 d3 39 3d 6c 95 37 3e
       0.011665754 0.14568035 0.045367315 0.17928094
000160 2f 22 23 be 1c 95 4c 3e e6 ca 49 be 45 7e 33 3c
       -0.15931009 0.19978756 -0.19706306 0.010955398
000170 b9 ea 9e be fe e9 78 bd e0 9a 7d 3d 1e 43 1f be
       -0.31038454 -0.060770027 0.06191528 -0.15552947
000180 a3 fc 7d be 9a d5 8b be 53 30 aa bd 23 e1 19 3d
       -0.24803405 -0.27311403 -0.08309998 0.037568223
000190 80 07 83 bb 5e b0 2a 3b e1 33 0b 3e 07 7c 1f be
       -0.003998697 0.0026045064 0.13594009 -0.15574656
0001a0 37 a9 1b 3d b5 33 25 3e ff 1f 60 be 2b 3d cf 3d
       0.038003173 0.16133006 -0.21887206 0.10119089
0001b0 5e 28 b5 3c e5 d5 06 3f 56 0c 7c 3e 2a 27 4d be
       0.022113975 0.5267013 0.24614081 -0.20034471
0001c0 78 e0 a4 be 08 c5 26 bf 48 d1 3c 3c 2e 6c e5 3e
       -0.32202506 -0.65144396 0.011524506 0.44809097
0001d0 7a bc d4 3c a8 a9 52 3e 6d 73 47 3d 53 ff 22 3d
       0.025968779 0.20572531 0.048694063 0.039794277
0001e0 27 18 87 be bc b4 6b be ec c2 27 be 9e 2b d9 bd
       -0.26385614 -0.23018163 -0.1638295 -0.106040224
0001f0 a5 ce 0e be d4 9e 80 be 93 21 9e 3c 4f f8 86 3e
       -0.13946016 -0.25121176 0.019303119 0.2636132
000200 73 5c 69 3e 92 7c 6e 3e db ff 5f 3e 79 d3 8e bc
       0.22789173 0.23289707 0.21874945 -0.017434822
000210 c6 1c 2c bb 51 e6 52 3e e0 3c e4 3d 05 54 31 be
       -0.0026262267 0.20595671 0.111444235 -0.17317207
000220 b7 90 57 3d b8 62 44 be bb 94 09 be b0 fc 0e be
       0.052628245 -0.19178283 -0.13435642 -0.1396358
000230 04 63 30 be e5 35 5a be 43 13 c4 3e d1 36 49 3e
       -0.17225271 -0.21309622 0.38295946 0.19649817
000240 dd 88 b9 3d ba 54 08 3e 96 40 11 3d a7 89 40 3e
       0.09059308 0.1331357 0.035461985 0.1880251
000250 88 50 37 be a1 98 11 3d b4 71 00 bd 5e 19 d5 3d
       -0.17901814 0.03554595 -0.031358436 0.10405229
000260 d7 b1 14 3d cf 66 3f 3d f4 27 0a be 6e cc 9f bc
       0.036302414 0.046728905 -0.13491803 -0.01950666
000270 bd 1b 43 3e 19 5b 41 3e 29 5c 04 be d4 56 af bd
       0.1905355 0.18882407 -0.12925781 -0.08561483
000280 9c ce 73 be ec 5e 32 bd bc 62 1f be ce 8c 11 3e
       -0.23809284 -0.043547556 -0.15565008 0.14213869
000290 7c c6 f4 3e bb 00 55 3e 9b ca 7b be 5b c5 64 bd
       0.47807682 0.2080106 -0.24589007 -0.055852275
0002a0 a9 f8 01 be 05 18 3c ba fb cc 9f 3e 71 4a 62 3e
       -0.12692513 -0.000717521 0.31211075 0.2209871
0002b0 a6 df fd 3d 14 fc 69 be 36 c0 58 be b1 68 e8 bd
       0.12396173 -0.22850066 -0.21167073 -0.11348093
0002c0 0d 43 90 bd 40 be 92 bd 02 fe 4c 3e 7e d4 c5 bd
       -0.07044039 -0.071651936 0.20018771 -0.0965967
0002d0 f6 2e 4b bc bc ec 87 3e b3 eb 5e 3e 04 cc 65 3e
       -0.012401333 0.26547801 0.217696 0.22441107
0002e0 ee f5 7f 3e ea 0c 1e be 5b d6 8e 3e fb 19 59 3c
       0.24996158 -0.15434614 0.27897915 0.013250823
0002f0 46 3a 8c 3e 24 14 a9 be b1 d5 13 be 33 2a a0 3d
       0.2738821 -0.3302318 -0.14436986 0.07820549
000300 6b cc c9 3d 3c 79 8f bb 75 92 1f bd 30 38 62 3e
       0.09853443 -0.004378466 -0.03895803 0.22091746
000310 20 79 d0 3d 7f 1a 1a 3e be 3f 3a bd b1 8f 7e 3d
       0.10179353 0.1504917 -0.045470946 0.062148754
000320 53 c8 0a 3c e8 f1 c1 be 53 9f be be 37 5a 88 3e
       0.008470613 -0.37879872 -0.3723093 0.26631328
000330 d4 e2 88 3e ba b3 f5 3d eb af 80 3c d8 09 dc bd
       0.26735556 0.11997171 0.015708884 -0.10744065
000340 31 3b 99 bd 69 24 ee 3c e4 6f 3f be 26 5b 41 bd
       -0.07481993 0.029070096 -0.18695027 -0.047206067
000350 c5 7a 23 bd b2 0e 2b 3c 83 3b c9 3d 4e 1d ab 3d
       -0.039912004 0.010440515 0.09825804 0.08355199
000360 8d 7b de 3d e5 79 3a bd 2a a9 8a 3e 24 5a e1 3e
       0.10863409 -0.045526404 0.27082187 0.44014084
000370 d7 1e 01 bc 90 fe 26 be 34 af 85 bd ea 77 ce 39
       -0.007880888 -0.16308045 -0.06527558 0.00039380725
000380 62 82 b0 3d a9 67 9d be 07 5d 2b be 49 df a0 bd
       0.086186185 -0.3074315 -0.16734706 -0.07855088
000390 1c 91 19 3e 35 6a 9a bd 1f 3d a9 3e ce 1d 2d bd
       0.14996761 -0.07539789 0.33054444 -0.042264752
0003a0 c0 c9 d6 3d 65 ab 4d bb 56 8c bc be 29 bb a4 be
       0.104876995 -0.0031382677 -0.36825818 -0.32174042
0003b0 f2 46 a0 3d 03 a7 29 be 26 91 dc bd de aa fa 3c
       0.07826032 -0.16567616 -0.10769872 0.030599054
0003c0 3c b7 30 be 45 d3 39 3d d3 2f 77 be 7a 77 ad 3e
       -0.17257398 0.045367498 -0.24139337 0.33880216
0003d0 0c 14 bb bd fc 69 87 3d ee 38 d7 3d 9d bf c5 3d
       -0.09134683 0.06612012 0.10508905 0.09655688
0003e0 6b 91 90 3d 0a 5d b0 3d 50 d7 08 bc c4 d6 dc 3c
       0.07058986 0.08611496 -0.008352116 0.026957877
0003f0 cd b6 03 3d 06 8a 41 bd 5d d4 2d 3e 96 4a 2b 3c
       0.032156754 -0.04725077 0.16975541 0.010454794

gnn.convs.0.lin_edge.weight f4 [50, 1]
000000 9d 21 ea be bb b0 e2 b8 a3 b8 a4 3e da 9a 0b bf
       -0.4572877 -0.000108094384 0.32172117 -0.5453316
000010 52 b7 92 be 5e a6 76 3e 90 ea 99 bd 01 12 86 be
       -0.28655487 0.24086902 -0.07515442 -0.2618561
000020 66 74 aa 3e 22 2b 48 bd 94 eb 48 be 94 00 a1 37
       0.3329193 -0.04886926 -0.19621116 1.9192965e-05
000030 72 49 da be f9 49 c4 3e 41 ca 6e 3e a8 24 b9 3e
       -0.4263416 0.38337687 0.23319341 0.3616078
000040 6d 98 e7 3e e4 d9 8b 3e 92 56 ae 3e 40 26 02 3f
       0.4523348 0.27314675 0.34050423 0.50839615
000050 8b 5d cb be b2 0a e5 bd 2d 0a ff 3d 42 98 a0 3e
       -0.39719805 -0.111836806 0.12453113 0.31366163
000060 80 6f c8 3e b4 7b 8b 3e 41 38 9d be 88 8b 91 be
       0.39147568 0.27242815 -0.3070698 -0.28426766
000070 5b 11 0b 3e 52 fb 4b 3e ef 72 c1 be 40 47 b2 be
       0.1358084 0.1992009 -0.37783 -0.34819984
000080 05 3c b0 be fa 14 09 bf 4c a2 d6 be 2b 65 02 bf
       -0.3442079 -0.5354763 -0.41920698 -0.5093562
000090 c0 0a 48 3e 94 e9 cb bd f1 95 83 3e 7a a6 c8 be
       0.19535351 -0.09956661 0.25700334 -0.39189512
0000a0 72 a1 0a 3f ad 66 c0 3e 53 f4 8b be de 8a a2 be
       0.54152596 0.37578335 -0.27334842 -0.31746572
0000b0 e0 94 07 3e 8f 6f 3c 3d 08 45 a4 3e 26 11 78 3e
       0.13240385 0.046004828 0.32083917 0.24225292
0000c0 7c e8 bc be b1 20 0c 3e
       -0.36896122 0.13684346

gnn.convs.1.att_src f4 [1, 1, 50]
000000 6f 16 f9 bb 0a cf 42 3e 4e 2e a5 be fc 37 b8 bc
       -0.0076015512 0.19024292 -0.3226189 -0.022487633
000010 ff ca 41 be e6 2f 83 be 38 2e 2a 3e 8c 83 18 be
       -0.18925093 -0.2562248 0.16619194 -0.14893931
000020 87 63 62 3e 94 75 a2 be 66 7b b3 3e aa de 01 be
       0.22108279 -0.3173033 0.35055083 -0.12682596
000030 18 de 0f 3e 4f 6a b7 3d 76 ac 28 be 7f b6 53 bd
       0.14049566 0.08955824 -0.16472039 -0.051687714
000040 ed ca be 3e af d2 88 be 67 91 ef 3d 63 89 4c 3d
       0.37264195 -0.2672324 0.11697655 0.04993571
000050 6e 52 a3 be 87 86 e2 3d fa 08 5f be 84 ca ed 3d
       -0.31898826 0.11060815 -0.21780768 0.116108924
000060 08 95 be 3e 64 11 53 be 6a 34 81 3d cc 52 d1 3c
       0.37223077 -0.20612103 0.06308825 0.025552176
000070 b4 29 f4 bc 50 0c ec 3e c9 72 4e be ee 04 1b 3e
       -0.029805042 0.46103144 -0.20160975 0.151386
000080 a6 61 3e bd b0 3c 07 3e 85 f3 f9 3e c3 a1 57 3e
       -0.046479844 0.13206744 0.48818603 0.21057801
000090 5c e2 83 3e 0c 3b 99 bc 8c ee b0 3e 53 14 02 bf
       0.25758636 -0.018704914 0.34556997 -0.5081226
0000a0 2b 2c 26 3e 7a 02 08 be 8e 53 6c 3d 5e 5b d1 bd
       0.16227786 -0.13282195 0.05769687 -0.10222505
0000b0 6d ff e6 3d c0 b3 2a 3e d6 64 c7 bd e0 3f ee bd
       0.11279187 0.16670132 -0.0973603 -0.11633277
0000c0 f7 21 6d 3c 9e 0c 87 be
       0.01447343 -0.26376814

gnn.convs.1.att_dst f4 [1, 1, 50]
000000 5e 9b 91 bd aa 7b 52 3d ed 70 b7 3d f4 d5 22 bc
       -0.07109712 0.051387466 0.08957086 -0.009938706
000010 4d b4 54 bc fa aa c1 bc c6 51 63 3d 8f a6 48 3e
       -0.01298244 -0.023641098 0.055497907 0.19594787
000020 d7 f3 a8 bc c8 a3 cb 3b ee 73 8a be e0 23 d5 3d
       -0.020624084 0.0062145926 -0.27041572 0.10407233
000030 31 01 98 3d 2e 1b 64 be 7e e2 91 3e f0 b0 78 bd
       0.07422102 -0.22275993 0.28493112 -0.060715616
000040 1f 49 63 be 78 5f 8f bc 67 11 d1 3d c8 87 a6 bd
       -0.22195862 -0.017501578 0.10208397 -0.08131367
000050 f0 8c 0c 3d 77 12 02 bc 15 f2 34 3e 6e 55 8f 3d
       0.034314096 -0.007938973 0.17670472 0.06998716
000060 f4 84 85 be 04 cb c4 3d 72 8b 24 3e 63 d1 2a 3e
       -0.26077998 0.09609035 0.16068819 0.16681437
000070 8c 4d a2 3d 10 f1 69 be f5 a1 37 3e 54 2e 0d be
       0.07924947 -0.22845864 0.17932875 -0.13787204
000080 de ce 0b bc b8 24 62 3d ad 21 60 be 59 b8 78 bd
       -0.008533208 0.0552108 -0.21887846 -0.060722683
000090 9d c6 53 be 95 e5 92 bd 4f e5 18 be 4e a5 da 3e
       -0.20681234 -0.071726955 -0.14931224 0.42704242
0000a0 34 d2 7d be ab bd cf 3d 0d c5 3e 3e e0 18 87 3e
       -0.24787217 0.10143598 0.18629856 0.26386166
0000b0 31 fb 1a bd 33 f3 43 be 3f ae 0a 3e 5c 61 80 3d
       -0.03783721 -0.19135742 0.13543032 0.0626857
0000c0 4b fd b5 bd b1 0f 55 3e
       -0.088862024 0.20806767

gnn.convs.1.att_edge f4 [1, 1, 50]
000000 08 e7 b5 bd 33 20 10 3f 12 6a df 3e af 20 01 bf
       -0.08881956 0.5629913 0.43635613 -0.50440496
000010 8f 40 6c bb a6 f6 86 3e 1b 72 93 be a5 37 ae bd
       -0.0036049222 0.26360053 -0.28797993 -0.08506707
000020 ab cb 9a be 57 88 10 3f 51 9d ed 3e ab 78 bc 3d
       -0.3023351 0.5645804 0.46409085 0.09202703
000030 c9 04 1d be 79 3e 28 3d 24 22 6f be b3 48 0f 3f
       -0.15333857 0.041075204 -0.23352867 0.55970305
000040 97 ee a0 be f3 78 65 bd d5 04 03 3f 2d e6 e8 3e
       -0.3143203 -0.05602355 0.5117925 0.4548811
000050 e6 07 83 bd 16 00 f9 3e ce 71 ee be 48 61 c0 3e
       -0.06397991 0.48632878 -0.465712 0.3757422
000060 c7 67 eb 3e 59 70 08 3f 02 be e5 be 8b d0 07 3c
       0.45977613 0.5329643 -0.44871527 0.008289467
000070 fe 8c ef 3e f5 f4 7e 2c 2b a0 99 3e 55 c2 8e be
       0.46787256 3.623155e-12 0.3000501 -0.2788264
000080 51 9e f8 3e 2f 1e a4 3d 7a 3e f0 be 03 5a fd 3e
       0.48558286 0.080135696 -0.46922666 0.49482736
000090 09 3c 23 3e c0 79 35 be 6a 48 ad 3e 40 32 fc 3e
       0.1594087 -0.17722225 0.3384431 0.49257088
0000a0 27 64 02 bf b2 07 3d be d2 e1 e9 be 80 b8 f3 3e
       -0.5093407 -0.18459967 -0.456801 0.476017
0000b0 46 aa bc 3e b2 b4 0f 3f 96 b8 11 bf 05 45 dc be
       0.36848658 0.56135094 -0.5692228 -0.43021408
0000c0 36 58 e2 be 92 87 bf be
       -0.44207925 -0.3740812

gnn.convs.1.bias f4 [50]
000000 2d 2c b9 37 3b e8 83 b7 07 04 c1 37 ee 23 55 b8
       2.207429e-05 -1.5724558e-05 2.3009268e-05 -5.081662e-05
000010 3f 98 cf b7 1a f3 8e b8 45 e3 56 39 51 f6 09 b8
       -2.4747218e-05 -6.816369e-05 0.00020493295 -3.2892745e-05
000020 05 9a e7 36 41 63 b9 b8 55 7d 0a 37 68 10 db b6
       6.9022667e-06 -8.839975e-05 8.254622e-06 -6.5286185e-06
000030 7a 86 10 38 6d 00 eb b7 17 42 98 38 49 bb f2 b7
       3.4457516e-05 -2.8014381e-05 7.260235e-05 -2.893586e-05
000040 93 0b a9 37 d3 cc ef 38 b3 9e 25 b8 9c 1c dc 35
       2.015176e-05 0.000114345596 -3.9486866e-05 1.6399604e-06
000050 b3 e4 1f 38 df cc b5 b8 05 b9 44 b8 b1 84 b4 36
       3.8121547e-05 -8.668913e-05 -4.6902354e-05 5.3798653e-06
000060 48 94 fe 38 45 c0 b7 37 6b 86 52 38 80 83 bd b8
       0.00012139283 2.1904832e-05 5.0193088e-05 -9.036716e-05
000070 d3 91 c2 37 f5 b8 80 b8 1d 43 97 38 1c dc 89 33
       2.3194507e-05 -6.1379666e-05 7.212742e-05 6.419597e-08
000080 d5 22 cb 37 99 6c 9e b7 be e2 e7 b8 09 26 89 b8
       2.4215706e-05 -1.8885637e-05 -0.000110571724 -6.539754e-05
000090 00 69 12 b7 cf d9 8e b8 f1 6a 90 b7 c6 f2 c7 b8
       -8.726725e-06 -6.811658e-05 -1.7215936e-05 -9.5342795e-05
0000a0 fa 13 ea 38 09 89 52 b8 18 39 2f b8 43 a3 6f 39
       0.000111617104 -5.0195526e-05 -4.1776424e-05 0.00022853636
0000b0 7c 8a b3 37 f1 d9 06 38 73 87 f2 b7 ac 4a e0 b5
       2.140295e-05 3.2151063e-05 -2.8911722e-05 -1.6711033e-06
0000c0 21 62 e3 38 91 51 55 39
       0.000108424814 0.00020343649

gnn.convs.1.lin.weight f4 [50, 50]
000000 e0 f3 16 3e eb 7f a2 be 24 37 dc 3c 94 bf a8 3d
       0.14741468 -0.3173822 0.026881762 0.08239666
000010 f8 21 27 be 9b 1d ac bd 62 21 0a 3d 23 6d 5b 3d
       -0.16321552 -0.08404084 0.033723243 0.053570878
000020 1d 2c 99 bb 58 ff 50 bd 62 38 ff be 90 ab 9c 3d
       -0.004674448 -0.051024765 -0.49847704 0.076499104
000030 d3 14 06 be 9f 24 6b bd da af d4 3b 90 6e 11 bd
       -0.13093881 -0.05740797 0.0064906897 -0.03550583
000040 77 1c 3c 3d f4 5c 96 be dc 76 c6 3c 81 6e d3 3d
       0.045925584 -0.29367793 0.024226598 0.10323811
000050 a7 12 30 3e eb 2d 74 3d 68 7c 1f be b1 06 0c 3e
       0.17194615 0.059614103 -0.15574801 0.13674428
000060 e3 76 a1 bb 85 a2 83 be 2f c2 02 bf cc dc 08 be
       -0.0049275025 -0.2570993 -0.5107755 -0.13365477
000070 af 8d bc be 4d c6 8e 3d 6e c2 ad be d9 ce dd bc
       -0.36826846 0.069714166 -0.339374 -0.027076172
000080 38 7f 1a bc 5b 7b b6 bc 32 e9 d1 3d 35 d1 cb bd
       -0.009429745 -0.022275617 0.102495566 -0.099520124
000090 5a 33 05 3d c0 dc 0d be 3e 63 6a bc 81 1c 5c bc
       0.032519676 -0.1385374 -0.014305888 -0.01343453
0000a0 d9 c2 34 bd 72 d5 f6 3c 94 c3 c9 3d e4 3c 28 be
       -0.044131134 0.030131076 0.09851757 -0.16429478
0000b0 9e 30 ff 3d ca ce 32 3d 44 cf 7e bd c0 13 05 be
       0.12460445 0.04365424 -0.062209383 -0.12995815
0000c0 5d 70 0c 3e 2e 83 cd bd b6 25 39 be 02 3a 26 be
       0.13714738 -0.10034786 -0.18080792 -0.16233066
0000d0 98 e0 21 3e 1d 80 98 3e c7 a6 37 be 00 71 07 bd
       0.15808332 0.29785243 -0.17934714 -0.03306675
0000e0 e7 78 23 3d 04 19 30 3e 8f 2c 52 3d 80 d3 e6 bc
       0.039910223 0.17197043 0.051312026 -0.028177023
0000f0 df 4b c5 be 59 17 65 bd a5 06 84 be 1a 32 7e bc
       -0.38534448 -0.05593047 -0.2578632 -0.015514875
000100 c1 0c 9c 3c 16 09 07 3e 97 92 6c ba ff df bc bd
       0.01904905 0.1318706 -0.0009024529 -0.09222411
000110 44 1b 47 3e 4f 30 df be 1f 57 9c be 24 5b 78 3d
       0.19443995 -0.43591544 -0.30535218 0.060633793
000120 3e 57 5e bd 09 b9 1b 38 75 e1 c5 3d e4 1b 8b 3d
       -0.05428242 3.7127207e-05 0.09662143 0.06792429
000130 73 37 7b bc 97 4d 21 3b 32 ff 0b bd c8 16 a2 3d
       -0.015333044 0.0024612898 -0.03417892 0.079145014
000140 14 e9 a0 bc d2 45 ad be 29 f0 92 be ec 0a b5 3c
       -0.01964239 -0.3384233 -0.28698853 0.022099935
000150 a6 a4 6d bd e0 2b 30 3e 9e d4 8e bd 2d 5c 8d be
       -0.05801835 0.17204237 -0.06974147 -0.27609387
000160 7d 68 7a 3b a3 fc 75 bb 7e fc 04 3d a8 99 5d 3c
       0.0038209253 -0.0037534616 0.032467358 0.013525404
000170 a3 9c 0b bc 1e 5c d3 bc 7c 4e 28 be aa 8d a0 3e
       -0.008521232 -0.02580076 -0.1643619 0.3135808
000180 32 88 9d 3d 83 ac cb 3d c4 33 5a be 6b 4e e9 3a
       0.07691993 0.099450134 -0.2130881 0.001779986
000190 8b c1 0a 3d ba f5 ec bc 17 ae 3c be 7c 4f 0c be
       0.033875983 -0.028925765 -0.18425785 -0.13702196
0001a0 ce f3 18 3e 60 1e 41 3d 2b 2d aa bb d5 41 d5 3d
       0.14936754 0.04714811 -0.0051933727 0.10412947
0001b0 fa 86 c8 bc 4e c7 d6 3d b3 4b ce 3d f2 c7 b2 bc
       -0.024478424 0.10487233 0.10073032 -0.021823857
0001c0 1a 07 b2 bd 6d a9 2a bd 63 fd d8 bd ff 44 5c be
       -0.08692761 -0.041665483 -0.10595205 -0.21510695
0001d0 45 58 9c 3d 82 66 ec be 26 d1 74 be b6 4d e7 bd
       0.076340236 -0.46171957 -0.23907909 -0.11294119
0001e0 d7 46 4d be 5e 0f 30 3d 2d 4f 22 3d 27 b1 ab bc
       -0.20046555 0.042983405 0.03962629 -0.020958496
0001f0 05 1d 6d 3d bd dc a9 3d 58 07 86 be a9 31 da bc
       0.057889003 0.082940556 -0.26177478 -0.026635008
000200 e5 9e 90 3d 0d a8 3d be 1b 2c 73 3e 32 cb 92 bd
       0.07061557 -0.18521138 0.23747294 -0.07167663
000210 1c a6 d4 ba c4 f1 62 3e 8c 77 3a be 18 5d 00 3e
       -0.0016223821 0.22162539 -0.18209666 0.12535512
000220 9e d5 9c 3c c2 1a f0 bb cd 2f 87 bd 9d 74 20 be
       0.01914483 -0.0073274085 -0.06600914 -0.15669484
000230 82 15 1e 3e cf 04 65 bd 57 59 cf bd 40 80 b8 be
       0.15437892 -0.05591279 -0.10124462 -0.36035347
000240 35 3a c7 bd 55 17 22 3d 39 8b 3d bf 85 ba c5 bd
       -0.09727899 0.039573032 -0.7404056 -0.096547164
000250 d5 ed 2c 3e 6b a3 ca bc fa a5 44 38 b3 51 15 3e
       0.168876 -0.024736127 4.688462e-05 0.14581947
000260 f7 d3 6c 3b 18 d9 b2 bd 69 fd 81 3e 59 67 4d be
       0.0036137083 -0.087328136 0.2538865 -0.20058955
000270 0d 9e 25 3e b4 78 06 be e7 cc 38 bc 04 7d 78 3d
       0.16173573 -0.13131982 -0.011279321 0.0606661
000280 9b 1d 89 3b 39 35 0a 3e 7d 30 e2 bc d5 ba f6 bb
       0.0041844375 0.13496865 -0.027611012 -0.0075295963
000290 b2 1e 57 be ff 4b ec be 0e d5 0e be b5 54 fd be
       -0.21007803 -0.4615173 -0.13948461 -0.4947869
0002a0 1e 40 4d bc 88 f0 57 be 9c a2 08 be 49 eb 58 bd
       -0.012527494 -0.21087849 -0.1334328 -0.05295876
0002b0 14 cc ed bc ae 7e b6 3d 95 2b b9 bd 8c 76 4f be
       -0.029027976 0.08910881 -0.09041516 -0.20260066
0002c0 6b 1d 27 bf 54 35 6a bd c4 1e 39 be ae 90 a6 bc
       -0.65279263 -0.057179764 -0.18078142 -0.02033266
0002d0 33 2d e2 bd cf 03 a0 bd 33 12 1e bd 9e 33 8d 3d
       -0.11043777 -0.078132264 -0.038591575 0.06894611
0002e0 b8 6d 09 be 70 50 97 bc ea 0a b6 bd bf e9 07 bd
       -0.1342076 -0.018470973 -0.088888004 -0.033181902
0002f0 6a 4b 0b 3c a4 e4 b3 3d c6 54 98 3d d6 87 6b 3d
       0.008501867 0.08783844 0.07438044 0.05750259
000300 76 42 72 be ed 58 19 be ce fa 08 bd aa 6d 45 bd
       -0.23658165 -0.14975329 -0.03344231 -0.048200287
000310 2c 24 d1 3d 7d 4f 02 bd 53 d0 66 3e 4c b8 fb bd
       0.10211977 -0.031814087 0.22540407 -0.12291011
000320 78 db 69 3c 01 3c 03 3e ae ab 1c 3d af 75 05 3b
       0.014273517 0.12815858 0.038249664 0.0020364334
000330 07 ae 0f 3d 62 d6 23 be dc 21 91 3e 3a 06 01 be
       0.035078075 -0.1599975 0.28346145 -0.12600031
000340 4b 9e 21 be 9e ec 54 3e 3b dc a1 bc 5c d0 9d bd
       -0.1578304 0.20793387 -0.019758334 -0.07705757
000350 71 e1 ac be 77 a2 7c 3e 89 d3 d8 3d 86 a9 d5 bd
       -0.33765748 0.2467135 0.10587222 -0.10432725
000360 59 ef 69 bd 7a b4 ec bb cc ba 91 3c f4 b6 b8 bc
       -0.057113025 -0.007223663 0.017789267 -0.022548176
000370 a4 91 9c 3d d0 e0 b2 bd 96 d4 4e be 25 36 2c be
       0.07644966 -0.08734286 -0.20198283 -0.1681753
000380 fb 0d e2 3c ec 75 01 3d 0b a7 f5 3d 8e 3d 67 be
       0.027594557 0.0316066 0.119947515 -0.22582075
000390 22 fb 9b be 8d 69 43 bd 82 d5 ae bd 81 e2 c9 3d
       -0.30465037 -0.047708083 -0.08536817 0.09857655
0003a0 0f ca 64 3d 21 b2 fd be b9 e2 8d 3d 16 01 9c be
       0.05585676 -0.49549964 0.069280095 -0.30469579
0003b0 c3 c3 7e be d9 45 b0 bd 06 af 4d 3d a2 b6 92 3d
       -0.24879365 -0.086070724 0.050215743 0.07163741
0003c0 91 27 b4 3c f4 58 19 bd fd fc 7c 3e 5f 70 94 3d
       0.021991523 -0.037438348 0.24705882 0.072479956
0003d0 b5 c9 8c 3d 0f 91 95 3d c9 c0 42 3e b5 d9 36 be
       0.0687441 0.07303058 0.19018854 -0.17856486
0003e0 cc 89 15 3e 98 d3 b6 bc d5 78 29 3d 56 49 cd bd
       0.14603347 -0.022317693 0.041375 -0.10023753
0003f0 7d 51 56 3d 16 ad 2c 3e 75 86 f9 bd 23 4f ce be
       0.052323807 0.16862902 -0.12183849 -0.40294752

gnn.convs.1.lin_edge.weight f4 [50, 1]
000000 0f e7 b5 bd 5e 20 10 3f 2e 6a df 3e ab 20 01 bf
       -0.088819616 0.5629939 0.43635696 -0.5044047
000010 b7 40 6c bb b6 f6 86 3e 2e 72 93 be ab 37 ae bd
       -0.0036049315 0.263601 -0.2879805 -0.085067116
000020 ab cb 9a be 72 88 10 3f 55 9d ed 3e c5 78 bc 3d
       -0.3023351 0.564582 0.46409097 0.092027225
000030 cd 04 1d be 61 3e 28 3d 33 22 6f be cc 48 0f 3f
       -0.15333863 0.041075114 -0.2335289 0.55970454
000040 af ee a0 be 05 79 65 bd dd 04 03 3f 4a e6 e8 3e
       -0.314321 -0.056023616 0.51179296 0.45488197
000050 f2 07 83 bd 41 00 f9 3e d0 71 ee be 4e 61 c0 3e
       -0.06398 0.48633006 -0.46571207 0.37574238
000060 e8 67 eb 3e 54 70 08 3f 0f be e5 be 94 d0 07 3c
       0.45977712 0.532964 -0.44871566 0.008289475
000070 13 8d ef 3e 2d f8 7e 2c 2a a0 99 3e 69 c2 8e be
       0.4678732 3.6233336e-12 0.30005008 -0.27882698
000080 69 9e f8 3e 42 1e a4 3d 9b 3e f0 be 19 5a fd 3e
       0.48558357 0.08013584 -0.46922764 0.49482802
000090 23 3c 23 3e cd 79 35 be 89 48 ad 3e 45 32 fc 3e
       0.15940909 -0.17722245 0.33844402 0.49257103
0000a0 22 64 02 bf d2 07 3d be f3 e1 e9 be 94 b8 f3 3e
       -0.5093404 -0.18460014 -0.45680198 0.4760176
0000b0 5b aa bc 3e a7 b4 0f 3f 76 b8 11 bf 18 45 dc be
       0.3684872 0.5613503 -0.5692209 -0.43021464
0000c0 46 58 e2 be a2 87 bf be
       -0.44207972 -0.37408167

gnn.convs.2.att_src f4 [1, 1, 50]
000000 21 fb af bd 58 52 4a 3e 85 10 30 3e 5e 99 37 be
       -0.08592821 0.19757974 0.17193802 -0.17929599
000010 9c 6a 34 3d f9 3c c1 bc ba 65 6e bc d6 95 9d bd
       0.044046983 -0.023588644 -0.014550621 -0.076945946
000020 2f f6 38 3e ea 20 4f be 42 be 2a bc 38 36 43 bd
       0.18062662 -0.202274 -0.010421338 -0.04765913
000030 b4 b3 54 3c 3b 78 68 3e 16 f7 7b be ac 91 11 be
       0.012982298 0.22702114 -0.24605975 -0.14215726
000040 58 1d fb 39 06 6b cb be cc 0d 81 3d 7d 82 95 bd
       0.00047896313 -0.3973009 0.0630146 -0.07300279
000050 1a 7a 35 3e 1a 0f 19 3e 73 80 0d 3e 4f 19 75 3d
       0.1772236 0.14947167 0.1381853 0.05983859
000060 61 c1 45 3d 76 e9 c4 3d 91 8e 40 be f4 ac a9 bc
       0.048280124 0.09614842 -0.18804385 -0.020712353
000070 5a 01 77 3e 88 18 1e 3e 5b fc b7 bd 84 7f a3 bd
       0.2412161 0.15439045 -0.0898368 -0.07983306
000080 e9 cc f6 3d fd 07 d4 bb fc eb 9a 3b 06 6c be be
       0.12050802 -0.006470679 0.0047278386 -0.3719179
000090 5d c5 b3 3e ec e3 50 3a f6 7f d9 bb 6d e8 56 3d
       0.35111514 0.00079685333 -0.0066375686 0.052467752
0000a0 38 5a 8e 3d be 59 22 be ad 03 14 bd 5d bb b0 3c
       0.069508016 -0.15854546 -0.036136318 0.021573717
0000b0 02 2f e6 3c ae c8 35 ba 37 79 8a bd c9 09 9a 3c
       0.028098587 -0.00069345057 -0.06761401 0.018803494
0000c0 59 c4 cd bc bc f8 9c 3c
       -0.02511804 0.019161575

gnn.convs.2.att_dst f4 [1, 1, 50]
000000 38 ee 8a 3c 3d 9f cd bd fa a3 4c bd 9c 16 7b bb
       0.016959295 -0.10040138 -0.049961068 -0.0038313037
000010 64 73 b5 bc b6 8f 8a 3d 15 a9 a3 bc c5 e6 ce 3d
       -0.02214975 0.06765692 -0.019978086 0.101026095
000020 29 60 14 bd 79 25 7c 3d 7f f7 fe bc 89 62 88 bc
       -0.036224518 0.061559174 -0.031123875 -0.016648548
000030 5d fe 1e bb f1 3c 78 3b 88 c4 26 3d 65 7d b5 3d
       -0.00242605 0.003787812 0.04071477 0.08861808
000040 c4 c3 30 be 89 ee 00 be af 37 f0 bc 4e 31 16 bd
       -0.17262179 -0.12590994 -0.029323427 -0.036668114
000050 f1 7e dc 3c 20 3c a9 bd d4 1d b7 bd 97 ec 67 bd
       0.026916 -0.08263421 -0.08941236 -0.056622114
000060 24 b8 75 3d 29 56 9a 3d 3d 17 16 3d 5f 4f 4c 3d
       0.059990063 0.07535965 0.036643256 0.04988038
000070 67 0a 89 bd ef 24 be bd 42 9c ac 3d 2b d3 9e 3d
       -0.06691437 -0.09284388 0.08428241 0.07755121
000080 52 8f d5 bd de f2 f3 3c c9 7d 6b 3d 27 f9 83 bc
       -0.10427727 0.029778894 0.057493005 -0.016110016
000090 fe 58 ae 3a 61 8e 55 3c a5 4e 1e 3d 9c 99 c3 bc
       0.0013301668 0.013034434 0.03864922 -0.023876958
0000a0 6f 22 21 bd eb 43 b6 3d 2f 2a 26 3d 33 da 7f bc
       -0.03933948 0.08899673 0.040567573 -0.015615988
0000b0 cb 0c 4d bc e8 38 90 3c b5 fe 8e 3d 13 cf 13 3c
       -0.012515257 0.01760526 0.06982175 0.009021538
0000c0 26 d6 8b 3d 8b 33 91 3b
       0.06827955 0.004431193

gnn.convs.2.att_edge f4 [1, 1, 50]
000000 24 06 6e ad 81 4a cb 37 f6 5c 9a 0a 70 7a 36 21
       -1.3530097e-11 2.423418e-05 1.4864629e-32 6.1826043e-19
000010 02 7c ac 34 12 bd d6 09 20 a8 67 19 66 e9 01 00
       3.2127724e-07 5.1696427e-33 1.1976373e-23 1.75563e-40
000020 5f 29 32 89 21 cd c0 24 cf 64 15 a8 53 a7 16 0f
       -2.1445423e-33 8.361423e-17 -8.293021e-15 7.4277965e-30
000030 5f eb c1 11 7f 2f 1b a7 46 a7 3d 29 f4 d9 96 93
       3.059509e-28 -2.1536319e-15 4.2111517e-14 -3.808024e-27
000040 d4 2f 4c 07 07 cf 57 09 49 d6 b5 0c e9 b7 52 80
       1.536131e-34 2.5977027e-33 2.8016434e-31 -7.596485e-39
000050 35 43 a0 9f 62 8c a5 09 e1 be 9e 8b 58 4c 84 08
       -6.787382e-20 3.985432e-33 -6.114659e-32 7.962409e-34
000060 16 d9 b6 18 49 2d ed 90 54 43 4b 01 92 41 8e 85
       4.72651e-24 -9.354979e-29 3.7333517e-38 -1.3377703e-35
000070 ad 7d a9 08 bb 30 7b 89 26 ab 36 09 71 06 c5 33
       1.0200864e-33 -3.0235939e-33 2.1987927e-33 9.174699e-08
000080 bb 0e 8b 92 c9 5b 3e 27 7f ad ea 8f 1f 43 4f b5
       -8.775765e-28 2.6417554e-15 -2.314101e-29 -7.7211183e-07
000090 8f 0d 4d 39 57 25 c2 87 05 51 77 13 3c 6e 99 01
       0.00019555374 -2.9211822e-34 3.1215729e-27 5.63615e-38
0000a0 7d 10 33 8a 17 23 db 1e 7c d6 2d 80 df e1 0c 04
       -8.6216376e-33 2.320204e-20 -4.20954e-39 1.6560636e-36
0000b0 93 71 b5 0c 00 b8 4d af 0c 2b 93 1e 09 1d 73 02
       2.795582e-31 -1.8710011e-10 1.5582034e-20 1.7861153e-37
0000c0 73 37 01 80 7b 12 c1 a0
       -1.11727e-40 -3.27077e-19

gnn.convs.2.bias f4 [50]
000000 c4 fd 33 b7 53 69 93 b7 4a c9 35 36 f7 7f 3f b7
       -1.0728316e-05 -1.7572811e-05 2.7088267e-06 -1.1414281e-05
000010 34 a9 fa b7 e1 ec 75 b5 6f 59 8f 36 5f 46 be b6
       -2.9881114e-05 -9.1614316e-07 4.2721435e-06 -5.6706335e-06
000020 b5 51 64 38 23 bd ea 36 4d 04 1b b7 7e 95 8f 35
       5.443553e-05 6.995762e-06 -9.239721e-06 1.0697838e-06
000030 7f b6 1c b4 b6 71 a6 32 e3 6d 21 b4 d0 b4 94 37
       -1.4595024e-07 1.9376653e-08 -1.503427e-07 1.7727172e-05
000040 0a b4 81 36 00 bb 56 32 04 25 3f b3 43 32 74 b6
       3.865459e-06 1.2498958e-08 -4.450432e-08 -3.638809e-06
000050 85 c8 1f 35 d3 db 83 b1 5b bf 54 b8 e7 76 ab 35
       5.952391e-07 -3.837593e-09 -5.0722952e-05 1.2775098e-06
000060 11 e2 4b 38 ed a2 bd b6 95 81 65 b5 5b e4 0e b7
       4.8609512e-05 -5.651606e-06 -8.5497715e-07 -8.517028e-06
000070 1f 99 79 34 4f cf c8 32 42 df 26 34 2b a8 46 b8
       2.3245637e-07 2.3377337e-08 1.5541175e-07 -4.7363497e-05
000080 8d 00 a4 b1 1f 1b dd 34 29 61 4e b5 c9 ee 3a b3
       -4.773091e-09 4.118419e-07 -7.6882367e-07 -4.3523674e-08
000090 45 61 39 b3 35 a6 5f b4 6b 23 0a 34 7f 8a 5d 35
       -4.3162135e-08 -2.0828959e-07 1.2865137e-07 8.2530454e-07
0000a0 4d 89 32 34 3e f6 a0 b4 ff 03 7b b5 7e 9d c9 35
       1.6627492e-07 -2.9981487e-07 -9.35106e-07 1.5021503e-06
0000b0 9e f8 60 36 0f be c1 b4 5c 06 b8 b7 8b d0 29 b5
       3.3523315e-06 -3.6087337e-07 -2.193747e-05 -6.3260876e-07
0000c0 f3 00 16 b7 21 da 0c b4
       -8.940918e-06 -1.3117871e-07

gnn.convs.2.lin.weight f4 [50, 50]
000000 3f 31 3b 3d 32 c1 8e bd cc f6 c9 bd 86 1a 90 3e
       0.04570126 -0.06970443 -0.09861526 0.28145236
000010 e9 a6 5e 3e dc c2 df bc 3c a1 ef 3d 7f f5 ca bd
       0.21743359 -0.027314596 0.11700675 -0.09910106
000020 8a a7 50 3e de 83 37 be 2b 47 a6 bd aa c3 b2 be
       0.20376411 -0.17921397 -0.08119043 -0.34914905
000030 1c f2 59 3e 34 22 0b bd b8 3e ce bd 60 e7 9d bb
       0.21283764 -0.033968166 -0.100705564 -0.004818842
000040 20 e0 84 be f0 75 6a 3a 20 0c f4 3d a0 14 b1 bd
       -0.25952244 0.00089439657 0.11916375 -0.08646512
000050 2f fa 5e 3e 47 b0 1a 3d de 61 c4 3b c7 4c c2 3d
       0.21775125 0.037765767 0.005993112 0.094873
000060 f3 2a 86 3e 59 b0 61 3e 8c ce 81 be 98 f4 48 3e
       0.26204643 0.22039928 -0.25352895 0.19624555
000070 12 7e 8b 3e 5d 64 7f 3e cc 69 93 be c0 39 ae bd
       0.27244622 0.2494063 -0.28791654 -0.08507109
000080 54 56 34 bd 02 18 2c be 68 93 c7 bd 61 b5 06 be
       -0.04402764 -0.16806033 -0.097449124 -0.13155128
000090 83 fd 35 3c 95 7c ba 3e 7b 93 24 bd 4d 3c e9 bc
       0.011107805 0.36423174 -0.04017971 -0.028471136
0000a0 01 a7 6b be b3 57 9a 3e 88 5e 0e bc 81 0b a3 3c
       -0.23012926 0.30145034 -0.00868953 0.019902946
0000b0 2b 35 fa bd 05 b7 88 3e d5 fa 95 bd 14 5e 3f be
       -0.12217172 0.26702133 -0.07323233 -0.18688232
0000c0 df 5b cd bd d1 46 0f bd e0 3a 33 bb d4 c4 2d be
       -0.10027289 -0.034979645 -0.0027348325 -0.16969615
0000d0 39 1d c9 3d 1d ad a1 bd 44 31 94 3d 92 6a 78 3d
       0.09820027 -0.07894347 0.07235959 0.06064851
0000e0 90 b8 4d 3b 68 91 0e be 49 9a d0 3d d5 c6 5b 3c
       0.0031390525 -0.13922656 0.101856776 0.0134141045
0000f0 bb 37 f4 3d 83 2b 0d be a3 9b ea 3d 05 7b b6 3b
       0.11924692 -0.1378613 0.114554666 0.0055688643
000100 c4 2a 23 be 44 73 85 3e 33 ac 59 3e a2 ab b7 bd
       -0.15934283 0.26064503 0.21257095 -0.08968283
000110 97 b0 e9 bd 53 40 ac bd 83 63 80 3d ea 34 b0 bc
       -0.11410635 -0.08410706 0.0626898 -0.021509606
000120 fc 2e 21 be fa 10 17 be 71 98 27 3e 16 dd 5b 3d
       -0.1574058 -0.1475257 0.16366746 0.05367764
000130 0e bf 01 3d ea 51 2e 3e 9d df 62 bd 39 e9 25 3e
       0.031676345 0.17023435 -0.055389035 0.16202249
000140 a7 f3 e1 bd 0e 7a 7a bb 56 64 ff 3c c9 7c 3d 3e
       -0.11032801 -0.0038219723 0.031175774 0.18504633
000150 34 bf fc 3d 84 0c 34 be aa 2f 6d 3c f3 93 00 be
       0.123411566 -0.175829 0.014476696 -0.12556438
000160 c9 39 a0 3d 2e 80 d6 be 3f ca cd 3d 0c 84 fe bd
       0.07823522 -0.41894668 0.10048341 -0.1242753
000170 16 61 44 bd 58 40 76 bc b9 04 fd bd 77 2e d5 bd
       -0.04794415 -0.015029989 -0.123544164 -0.10409253
000180 42 d6 98 3d a1 1a 40 3e f7 7b 7e 3d c9 82 36 be
       0.074627414 0.18760158 0.06212994 -0.17823328
000190 28 99 10 3d eb 64 46 3c 4e 33 55 3e 49 3c 65 3e
       0.03530231 0.012109022 0.20820352 0.22386278
0001a0 8e bc 20 3e 6e 37 12 be 11 2f a2 3e 12 f2 a0 be
       0.15696928 -0.14278957 0.31676534 -0.31434685
0001b0 88 45 b4 bc 0c 28 6c be d8 7c 0e be f3 a8 3c 3e
       -0.022005811 -0.23062152 -0.13914812 0.18423824
0001c0 81 2b 0e 3e bc 80 24 be 3f 59 9d be 4d c3 7f 3e
       0.13883783 -0.16064733 -0.30732152 0.24976845
0001d0 71 8f 05 3d 56 3e b0 3d 44 27 24 3e e5 a8 7a bd
       0.0326075 0.0860564 0.16030604 -0.061196227
0001e0 b6 a9 f3 bd ce 62 7f 3c 7a 07 2c be 4d 77 41 bd
       -0.11897604 0.015587522 -0.16799727 -0.047232915
0001f0 6c 78 c9 3c ec ca 11 3e 06 6b 0c be 64 36 bf 3d
       0.024593554 0.14237565 -0.13712701 0.09336546
000200 e4 1a 59 be e9 75 86 3e bb c0 da 3c 29 46 3a 3e
       -0.21201664 0.26261833 0.02670323 0.18190826
000210 f9 8d b5 bc 4f 4d dd bd 73 7d 90 bd 4f 00 6d 3d
       -0.022162424 -0.10805761 -0.070551775 0.057861622
000220 0a dd 94 3e f4 49 77 3e b9 21 92 3e 75 bd 4c be
       0.2907489 0.24149305 0.28541353 -0.19994147
000230 37 59 3a be 1b b3 24 be 3f 00 3e 3d f2 15 29 3e
       -0.18198095 -0.16083948 0.046386953 0.16512278
000240 95 e9 34 be 10 d1 41 be 9e 09 f9 bd ba c9 ec bc
       -0.1766723 -0.18927407 -0.121600375 -0.028904784
000250 78 0b 31 be ca a7 a5 bd 04 c2 a1 bc 85 4f 19 3c
       -0.17289531 -0.08088644 -0.019745834 0.009357338
000260 f5 c4 c5 bd e8 48 5a 3d 8a 35 ad 3a 1a a6 c2 ba
       -0.09656707 0.053292185 0.0013214808 -0.0014850528
000270 6c c6 54 3d 61 0e b1 bb 9f e0 90 bc 0d f2 a8 bc
       0.051947042 -0.0054033254 -0.017685233 -0.020623231
000280 5d 55 02 be 94 de d9 3d 17 c9 ab bd 3e 1a 69 bd
       -0.12727876 0.106381565 -0.08387964 -0.056909792
000290 e2 93 96 bb a5 11 3a bd 5c 79 a0 bd d3 fe 80 3c
       -0.0045952657 -0.045426983 -0.078356475 0.01574651
0002a0 45 42 14 bd 65 bf 08 3e d8 d7 c5 3d 20 96 ca bd
       -0.036196012 0.13354261 0.096603096 -0.09891915
0002b0 09 f8 85 bc 09 69 9c 3d 1a f6 3a bd ed f0 bb 3d
       -0.016353624 0.07637221 -0.045644857 0.09176812
0002c0 54 c2 28 3c a3 06 47 bd 03 a5 2e 3e 0b b6 fa 3d
       0.010300238 -0.048590314 0.17055134 0.12241753
0002d0 69 e9 49 bd 37 68 c9 3d ae f4 06 be 2a 67 04 3d
       -0.049294863 0.098343305 -0.13179275 0.032324947
0002e0 93 a8 04 3c 7e c4 75 3d 9d 03 cd bc a5 43 43 3d
       0.008096832 0.060001843 -0.025026137 0.047671933
0002f0 a2 01 dd 3c cb 8f 21 3d eb ef 5e bc a3 b5 12 3d
       0.026978318 0.039443772 -0.013607006 0.035817754
000300 b4 e9 fc 3b a3 5c 3b 3e 13 84 09 3e d6 26 cd 3d
       0.0077182893 0.18297057 0.13429289 0.10017173
000310 eb 81 f9 bd e6 cd 8f bd a8 67 cf 3d 67 43 51 3e
       -0.12182983 -0.07021694 0.10127193 0.20435868
000320 5f db bd 3d 63 9b 0c bd be 3a cf 3c f1 d1 65 3e
       0.09270357 -0.034327876 0.025296565 0.22443368
000330 91 10 0a be f8 02 f6 bc 3c 3b 18 3e e0 b6 36 be
       -0.13482882 -0.030030712 0.14866346 -0.17843199
000340 9c 84 45 3d 25 2b 0c 3e 29 63 ac 3d 29 5e 05 3e
       0.04822217 0.13688333 0.08417351 0.130242
000350 d5 f4 ef 3c b1 02 23 bd 71 82 96 be 39 90 2c 3d
       0.02929155 -0.03979749 -0.29396394 0.04212973
000360 54 9c 4f 3e 90 34 80 be ae 9b c6 bb 7a e9 df 3d
       0.20274478 -0.25040102 -0.006061039 0.10933204
000370 be d5 a6 3e 4e 3c 47 3b 88 f3 2a bd a4 56 71 bd
       0.32584947 0.0030400935 -0.041736156 -0.058920518
000380 ad 58 a8 bd 63 cb 1b 3e c0 6d 86 bd cd a5 6b 3d
       -0.082200386 0.15214305 -0.06563902 0.057531167
000390 9d fa 88 3d 64 22 ab 3d 28 96 a8 bd a6 0e 02 bd
       0.06688426 0.08356169 -0.08231765 -0.03175225
0003a0 c6 9e 50 bb d7 80 04 bd 58 82 5f bc 44 58 57 bd
       -0.0031832918 -0.032349434 -0.013641916 -0.05257441
0003b0 ca 4e d2 3d 41 3e 4f be d6 88 dd 3d d1 e3 f0 bb
       0.10268934 -0.20238592 0.10817115 -0.0073513766
0003c0 04 3a 84 bd 39 bc 74 bd f2 d3 f2 3d 69 82 7f 3e
       -0.06456378 -0.059749816 0.118568316 0.24952091
0003d0 61 87 b0 bd db ed 60 be 8f 41 86 bc a7 59 99 3d
       -0.086195715 -0.21965735 -0.016388683 0.07487803
0003e0 70 a6 af 3a 56 76 78 bd f1 94 ef 3b d8 dd f2 bb
       0.0013401043 -0.06065973 0.0073114564 -0.0074116997
0003f0 41 e4 4b bd 4f 2e 75 bc a7 12 e4 bb 20 a7 22 3d
       -0.049778227 -0.014964654 -0.0069602313 0.039710164

gnn.convs.2.lin_edge.weight f4 [50, 1]
000000 52 06 6e ad db 43 cb 37 d7 5d 9a 0a b5 79 36 21
       -1.3530137e-11 2.4231083e-05 1.4864959e-32 6.1825076e-19
000010 d4 79 ac 34 a6 bc d6 09 98 aa 67 19 9d 8c 02 00
       3.2126138e-07 5.169603e-33 1.1976871e-23 2.34114e-40
000020 a5 29 32 89 4a cd c0 24 44 64 15 a8 20 cf 16 0f
       -2.1445552e-33 8.36145e-17 -8.292903e-15 7.435462e-30
000030 29 ea c1 11 96 2d 1b a7 b3 4c 90 29 af da 96 93
       3.0594343e-28 -2.1535283e-15 6.40819e-14 -3.8080962e-27
000040 be 2f 4c 07 f5 cd 57 09 ce d5 b5 0c c6 bf 57 80
       1.5361284e-34 2.5976524e-33 2.8016145e-31 -8.058484e-39
000050 85 3c a0 9f 1b 8f a5 09 b7 be 9e 8b 78 0f 86 08
       -6.786276e-20 3.985688e-33 -6.114634e-32 8.068468e-34
000060 99 78 dd 18 97 35 ed 90 20 f6 49 01 db 4a 8e 85
       5.7248934e-24 -9.3562585e-29 3.7094455e-38 -1.3381113e-35
000070 9c 82 a9 08 93 2f 7b 89 a4 aa 36 09 6d 0e c5 33
       1.0202024e-33 -3.0235395e-33 2.1987688e-33 9.1761514e-08
000080 2c 0e 8b 92 a7 5d 3e 27 fe ac ea 8f 44 42 4f b5
       -8.775627e-28 2.6418566e-15 -2.3140816e-29 -7.720994e-07
000090 33 0b 4d 39 08 26 c2 87 6a 55 77 13 55 3d 98 01
       0.00019554496 -2.9212228e-34 3.1217895e-27 5.592399e-38
0000a0 f9 0d 33 8a 74 5b 88 1e a3 4a 2c 80 f5 c7 0c 04
       -8.6211645e-33 1.4437384e-20 -4.067536e-39 1.6548737e-36
0000b0 eb a2 b5 0c 0a b1 4d af 85 3e 93 1e ce 63 6d 02
       2.7985518e-31 -1.8707538e-10 1.5590088e-20 1.7440653e-37
0000c0 45 f6 02 80 84 14 c1 a0
       -2.72016e-40 -3.2709048e-19

gnn.batch_norms.0.weight f4 [50]
000000 75 a0 41 3f 2e f3 3c 3f c1 f8 58 3f 83 22 24 3f
       0.75635463 0.7380856 0.8475457 0.6411516
000010 b7 fb 62 3f 71 cf 47 3f 75 5e 22 3f a9 88 25 3f
       0.88665336 0.78050905 0.6342538 0.6466165
000020 a0 1b 46 3f 0c 6b 31 3f e3 09 31 3f 52 97 04 3f
       0.773859 0.69303966 0.6915571 0.51793396
000030 49 e1 12 3f da fc ca 3e 53 49 fa 3e a8 48 32 3f
       0.5737501 0.39646035 0.48884067 0.69642115
000040 e0 bb 07 3f 2c 38 27 3f a1 7f 15 3f 7a cf 3c 3f
       0.5302105 0.65320086 0.5839787 0.73754084
000050 39 18 40 3f de e9 3d 3f e4 76 2e 3f 40 20 35 3f
       0.7503696 0.7418498 0.6815016 0.70752335
000060 aa 1d 2f 3f 53 09 37 3f 10 ef 54 3f 68 04 3f 3f
       0.6840464 0.714986 0.8317728 0.746161
000070 f3 65 21 3f f2 19 07 3f df e9 47 3f 98 f4 40 3f
       0.6304619 0.52773964 0.78091234 0.7537322
000080 a4 77 47 3f c1 0d 17 3f 78 fd 1c 3f 21 31 07 3f
       0.7791693 0.5900536 0.6132426 0.5280934
000090 ec ef f2 3e 22 3a 36 3f 0d 86 47 3f c2 bb 48 3f
       0.4744867 0.71182454 0.7793892 0.78411496
0000a0 e3 4a 50 3f ca 0b 50 3f 8f 52 25 3f 28 1e 3d 3f
       0.8136427 0.8126799 0.645791 0.7387414
0000b0 81 7c 4a 3f 09 b1 fb 3e ab 9b 47 3f 5e d1 19 3f
       0.7909623 0.49158505 0.77971905 0.60085094
0000c0 55 84 d8 3e 23 1c 00 3f
       0.4228846 0.50042933

gnn.batch_norms.0.bias f4 [50]
000000 17 cc f0 bd 2a 3f d7 be 80 86 af be 28 2b 94 be
       -0.11757677 -0.42040378 -0.34282303 -0.28939176
000010 d5 6f f7 be 29 ab 8b be 76 a3 d5 bd 3e 9e fd bd
       -0.4832751 -0.27279022 -0.10431568 -0.12383698
000020 0b 11 93 be 8b 82 50 be 4c 3a 8b be 2b 46 14 be
       -0.2872394 -0.20362298 -0.27192914 -0.14479892
000030 71 96 a1 be 72 8a 8a be 0f 27 13 3e ca 59 81 be
       -0.3156009 -0.2705875 0.14370368 -0.25263816
000040 cf 5a 9d be 1f 28 0d bb 28 9c 61 bd f1 18 31 be
       -0.30733344 -0.0021538807 -0.055080563 -0.1729467
000050 30 03 bd bd c1 08 85 be 62 25 36 bd e0 db 19 be
       -0.092291236 -0.2598324 -0.044469245 -0.15025282
000060 87 9d 65 be 22 6c 73 be 85 b7 3c be 56 b4 83 be
       -0.22423373 -0.23771718 -0.18429382 -0.25723523
000070 a3 d1 92 be 19 3b 01 be 87 ae 4d be 4f 16 15 be
       -0.28675565 -0.126202 -0.20086108 -0.14559291
000080 0e ac 40 be 26 a9 46 bd c1 ee d7 be 32 cc 39 be
       -0.18815634 -0.048501156 -0.42174342 -0.181443
000090 85 b2 d5 be c4 1d 9b be 04 22 98 bd 61 f8 3f be
       -0.41737762 -0.30296147 -0.07428363 -0.18747093
0000a0 43 4c aa be fa a0 69 be a0 38 13 be d9 79 84 be
       -0.33261308 -0.22815314 -0.1437707 -0.25874212
0000b0 d1 55 5c be 65 73 4f bd bb 5f 55 be ac d1 05 bd
       -0.21517111 -0.05064716 -0.208373 -0.03267066
0000c0 af b4 8b be 37 82 c2 be
       -0.27286288 -0.3798997

gnn.batch_norms.0.running_mean f4 [50]
000000 2b b1 e6 bb 35 8d a8 ba 24 e9 45 ba 5e 7b ee ba
       -0.007040163 -0.0012859466 -0.0007549694 -0.0018194725
000010 dc d1 b3 bb 70 1b be ba 4c f7 01 3b 6e ab d0 bb
       -0.0054876637 -0.0014504027 0.0019831238 -0.0063680923
000020 fb 6e aa bb 90 36 9a ba 1a c4 03 bb b6 61 89 3b
       -0.005201218 -0.0011765528 -0.00201059 0.0041925563
000030 26 b9 ae ba df d2 ef bc b8 d9 25 3b 97 10 97 3b
       -0.0013330325 -0.029275356 0.0025306772 0.004610132
000040 21 85 12 3d ab db b0 3a e8 24 d5 ba 61 c6 8f b9
       0.035771493 0.00134932 -0.0016261609 -0.0002742289
000050 c8 f9 81 bb e8 da 36 bb e0 79 48 bb bb 4e 91 3b
       -0.003966544 -0.0027901474 -0.0030590221 0.004434434
000060 61 e7 07 ba 33 f4 70 3b 43 dc 63 3b aa 90 91 bb
       -0.00051843195 0.0036766648 0.0034768737 -0.004442294
000070 00 bd 99 bb 1e 25 d3 bb d6 52 ef ba d2 3d d2 ba
       -0.00469172 -0.0064436337 -0.001825894 -0.0016040152
000080 91 09 59 bb b3 b2 07 b8 f5 da 07 bc 02 cf a8 bb
       -0.0033117274 -3.2352935e-05 -0.0082919495 -0.0051516304
000090 22 1f 39 3d 9f 70 94 3a 42 a7 2f 3b 2f 2b a8 3a
       0.045195706 0.0011325068 0.0026802574 0.0012830253
0000a0 1b eb 11 bb 29 41 57 ba 56 27 13 bb 91 16 05 bb
       -0.0022265378 -0.0008211309 -0.0022453866 -0.002030764
0000b0 8b cf 97 bb da 97 cc b7 e6 1f b4 3a 7a f6 02 bb
       -0.0046328953 -2.4389406e-05 0.0013742417 -0.0019983337
0000c0 e0 55 01 bc 39 a2 23 bb
       -0.007894009 -0.0024968518

gnn.batch_norms.0.running_var f4 [50]
000000 26 e3 1f 37 1f f3 20 37 13 1c de 36 27 dc ae 37
       9.530026e-06 9.593349e-06 6.619384e-06 2.0844933e-05
000010 77 37 24 38 90 90 f4 36 f4 13 23 37 93 e8 59 37
       3.9152303e-05 7.288596e-06 9.720203e-06 1.2988358e-05
000020 0c 08 86 37 09 ba 64 37 3d 54 87 37 5e ea 92 37
       1.5977792e-05 1.3633174e-05 1.613248e-05 1.7513692e-05
000030 1a 86 3b 38 7e 93 35 38 16 1e 32 37 07 9d 1a 37
       4.4709166e-05 4.3291126e-05 1.0616632e-05 9.215676e-06
000040 c3 b6 5f 38 e0 ac 0d 37 2a 3f da 36 ef 20 74 37
       5.3337553e-05 8.4445055e-06 6.5042595e-06 1.4551201e-05
000050 60 ad 52 37 a4 29 80 37 8c d5 d4 36 4f 1b 21 37
       1.2557342e-05 1.527818e-05 6.3429525e-06 9.602706e-06
000060 49 a4 a3 37 3e c9 e4 36 e1 70 60 38 73 07 86 37
       1.9507615e-05 6.818357e-06 5.351089e-05 1.5977514e-05
000070 8c 24 04 38 5c eb a6 37 ac 40 5c 37 4e 0e 05 37
       3.150529e-05 1.989834e-05 1.3128079e-05 7.930748e-06
000080 61 58 57 37 f6 b3 b8 37 a2 b0 94 37 b4 46 87 37
       1.2835576e-05 2.201831e-05 1.7725226e-05 1.6126178e-05
000090 84 83 77 38 0a 33 28 37 b2 e1 ec 36 e3 f6 05 37
       5.9011873e-05 1.0025464e-05 7.0596225e-06 7.984901e-06
0000a0 f5 73 70 37 4a db a8 36 dd ad 45 37 27 b3 2d 37
       1.4332113e-05 5.0323188e-06 1.1782596e-05 1.0353316e-05
0000b0 fb c9 ac 37 96 b6 02 37 64 a4 18 37 e1 ba 38 37
       2.0598052e-05 7.791115e-06 9.098181e-06 1.1010766e-05
0000c0 61 5b 92 37 74 18 bc 37
       1.7447108e-05 2.2422733e-05

gnn.batch_norms.1.weight f4 [50]
000000 24 b6 8a 3f 87 1f 79 3f c0 9f 95 3f a0 9e 89 3f
       1.0836835 0.9731373 1.1689377 1.0751534
000010 19 c9 61 3f c7 41 8d 3f 42 81 90 3f 09 a1 9f 3f
       0.88197476 1.1035699 1.1289446 1.2471019
000020 5f 2e 7d 3f 18 4a 95 3f bf e7 84 3f 2a 6c 94 3f
       0.9889888 1.1663237 1.0383223 1.1595509
000030 07 78 5d 3f 14 4e 5c 3f 1b d0 8d 3f d1 1f 82 3f
       0.8651127 0.8605664 1.1079134 1.016596
000040 9f 9d 45 3f dd 3c 8e 3f 71 d6 89 3f 62 8f 9a 3f
       0.77193636 1.1112324 1.0768567 1.2075007
000050 ea e2 9b 3f fd 57 9c 3f 6c 8e 99 3f d0 97 4f 3f
       1.2178624 1.2214352 1.1996589 0.8109102
000060 9b bb 61 3f 38 3a 8a 3f 8d 4b 92 3f 64 a2 61 3f
       0.8817689 1.0799017 1.1429306 0.88138413
000070 1a 2a 85 3f 74 83 63 3f ab 25 49 3f 9f 13 89 3f
       1.0403473 0.88872457 0.785731 1.0709113
000080 bc bd 83 3f 6a 23 81 3f c5 54 94 3f 56 a3 6d 3f
       1.0292277 1.0088933 1.158837 0.92827356
000090 2f 27 83 3f 26 63 7e 3f 9c 8c 80 3f 6d 0e 9e 3f
       1.0246333 0.9937004 1.004291 1.2348152
0000a0 b6 29 4f 3f b4 f3 a2 3f b4 73 97 3f f4 d9 ac 3f
       0.8092302 1.2730622 1.1832185 1.3504014
0000b0 48 51 60 3f 22 50 9b 3f f5 d2 72 3f a7 c6 60 3f
       0.87624025 1.213383 0.94853145 0.8780312
0000c0 ea 2a 9a 3f bc 54 96 3f
       1.2044346 1.1744609
