src/checkpoints/checkpoint_epoch_40.pth (torch, 147964 bytes, 78 tensors)

gnn.convs.0.att_src f4 [1, 1, 50]
000000 a1 f3 9a b8 e9 c5 c9 bc bd 09 0f 3c 3b 35 04 3c
       -7.388672e-05 -0.024630504 0.008730349 0.008069332
000010 4f 5d 24 be 07 da 99 3d 8c 81 4e bc f0 8f 0c 3e
       -0.1605122 0.075122885 -0.012604129 0.13726783
000020 21 e2 21 bd 97 d9 68 3d ab f6 20 bd 54 53 fd bc
       -0.039522294 0.056848135 -0.03929774 -0.030923523
000030 f1 d2 9d 3c 8c 30 e7 3d ca c8 66 bd a6 30 05 bd
       0.019265624 0.112885565 -0.05634383 -0.032517098
000040 c5 9a d2 3d b1 dd 77 bb aa 53 53 3b 4a 55 ac bd
       0.10283426 -0.0037821347 0.0032245913 -0.08414705
000050 35 37 84 bd 1c dc 3f bd 6a 04 74 3c bd e9 a6 3d
       -0.064558424 -0.046840772 0.0148936305 0.08150051
000060 6b 03 de 3d 8d d6 0e bd 1e fc 98 3d cb ac 47 bd
       0.10840496 -0.03487258 0.074699625 -0.048748773
000070 89 3a 6e 3d 4b 14 9a bd 12 ab ac bd 86 79 8a bd
       0.058161292 -0.07523402 -0.084310666 -0.0676146
000080 a3 56 86 bd 41 89 48 bb ee 6a 68 3d c2 e4 73 bd
       -0.065594934 -0.0030599388 0.0567426 -0.059544332
000090 76 aa 3c ba 57 41 94 bd 00 f1 e7 3c dc 98 b6 bd
       -0.00071970315 -0.07239025 0.02831316 -0.08915874
0000a0 bf 5f b3 39 ba d2 8d 3d d1 6d 01 bd d2 71 b7 3d
       0.00034212877 0.069249585 -0.03159887 0.089572564
0000b0 17 ac e1 bd 42 24 5c 3d 1e 91 d8 3d 0b 8e 0c bc
       -0.11019152 0.053745516 0.10574554 -0.008578788
0000c0 51 8d 91 3d ee d8 0e 3a
       0.07107032 0.0005449195

gnn.convs.0.att_dst f4 [1, 1, 50]
000000 18 bf 88 ba 67 a7 4d 3c 41 8f 27 3c 6e c0 41 3b
       -0.0010432927 0.012552119 0.0102270255 0.002956416
000010 ff 8e 16 bb ca 8e 3c 3c bc 31 d4 bb 1e 2c 38 3c
       -0.0022973416 0.011508653 -0.0064756554 0.011240987
000020 73 d3 bf 3a ea 53 8a 3b bd 00 36 3b 2e e4 70 bb
       0.001463516 0.004221429 0.0027771436 -0.00367571
000030 f9 4c 42 3a 28 6f 0c 3c 27 43 00 bc 22 70 84 bb
       0.00074119825 0.008571424 -0.00782851 -0.0040416876
000040 5b 8e ec bb a3 50 cf 3a 3c 03 2a 3c b8 a6 69 bb
       -0.0072191185 0.0015816878 0.010376748 -0.003565235
000050 30 28 40 bc 52 19 92 ba 84 7c 1d 3c a0 86 8b 3b
       -0.011728331 -0.0011146462 0.009612206 0.004257992
000060 f4 17 c4 3a d1 0c d4 bb 3c cb f2 3b 0a 1f 94 3b
       0.0014960752 -0.0064712544 0.0074094813 0.0045203017
000070 11 40 99 b9 0e de c8 bb ba f0 75 3b cc 9c ee 3a
       -0.00029230167 -0.0061299866 0.0037527517 0.0018204688
000080 fa 39 f5 3b 31 14 9f 39 dd 9b 3d 3c 7d 02 d0 bb
       0.007483718 0.00030341887 0.011572805 -0.006347953
000090 39 ab 22 3c 6f c4 12 bb ef e1 2d 3a dd b9 ad 3a
       0.009928518 -0.0022394916 0.0006633093 0.0013254244
0000a0 3c 32 53 bc 56 a6 6b 3c 30 ec 52 3b 46 00 3e 3b
       -0.012890395 0.014382919 0.0032184236 0.0028991862
0000b0 7a b3 2a bb ae d4 32 3c 44 38 1c 3c 31 86 ad bb
       -0.0026046918 0.010914965 0.009534899 -0.005295538
0000c0 98 db a2 3b 03 d2 32 bc
       0.0049700253 -0.0109143285

gnn.convs.0.att_edge f4 [1, 1, 50]
000000 21 87 c7 be 28 2b 1f 3f 75 34 cf 3e 38 75 00 bf
       -0.38970283 0.62175226 0.4046971 -0.5017886
000010 a0 4a 0f 3f 1a 58 c8 be 4f be cc 3e 21 5f a2 be
       0.55973244 -0.39129716 0.39988944 -0.31713203
000020 33 dd 02 bf e3 87 b4 be 45 96 ca be 5c f8 c5 3e
       -0.51118773 -0.35259923 -0.39567772 0.38666046
000030 f9 13 8d 3e bc 29 29 bf 4a fb cf 3e f8 ba 0f 3f
       0.275543 -0.66079307 0.40621406 0.56144667
000040 59 f9 20 3f c9 88 c4 3e b3 36 cb be 33 69 fd 3e
       0.62880474 0.3838561 -0.3969017 0.49494323
000050 4a d1 00 3f 79 d5 14 bf 0d 90 28 bf ed 64 26 3f
       0.5031935 -0.58138233 -0.65844804 0.6499775
000060 66 a9 b4 3e af 77 ca be c6 bb 01 bf b3 4f cd 3e
       0.3528549 -0.39544436 -0.50677145 0.40099868
000070 36 27 cb be ef 95 ef 3e b3 de 97 be 66 17 c9 3e
       -0.39678353 0.46794078 -0.29662094 0.39275664
000080 2a 9a 12 3f 49 8b f4 be 79 35 02 3f a0 78 2d 3f
       0.57266486 -0.47762516 0.5086284 0.67762184
000090 d3 0e 5b bd 50 a7 11 3f d2 91 c9 be 97 82 29 bf
       -0.053480934 0.56895924 -0.39369065 -0.6621489
0000a0 c9 80 d6 be 61 b7 d5 3e d3 70 2b 3f b4 c1 18 3f
       -0.4189513 0.4174147 0.6696903 0.5967057
0000b0 2b 31 c9 3e 48 55 f7 be b8 11 1f 3f 4e 18 e5 3e
       0.39295325 -0.48307252 0.6213641 0.44745106
0000c0 fa fc 19 3f b2 80 1e 3f
       0.60151637 0.61915123

gnn.convs.0.bias f4 [50]
000000 a2 00 8e 39 9f 7a e2 3a 5a ee 88 ba dc 0e 3c ba
       0.00027084822 0.0017278976 -0.0010447011 -0.0007173845
000010 0f b2 ba b9 e1 30 3c 3a 90 fe 80 3b 40 83 20 bb
       -0.0003560935 0.00071789144 0.003936596 -0.0024492294
000020 cc e8 e7 38 37 0e 09 bb 69 58 f3 3a a4 3c ea 3a
       0.000110583 -0.0020913014 0.0018565777 0.0017870856
000030 49 ab 11 3b d1 1f 66 bb 6e ad d9 b9 7e 0e 49 3a
       0.0022227338 -0.003511418 -0.0004151868 0.0007669701
000040 f6 d5 46 bb 29 35 f1 39 69 50 4c ba b5 11 25 3b
       -0.0030339933 0.0004600671 -0.00077939645 0.0025187556
000050 ed 1d 4b 3b 87 96 79 ba a7 b7 2f bb ac 1c 99 ba
       0.003099318 -0.00095210265 -0.0026812346 -0.0011681519
000060 1c b0 44 3a 6c da a3 bb b2 6c 2b bb c6 de 61 bb
       0.0007503049 -0.005000403 -0.0026157317 -0.0034465059
000070 af 59 01 3b 94 7e 9a b9 9d a0 bd ba 18 9e 37 3b
       0.0019737293 -0.00029467477 -0.0014467422 0.0028017815
000080 d0 f0 85 b9 a9 4e e5 b7 93 8c 2f 38 15 1a 4e 3b
       -0.00025547156 -2.7335556e-05 4.185417e-05 0.0031448652
000090 07 52 a4 bb a1 ea 4b 3b 66 24 a3 b9 25 db 0c 3a
       -0.0050146612 0.0031115192 -0.00031116902 0.0005373231
0000a0 c5 84 3f ba 7f 41 93 ba c3 2d 36 3b a7 4a b6 ba
       -0.0007305856 -0.0011234729 0.0027798272 -0.0013907746
0000b0 15 c9 db 3a 6a 10 15 ba 4c 1d 8b 3a 4b 0e 9c b9
       0.0016768301 -0.0005686345 0.001061359 -0.00029765288
0000c0 91 ac 2c bb 01 6f 1f 3a
       -0.0026347975 0.00060819095

gnn.convs.0.lin.weight f4 [50, 50]
000000 b0 2a 68 bd dd 78 ac 3d e9 fe 4b 3e ef 9b 3a 3e
       -0.056681335 0.0842149 0.1992146 0.18223546
000010 cb 55 7a be ef 34 d4 3e 81 04 7d be 03 b2 a0 3d
       -0.2444679 0.41446635 -0.2470875 0.07846453
000020 f8 c0 1a 3e e6 26 69 be ce 00 6e bd 00 01 0e 3f
       0.15112674 -0.22768745 -0.058106236 0.55470276
000030 c2 95 86 3e d0 16 be bb 73 b5 8c be 5f 5f 88 be
       0.2628613 -0.0058010593 -0.27482185 -0.26635262
000040 53 47 b4 3d 6b e9 94 be 73 31 14 3e 38 28 99 3e
       0.088026665 -0.29084334 0.14471988 0.29913497
000050 e2 d1 db 3d 6d 04 88 3e f8 3a 78 3d b8 0a aa bd
       0.10733391 0.26565877 0.060603112 -0.08302826
000060 5c 44 2e 3e 34 0b 19 be 72 dd 74 be 51 66 91 be
       0.17018265 -0.1494568 -0.239126 -0.28398374
000070 3c ff 1a bd 06 1e e3 3e 88 3b 87 3e cd 4c 3f 3e
       -0.037841067 0.44358844 0.26412606 0.18681641
000080 a9 2c b4 3e d3 6c 83 3c e5 c8 6a be c5 c2 18 bd
       0.35190323 0.016043102 -0.22928198 -0.03729512
000090 09 a0 51 be a1 cc 71 3e 2f 96 0d 3e 86 ee ae 3d
       -0.20471205 0.23613216 0.13826822 0.085415885
0000a0 61 43 85 3d 6d 24 a2 3d bc 10 4d be 0c 70 f2 bd
       0.06506992 0.07917104 -0.20025915 -0.118377775
0000b0 41 e2 6e 3e 6a 8d 91 bc 41 21 77 bd fd c0 5a 3d
       0.23328497 -0.017767627 -0.060334448 0.053406704
0000c0 0d ef 29 3e b3 e7 a1 bd cc 23 f0 3c 1e b0 19 be
       0.16595097 -0.07905521 0.029313944 -0.1500859
0000d0 40 17 47 be ea b0 13 be 24 b9 80 be 09 fc 26 3f
       -0.19442463 -0.14422956 -0.2514125 0.65228325
0000e0 33 07 97 3e 7a 1f d8 3b d9 9f 73 be 0c 16 d9 3d
       0.2949768 0.006595549 -0.23791446 0.10599908
0000f0 2e 89 f5 bd a8 36 35 bd 58 2d ce bd 70 d6 92 3e
       -0.119890556 -0.044241577 -0.100672424 0.28679228
000100 7b 3b fa bd 2b ae ae 3d 22 7d cf 3d ea 85 a7 be
       -0.12218376 0.08529314 0.10131289 -0.32719356
000110 51 f1 de 3d f1 97 8f be 15 ed 41 bd dd 28 31 3e
       0.10885871 -0.2804561 -0.04734524 0.17300744
000120 db 62 28 bd d9 0f ff be 84 17 e3 3d 40 7a 2d 3d
       -0.0411099 -0.49816778 0.110884696 0.042352915
000130 6b 13 94 3e 69 0c 01 3e 13 b8 6d bd fc c5 89 be
       0.28921065 0.1260239 -0.058036875 -0.26908863
000140 59 d6 27 be 3f 3b 35 be 52 44 3e bd f2 ae c7 3d
       -0.16390361 -0.17698382 -0.046451874 0.09750165
000150 b7 f9 fe 3d 93 c5 61 be b7 ad 10 bc 2e b9 6d 3e
       0.12449973 -0.22048025 -0.008830479 0.23215172
000160 68 13 6d 3e cf 69 83 3d 73 c4 a2 bd 08 60 d7 3d
       0.23151934 0.06416666 -0.07947626 0.105163634
000170 68 ce 16 bd 09 40 ff 3d 35 ef f2 3c d6 17 b7 bd
       -0.036817938 0.124633856 0.029655078 -0.08940093
000180 eb ad a8 bc 3d a3 a5 3e 8c 9e 09 3d 7c cf b0 3d
       -0.020590743 0.32351103 0.033598468 0.086333245
000190 2b 59 c7 bc 25 a0 91 3c aa 3d 9e be 61 d6 84 bd
       -0.02433451 0.017776558 -0.3090642 -0.06486202
0001a0 73 1a c9 3c 3f d9 5b 3d 8e ce 9e 3d 90 62 0d 3f
       0.024548745 0.05367398 0.07754241 0.5522852
0001b0 bc be 32 bd 91 fa 03 bf ae a6 9f be 06 e1 3b 3e
       -0.04363893 -0.5155421 -0.31181854 0.18347558
0001c0 10 64 7c 3c 3a 25 b5 bc 74 53 7d 3d 99 84 8c bc
       0.015404716 -0.022112478 0.061847165 -0.017153071
0001d0 a8 e5 0e 3f 1e a6 c7 3d f0 f3 06 bd b2 48 80 be
       0.5581918 0.09748481 -0.03294748 -0.25055462
0001e0 54 4d 2f be a3 e8 24 be 36 32 f0 bc 65 66 d9 3d
       -0.17119342 -0.16104369 -0.029320817 0.10615233
0001f0 e4 84 ae 3d 61 3a 46 3e 04 44 56 be 2f 91 b1 3d
       0.085214406 0.19358207 -0.20924383 0.0867027
000200 02 47 6b 3e 72 e0 fd 3e 6e eb 25 3d 99 0e 11 3e
       0.22976306 0.495853 0.040507726 0.14165725
000210 77 3e 0d 3e ee ac 91 3d e2 b6 00 be b5 fc 84 3e
       0.1379336 0.07113062 -0.12569764 0.2597405
000220 7d d8 0c 3d 35 4b 3c be 9c 04 1f be c0 40 8a 3e
       0.034386147 -0.18388064 -0.15529102 0.27002525
000230 d8 56 73 3e 49 fc 02 3d db 0b eb bd 28 1a a8 3b
       0.23763597 0.03197888 -0.114768706 0.005130071
000240 0a 7a e1 be df 44 1a be 22 20 16 3e cc 17 d0 3a
       -0.4403842 -0.15065335 0.14660695 0.0015876233
000250 d6 36 22 bd b3 ac d3 b9 4d 8d b1 bc 80 88 32 3e
       -0.039603077 -0.00040373727 -0.021673823 0.17434883
000260 9e 36 ac be 82 35 fc 3e 95 75 5d be 3b 8c e4 3d
       -0.3363542 0.49259573 -0.21626885 0.11159559
000270 2f 73 ad 3c b8 7c 0e be 5d 7c 9f be 3b 43 b0 3e
       0.021173088 -0.13914764 -0.3114957 0.34426293
000280 eb f1 6f be da d0 a7 3d 99 68 d5 3e 9b 28 57 3e
       -0.23432128 0.08194132 0.41681364 0.21011584
000290 46 9c 90 be 1f 11 8d 3e 2d 62 37 3d bd 91 e8 bd
       -0.28244227 0.27552125 0.044771362 -0.11355922
0002a0 21 1b 19 3e cb af 5f be 89 68 d2 be 65 7f bf be
       0.14951755 -0.21844403 -0.4109538 -0.37401882
0002b0 18 d0 b4 bd 00 06 aa 3d 84 4b da bd 69 e4 63 3e
       -0.08828753 0.08301926 -0.10658935 0.222551
0002c0 bf 3e c2 3d c2 8d e3 3c 5d 8a 45 3e c0 3a e4 3d
       0.09484624 0.027777556 0.19291063 0.11144018
0002d0 3f 37 00 bd 69 b2 01 bc 84 b9 a2 3e 74 8c be bc
       -0.031302687 -0.007916071 0.31782162 -0.023260333
0002e0 42 6d 07 3e 76 ad d2 3d 6d c9 e7 bc e9 7e 24 be
       0.13225272 0.10286991 -0.02829429 -0.16064037
0002f0 eb 75 5a be df 63 e9 3c 4f 52 b1 3d 5f 58 2b bc
       -0.21334045 0.028490005 0.08658277 -0.010458081
000300 e4 58 29 3d 6a cc c5 3c c3 b3 b6 bd d3 62 e3 bd
       0.04134454 0.024145324 -0.089210056 -0.111028336
000310 b6 b0 09 bc 38 01 24 bd b1 c8 16 be ba e6 1e 3e
       -0.008403948 -0.040040225 -0.14724995 0.15517703
000320 1a 83 cf 3c da c7 aa be 3b 93 47 be b3 15 86 3e
       0.025331069 -0.333556 -0.19489758 0.2618843
000330 3b b7 27 3e 1b 6b 92 3d 6a 72 7c be 08 5d f9 3d
       0.1637849 0.07149335 -0.2465302 0.121759474
000340 75 5d a8 3d 57 42 a9 3d d0 0c 7b 3e 2f 04 8e 3e
       0.082209505 0.082646064 0.24516606 0.27737567
000350 cb 32 7a bb b2 cd 05 be 52 78 b1 3b 3a 6c 39 3d
       -0.0038177248 -0.13066748 0.0054159546 0.04526923
000360 cf 35 fa be 69 54 3a 3e 49 34 d3 be 31 7c 1f 3e
       -0.48869178 0.18196262 -0.41250828 0.15574719
000370 b8 07 c7 bd 75 d5 67 be f4 ce d9 3b 11 52 bb 3d
       -0.09718269 -0.22640021 0.006646985 0.09146512
000380 67 ea b4 be 27 9e 07 3f b4 c2 31 3e 42 c0 86 3e
       -0.35335085 0.52975696 0.1735943 0.26318556
000390 c5 d9 68 be 15 f2 6d be d1 71 de bd 5a fc 20 bc
       -0.22739322 -0.23236878 -0.108615525 -0.00982579
0003a0 93 b1 4d 3d 0b 5f 51 bc 24 bb 53 be ce 8e 42 3e
       0.050218176 -0.012779008 -0.20676857 0.18999788
0003b0 b3 76 be 3c a5 e8 42 be 40 54 22 3e e5 82 f0 3d
       0.02324996 -0.1903406 0.15852451 0.11743716
0003c0 ca e7 a6 3d 0a 14 a9 bd fd a5 76 bd 00 4b 1e bd
       0.08149679 -0.08255775 -0.060216893 -0.038645744
0003d0 a3 3e f1 3d fd 83 d9 3d f6 62 2b 3e cf 76 ea 3d
       0.11779525 0.10620878 0.1673697 0.11448442
0003e0 37 fe 50 bc 88 52 1d be 0a 64 27 3c 50 2f 99 3d
       -0.012755922 -0.15363514 0.010216722 0.07479727
0003f0 c7 14 c0 bd eb 80 75 be 95 b7 9a bd a4 51 f7 3e
       -0.09378963 -0.2397496 -0.07554547 0.48304474

gnn.convs.0.lin_edge.weight f4 [50, 1]
000000 19 87 c7 be 2f 2b 1f 3f 79 34 cf 3e 3b 75 00 bf
       -0.3897026 0.6217527 0.4046972 -0.5017888
000010 9c 4a 0f 3f 13 58 c8 be 59 be cc 3e 24 5f a2 be
       0.5597322 -0.39129695 0.39988974 -0.31713212
000020 30 dd 02 bf de 87 b4 be 3a 96 ca be 5b f8 c5 3e
       -0.51118755 -0.35259908 -0.3956774 0.38666043
000030 fe 13 8d 3e b9 29 29 bf 42 fb cf 3e ef ba 0f 3f
       0.27554315 -0.6607929 0.40621382 0.56144613
000040 52 f9 20 3f c9 88 c4 3e b9 36 cb be 2e 69 fd 3e
       0.6288043 0.3838561 -0.39690188 0.49494308
000050 4d d1 00 3f 7f d5 14 bf 10 90 28 bf ee 64 26 3f
       0.5031937 -0.5813827 -0.6584482 0.64997756
000060 6a a9 b4 3e a9 77 ca be c8 bb 01 bf aa 4f cd 3e
       0.35285503 -0.39544418 -0.50677156 0.4009984
000070 34 27 cb be e9 95 ef 3e b6 de 97 be 6f 17 c9 3e
       -0.39678347 0.4679406 -0.29662102 0.3927569
000080 2a 9a 12 3f 44 8b f4 be 79 35 02 3f aa 78 2d 3f
       0.57266486 -0.477625 0.5086284 0.67762244
000090 d4 0e 5b bd 51 a7 11 3f d6 91 c9 be 96 82 29 bf
       -0.053480938 0.5689593 -0.39369076 -0.66214883
0000a0 c0 80 d6 be 5e b7 d5 3e d9 70 2b 3f b0 c1 18 3f
       -0.41895103 0.4174146 0.66969067 0.59670544
0000b0 32 31 c9 3e 33 55 f7 be bf 11 1f 3f 53 18 e5 3e
       0.39295346 -0.4830719 0.62136453 0.4474512
0000c0 01 fd 19 3f b2 80 1e 3f
       0.6015168 0.61915123

gnn.convs.1.att_src f4 [1, 1, 50]
000000 73 15 d9 be 70 38 04 be 58 8c ed bd be 3f 61 be
       -0.42399177 -0.12912154 -0.11599034 -0.21996972
000010 78 d3 eb be 2b af 6f be ed 99 49 bc 0f a6 9a 3d
       -0.46059775 -0.23406665 -0.012304765 0.075512044
000020 d4 ee dd 3b 4d be 8b bd 11 8d a8 be 35 79 28 3d
       0.0067728553 -0.06823406 -0.32920125 0.041131217
000030 03 fc 0a bf 2a d7 29 be 94 91 62 3d 1c b8 6c 3d
       -0.5429079 -0.16585985 0.055314615 0.057792768
000040 5b fe 69 be 1e 21 6a 3e bb f6 1d be d5 f3 e3 b9
       -0.22850935 0.22864196 -0.15426151 -0.00043478483
000050 72 a7 a7 be c4 c0 81 bd 4f 60 5d be 2e 23 2b be
       -0.32744938 -0.06335595 -0.2161877 -0.16712639
000060 1d f8 df 3c b4 38 88 bc 58 14 88 be 7b 7c 0b 3e
       0.02733999 -0.0166286 -0.2657802 0.13621704
000070 29 87 c0 bb f4 eb fe be f6 c9 46 3e 47 94 a3 be
       -0.0058754873 -0.49789393 0.1941298 -0.31949064
000080 e3 18 2d 3c 0c f2 69 3d 31 72 33 be 3d aa 58 be
       0.0105650155 0.0571156 -0.1752403 -0.21158691
000090 67 ca 73 be e6 dc 50 be 18 96 bf bd fb 22 92 be
       -0.23807679 -0.20396766 -0.093548 -0.28542313
0000a0 eb 17 a7 3d d2 d5 78 be c7 69 20 3e 6a 73 ba 3d
       0.08158859 -0.24300316 0.15665351 0.09104045
0000b0 6f 2e a6 be 01 d8 dd 3d 2a a6 a2 be 07 8b c8 3e
       -0.324573 0.10832215 -0.31767398 0.3916857
0000c0 ad 0d a6 bd 89 d1 20 bd
       -0.08108077 -0.03926233

gnn.convs.1.att_dst f4 [1, 1, 50]
000000 60 4b 9f 3e 7c b0 5d 3c 1b 9c 7a 3e 4d 07 a9 3e
       0.31112194 0.013530847 0.24473612 0.33013383
000010 5d a2 b3 bc 08 39 93 3e 6d 6d b5 3e f7 b0 61 bd
       -0.021928007 0.2875445 0.35435048 -0.055100407
000020 b9 90 97 3d 30 fd e1 3d 83 cf 5f 3e f4 79 0b 3e
       0.074006505 0.1103462 0.21856503 0.1362074
000030 ce 20 03 3c 49 ce 05 3e 7a 74 17 bc c4 ba 30 3c
       0.008003427 0.13066973 -0.009244079 0.010786716
000040 88 c8 b7 3e b4 d9 04 3e f7 34 a5 3e 77 2e 22 3d
       0.3589518 0.12973672 0.3226697 0.039595094
000050 52 bc 81 3e 3f 39 65 3e 58 9f 82 3e 9a 29 75 3c
       0.2533899 0.22385119 0.25512195 0.014963532
000060 e6 97 2c 3e 71 a9 f3 3d 91 7d 7f 3e a4 53 1b be
       0.1685482 0.11897553 0.24950244 -0.15168625
000070 15 98 08 be de 3d 94 3e d8 28 29 be 0e 1f c0 3e
       -0.13339265 0.2895345 -0.16519487 0.37523693
000080 aa 66 50 3d 41 1e 92 3d 0c 40 6d 3d 33 61 b8 3e
       0.050879158 0.07134677 0.057922408 0.36011657
000090 bd 31 d0 3e e0 30 59 3d 97 cf 8e bd be 20 a8 3e
       0.40662947 0.053025126 -0.06973188 0.3283748
0000a0 72 35 68 3e e3 ae 88 3e 70 c8 bc bd dd 90 d0 bd
       0.22676638 0.26695928 -0.09217918 -0.101838805
0000b0 04 59 a9 3e 0c 51 36 be 59 cf 48 3d c9 82 7d be
       0.33075726 -0.17804354 0.049025867 -0.24756922
0000c0 ff 41 3a 3e 1d 93 76 bd
       0.18189238 -0.060198892

gnn.convs.1.att_edge f4 [1, 1, 50]
000000 89 88 4a 3e 1d 8a a4 bd 06 e9 1b be ba b5 87 3e
       0.19778647 -0.080341555 -0.1522561 0.26505834
000010 98 24 40 be 57 89 9f 3e 12 54 a3 3e db 36 a8 be
       -0.1876396 0.3115947 0.31900078 -0.3285435
000020 80 05 8b 3d 0e 23 92 3e d2 74 32 be 8f 87 89 be
       0.067881584 0.2854237 -0.17427376 -0.26861235
000030 1d 54 17 28 96 f6 25 be 7b 63 3f be 73 7c 39 be
       8.400423e-15 -0.16207346 -0.18690293 -0.1811388
000040 51 58 81 3e d5 c6 96 be bc 39 a1 3e f9 4f 9c be
       0.25262693 -0.29448572 0.3148936 -0.30529764
000050 85 73 54 3e 5e 2b 8c 3e 02 a1 74 be f4 b5 8e 3e
       0.20747192 0.27376837 -0.23889545 0.27873194
000060 dc ee c2 3d 6f 4e 58 3e d6 00 91 3e 80 5f 93 be
       0.09518215 0.2112367 0.2832095 -0.28783798
000070 67 81 36 39 c1 a9 85 be 58 80 68 3e 04 a3 85 be
       0.00017405079 -0.26106074 0.2270521 -0.26100934
000080 b6 7d a0 3e 38 26 91 be 2f 94 99 be d5 28 56 3e
       0.3134591 -0.2834947 -0.29995868 0.20914014
000090 22 22 07 3e b6 e8 38 3e af 94 7f 3e a4 75 4a 3e
       0.13196614 0.18057522 0.24959062 0.19771439
0000a0 3b 99 53 be c8 75 2a be 34 00 92 be c8 cc 5c 3e
       -0.20663922 -0.16646492 -0.2851578 0.21562493
0000b0 48 94 18 be bb e7 9c 3e 0b 9f 99 3e 03 34 8c be
       -0.14900315 0.30645546 0.30004153 -0.27383432
0000c0 f9 05 55 3e 1d 94 85 3e
       0.2080306 0.26089564

gnn.convs.1.bias f4 [50]
000000 2a ef 27 39 8c 38 45 b8 9d 86 9a b8 dd de 31 b9
       0.00016015457 -4.7021123e-05 -7.368366e-05 -0.00016963058
000010 d2 a8 8c b8 cd a6 9d b9 db 69 9f b8 7e c6 8c b8
       -6.7071654e-05 -0.0003006965 -7.601428e-05 -6.712692e-05
000020 09 a9 e1 39 67 ad f5 39 88 36 39 b8 d0 ff 90 b7
       0.00043041285 0.00046859236 -4.4158223e-05 -1.728526e-05
000030 f7 c8 8f b7 af d0 28 39 34 68 ad b6 39 56 2e 39
       -1.714051e-05 0.00016099469 -5.1679326e-06 0.00016626054
000040 3d 16 d5 38 99 ee 9c 38 8f 06 9f b7 a3 f1 66 b9
       0.00010160774 7.483102e-05 -1.8957331e-05 -0.00022024526
000050 1c cd bb b8 31 2b 89 39 fe 33 5e b9 3e 49 3e b9
       -8.9550595e-05 0.00026162856 -0.00021190938 -0.00018147097
000060 07 a9 aa 38 fd ad 53 37 3b 37 88 b9 36 fe d8 b6
       8.1377155e-05 1.261709e-05 -0.0002598109 -6.4668957e-06
000070 36 1a 2d 39 1d 0e 3e 38 c7 43 b7 b8 4c 77 9c b8
       0.0001650833 4.5312674e-05 -8.7387445e-05 -7.4608804e-05
000080 1d cf 1c b8 d1 ac a6 38 f8 5f da b8 59 4f 9b 38
       -3.7386188e-05 7.9476864e-05 -0.000104129256 7.4057556e-05
000090 2d cd bc b7 27 ad 9b 39 18 73 6e 39 c3 7f 9e 39
       -2.2506889e-05 0.00029692912 0.00022740324 0.00030231298
0000a0 30 c4 aa 35 9a bd 76 b8 25 6b 2d 37 70 b0 87 39
       1.2723085e-06 -5.882755e-05 1.033655e-05 0.00025880663
0000b0 c8 e8 71 38 2b 32 16 38 97 7e 36 b8 df 71 2e b8
       5.7675672e-05 3.580951e-05 -4.3510077e-05 -4.1590883e-05
0000c0 e5 e5 e6 b8 03 7b 68 b8
       -0.00011010076 -5.5427674e-05

gnn.convs.1.lin.weight f4 [50, 50]
000000 4e ca 57 3d a9 a2 b7 be 40 ff af be 2b 6b 64 3c
       0.052683167 -0.35866287 -0.34374428 0.013941566
000010 5b 74 23 3c b0 6c 2c 3d ee c0 e1 3d 66 85 13 bd
       0.009976472 0.04209584 0.110231265 -0.03601589
000020 f2 82 ee 3d 3f 4e 55 be ff ef d9 bd fb d5 1d 3d
       0.116460696 -0.2083063 -0.10641479 0.038534146
000030 76 e3 9e be 52 7f 3b 3c bb c5 24 bd da 18 b9 3d
       -0.31032914 0.01144393 -0.040227633 0.09037943
000040 44 18 b0 be c1 2a a6 3c 96 4f 6c 3e 00 f2 5c be
       -0.34393513 0.020284059 0.23077235 -0.2157669
000050 77 87 3a 3e 5c 8a b8 3d 81 12 d1 bd f8 6c e4 bd
       0.18215738 0.09010765 -0.102086075 -0.11153597
000060 d8 a0 97 3e 9a 2e d8 ba 25 bd 9b bc 4b 68 0b be
       0.29614902 -0.001649338 -0.01901109 -0.13614003
000070 72 f2 a1 be 4f 23 28 3e e7 50 de bd be 01 a6 3d
       -0.31630284 0.16419719 -0.10855275 0.08105801
000080 03 1b a0 bc 6e 61 d8 bc 6c 1d de 3d 1f ed c5 be
       -0.01954413 -0.026413646 0.108454555 -0.38657472
000090 88 e8 b5 bd 0d b2 aa 3e 4a 3f e6 3b 37 0b e2 be
       -0.088822424 0.33338967 0.0070265876 -0.4414918
0000a0 f0 c4 18 3e 62 17 06 bf 89 14 6d bb d3 93 4d bd
       0.14918876 -0.5237943 -0.003617557 -0.050189804
0000b0 a3 da 83 3e ee 47 18 bf f0 16 52 bc 50 52 1d bd
       0.25752744 -0.59484756 -0.012822852 -0.038408577
0000c0 0e 92 8d 3d f5 44 16 be ec 82 ba bd ac 9b 90 3c
       0.06912623 -0.14674743 -0.091070026 0.017652355
0000d0 c5 1d 1a be d1 3f e2 bd 14 75 91 3d 2d a4 cd be
       -0.15050419 -0.11047328 0.07102409 -0.4016432
0000e0 05 c3 9a bd 1d 8c 51 3e 58 96 e0 3d f5 6e 81 3e
       -0.07556728 0.20463605 0.10966176 0.25279966
0000f0 f3 61 0c 3e 77 bd 1f be 34 92 21 3d c2 71 3d 3e
       0.1370924 -0.15599619 0.03944607 0.18500426
000100 a6 5b ea bb 8f 5e 91 3d 9e 85 04 be a9 d9 25 be
       -0.0071520386 0.07098114 -0.12941596 -0.16196312
000110 5d cf 49 3e b3 80 72 3c 67 2b 54 be 08 d7 38 be
       0.19708009 0.014801192 -0.20719682 -0.18050778
000120 0b f6 15 3e e8 fb 40 be 60 39 c2 3d 9c e8 2c be
       0.14644639 -0.18846095 0.094836 -0.16885608
000130 cc 18 ac 3d a1 83 0a 3e da ca da 3d 34 e7 0b be
       0.08403167 0.13526775 0.10683222 -0.13662416
000140 1f ea 5c be 28 cb b3 be 64 da 95 3e 7a 07 45 3e
       -0.21573685 -0.35115933 0.2926818 0.19241133
000150 48 53 dc be d5 78 88 3e 70 ae db be a8 6e 8f 3d
       -0.4303229 0.26654688 -0.42906523 0.07003528
000160 cd 4e 8d 3d f7 39 15 3e 18 e2 46 3d 7c 52 a3 bd
       0.06899796 0.14572893 0.048555464 -0.07974717
000170 3c 00 df be f1 b4 3b 3d e4 34 03 3d 79 84 05 be
       -0.43554866 0.045826856 0.032032862 -0.13038816
000180 89 1a 80 bb f4 75 83 3e 82 5c f8 3d c1 fc bf be
       -0.0039094132 0.2567593 0.121270195 -0.37497523
000190 7e 7d 14 be 33 89 f5 bd e2 cd 5b be 53 b9 81 be
       -0.14500996 -0.11989059 -0.21465257 -0.25336704
0001a0 f4 e9 20 be d4 8d f8 3b e6 d3 0a be d9 de 61 3e
       -0.15714246 0.0075852666 -0.13557395 0.22057666
0001b0 10 3f 9a be bc 15 f1 3d 14 9f 75 3e 4d 33 86 3c
       -0.30126238 0.11771724 0.23986465 0.016381884
0001c0 c2 f0 e2 3d 30 be a4 be 85 48 42 bd 00 2b b9 bd
       0.11081077 -0.32176352 -0.04743244 -0.09041405
0001d0 3b 17 35 3e 59 f8 8f be c7 c7 cc 3d b1 b1 e7 3d
       0.17684643 -0.28119162 0.09999042 0.11313189
0001e0 7a e7 fa be 38 66 c7 3c 18 cc 26 be 03 a6 d4 bd
       -0.49004728 0.024340734 -0.16288793 -0.10383227
0001f0 11 35 5d be de 81 da 3d 27 ab e4 be be 3f 29 3e
       -0.21602274 0.106693015 -0.4466183 0.16528222
000200 3e 3b 77 3d dc 3b 57 bd e2 e6 1c be d2 c4 bf 3d
       0.060359232 -0.05254732 -0.1532245 0.09363712
000210 67 aa 38 be ff c8 99 3e f1 55 5b be bb 68 9d 3d
       -0.18033753 0.3003616 -0.21419503 0.076859914
000220 13 50 25 3e b8 c5 b8 be 2b 87 ba bb 1b 80 66 be
       0.16143827 -0.36088347 -0.005692383 -0.22509806
000230 4a df d2 3d 7a e9 7f bd bf a4 a6 be c6 c6 18 be
       0.10296495 -0.06247852 -0.32547566 -0.14919576
000240 25 22 36 3d cd f0 80 3d 56 c8 82 bd ea 29 74 3d
       0.044466157 0.06295929 -0.06385867 0.059610285
000250 cf fe 64 bd ec 68 3f be b6 d4 d5 3d c7 12 60 3e
       -0.055907067 -0.18692368 0.10440962 0.21882163
000260 87 94 19 3e 76 e6 50 bd 34 97 c1 3d d3 41 85 3d
       0.14998065 -0.051001035 0.09452668 0.065066956
000270 05 5f 07 bd 54 d5 b9 bd ec 37 bb 3d 2d 19 83 3e
       -0.033049602 -0.09073892 0.091415256 0.25605145
000280 90 ec a0 be 0f b9 00 be c8 d2 02 be fb ee ff 3d
       -0.31430483 -0.12570594 -0.12775719 0.12496754
000290 ee cd 3c 3d 9c 44 af bd b4 0b 80 3c 09 cd aa 3d
       0.046094827 -0.08558008 0.01563058 0.083398886
0002a0 68 68 ba be d0 39 9c 3d 6c 4f c5 3d fa aa bc be
       -0.3640778 0.07628214 0.09634289 -0.36849195
0002b0 5e 1c 95 3d 36 5b 98 3d e2 3a 20 3e 60 db 65 be
       0.07280801 0.07439272 0.15647462 -0.22446966
0002c0 da 1b 5c bf 25 c7 89 3c 29 a6 67 3e 78 d9 50 be
       -0.8598 0.016818592 0.22621979 -0.20395458
0002d0 bc c7 5e 3e 43 c8 7c be 48 40 ee bd 58 83 25 3d
       0.2175588 -0.24685769 -0.116333544 0.040408462
0002e0 09 7c 5b be 14 79 37 be 53 c4 ab be fd bc 8c be
       -0.21434034 -0.17917281 -0.3354822 -0.27487937
0002f0 e8 35 fb bd dd 16 ad 3d 8f 55 48 3d 5d 31 4f be
       -0.12266141 0.084516264 0.04890972 -0.20233674
000300 38 75 bd bd 99 22 d2 be 10 dd 97 be d2 42 0c be
       -0.09250873 -0.4104202 -0.29660845 -0.13697365
000310 da c4 88 be d6 c2 02 3e ed a5 a4 bc bf ff a6 bd
       -0.26712686 0.12769637 -0.02009865 -0.081542484
000320 4d 51 d6 bc cb 99 93 3e 90 62 18 be 2b 72 85 3b
       -0.026161814 0.28828272 -0.14881349 0.004072448
000330 4e 59 b8 bd 9f 81 9e 3c f7 27 8c bd 21 cd b8 bd
       -0.090014085 0.019348918 -0.0684356 -0.090235
000340 0d 66 1a be bb 4b cb bd fb b2 1c 3c 34 48 58 3d
       -0.15077992 -0.09926554 0.009564157 0.052803233
000350 58 c7 cc bd 78 f2 1f 3c 47 63 be bd 89 e4 54 be
       -0.09998959 0.009762399 -0.092962794 -0.20790304
000360 ad d7 c5 bd 45 88 f9 3d 3b d6 30 ba fc 4b 18 bd
       -0.096602775 0.121841945 -0.000674579 -0.03718184
000370 69 14 37 bd cb 4b 69 3d 90 1c 3f 3e 7d 68 ad bc
       -0.0446972 0.056957047 0.1866324 -0.021167988
000380 5f 43 2e bd 1d 11 15 bd 87 e8 30 3d 33 d8 ca bd
       -0.04254472 -0.036393274 0.043190505 -0.09904518
000390 b8 9f 05 3e 39 12 f2 be 58 51 be bd c8 a4 b3 bd
       0.13049209 -0.47279528 -0.09292859 -0.08771664
0003a0 c4 3e cd bd 6b b5 99 bd bd 2b 81 be d3 92 30 be
       -0.10021737 -0.07505306 -0.25228682 -0.17243509
0003b0 fd bf e8 bc e0 8c c0 be 1a 18 d7 bd e1 67 92 3a
       -0.02841186 -0.3760748 -0.10502644 0.0011169874
0003c0 dc da 9b 3e e9 e0 42 be 36 ce 3c be 74 66 78 be
       0.30440414 -0.19031109 -0.18438038 -0.24257833
0003d0 58 e7 81 be db e7 43 3c 6c 50 77 bd 3a 47 f4 bd
       -0.25371814 0.011957134 -0.06037943 -0.11927648
0003e0 86 e1 27 bf e2 3e 7d be 1e 38 9f bd 6b 2d 9b 3d
       -0.65578496 -0.24731019 -0.077743754 0.07577022
0003f0 89 19 f5 bd 97 ac 40 3e 85 e1 81 3d 7c b3 cf bc
       -0.11967761 0.18815838 0.063418426 -0.02535414

gnn.convs.1.lin_edge.weight f4 [50, 1]
000000 8a 88 4a 3e 15 8a a4 bd 06 e9 1b be bc b5 87 3e
       0.19778648 -0.080341496 -0.1522561 0.2650584
000010 97 24 40 be 59 89 9f 3e 0c 54 a3 3e dd 36 a8 be
       -0.18763958 0.31159475 0.3190006 -0.32854357
000020 86 05 8b 3d 09 23 92 3e d7 74 32 be 96 87 89 be
       0.06788163 0.28542355 -0.17427383 -0.26861256
000030 38 54 17 28 91 f6 25 be 7b 63 3f be 73 7c 39 be
       8.400446e-15 -0.16207339 -0.18690293 -0.1811388
000040 54 58 81 3e d5 c6 96 be c4 39 a1 3e fc 4f 9c be
       0.25262702 -0.29448572 0.31489384 -0.30529773
000050 86 73 54 3e 5c 2b 8c 3e 03 a1 74 be f1 b5 8e 3e
       0.20747194 0.2737683 -0.23889546 0.27873185
000060 dc ee c2 3d 70 4e 58 3e d3 00 91 3e 7e 5f 93 be
       0.09518215 0.21123672 0.2832094 -0.28783792
000070 07 82 36 39 c4 a9 85 be 5b 80 68 3e 02 a3 85 be
       0.00017405312 -0.26106083 0.22705214 -0.26100928
000080 b9 7d a0 3e 39 26 91 be 2e 94 99 be d8 28 56 3e
       0.3134592 -0.28349474 -0.29995865 0.20914018
000090 22 22 07 3e b8 e8 38 3e ab 94 7f 3e a2 75 4a 3e
       0.13196614 0.18057525 0.24959056 0.19771436
0000a0 3f 99 53 be c7 75 2a be 33 00 92 be c9 cc 5c 3e
       -0.20663927 -0.16646491 -0.28515777 0.21562494
0000b0 47 94 18 be b8 e7 9c 3e 0f 9f 99 3e 00 34 8c be
       -0.14900313 0.30645537 0.30004165 -0.27383423
0000c0 fe 05 55 3e 1b 94 85 3e
       0.20803067 0.26089558

gnn.convs.2.att_src f4 [1, 1, 50]
000000 dd c5 8a bd f0 43 bb 3a e5 37 19 3d 40 82 bd 3d
       -0.06776021 0.0014287215 0.03740682 0.09253359
000010 d5 d4 07 be 40 07 8f 3d 4b 5f 90 bd d7 62 bb bd
       -0.13264783 0.06983805 -0.07049426 -0.091497116
000020 ab a5 0a 3e 44 9d 27 3c a5 51 40 3d f8 6a 0c 3b
       0.1353976 0.010230366 0.046952862 0.0021426063
000030 9e 01 68 3e 0b a3 18 3c e2 bc 57 bb ff 03 f0 bc
       0.22656867 0.009316216 -0.003291898 -0.02929878
000040 88 1e 0f 3e a2 ac a8 3d f2 83 cd 3b a8 d3 8c be
       0.1397649 0.08236052 0.0062718326 -0.2750523
000050 f1 58 70 bd 1b fc 51 bc 8d b0 03 be 45 7d de 3e
       -0.05867857 -0.012816454 -0.12860318 0.43454948
000060 2b e6 9c 3d 4e c2 5c be 10 36 36 bb e3 c2 ee ba
       0.076610886 -0.21558496 -0.002780322 -0.001821604
000070 d1 aa 4c bd 46 f9 5f 3d 27 05 0f 3d ba 4d 87 bc
       -0.04996759 0.054681085 0.034917023 -0.016516555
000080 42 f7 b7 3c 87 8c 40 bd 39 7d b9 3d d7 38 c9 3e
       0.022456769 -0.047009017 0.090570875 0.39301178
000090 29 37 3a 3b 2c d5 bc 3b 3d 50 0c bd 4e 18 fd 3d
       0.0028414226 0.0057627168 -0.03425621 0.123581514
0000a0 87 f8 f8 bb 81 41 58 3e a6 40 e8 3c 68 95 5f bd
       -0.007597986 0.21118738 0.02835114 -0.054585844
0000b0 0c a6 db bc 63 22 5f bd d2 88 a1 3c fc 6f f1 3e
       -0.026812576 -0.054476153 0.019718561 0.4715575
0000c0 05 fa 91 3d 7a 67 cc 3d
       0.071277656 0.09980674

gnn.convs.2.att_dst f4 [1, 1, 50]
000000 3c f1 0b 3e 5d 54 b5 bd 96 60 37 bd 6c 41 d3 bd
       0.13666242 -0.08853982 -0.044769846 -0.103152126
000010 eb 96 65 bd 24 68 d1 3c ee b4 53 3c ad 01 16 3c
       -0.05605213 0.025562353 0.012921555 0.009155673
000020 0f 13 fa bc 63 3f 58 3d f6 00 53 bd db 0f 62 bd
       -0.030526666 0.052794825 -0.05151459 -0.055190902
000030 21 42 05 bf 56 f4 92 3c 2c 78 ea 3b 8b dc 7c 3c
       -0.5205403 0.017938774 0.007155439 0.015433441
000040 45 30 6a bd 97 85 58 bd c3 a7 ad bb 7b b5 9f 3e
       -0.05717494 -0.052861776 -0.00529954 0.31193146
000050 43 03 8f 3d ea 85 ef 3c 07 37 2a 3e 75 26 a3 be
       0.06983044 0.02923866 0.16622554 -0.31865278
000060 ad 0f b2 bc 6d 9d 7f 3e 02 46 03 3c 2c ae 88 3c
       -0.02173599 0.24962397 0.008012297 0.016684614
000070 a8 bc 31 3d 76 29 bf bd dc 05 b6 39 5f 93 18 bd
       0.043392807 -0.0933408 0.0003471811 -0.03724992
000080 08 0f f8 3c 8b b4 08 3d 20 bf 06 3d 2f 5e fb 3d
       0.030280605 0.033375304 0.032897115 0.122738235
000090 20 58 2f 3e fb ff a1 bd d7 8e 7c 3c 32 67 61 bd
       0.17123461 -0.079101525 0.015414915 -0.055030055
0000a0 ab 97 60 3c 4d f0 07 be 42 96 b0 bc 2c 10 20 bc
       0.013708035 -0.13275261 -0.021556024 -0.009769481
0000b0 fa 3b d8 3c 26 1e bb 3c 6a df 19 3b b7 46 0a 3e
       0.026395787 0.022841524 0.0023479112 0.13503538
0000c0 c4 c2 1e bd 38 24 e9 bc
       -0.03875996 -0.028459653

gnn.convs.2.att_edge f4 [1, 1, 50]
000000 41 88 27 a7 93 14 1b b2 e8 19 54 bb f7 3a c7 bc
       -2.324977e-15 -9.0268655e-09 -0.0032364074 -0.024320109
000010 f2 66 85 a8 66 d3 91 3b 61 da 20 1c 3b 13 06 37
       -1.4810612e-14 0.0044502495 5.3221807e-22 7.9915e-06
000020 ea 33 dc b5 cb 18 14 0a 19 fc 95 b8 52 b7 51 3b
       -1.6406386e-06 7.130604e-33 -7.1518305e-05 0.0032000137
000030 45 e5 92 ba 8f b7 90 a7 db 63 3f 17 6d 61 34 39
       -0.0011207244 -4.0167044e-15 6.1841464e-25 0.00017202432
000040 ba bc 42 99 52 a9 fc 95 b3 5c bb 25 35 42 57 3b
       -1.0067678e-23 -1.0204913e-25 3.2502144e-16 0.003284586
000050 05 c4 5f 35 db 38 59 24 91 8e 2e b6 ba 6f 09 97
       8.335922e-07 4.7102533e-17 -2.6011005e-06 -4.4408106e-25
000060 c5 3e e4 ba f9 50 13 bc 90 46 c4 3a 05 cd 95 38
       -0.0017413726 -0.008991473 0.0014974643 7.1430615e-05
000070 82 64 45 ba 0c 91 a8 36 8c 8f 77 36 35 b0 f3 b7
       -0.00075299304 5.023676e-06 3.6889423e-06 -2.904991e-05
000080 c3 2e d8 39 15 40 19 2b 3b e5 f9 ad 4d 68 29 9a
       0.0004123357 5.444545e-13 -2.8409821e-11 -3.5032634e-23
000090 71 f9 95 bc c1 0f 2d 3b ae cb 63 bb ae c9 38 39
       -0.01830742 0.0026407095 -0.0034758854 0.00017622739
0000a0 71 7e d0 a9 72 bd 1d bb 13 fe cc a1 1c 39 b6 ac
       -9.2589897e-14 -0.0024069217 -1.3890831e-18 -5.1790915e-12
0000b0 55 74 37 b8 23 df 2b bb b7 ff 14 a3 08 5b 4f bb
       -4.3738943e-05 -0.002622553 -8.077246e-18 -0.0031639952
0000c0 6d 76 69 30 ec 4d ad ba
       8.49332e-10 -0.0013222075

gnn.convs.2.bias f4 [50]
000000 cb 0e 82 b8 8f d0 de b7 43 50 56 38 94 05 3b 35
       -6.2016385e-05 -2.656158e-05 5.1096325e-05 6.9671046e-07
000010 31 9b ee 36 89 0c d0 b6 ca c7 3c b7 15 d0 f8 34
       7.1110194e-06 -6.2003423e-06 -1.125219e-05 4.6345e-07
000020 a0 fe e0 b5 e8 2a 92 b5 53 53 80 37 bf 58 19 b6
       -1.6763406e-06 -1.0890335e-06 1.529759e-05 -2.2850434e-06
000030 31 64 5f 33 06 40 d6 b4 77 f3 9a 34 70 c3 8d b5
       5.2012357e-08 -3.990719e-07 2.886188e-07 -1.0562198e-06
000040 9d 81 55 38 58 f9 1c 38 bc 81 20 38 09 df 9d b3
       5.090387e-05 3.7425518e-05 3.8267797e-05 -7.351452e-08
000050 df 4d 9a b4 f7 e6 ff 36 38 f4 44 39 a6 ed 10 34
       -2.8741394e-07 7.62648e-06 0.00018782995 1.3497501e-07
000060 ec 7d 3c b8 ef 08 91 b2 54 29 88 b7 a3 9d da 34
       -4.4939967e-05 -1.6884284e-08 -1.6231708e-05 4.072036e-07
000070 a4 9b 38 36 41 73 9e 35 69 8d 6c 33 71 d0 eb b4
       2.7508731e-06 1.1805461e-06 5.5076644e-08 -4.3923822e-07
000080 b2 8b 47 33 ef 69 1f 35 a0 f5 82 35 bc 18 cc 34
       4.646035e-08 5.938627e-07 9.757241e-07 3.8015958e-07
000090 a8 54 d5 b8 3e 9b 5f 38 9e 8e 29 35 6e 4e 5d 38
       -0.000101724 5.3311924e-05 6.316494e-07 5.276355e-05
0000a0 c1 cc 51 35 83 03 2d b5 04 b9 ce b4 4b 93 6e b8
       7.8156523e-07 -6.445263e-07 -3.8505107e-07 -5.68808e-05
0000b0 92 be 05 b6 ad 05 eb b6 06 a2 37 37 97 9a d3 34
       -1.992947e-06 -7.0042065e-06 1.0945374e-05 3.9414292e-07
0000c0 af 6d 8e 37 b0 31 fa 34
       1.6978795e-05 4.660228e-07

gnn.convs.2.lin.weight f4 [50, 50]
000000 0d 9c b7 3e 3b 9b d5 bc 2d a0 b4 3e 69 6e 04 3e
       0.35861245 -0.026074996 0.35278454 0.12932743
000010 d7 c2 95 3d 4b ab 57 be 42 da 62 be b4 b6 da bc
       0.073125534 -0.21061437 -0.22153571 -0.026698448
000020 87 19 14 bf 4c 05 e9 bc 5f 70 28 3e 26 c1 6e bd
       -0.5785145 -0.028444909 0.16449116 -0.05828967
000030 59 c9 8b 3e 52 eb 03 bf 43 b6 07 3e d8 52 03 be
       0.27302054 -0.51530945 0.13253121 -0.12824571
000040 90 52 f6 3d d0 60 63 bd 56 77 85 3c 54 00 82 3e
       0.12027466 -0.05551225 0.016292255 0.25390875
000050 04 fb 2e bd ac b9 76 3e 78 ba 5a be ce e6 91 bd
       -0.042719856 0.24094266 -0.21360195 -0.071241006
000060 49 ee ae be 9b f8 de bd b1 b5 2e be b8 47 41 3e
       -0.34166172 -0.108872615 -0.17061497 0.18875015
000070 56 d5 4f be 28 6c a6 be df 87 1c bc 69 35 86 3d
       -0.20296225 -0.32504392 -0.009553879 0.06553156
000080 a7 1c c9 3d 6e 25 1c 3e cf c0 b2 bd 40 72 9b 3c
       0.09819918 0.15248653 -0.087281816 0.018975377
000090 d6 76 c2 3d 7d b4 8f 3d b2 c8 83 bd f1 80 2a 3e
       0.094953224 0.07016847 -0.06434764 0.1665075
0000a0 76 52 20 3e 70 7a 5f 3e 84 da bd bd 54 66 83 3e
       0.15656456 0.2182405 -0.09270194 0.25664008
0000b0 c5 47 40 3d c1 e7 88 be f9 a9 87 3c 28 e0 e1 3d
       0.046943445 -0.26739314 0.016560541 0.110290825
0000c0 34 e4 2b 3c e2 d6 fc 3c 3b d2 fe bb 40 04 3f bd
       0.01049142 0.030864183 -0.0077765263 -0.046634912
0000d0 b6 7f af bd c4 01 3e be b9 a0 39 3e f1 0b 82 3d
       -0.08569281 -0.18555361 0.18127717 0.06349934
0000e0 37 83 2c 3e d2 ab 54 bd 55 e5 82 be 44 b4 96 3d
       0.1684693 -0.051921673 -0.2556559 0.07358602
0000f0 e5 34 dc 3c f2 1a 0f be eb 92 78 bd b5 75 1f 3e
       0.02688069 -0.13975123 -0.060686987 0.15572245
000100 5c 3d 8c 3e 40 ce f9 bc cd 1f 80 3c 43 7d 27 3e
       0.27390563 -0.030493855 0.015640164 0.16356377
000110 d8 ac 5b be 9c bb 48 be 32 5a 1f 3d 1f 84 87 be
       -0.21452653 -0.19602817 0.038904376 -0.26467988
000120 62 46 31 3e 7f 25 1a bd b7 02 fc 3d 55 6b bf bb
       0.17312005 -0.037633415 0.12305205 -0.0058416524
000130 a8 07 56 be 69 e3 b6 3d 8e 3b 9b 3e 96 de 10 3e
       -0.20901358 0.08930094 0.30318874 0.1414741
000140 e5 cc 30 3e d7 46 cc bd 93 68 5e bd 14 46 2d bd
       0.17265661 -0.09974449 -0.05429895 -0.04230316
000150 97 0b d8 bc c8 d8 0b bc 83 90 17 3e cc dd 8b 3d
       -0.026372714 -0.008535571 0.1480122 0.06829414
000160 bb 41 9a 3c 67 78 c2 3e d3 a1 cd 3c a2 fb 00 3e
       0.01883017 0.37982485 0.025101578 0.1259599
000170 93 b9 8f 3d fe 69 04 bc ce 60 0e bd 60 de 64 3d
       0.07017817 -0.008081911 -0.03476029 0.055876136
000180 5e 7f 74 bd 4f 8b fd bc 99 e3 36 3d 0a dd fd bd
       -0.05969178 -0.030950217 0.044650648 -0.123956755
000190 98 b3 d0 3d 55 83 b8 3d e3 bb cf bd 41 0c 8b 3b
       0.10190505 0.090094246 -0.101432584 0.004243404
0001a0 dc 27 b1 3d d4 d0 9d bd 9c c4 07 3e aa a3 07 be
       0.08650181 -0.077058464 0.13258594 -0.13246027
0001b0 a4 13 51 be 36 17 66 ba 09 42 0f 3d cb b9 1c 3e
       -0.20417649 -0.00087772624 0.034975085 0.1530525
0001c0 d8 9b 8a be 0b 25 d1 3e b3 9f bc 3d 77 7a 3f bd
       -0.27072024 0.40848574 0.09210148 -0.04674765
0001d0 3a dc a5 bd 29 f5 e6 bd 59 af 87 be a4 6e 7e 3d
       -0.080986455 -0.11277229 -0.26500967 0.062117234
0001e0 54 f8 74 be fb 83 e3 bd f4 1e 87 3e 11 b1 14 bd
       -0.23922855 -0.11109158 0.26390803 -0.036301676
0001f0 da 9f 83 3e fc 73 1b 3e 12 ce 1f 3e 26 b7 ed 3b
       0.25707895 0.15180963 0.15605953 0.007254499
000200 30 d8 99 bd 25 4a a6 3e cc ba f1 bd fc 8c 12 3d
       -0.075119376 0.32478443 -0.11803207 0.035778984
000210 34 8d 45 bd 3f 4b d3 be f5 bc 38 be bf 31 0d be
       -0.048230365 -0.41268346 -0.18040831 -0.13788508
000220 45 35 5d 3e ee 7c b3 3b 38 81 92 3d 44 f7 9a be
       0.21602352 0.0054775393 0.07153553 -0.30266774
000230 12 2b ae 3e 97 aa 3a 3a 43 dc 61 bd fd 4c 88 3d
       0.34017235 0.0007120757 -0.0551417 0.06655309
000240 b5 60 53 bc 30 67 4f 3e 93 3e 8d 3e 46 7b 38 be
       -0.012901475 0.20254207 0.27586803 -0.18015775
000250 19 e6 b0 3c a6 fd 37 bb 1a 8f 87 3d 20 ad 7c bc
       0.021594094 -0.002807477 0.06619091 -0.015422136
000260 b4 57 c7 bd 8a d5 5e bd db 90 da bc 73 0e 13 3e
       -0.09733525 -0.054402865 -0.0266804 0.1436098
000270 a8 5f 4a 3d 80 6a 3a bd 59 5c bf 3a 5a 4c 05 3d
       0.04940763 -0.045511723 0.0014599665 0.032543518
000280 65 45 3d 3c ed 8e 07 be 29 fc 1d bd d1 b3 46 3b
       0.0115521895 -0.13238116 -0.038570557 0.0030319581
000290 06 8f 5b 3d dc 78 9a bd 9b 89 06 bd 5d 4c 8c 3d
       0.053603195 -0.07542583 -0.032846075 0.06850503
0002a0 8b 61 34 3d 5a 24 75 3d be 9f 83 bd 93 20 99 3b
       0.044038337 0.05984912 -0.06426953 0.0046730726
0002b0 76 9a 02 be ef 32 57 bd b1 50 21 bc e8 2e 98 3c
       -0.12754235 -0.05253881 -0.0098458985 0.018577054
0002c0 0a 31 3d 3c da 0b 72 3d 45 2e 80 bd 69 6d 9f bd
       0.011547336 0.059093334 -0.06258825 -0.0778454
0002d0 69 df 3e 3d 7e dd d7 3c 67 ea 49 3d f0 64 a5 bd
       0.04659978 0.026350733 0.04929581 -0.08075893
0002e0 42 9c bb 3d 77 37 ed bd c9 51 30 3d 09 58 91 3c
       0.09160663 -0.11582845 0.043046746 0.017742174
0002f0 e2 e6 4f 3c d1 32 8e bd b6 0f 17 be e1 ea b7 bc
       0.012689324 -0.06943286 -0.14752087 -0.022450866
000300 5a 95 b0 3c 20 e5 4a bc 15 36 02 3c a4 fd bc 3c
       0.021555591 -0.012383729 0.0079474645 0.023070164
000310 b6 e0 29 3e 26 25 43 bd cc 02 9c bc c1 d1 26 bd
       0.16589627 -0.04764285 -0.019044302 -0.04072738
000320 86 7a 17 3e f3 3d 04 be 49 82 34 be 1b 76 a8 3d
       0.14792833 -0.12914257 -0.17627825 0.08225652
000330 3b 97 c4 bc 76 c1 2b 3e 4e ca e6 bd 77 41 f2 3d
       -0.023997894 0.16773018 -0.11269055 0.11828893
000340 bf 04 07 3e e0 a8 68 3d 8d 81 a5 3c ea 18 7c bd
       0.13185404 0.056801677 0.020203376 -0.061547197
000350 19 1d 60 bd bc 3a 6e be ed 44 94 3c 6e be ff bc
       -0.05471525 -0.23264593 0.018099273 -0.031218734
000360 84 c9 69 be 4f d3 20 be 81 23 59 3e 15 af 9c bc
       -0.22830778 -0.15705608 0.2120495 -0.019126454
000370 12 2b 67 3d 8c 88 25 3d 3f e4 2d bd b4 ff ca 3d
       0.05643756 0.040413424 -0.042454 0.09912053
000380 c7 93 01 3e 1f d8 67 bc 3c a3 75 3e ea 06 92 3b
       0.12654029 -0.014150648 0.2398805 0.0044563906
000390 53 e6 dd bd c5 28 bc 3d f8 e6 40 bd 09 d5 cf 3d
       -0.108349465 0.09187464 -0.04709527 0.10148055
0003a0 81 e9 0f bc 93 77 16 be ae b2 50 3e 37 93 4d 3c
       -0.008783699 -0.14694051 0.20380661 0.012547306
0003b0 e1 76 46 be c9 3b ed 3d d6 31 69 bd 99 06 3f be
       -0.19381286 0.11583669 -0.056932293 -0.1865486
0003c0 19 4d 52 3d 6a 22 11 3d 2d b9 69 bd 44 2a ee bd
       0.051343057 0.03543321 -0.057061363 -0.11629155
0003d0 63 68 9d 3c 14 11 0b be f5 da a4 3e f5 f3 e8 bd
       0.019214815 -0.13580734 0.321983 -0.11374656
0003e0 03 1b 1c 3d 7a b3 0d be b2 b7 4f 3d dd ab 81 bc
       0.038111698 -0.13837996 0.050712295 -0.015829021
0003f0 d4 b9 1a be c9 84 13 3e 27 e9 8c 3b 93 74 81 bc
       -0.1510995 0.14406122 0.004300255 -0.015802657

gnn.convs.2.lin_edge.weight f4 [50, 1]
000000 3f 88 27 a7 70 14 1b b2 07 1a 54 bb f7 3a c7 bc
       -2.3249765e-15 -9.026834e-09 -0.0032364146 -0.024320109
000010 fe 66 85 a8 73 d3 91 3b 77 da 20 1c 26 13 06 37
       -1.4810632e-14 0.0044502555 5.322192e-22 7.991481e-06
000020 e1 33 dc b5 78 18 14 0a 2d fc 95 b8 52 b7 51 3b
       -1.6406376e-06 7.130543e-33 -7.151845e-05 0.0032000137
000030 57 e5 92 ba e6 b7 90 a7 c0 63 3f 17 91 61 34 39
       -0.0011207265 -4.016741e-15 6.184133e-25 0.00017202484
000040 cb bc 42 99 47 a9 fc 95 a6 5c bb 25 28 42 57 3b
       -1.0067691e-23 -1.0204906e-25 3.250211e-16 0.0032845829
000050 4f c4 5f 35 29 39 59 24 8f 8e 2e b6 fb 6f 09 97
       8.335964e-07 4.710279e-17 -2.6011e-06 -4.4408427e-25
000060 c2 3e e4 ba 05 51 13 bc 7d 46 c4 3a fc cc 95 38
       -0.0017413723 -0.0089914845 0.001497462 7.143055e-05
000070 79 64 45 ba 2d 92 a8 36 ee 8e 77 36 1b b0 f3 b7
       -0.0007529925 5.0238073e-06 3.6889064e-06 -2.9049863e-05
000080 73 2e d8 39 38 41 19 2b 85 e5 f9 ad 57 68 29 9a
       0.00041233338 5.444703e-13 -2.840995e-11 -3.5032666e-23
000090 77 f9 95 bc ed 0f 2d 3b aa cb 63 bb b3 c9 38 39
       -0.01830743 0.0026407198 -0.0034758844 0.00017622746
0000a0 a6 7e d0 a9 7d bd 1d bb 38 fe cc a1 08 39 b6 ac
       -9.2590256e-14 -0.0024069243 -1.3890869e-18 -5.179083e-12
0000b0 5b 74 37 b8 17 df 2b bb a5 ff 14 a3 0e 5b 4f bb
       -4.3738964e-05 -0.0026225501 -8.077231e-18 -0.0031639966
0000c0 bd 75 69 30 da 4d ad ba
       8.493222e-10 -0.0013222054

gnn.batch_norms.0.weight f4 [50]
000000 15 08 e0 3e 9b 98 26 3f 28 e5 3a 3f 41 62 28 3f
       0.43756166 0.6507661 0.73005915 0.65774924
000010 e7 7f 0f 3f a2 60 df 3e f8 5b e1 3e c2 6b 22 3f
       0.5605454 0.43628412 0.4401548 0.63445675
000020 3a dc 0f 3f 45 8f 2a 3f 36 18 1b 3f 73 33 d9 3e
       0.56195414 0.6662486 0.6058382 0.42422065
000030 62 d0 e0 3e 79 12 22 3f 35 6a 32 3f 3a 07 eb 3e
       0.43908983 0.6330944 0.6969331 0.4590395
000040 11 01 f5 3e 4f fc d1 3e 06 2f 30 3f e2 d3 e2 3e
       0.47852376 0.4101281 0.6882175 0.4430228
000050 c4 68 06 3f 02 9a 21 3f 98 8e 22 3f 30 e8 29 3f
       0.5250361 0.6312562 0.6349883 0.66369915
000060 2d 82 cd 3e 10 2f 2e 3f aa f0 08 3f 87 67 3c 3f
       0.4013838 0.6804056 0.53492224 0.7359547
000070 84 62 2d 3f de c0 1a 3f e1 a4 10 3f 1e 52 2b 3f
       0.6772845 0.6045054 0.56501585 0.66922176
000080 9a 2c 04 3f 74 8e 1d 3f ba 4c 2f 3f 3e 49 25 3f
       0.51630557 0.6154549 0.6847645 0.64564884
000090 c1 f8 1a 3f 4c f0 01 3f 3f dd eb 3e 6b f2 26 3f
       0.6053582 0.5075729 0.46067235 0.6521365
0000a0 57 b7 fc 3e e2 57 15 3f e3 3a 1a 3f 69 3c 1e 3f
       0.49358627 0.58337224 0.60246104 0.6181093
0000b0 45 0a f9 3e 4b 61 dc 3e 85 fc 06 3f 6e c1 36 3f
       0.48640648 0.4304298 0.52729064 0.713889
0000c0 5f 95 25 3f 36 84 06 3f
       0.6468105 0.5254549

gnn.batch_norms.0.bias f4 [50]
000000 0f 96 8f 3d da 7e 55 be 1e e7 08 bf ad 9a c8 be
       0.07011043 -0.20849171 -0.53477657 -0.39180508
000010 e6 22 ec bd 6a 30 28 be 66 af 28 be 40 7f 6b be
       -0.11530094 -0.16424718 -0.16473159 -0.22997761
000020 66 71 99 be a7 c4 06 bf b6 bd e5 bd 4f 1a 95 bd
       -0.2996933 -0.5264382 -0.11217825 -0.072804086
000030 1d c9 cf 3c 93 bc a5 be 54 b1 af be 0e c9 31 be
       0.025364453 -0.32370433 -0.34314978 -0.17361853
000040 e9 b4 66 be fd f4 af bd 73 98 d8 be 3e 88 33 bd
       -0.22529949 -0.0859165 -0.4230381 -0.043831103
000050 04 2e 94 be 99 a2 c4 be cd 65 9d be 94 92 5e be
       -0.28941357 -0.38405302 -0.3074173 -0.21735603
000060 4b 60 8a bd 87 af 76 be 00 c4 f3 bd 36 69 39 be
       -0.06756648 -0.24090396 -0.119026184 -0.18106541
000070 cb c3 ab be 24 1d 0a bf a6 2c 96 be aa 0a f1 be
       -0.33547816 -0.53950715 -0.2933094 -0.4707845
000080 26 f1 28 be 64 56 36 be 37 2a 9a be 24 a4 a1 be
       -0.16498241 -0.17806393 -0.30110332 -0.31570542
000090 88 f7 a6 bd 65 26 8d bd 6d ef f2 bd 79 f6 8b be
       -0.081526816 -0.06892089 -0.11862073 -0.2733648
0000a0 06 9d a2 be 0f fb 3e bd 08 69 a8 bd f1 de 0f be
       -0.31760424 -0.046626147 -0.08223158 -0.14049889
0000b0 4a be 90 bd 7d 8c 38 be 8e 85 79 be e6 e3 89 be
       -0.07067545 -0.18022342 -0.24367353 -0.26931685
0000c0 b8 50 90 be 3a 65 58 bd
       -0.28186584 -0.052830912

gnn.batch_norms.0.running_mean f4 [50]
000000 01 e5 41 3b d7 a6 05 bb cf be 36 bc ec da ba bb
       0.002958596 -0.0020393634 -0.011153891 -0.005702367
000010 36 25 d2 b9 67 6f 74 ba f0 f4 48 3d 91 af 80 bb
       -0.00040082046 -0.00093244616 0.049061716 -0.003927179
000020 90 b0 9a bb 52 a9 e3 bb df c8 94 39 28 7d b5 3a
       -0.004720755 -0.006947675 0.0002837842 0.0013846504
000030 ef a0 8c 3b 00 8b 16 bc 15 81 8a bb 6e 19 96 bb
       0.0042916457 -0.009188414 -0.0042268136 -0.004580668
000040 a6 83 65 3d 9d e3 81 bb 0b 46 09 bc 32 c8 82 b9
       0.056033753 -0.003963901 -0.008378516 -0.0002494469
000050 e8 bf 1d 3d dd 17 73 bb 50 1a f4 bb 70 0f 97 ba
       0.038513094 -0.003709308 -0.0074494258 -0.0011524986
000060 e8 eb a5 39 c0 f5 28 bb 47 f9 9a bb ab 84 d3 bb
       0.00031647016 -0.0025781244 -0.004729423 -0.0064550242
000070 a1 30 ee 3a ca f0 3d bb 25 e0 f1 bb 69 25 ff bb
       0.0018172452 -0.0028982633 -0.0073814564 -0.007786442
000080 3f 71 4d b9 4c 6f c5 ba 56 8d fa bb fc f3 3e 3b
       -0.00019592511 -0.0015063076 -0.007646243 0.0029137125
000090 f6 da 04 bc e1 16 ea 3a 78 93 3e bb c0 ce b5 ba
       -0.008108845 0.0017859602 -0.0029079597 -0.001387082
0000a0 a3 9f f8 3c 1e f8 5f bb 3c 28 13 3b 9b 02 8a bb
       0.030349558 -0.003417499 0.0022454401 -0.0042117364
0000b0 cd a5 27 3b dc b7 e2 bb d0 1a 33 bb 35 b0 4a bb
       0.0025581003 -0.0069188904 -0.0027329214 -0.0030927781
0000c0 f8 b2 88 bb 5f 78 3a 3a
       -0.0041717254 0.00071132736

gnn.batch_norms.0.running_var f4 [50]
000000 7d d9 35 38 3f 77 19 38 ad 6f 13 38 59 0a 54 38
       4.3356315e-05 3.65891e-05 3.5151537e-05 5.0554376e-05
000010 a9 0a 1e 38 e5 34 aa 37 3d 4b 93 38 59 61 f2 37
       3.7680064e-05 2.029021e-05 7.0235204e-05 2.889398e-05
000020 36 c4 e4 37 aa fd f2 37 d7 88 be 37 e6 32 1f 37
       2.7271086e-05 2.896677e-05 2.2713486e-05 9.488989e-06
000030 f1 ed 52 37 04 03 58 38 c9 d8 83 38 03 d0 48 37
       1.2572375e-05 5.150122e-05 6.286946e-05 1.19693605e-05
000040 b5 f4 c1 38 b5 75 d8 37 75 4b fc 37 ba 50 e0 37
       9.2485374e-05 2.5804018e-05 3.0075878e-05 2.6740472e-05
000050 94 f2 09 38 90 91 ce 37 91 25 4c 38 61 54 b6 37
       3.2889264e-05 2.4624896e-05 4.8672377e-05 2.1735383e-05
000060 0b 03 a3 37 61 52 16 38 b0 a2 93 37 75 b9 d9 37
       1.9432531e-05 3.583951e-05 1.7599523e-05 2.5954776e-05
000070 50 1a 95 37 db 16 ae 37 74 e4 86 38 cf e3 66 38
       1.7774437e-05 2.075306e-05 6.4321706e-05 5.5048436e-05
000080 3c de 34 37 94 03 d2 36 95 cf 05 38 de ea 85 37
       1.0780579e-05 6.2589042e-06 3.1902997e-05 1.5964204e-05
000090 14 1a ca 37 20 2a 1c 37 0c 49 82 37 bf 64 51 38
       2.409242e-05 9.308133e-06 1.5531223e-05 4.992331e-05
0000a0 ac a2 19 38 9d 6a f3 37 1b 6f a7 37 e5 fb 9b 37
       3.6629543e-05 2.9017503e-05 1.9959689e-05 1.8594737e-05
0000b0 07 5c 26 37 a4 53 99 38 75 fe d4 37 fd b3 95 38
       9.915798e-06 7.311188e-05 2.539086e-05 7.138399e-05
0000c0 b1 f4 f2 37 15 b5 77 37
       2.8962591e-05 1.4764509e-05

gnn.batch_norms.1.weight f4 [50]
000000 0c 40 98 3f 42 b3 8a 3f b5 4c 8a 3f f3 20 a1 3f
       1.1894546 1.0835955 1.0804659 1.258818
000010 25 51 9f 3f 08 61 97 3f 98 63 86 3f 6f a0 66 3f
       1.2446638 1.1826487 1.0499144 0.9008855
000020 1b ed 91 3f f1 d8 9b 3f b6 5e 80 3f 01 51 8c 3f
       1.1400484 1.217558 1.0028903 1.096222
000030 58 5b af 3f 2f c0 91 3f 26 4a 79 3f 15 98 b7 3f
       1.3699751 1.1386775 0.97378767 1.4343287
000040 3b 10 84 3f 63 d4 a0 3f 96 ca a6 3f 84 96 91 3f
       1.0317453 1.2564815 1.3030574 1.1374059
000050 06 92 9c 3f 92 ea 9c 3f b7 bd 79 3f f1 39 93 3f
       1.2232063 1.2259085 0.97555107 1.1502057
000060 63 eb 96 3f 16 cf a8 3f e8 4a ac 3f 53 94 5a 3f
       1.1790584 1.3188198 1.346036 0.85382575
000070 dc 8f 7c 3f 67 f1 94 3f 41 d6 91 3f 0a 5c 83 3f
       0.9865701 1.163617 1.139351 1.0262463
000080 9e 89 83 3f 42 b7 84 3f 23 c2 99 3f 0f d0 99 3f
       1.0276372 1.0368426 1.2012371 1.201662
000090 e1 a5 9b 3f 82 e4 98 3f 93 04 8f 3f eb 19 9a 3f
       1.2159997 1.1944735 1.1173271 1.203916
0000a0 ee 5c 8f 3f 89 0b 61 3f 11 97 90 3f da 67 9e 3f
       1.1200235 0.87908226 1.1296102 1.2375443
0000b0 f5 34 8e 3f ce 7f a0 3f 8d ee a8 3f 2b fe 40 3f
       1.1109911 1.2539003 1.31978 0.7538783
0000c0 6b 8a 92 3f 72 4d 57 3f
       1.1448492 0.8410255
