src/checkpoints/checkpoint_epoch_30.pth (torch, 145020 bytes, 78 tensors)

gnn.convs.0.att_src f4 [1, 1, 50]
0	0xbd38a58f	-0.045079764
1	0xbd70da7c	-0.058802113
2	0x3c337fd0	0.010955766
3	0xbcb86a66	-0.022511672
4	0xbe04dd5e	-0.1297507
5	0x3d59cc66	0.053173445
6	0xbc7bb9b9	-0.015364104
7	0x3db8c9bd	0.090228535
8	0xbc735cf1	-0.014853702
9	0x3d6911c6	0.056901716
10	0xbd401d60	-0.046903014
11	0xbd4ec4b8	-0.050480574
12	0xbd0cae9c	-0.034346208
13	0x3d9ca0c2	0.076478496
14	0xbda911d7	-0.08255356
15	0xbcfbdb5b	-0.030744245
16	0x3d7d02b4	0.061770156
17	0x3d7b81cf	0.061403092
18	0xbd59eb38	-0.053202838
19	0xbd35bb41	-0.044368032
20	0xbd7f718b	-0.062364142
21	0xbb453bbe	-0.0030095424
22	0xbc55f722	-0.013059409
23	0x3d8f4876	0.06996243
24	0x3de850e5	0.113435544
25	0x3aa6c2ba	0.0012722828
26	0x3d4d3061	0.050094966
27	0xbbd1f1cc	-0.0064069983
28	0x3d6c4212	0.057680197
29	0x3cfd4f4d	0.030921603
30	0xbd770971	-0.06031174
31	0xbd281cc8	-0.041043073
32	0xbe130d13	-0.14360456
33	0xbce5a4d6	-0.028032701
34	0x3cc92640	0.024554372
35	0xbcb7b183	-0.022423511
36	0x3ad41525	0.0016180618
37	0xbdbaa4e2	-0.0911348
38	0x3cc928d0	0.024555594
39	0xbd871923	-0.06596591
40	0x3ca27ead	0.019835794
41	0x3ca9955a	0.0207011
42	0xbbcb3dff	-0.006202459
43	0x3d9fb690	0.07798493
44	0xbe087481	-0.13325693
45	0x3d20f645	0.03929736
46	0x3dec9165	0.11551169
47	0xbca9181a	-0.020641375
48	0x3c96675c	0.018359832
49	0x3caee840	0.02135098

gnn.convs.0.att_dst f4 [1, 1, 50]
0	0xbc37142a	-0.011174241
1	0xbaca874e	-0.0015451701
2	0xbbd89ef4	-0.0066107456
3	0xbb10b4fd	-0.0022080534
4	0xbc4fdd78	-0.01268708
5	0xbb44d67d	-0.0030035072
6	0xbc82d3de	-0.015970167
7	0x3c08f08c	0.008358132
8	0xbba3938c	-0.004991954
9	0xbaf90d59	-0.001900117
10	0x3afdaefb	0.0019354516
11	0x3ba38c68	0.004991103
12	0x3b7bdbb3	0.0038430511
13	0xbad719d0	-0.0016410891
14	0xbc19efcc	-0.009395551
15	0xbb8c88f8	-0.004288789
16	0xbc981cd2	-0.01856843
17	0xbb4518fb	-0.0030074704
18	0xba82bb23	-0.0009973984
19	0xbbb6523f	-0.0055640037
20	0xbc4cc4eb	-0.012498121
21	0xbc0a19dc	-0.008429017
22	0xbc15bb83	-0.009138945
23	0xbb8112e4	-0.0039390195
24	0x3c2bcebd	0.010486302
25	0xbb91eec1	-0.0044535105
26	0x3a5975d5	0.00082954514
27	0xbaf8ff76	-0.0018997032
28	0x3b6952f1	0.0035602415
29	0xbc26446c	-0.010148149
30	0xbc3f0859	-0.011659705
31	0xbb97b30e	-0.0046294993
32	0xbc5ee812	-0.013605135
33	0xbbfba5a6	-0.007679659
34	0x3b42198d	0.002961728
35	0xbbd63cc4	-0.0065380055
36	0x3c0059e9	0.007833936
37	0x3ae28c40	0.0017284229
38	0x3aaa62f3	0.001299946
39	0xba236937	-0.0006233635
40	0xbc95ef2b	-0.01830252
41	0xbb456a06	-0.003012301
42	0x3afdc6ba	0.0019361593
43	0x3b9fb37d	0.0048736916
44	0xbbb372ac	-0.0054763164
45	0x3c884d35	0.016638378
46	0x3be513e2	0.0069908956
47	0xb89393f0	-7.037062e-05
48	0x3c5d3a94	0.013502736
49	0x39731682	0.0002318267

gnn.convs.0.att_edge f4 [1, 1, 50]
0	0xbec4cde7	-0.3843834
1	0x3f1d8139	0.61525303
2	0x3ecc6c51	0.3992639
3	0xbefdd4ac	-0.49576318
4	0x3f0daf1a	0.5534531
5	0xbec59d84	-0.38596737
6	0x3ec9fadc	0.39449203
7	0xbea00607	-0.31254598
8	0xbf014f91	-0.50512034
9	0xbeb1fb02	-0.34761816
10	0xbec7d731	-0.39031366
11	0x3ec342a0	0.38136768
12	0x3e8b08ad	0.27155057
13	0xbf277840	-0.6541786
14	0x3ecd3188	0.40076852
15	0x3f0e1f27	0.55516285
16	0x3f1f4e0b	0.6222846
17	0x3ec1d67a	0.37858945
18	0xbec87644	-0.3915273
19	0x3efa57ed	0.48895207
20	0x3efe8bdf	0.49716088
21	0xbf1334e1	-0.5750256
22	0xbf26df29	-0.65184265
23	0x3f24b583	0.64339465
24	0x3eb21c20	0.34787083
25	0xbec7b8b0	-0.39008093
26	0xbf002f3e	-0.50072086
27	0x3eca8b43	0.39559373
28	0xbec8671a	-0.3914116
29	0x3eec97bb	0.4620951
30	0xbe95a988	-0.29230905
31	0x3ec65b34	0.38741457
32	0x3f10fb7e	0.56633747
33	0xbef185b8	-0.47172332
34	0x3f00a865	0.5025695
35	0x3f2bc47d	0.6709669
36	0xbd8be3a1	-0.06830526
37	0x3f1009c9	0.5626493
38	0xbec6d4b3	-0.38834152
39	0xbf27d0e4	-0.65553117
40	0xbed3aab4	-0.41341174
41	0x3ed2e321	0.4118891
42	0x3f29be48	0.6630597
43	0x3f171daf	0.5902967
44	0x3ec674a2	0.3876086
45	0xbef44c45	-0.4771444
46	0x3f1d67c7	0.61486477
47	0x3ee229e9	0.441726
48	0x3f1857b3	0.5950882
49	0x3f1cd768	0.61266184

gnn.convs.0.bias f4 [50]
0	0x38ca79cc	9.654797e-05
1	0xba930ab6	-0.0011218402
2	0x3b59b11e	0.0033217142
3	0x3a58a8c5	0.0008264895
4	0x3b21a28b	0.0024663534
5	0xba8018ef	-0.0009773056
6	0x39fe2b63	0.0004847898
7	0xbb605acc	-0.0034233807
8	0xbb5f4229	-0.0034066534
9	0xbb624ee9	-0.0034531897
10	0x3b54a371	0.0032446051
11	0x3b1a25e4	0.002352112
12	0xb9d80852	-0.0004120493
13	0x3b400871	0.0029301906
14	0xbb183bdd	-0.002322904
15	0xba301129	-0.0006716424
16	0x3a8ec9db	0.0010893898
17	0xba20162c	-0.00061068195
18	0x3a4252f9	0.00074128766
19	0xb9e8e862	-0.00044423627
20	0xb9deb95c	-0.00042481243
21	0xba1950b7	-0.0005848514
22	0xbaa90e79	-0.001289799
23	0x3b9084b6	0.0044103516
24	0xba452f82	-0.0007522033
25	0xbb914e38	-0.004434373
26	0xba25a02b	-0.00063181174
27	0xbb839e78	-0.0040166937
28	0xb97aaf23	-0.00023907101
29	0xba2ab517	-0.000651197
30	0xbb7d5d6f	-0.0038660427
31	0x3ade206a	0.0016946916
32	0xbaeb549d	-0.0017954294
33	0x3aeef8ea	0.0018232141
34	0xba1d732a	-0.00060062355
35	0x3a0c309d	0.000534782
36	0x3b0466b6	0.0020202822
37	0xbaaa749f	-0.0013004726
38	0x3b1d7288	0.0024024565
39	0xba144def	-0.0005657365
40	0xbaa11030	-0.001228815
41	0x3b43d6df	0.0029882712
42	0xbab8bfd9	-0.0014095261
43	0x3ac7f0c7	0.0015254252
44	0x3aee9f49	0.001820543
45	0x39cdcf77	0.0003925522
46	0xbaf07515	-0.001834544
47	0x3ae082a4	0.0017128778
48	0xbad79934	-0.0016448856
49	0xbb071879	-0.0020613952

gnn.convs.0.lin.weight f4 [50, 50]
0	0xbd7b97aa	-0.061423935
1	0x3db3478f	0.08753883
2	0x3e4d54c6	0.2005187
3	0x3e19ed50	0.15031934
4	0xbe6bd502	-0.23030475
5	0x3eba34cf	0.36368415
6	0xbe832dff	-0.2562103
7	0x3dc6ca6e	0.09706579
8	0x3de55262	0.11197354
9	0xbe10a1da	-0.14124241
10	0xbd998653	-0.074963234
11	0x3f128b65	0.5724395
12	0x3e8ba662	0.27275378
13	0xbb60dea8	-0.00343124
14	0xbe970ab3	-0.2950035
15	0xbe617af0	-0.22019553
16	0x3d151b92	0.036403246
17	0xbeb3593a	-0.35029012
18	0x3df4ae11	0.11947263
19	0x3e624892	0.22097996
20	0x3dcc5dee	0.09978853
21	0x3e73e0c2	0.23816207
22	0x3c205b04	0.009787325
23	0xbd63a8cc	-0.0555809
24	0x3e2a7f91	0.16650225
25	0xbe0b17b1	-0.13583256
26	0xbe78d9fc	-0.24301904
27	0xbe9498ad	-0.29022732
28	0xbc803cff	-0.015654085
29	0x3ea58e55	0.32335153
30	0x3e65fe65	0.22460325
31	0x3e222cce	0.15837404
32	0x3ea1a8a3	0.31573972
33	0x3d48eb9f	0.04905283
34	0xbe525a0a	-0.2054216
35	0x3c0c0570	0.008546218
36	0xbe69bd74	-0.22826177
37	0x3e49e53e	0.19716355
38	0x3df9347b	0.12168213
39	0x3d7ec7c4	0.06220223
40	0x3d7297ca	0.05922679
41	0x3dba2ca5	0.090905465
42	0xbe6f2279	-0.23352994
43	0xbdc34a00	-0.09535599
44	0x3e4f95a2	0.20271924
45	0x3ca3509e	0.019935902
46	0xbd2b5e99	-0.041838262
47	0x3d876a77	0.066121034
48	0x3e217060	0.15765524
49	0xbbe9bda5	-0.007133203
50	0x3d02d622	0.031942494
51	0xbe187576	-0.14888558
52	0xbe373414	-0.1789096
53	0xbe017712	-0.12643078
54	0xbe7e025e	-0.2480559
55	0x3f1dc145	0.6162303
56	0x3e878846	0.26471156
57	0x3c0464a0	0.0080806315
58	0xbe640756	-0.22268423
59	0x3d97159a	0.07377167
60	0xbd8295f1	-0.06376255
61	0xbd29df36	-0.041472636
62	0xbcc3b572	-0.02389023
63	0x3e3be027	0.18347226
64	0xbd9d6d3a	-0.07686849
65	0x3c81cea9	0.015845614
66	0x3dd19a0a	0.10234459
67	0xbea1142f	-0.3146071
68	0x3c0a87bf	0.008455216
69	0xbe76c0d3	-0.24096994
70	0xbde264fc	-0.110544175
71	0x3de3c88a	0.11122234
72	0x3c316311	0.010826842
73	0xbecaaef0	-0.39586592
74	0x3dd34871	0.103165515
75	0x3d05d67c	0.03267525
76	0x3e8f2d0c	0.27964056
77	0x3dbbdd18	0.0917303
78	0xbdcca976	-0.099932596
79	0xbe637985	-0.22214325
80	0xbe02ecbc	-0.1278562
81	0xbe40c1c2	-0.18823913
82	0xbcf61ea6	-0.030043911
83	0x3e12ee1f	0.14348648
84	0x3e081b38	0.13291633
85	0xbdf52a95	-0.119710125
86	0xbd36be6e	-0.0446152
87	0x3e5f74b4	0.21821862
88	0x3e24ba98	0.16086805
89	0x3d585b6c	0.05282156
90	0xbcfd20bd	-0.0308994
91	0x3e039ba1	0.12852336
92	0xbd5e524f	-0.054277714
93	0x3e2bc4c0	0.16774273
94	0x3c356154	0.011070568
95	0xbdb1dd75	-0.08684818
96	0xbd37a649	-0.044836316
97	0x3eb4e3d2	0.35330063
98	0x3ce87702	0.02837706
99	0x3d937ce7	0.072015576
100	0xbc830e16	-0.015997928
101	0x3ca17b70	0.01971218
102	0xbe911e28	-0.2834332
103	0xbd55108b	-0.05201773
104	0x3c52cea4	0.01286665
105	0x3d391d1e	0.045193784
106	0x3da0f06c	0.07858357
107	0x3f050105	0.5195468
108	0xbc04fc43	-0.0081167845
109	0xbf00a0f6	-0.50245607
110	0xbe87e437	-0.26541302
111	0x3e596df7	0.21233355
112	0xbd2274c6	-0.039662145
113	0x3bb74eea	0.005594124
114	0x3c238870	0.00998126
115	0xbda6a5ae	-0.0813707
116	0x3f0288e6	0.5099014
117	0x3e0f9e14	0.14025146
118	0x3cc6c30a	0.024262924
119	0xbeb1d6ba	-0.34734136
120	0xbe7b8f3e	-0.24566361
121	0xbe26c40c	-0.16285723
122	0xbcb6fa6a	-0.022336204
123	0x3e0b9120	0.1362958
124	0x3dc785a2	0.09742285
125	0x3e1d57af	0.1536548
126	0xbe22e672	-0.1590822
127	0x3d2a98fd	0.041649807
128	0x3e69222b	0.2276694
129	0x3ec867cf	0.391417
130	0x3d79e09c	0.06100522
131	0x3e1d1c9e	0.15342948
132	0x3dce9b2a	0.10088189
133	0x3dbc0935	0.091814436
134	0xbd9f6c2e	-0.077843055
135	0x3e76d75d	0.24105592
136	0xbc8f1b25	-0.017468998
137	0xbe398802	-0.18118289
138	0xbe3823da	-0.17982426
139	0x3e2e1288	0.16999257
140	0x3e700cc4	0.2344237
141	0x3d7481f5	0.05969425
142	0xbd814047	-0.06311088
143	0xbcb6c6d1	-0.0223116
144	0xbebf924e	-0.3741631
145	0xbdbc7470	-0.09201896
146	0x3e0c04db	0.13673727
147	0xbc829434	-0.01593981
148	0xbc3ccf89	-0.01152409
149	0xbbc19320	-0.0059074312
150	0xbc4e2718	-0.012582563
151	0x3e19da73	0.15024738
152	0xbeb37720	-0.35051823
153	0x3efcb775	0.49358717
154	0xbe53bd9c	-0.20677799
155	0x3e06684b	0.13125722
156	0x3d4a4753	0.049384426
157	0xbdcb6310	-0.09931004
158	0xbe6f5d72	-0.2337549
159	0x3e0f2a7e	0.13981053
160	0xbe8552bd	-0.26039687
161	0x3d233119	0.039841745
162	0x3ebcac08	0.3685
163	0x3e2bd618	0.16780889
164	0xbe813b52	-0.2524057
165	0x3e90f450	0.28311396
166	0x3dcc1021	0.09964014
167	0xbdc9a68b	-0.09846219
168	0x3dd1269a	0.10212441
169	0xbe61f31e	-0.22065398
170	0xbea5c1ef	-0.32374522
171	0xbea73991	-0.32661107
172	0xbe0d32d4	-0.1378892
173	0xbc9c2d87	-0.019064678
174	0xbdab33e6	-0.08359508
175	0x3e6c3121	0.23065616
176	0x3dbe8cec	0.093042225
177	0xbce659c3	-0.028118974
178	0x3e37688b	0.17910974
179	0x3e213cb1	0.15745808
180	0xbd67fffc	-0.05664061
181	0xbc8c9e67	-0.017165376
182	0x3ebb96ab	0.36638388
183	0x3d27f841	0.041008238
184	0x3ddea2e1	0.108709104
185	0x3dc5c762	0.0965717
186	0x3ceb0582	0.02868915
187	0xbdbc2fb7	-0.091887884
188	0xbe1b209d	-0.1514916
189	0x3c34ff62	0.011047216
190	0x3d82eee8	0.06393224
191	0xbcd3f47c	-0.025873415
192	0x3d0eaad7	0.034830894
193	0x3cb53c79	0.022123562
194	0xbdf5b129	-0.11996681
195	0xbe1a8050	-0.1508801
196	0xbd23ae00	-0.03996086
197	0xbce26b9e	-0.027639206
198	0xbe0e931d	-0.13923307
199	0x3dd75c26	0.10515623
200	0x3c78eb01	0.015192748
201	0xbe881f27	-0.26586267
202	0xbe3167f5	-0.17324813
203	0x3e84399e	0.25825208
204	0x3e0dbf8c	0.138426
205	0x3d45fe3a	0.048338152
206	0xbe7fccce	-0.2498047
207	0x3dad761b	0.084697925
208	0x3d32a92f	0.043618377
209	0x3d9797ee	0.07402025
210	0x3e42775a	0.18990842
211	0x3e98d9a2	0.2985354
212	0xbc706c8a	-0.014674315
213	0xbe1c1f6e	-0.15246364
214	0xbbe61d20	-0.007022515
215	0x3d96120e	0.073276624
216	0xbeb24a1e	-0.34822172
217	0x3e4e4c81	0.20146371
218	0xbec613d6	-0.3868701
219	0x3e1e8d1d	0.15483518
220	0xbdeb03ba	-0.1147532
221	0xbe4c2552	-0.19936112
222	0x3cf44168	0.029816344
223	0x3e0f37bf	0.13986109
224	0xbeac9231	-0.33705285
225	0x3ef1cc55	0.47226205
226	0x3e1d475e	0.15359256
227	0x3e2d6b0f	0.16935371
228	0xbe90277f	-0.28155133
229	0xbe4b187f	-0.19833563
230	0xbdd605ef	-0.104503505
231	0x3cbd230f	0.023088006
232	0x3db149d5	0.086566605
233	0xbd996e84	-0.07491782
234	0xbe6a19cc	-0.22861403
235	0x3e3a6623	0.18203025
236	0x3ba3c526	0.004997867
237	0xbe2ba80a	-0.1676332
238	0x3e0bd8c8	0.13656914
239	0x3dc9b5cb	0.098491274
240	0x3d934949	0.071917124
241	0xbd468728	-0.04846874
242	0xbdb30533	-0.08741226
243	0x3cf8875d	0.030337984
244	0x3de9cfd3	0.114165924
245	0x3df6539f	0.12027668
246	0x3e455d46	0.19273862
247	0x3e0b042f	0.13575815
248	0xbc1c402a	-0.009536782
249	0xbe4ad74d	-0.19808693
250	0x3cd001ea	0.025391538
251	0x3e336390	0.17518449
252	0xbdce0616	-0.100597546
253	0xbe7ab65e	-0.2448363
254	0xbce061df	-0.027390419
255	0x3ecbad0c	0.39780462

gnn.convs.0.lin_edge.weight f4 [50, 1]
0	0xbec4cde8	-0.38438344
1	0x3f1d8137	0.6152529
2	0x3ecc6c52	0.39926392
3	0xbefdd4b4	-0.49576342
4	0x3f0daf14	0.55345273
5	0xbec59d84	-0.38596737
6	0x3ec9fadf	0.39449212
7	0xbea00607	-0.31254598
8	0xbf014f92	-0.5051204
9	0xbeb1fb08	-0.34761834
10	0xbec7d728	-0.3903134
11	0x3ec3429c	0.38136756
12	0x3e8b08b4	0.27155077
13	0xbf27783d	-0.65417844
14	0x3ecd3189	0.40076855
15	0x3f0e1f25	0.5551627
16	0x3f1f4e02	0.62228405
17	0x3ec1d673	0.37858924
18	0xbec87645	-0.39152732
19	0x3efa57ed	0.48895207
20	0x3efe8be7	0.49716112
21	0xbf1334e1	-0.5750256
22	0xbf26df27	-0.65184253
23	0x3f24b590	0.6433954
24	0x3eb21c21	0.34787086
25	0xbec7b8ab	-0.39008078
26	0xbf002f46	-0.50072134
27	0x3eca8b4a	0.39559394
28	0xbec8671d	-0.3914117
29	0x3eec97c2	0.46209532
30	0xbe95a98e	-0.29230922
31	0x3ec65b41	0.38741496
32	0x3f10fb7d	0.5663374
33	0xbef185b0	-0.47172308
34	0x3f00a862	0.5025693
35	0x3f2bc472	0.67096627
36	0xbd8be3a3	-0.06830528
37	0x3f1009c6	0.56264913
38	0xbec6d4b3	-0.38834152
39	0xbf27d0e5	-0.6555312
40	0xbed3aaa5	-0.4134113
41	0x3ed2e31d	0.411889
42	0x3f29be41	0.6630593
43	0x3f171db6	0.5902971
44	0x3ec674aa	0.38760883
45	0xbef44c4a	-0.47714454
46	0x3f1d67ce	0.6148652
47	0x3ee229f1	0.44172624
48	0x3f1857ab	0.5950877
49	0x3f1cd762	0.6126615

gnn.convs.1.att_src f4 [1, 1, 50]
0	0xbeb1217b	-0.34595856
1	0xbe0ff3f2	-0.14057902
2	0xbe06759c	-0.13130802
3	0xbe82aebf	-0.25523946
4	0xbeeaf316	-0.45888585
5	0xbeb820c1	-0.3596249
6	0xbc9a4de5	-0.018835971
7	0x3dce5a12	0.10075773
8	0x3da48949	0.080339976
9	0xbd307920	-0.043084264
10	0xbeb493bd	-0.35268965
11	0x3b1ffae8	0.0024411026
12	0xbf0d66bb	-0.5523488
13	0xbe22bbab	-0.15891902
14	0x3da49580	0.08036327
15	0x3a46fd82	0.0007590876
16	0xbe67c0cc	-0.2263214
17	0x3e158593	0.14601736
18	0xbdae8a84	-0.085225135
19	0x3d95e177	0.07318395
20	0xbec52d77	-0.3851125
21	0xbbb9373f	-0.005652338
22	0xbe58bdc5	-0.21166141
23	0xbd98afbf	-0.07455396
24	0xba7fbe9c	-0.0009755881
25	0xbd528a47	-0.051401403
26	0xbe5a4f9b	-0.2131943
27	0x3d23c03a	0.039978243
28	0xbc718168	-0.0147403255
29	0xbee274d8	-0.4422977
30	0x3e86c079	0.2631872
31	0xbed155fd	-0.40885916
32	0xbd6a99e3	-0.057275664
33	0xbb8f494d	-0.004372752
34	0xbe43919d	-0.19098516
35	0xbe90223f	-0.28151128
36	0xbe2de654	-0.16982394
37	0xbe7dbeb6	-0.24779782
38	0xbe040ab9	-0.12894715
39	0xbe3b12ad	-0.18268843
40	0x3e2a5320	0.16633272
41	0xbe6ac7c6	-0.2292777
42	0x3e2a540b	0.16633622
43	0x3db7e698	0.08979529
44	0xbe701603	-0.23445897
45	0x3dd5ccff	0.104394905
46	0xbe87b1ce	-0.26502842
47	0x3ee80678	0.45317435
48	0xbe020f68	-0.1270119
49	0xbcc17d76	-0.023619395

gnn.convs.1.att_dst f4 [1, 1, 50]
0	0x3e8d948c	0.27652395
1	0x3d4d8b05	0.050181407
2	0x3e7d8274	0.24756795
3	0x3ecc0956	0.39850873
4	0xbc9ac7bb	-0.018894067
5	0x3e76fdaa	0.24120203
6	0x3eae47ce	0.34039158
7	0xbe1114f5	-0.1416815
8	0x3d41c2d7	0.047304954
9	0x3d1f5e60	0.038908362
10	0x3dfb70dd	0.12277386
11	0x3e0d2203	0.13782506
12	0xbcd5eb01	-0.026113035
13	0x3e568e26	0.20952663
14	0xbca16f28	-0.019706324
15	0x3cab04ac	0.020876251
16	0x3e9a4352	0.30129486
17	0x3e318c69	0.17338718
18	0x3e91f5b8	0.2850778
19	0x3d80faa1	0.06297804
20	0x3e8ba1ca	0.27271873
21	0x3e49ea82	0.19718364
22	0x3e2debc7	0.16984473
23	0x3d3cf9ea	0.046136774
24	0x3e418700	0.18899155
25	0x3dcd313b	0.100191556
26	0x3e80136a	0.25014812
27	0xbe54c691	-0.20778872
28	0xbe1dd81e	-0.15414473
29	0x3e569c48	0.20958054
30	0xbd13152f	-0.035908874
31	0x3ee71c93	0.45138988
32	0xbdda4986	-0.10658555
33	0x3e03a098	0.1285423
34	0xbc85586c	-0.016277514
35	0x3eb98219	0.3623207
36	0x3edbc5ad	0.42924252
37	0x3e0256cb	0.12728421
38	0xbd1a4563	-0.03766383
39	0x3e9dc4b1	0.30814126
40	0x3e2bab03	0.16764455
41	0x3e2f9dcc	0.17150038
42	0xbe2c3407	-0.16816722
43	0xbdc7f1d2	-0.097629204
44	0x3e96e9fb	0.29475388
45	0xbd500dc1	-0.050794367
46	0x3d9dfd01	0.07714272
47	0xbe83e1ca	-0.257582
48	0x3e3eb198	0.18622434
49	0xbbdcc93b	-0.0067378557

gnn.convs.1.att_edge f4 [1, 1, 50]
0	0x3d4e6213	0.0503865
1	0xbad6b345	-0.0016380331
2	0xbcbb0adb	-0.022832325
3	0x3de766b4	0.11298886
4	0xbd2d1f50	-0.04226619
5	0x3e2233a7	0.15840016
6	0x3e29a7bf	0.16567896
7	0xbe334627	-0.1750723
8	0x390342a7	0.00012517963
9	0x3e07f6d3	0.1327775
10	0xaa13734a	-1.3096222e-13
11	0xbdee73b2	-0.11643161
12	0x3a67a622	0.00088367064
13	0xaa3fb689	-1.7027537e-13
14	0xbd2a92d5	-0.041643936
15	0xaec4bfb7	-8.9471035e-11
16	0x3dceddf1	0.10100926
17	0xbe110716	-0.1416286
18	0x3e2584dd	0.16163965
19	0xbe1bdf74	-0.1522196
20	0x3d70e743	0.0588143
21	0x3df8b123	0.12143161
22	0xbdb40444	-0.08789876
23	0x3e0149ed	0.12625857
24	0x3489777a	2.560517e-07
25	0x3d7ebc69	0.0621914
26	0x3e05c083	0.13061719
27	0xbe0a6096	-0.13513407
28	0xbb88faeb	-0.0041803024
29	0xbddf7e15	-0.1091272
30	0xb40bbae2	-1.3013371e-07
31	0xbddf638a	-0.109076574
32	0x3e2413a5	0.16023119
33	0xbe060956	-0.13089499
34	0xbe168369	-0.14698566
35	0x3d78f73d	0.06078266
36	0x3c6c56ff	0.014425038
37	0x3d2c000f	0.041992243
38	0x3dc8e6c9	0.09809644
39	0x3d4e1bef	0.05031961
40	0xbd6ddfcf	-0.05807477
41	0x311841a6	2.2156228e-09
42	0xbe07b2e0	-0.13251829
43	0x3d87871a	0.066175655
44	0x37e362f0	2.710658e-05
45	0x3e1d08f8	0.15335453
46	0x3e1698ba	0.14706698
47	0xbdf8d301	-0.12149621
48	0x3d72f216	0.059312902
49	0x3ddf2a2f	0.10896718

gnn.convs.1.bias f4 [50]
0	0x39951829	0.00028437495
1	0xb8e11aa3	-0.000107337975
2	0x399041f0	0.00027514948
3	0xb8dc15be	-0.00010494467
4	0xb8374939	-4.3698794e-05
5	0xb70be5f5	-8.338587e-06
6	0xb81fb052	-3.8072765e-05
7	0xb831adfc	-4.2362124e-05
8	0x38d997a8	0.000103756145
9	0x37b11fbf	2.1114827e-05
10	0x3983025d	0.00024988028
11	0x38906043	6.884385e-05
12	0x39367da9	0.00017403685
13	0x38d81fd7	0.00010305613
14	0xb5e7b0e3	-1.7262322e-06
15	0x384ace3f	4.8352635e-05
16	0x38e95e2f	0.00011127849
17	0x39126847	0.00013962491
18	0xb9603473	-0.00021381844
19	0xb8998172	-7.3197196e-05
20	0xb84ad83e	-4.8361944e-05
21	0x37aba92b	2.0463563e-05
22	0x390d9aa3	0.00013504415
23	0xb8d5f40b	-0.00010202088
24	0xb8fcf0b9	-0.000120611345
25	0x396e95ce	0.00022753255
26	0x37e1e47d	2.6928488e-05
27	0xb831cdec	-4.239187e-05
28	0xb7010372	-7.689801e-06
29	0x3886b779	6.4237924e-05
30	0xb8970e7f	-7.202941e-05
31	0x38c7a27b	9.519324e-05
32	0xb8c4800e	-9.36986e-05
33	0x3960167e	0.00021370684
34	0x389848b5	7.2614675e-05
35	0xb91ba8c5	-0.00014844823
36	0xb868004f	-5.5313398e-05
37	0xb99f66a8	-0.00030403328
38	0xb8e83327	-0.0001107215
39	0xb890f073	-6.911242e-05
40	0x394c78c5	0.00019499946
41	0x392287af	0.0001550007
42	0xb801cd87	-3.094741e-05
43	0x392595bf	0.00015791411
44	0x37e7165f	2.7547763e-05
45	0xb9699230	-0.0002227507
46	0xb8633781	-5.417271e-05
47	0x367c715b	3.7616908e-06
48	0xb7de93c6	-2.6533275e-05
49	0xb8a913d0	-8.062238e-05

gnn.convs.1.lin.weight f4 [50, 50]
0	0x3d6b3f1e	0.05743324
1	0xbeb32ccc	-0.34995115
2	0xbe8a40c0	-0.27002525
3	0xbcd8ae8c	-0.026450418
4	0x3d48f0f4	0.049057916
5	0xbc543335	-0.012951662
6	0x3d4845f9	0.048894856
7	0xbc0c49fc	-0.008562561
8	0x3e148f75	0.1450785
9	0xbe178c36	-0.1479958
10	0xbe2542cb	-0.16138761
11	0x3dbcedb3	0.09225025
12	0xbe9ec050	-0.31006098
13	0xbcbbcbf7	-0.022924406
14	0x3da4341c	0.080177516
15	0x3daa4f4c	0.08315906
16	0xbea482fa	-0.32131177
17	0x3cc55cde	0.024092134
18	0x3e7e5d09	0.24840178
19	0xbe4d7bdd	-0.20066781
20	0x3e66fd1a	0.22557488
21	0x3d978dfc	0.07400128
22	0xbe129616	-0.14315066
23	0xbe082cac	-0.13298291
24	0x3ea6e3a8	0.32595563
25	0x3c1f884d	0.0097370865
26	0xbc98c24e	-0.01864734
27	0xbde63668	-0.11240846
28	0xbe68223c	-0.2266931
29	0x3e82541c	0.25454795
30	0xbe0b9a69	-0.13633122
31	0x3db99872	0.0906228
32	0xbd54c03f	-0.051941153
33	0x3bc91a7c	0.0061371904
34	0x3d9b40bc	0.075807065
35	0xbeb31121	-0.34974006
36	0xbd8ca445	-0.068672694
37	0x3eaedf5a	0.3415478
38	0x3cae582d	0.02128228
39	0xbecef150	-0.40418482
40	0x3d136f4b	0.03599481
41	0xbed84e90	-0.42247438
42	0x3d5c20cd	0.05374222
43	0xbc8d8102	-0.01727343
44	0x3e2acf6e	0.1668069
45	0xbee44e3c	-0.44590938
46	0xbcb6cc6d	-0.022314275
47	0xbdca48a7	-0.098771386
48	0x3dd9ba90	0.10631287
49	0xbe3c9d5f	-0.18419407
50	0xbdaf3d98	-0.0855667
51	0xbce848b3	-0.028354978
52	0xbe1cfa9e	-0.15329978
53	0xbde2d9b0	-0.11076677
54	0x3d759a4a	0.059961595
55	0xbe8662c3	-0.26247224
56	0xbd3387b8	-0.043830603
57	0x3e34e2b8	0.17664611
58	0x3da87844	0.08226064
59	0x3e5cf373	0.21577244
60	0x3dc13a53	0.094349526
61	0xbe5c0b12	-0.21488598
62	0x3ce1d53e	0.027567502
63	0x3e06388f	0.13107513
64	0xbd9b0eda	-0.07571192
65	0x3d20a6b3	0.039221477
66	0xbe211ff6	-0.15734848
67	0xbdce2dc7	-0.10067325
68	0x3e80f100	0.25183868
69	0x3d302bbf	0.04301047
70	0xbdaf6a41	-0.08565188
71	0xbe2d356a	-0.16914907
72	0x3e1271e2	0.14301255
73	0xbdf35381	-0.118811615
74	0x3d8c6f38	0.06857151
75	0xbe009967	-0.12558518
76	0x3dd18764	0.10230902
77	0x3e170b11	0.14750315
78	0x3e0459a4	0.1292482
79	0xbe2994da	-0.16560689
80	0xbe824398	-0.25442195
81	0xbe95f437	-0.29287884
82	0x3e9bb2a4	0.3040973
83	0x3e4928f8	0.19644535
84	0xbea9c347	-0.33156797
85	0x3e9b7ad5	0.3036715
86	0xbebcfc1a	-0.36911088
87	0x3d7b0fa9	0.06129423
88	0x3d2e1387	0.04249909
89	0x3e14ade5	0.1451946
90	0x3d9e6b03	0.077352546
91	0xbdd30d39	-0.103052564
92	0xbef8637c	-0.485134
93	0x3c612a7b	0.013743038
94	0x3bc846e1	0.006111965
95	0xbe05b326	-0.13056621
96	0xbc91238d	-0.017717147
97	0x3e7f6b4a	0.24943271
98	0x3da0949b	0.07840844
99	0xbeaf6c61	-0.34262374
100	0xbe128f9f	-0.143126
101	0xbe0584eb	-0.13038985
102	0xbe528e3f	-0.20562075
103	0xbe79f8ba	-0.24411288
104	0xbde1ee9f	-0.110318415
105	0xbdc911ff	-0.098178856
106	0xbd61de9c	-0.055143937
107	0x3e4b9b5f	0.19883488
108	0xbe85d748	-0.2614081
109	0x3dee6d22	0.11641909
110	0x3e810c3e	0.25204653
111	0xbcefaa37	-0.02925597
112	0x3dcbbc6c	0.09948048
113	0xbe82fce1	-0.25583556
114	0xbdbc2a1d	-0.0918772
115	0xbe00c929	-0.12576737
116	0x3e4217b6	0.18954358
117	0xbe7fdbed	-0.24986239
118	0x3e3c3174	0.1837824
119	0x3e155530	0.14583278
120	0xbee65ea2	-0.44994074
121	0x3d5c376c	0.053763792
122	0xbe1b6d29	-0.1517836
123	0xbd9564a8	-0.07294589
124	0xbe1d1502	-0.15340045
125	0x3df75249	0.120762415
126	0xbeb85e37	-0.3600938
127	0x3dd1b5ea	0.102397755
128	0x3d1e57a8	0.038657814
129	0xbda21468	-0.079140484
130	0xbe2fa0dc	-0.17151207
131	0x3d094b7e	0.03351926
132	0xbdc907cc	-0.0981594
133	0x3e7aceee	0.24493
134	0xbe4f4864	-0.20242459
135	0x3e081841	0.13290502
136	0x3e2a080d	0.16604634
137	0xbec8537f	-0.39126202
138	0x3ca89adf	0.02058166
139	0xbe9487d1	-0.2900987
140	0x3dc09668	0.09403688
141	0xbbee2c8e	-0.007268495
142	0xbe9bb926	-0.30414695
143	0xbe2eb08d	-0.17059536
144	0x3d374a47	0.04474857
145	0x3dbe095b	0.09279128
146	0xbc8ac4ff	-0.016939638
147	0x3dcdb0f4	0.10043517
148	0xbd3b3193	-0.045701575
149	0xbdf07fe5	-0.11743144
150	0x3d328924	0.04358782
151	0x3e38e376	0.1805552
152	0x3e31025d	0.17286058
153	0xbd8a522b	-0.067539535
154	0x3d991abd	0.07475803
155	0x3d8f484b	0.06996211
156	0xbb82689f	-0.003979757
157	0xbdb330ac	-0.08749518
158	0x3d4710a7	0.048599865
159	0x3e52412b	0.20532672
160	0xbe858804	-0.26080334
161	0xbe08804c	-0.13330191
162	0xbe0acf3b	-0.13555615
163	0x3e161298	0.1465553
164	0x3d64c41e	0.055851094
165	0xbe016fa3	-0.12640242
166	0x3d1ef9c6	0.03881242
167	0x3dc8d0ec	0.09805474
168	0xbea903fe	-0.33010858
169	0x3dde43ca	0.108527735
170	0x3db47f55	0.08813349
171	0xbeb47a74	-0.35249674
172	0x3dd48b1e	0.10378097
173	0x3d8af3d4	0.06784788
174	0x3e482a61	0.19547416
175	0xbe6359ea	-0.22202268
176	0xbf46bc2d	-0.77630883
177	0x3d18b38d	0.037280608
178	0x3e8a521c	0.2701577
179	0xbe6bf618	-0.23043096
180	0x3e5a6206	0.21326455
181	0xbe66343c	-0.22480863
182	0xbcd3b4b3	-0.025843
183	0x3d0661c5	0.032808084
184	0xbe5e6acb	-0.21720426
185	0xbe455768	-0.19271624
186	0xbe8493c9	-0.25894
187	0xbe9f951c	-0.3116845
188	0xbe11cae5	-0.14237554
189	0x3d7c4878	0.06159255
190	0xbb313a17	-0.002704268
191	0xbe83f58b	-0.25773272
192	0xbdd30b20	-0.10304856
193	0xbe8ab046	-0.2708761
194	0xbe801e25	-0.25022998
195	0xbe2070a4	-0.15667969
196	0xbe863373	-0.26211128
197	0x3dace0c0	0.08441305
198	0xbd7dbeb2	-0.06194944
199	0xbdbdf89d	-0.09275935
200	0xbd8d0a8c	-0.06886777
201	0x3e6086e1	0.21926452
202	0xbe2961a8	-0.16541159
203	0xbda8cfa0	-0.08242726
204	0xbd1c171e	-0.038107984
205	0x3c748d61	0.0149262855
206	0xbd7d3ac0	-0.061823606
207	0xbdc4dc96	-0.09612386
208	0xbd93c0b5	-0.0721449
209	0x3d2fcb0f	0.04291826
210	0xbdab714f	-0.08371221
211	0xbc90cb8a	-0.01767518
212	0xbe1e37d6	-0.15450987
213	0x3c4948fc	0.012285467
214	0xbdfbb331	-0.122900374
215	0xbe50ee08	-0.20403302
216	0xbd053e0f	-0.032529887
217	0x3dca7d8b	0.09887227
218	0x3d7b3c69	0.06133691
219	0xbdc31cfb	-0.09527012
220	0xbdb9f3f9	-0.09079737
221	0xbbc5513d	-0.0060216472
222	0x3e3901be	0.18067071
223	0xbd9b4344	-0.07581189
224	0x3c1068be	0.008814035
225	0xbca70f62	-0.020393077
226	0x3da08c12	0.07839216
227	0xbd652403	-0.055942547
228	0x3dcf78d8	0.10130471
229	0xbef52901	-0.47882846
230	0x39abfa23	0.00032802028
231	0xbda5eb03	-0.081014656
232	0xbdece0a4	-0.11566284
233	0xbe1c1382	-0.15241817
234	0xbe978c3b	-0.29599175
235	0xbe3bd621	-0.18343402
236	0x3cbb957e	0.022898432
237	0xbe9d2636	-0.30693215
238	0xbdf77a44	-0.12083867
239	0xbbb1b67b	-0.0054233647
240	0x3e54f9fc	0.20798486
241	0xbe53e882	-0.20694163
242	0xbe1f0b7e	-0.15531728
243	0xbe9de0c8	-0.30835557
244	0xbe9261e4	-0.2859031
245	0x3c51ad42	0.012797656
246	0xbceff9da	-0.029293943
247	0xbd00066e	-0.03125613
248	0xbf1e52ae	-0.6184491
249	0xbe5edfc0	-0.21765041
250	0x3c1400f5	0.009033431
251	0x3deffc2c	0.1171802
252	0xbe35d426	-0.1775671
253	0x3dcf90fb	0.10135075
254	0x3daf9f5b	0.085753165
255	0xbdf96754	-0.121779114

gnn.convs.1.lin_edge.weight f4 [50, 1]
0	0x3d4e6217	0.050386515
1	0xbad6b345	-0.0016380331
2	0xbcbb0ad1	-0.022832306
3	0x3de766b9	0.1129889
4	0xbd2d1f49	-0.042266164
5	0x3e2233a7	0.15840016
6	0x3e29a7be	0.16567895
7	0xbe334628	-0.17507231
8	0x39034298	0.00012517942
9	0x3e07f6d1	0.13277747
10	0xaa137349	-1.309622e-13
11	0xbdee73b1	-0.1164316
12	0x3a67a60c	0.00088366936
13	0xaa3fb66b	-1.7027497e-13
14	0xbd2a92cd	-0.041643906
15	0xaec4bfbd	-8.9471076e-11
16	0x3dceddf3	0.10100927
17	0xbe110713	-0.14162855
18	0x3e2584db	0.16163962
19	0xbe1bdf76	-0.15221962
20	0x3d70e740	0.058814287
21	0x3df8b122	0.121431604
22	0xbdb4043f	-0.087898724
23	0x3e0149ec	0.12625855
24	0x3489777d	2.5605178e-07
25	0x3d7ebc6e	0.06219142
26	0x3e05c085	0.13061722
27	0xbe0a6092	-0.13513401
28	0xbb88faf1	-0.004180305
29	0xbddf7e13	-0.109127186
30	0xb40bb97a	-1.301286e-07
31	0xbddf6391	-0.10907663
32	0x3e2413a7	0.16023122
33	0xbe060950	-0.1308949
34	0xbe16836a	-0.14698568
35	0x3d78f739	0.060782645
36	0x3c6c56f0	0.014425024
37	0x3d2c0014	0.041992262
38	0x3dc8e6c7	0.09809642
39	0x3d4e1bf0	0.050319612
40	0xbd6ddfcc	-0.058074757
41	0x311841ba	2.2156272e-09
42	0xbe07b2dd	-0.13251825
43	0x3d87871a	0.066175655
44	0x37e362ea	2.710657e-05
45	0x3e1d08fb	0.15335457
46	0x3e1698b8	0.14706695
47	0xbdf8d2f9	-0.12149615
48	0x3d72f216	0.059312902
49	0x3ddf2a2e	0.10896717

gnn.convs.2.att_src f4 [1, 1, 50]
0	0xbd8d6cfd	-0.069055535
1	0x3caac6ec	0.020846806
2	0xbce8a87e	-0.028400656
3	0x3d91641d	0.07099173
4	0xbe58d5bf	-0.21175288
5	0x3dd7d7e5	0.105392255
6	0xbd74f7ac	-0.05980651
7	0xbd66568e	-0.05623489
8	0x3dc8303f	0.09774827
9	0xbc2cf577	-0.01055657
10	0x3dfdd5db	0.12394305
11	0x3cfdc701	0.030978682
12	0x3e729f25	0.23693521
13	0x3d126fc3	0.035751116
14	0xbc8f6d3c	-0.017508142
15	0xbd8b8719	-0.06812877
16	0x3ca1a943	0.01973403
17	0x3daa64d2	0.08320011
18	0xbd4319c0	-0.04763198
19	0xbe82bffe	-0.25537103
20	0xbd7579f4	-0.059930757
21	0x3cd9a928	0.026569918
22	0xbdd4dbd2	-0.1039349
23	0x3eda4d5e	0.4263715
24	0x3df4e9f5	0.11958686
25	0xbe5c1ac0	-0.2149458
26	0x3c767a9b	0.01504388
27	0x3c88f6ff	0.01671934
28	0xbdc467fa	-0.095901445
29	0x3dfc91ed	0.12332521
30	0xbcd0e46e	-0.025499549
31	0x3d8dd9eb	0.0692633
32	0xbcfbc175	-0.030731896
33	0xbc7b3fd7	-0.015335045
34	0x3e462ff1	0.19354226
35	0x3ec57bc2	0.38570982
36	0x3e003993	0.12521963
37	0x3c19d2aa	0.009388605
38	0xbc3e3da4	-0.011611376
39	0x3e16b5c1	0.14717771
40	0x3ad6aedc	0.0016379016
41	0x3e931a2f	0.28730914
42	0x3c7eabae	0.015543861
43	0xbd362103	-0.044465076
44	0xbd876651	-0.06611312
45	0xbdc91d86	-0.09820084
46	0x3da25836	0.07926981
47	0x3ef231f2	0.4730373
48	0x3d8bfa45	0.068348445
49	0x3e334b4e	0.17509195

gnn.convs.2.att_dst f4 [1, 1, 50]
0	0x3de8a17b	0.11358925
1	0xbdd67468	-0.104714215
2	0xbe04219c	-0.12903446
3	0xbdf7ed88	-0.12105852
4	0xbbe38e51	-0.0069444557
5	0x3d067536	0.032826625
6	0xbc4cf78d	-0.012510193
7	0x3d88db68	0.066824734
8	0x3d17793b	0.03698085
9	0x3d6c2229	0.057649765
10	0xbc824730	-0.015903085
11	0x3b4d6783	0.0031342215
12	0xbeb91fb0	-0.36156988
13	0x3dd9bd86	0.10631852
14	0x3dcf6c77	0.1012811
15	0xbcd7f45a	-0.026361633
16	0xbde8c811	-0.11366285
17	0xbe01e62d	-0.12685461
18	0xbd919217	-0.071079426
19	0x3e291d38	0.16515052
20	0x3e20156d	0.15633173
21	0xbd51773a	-0.051139094
22	0x3e35c92b	0.1775252
23	0xbe257bf7	-0.1616057
24	0x3d857d3b	0.065180264
25	0x3dddab46	0.108236834
26	0x3de4c515	0.11170403
27	0x3ba90100	0.00515759
28	0x3a96b77a	0.0011498772
29	0xbdb985c2	-0.090587154
30	0xbc464859	-0.01210221
31	0xbdb64ba1	-0.08901144
32	0x3c29664c	0.010339331
33	0x3d962845	0.073318996
34	0x3daa0594	0.08301845
35	0x3e1eba02	0.15500644
36	0x3ded9a4b	0.11601695
37	0xbdb336bc	-0.08750674
38	0x3d32db70	0.043666303
39	0xbd7440bf	-0.05963206
40	0x3d415ef3	0.04720969
41	0xbd9c8a09	-0.076435156
42	0xbd0244fa	-0.031804062
43	0xbd839033	-0.06423988
44	0x3c255af8	0.010092489
45	0x3b99f4fb	0.0046983934
46	0x3d54d68b	0.051962417
47	0x3e33042d	0.17482062
48	0xbd481d50	-0.04885608
49	0xbd27610d	-0.04086404

gnn.convs.2.att_edge f4 [1, 1, 50]
0	0xaf4e9940	-1.8790036e-10
1	0xb222cca3	-9.47617e-09
2	0x20083569	1.153732e-19
3	0xa0e68a42	-3.9055007e-19
4	0x9b00cbb2	-1.0653729e-22
5	0xadc47a96	-2.233706e-11
6	0x2bcc5351	1.4518197e-12
7	0x241e4bb6	3.4324918e-17
8	0x142ba79b	8.666348e-27
9	0x19fb146b	2.5961038e-23
10	0xb2a20cc9	-1.8865096e-08
11	0x1758849c	6.996074e-25
12	0x30a812e8	1.2228982e-09
13	0x2d0880e5	7.759325e-12
14	0x8e9aa11d	-3.8119078e-30
15	0x1b334163	1.482766e-22
16	0x26021bd2	4.5140514e-16
17	0xab0d1b02	-5.0130744e-13
18	0x1acdf9f8	8.518986e-23
19	0x34d2b7c0	3.9249244e-07
20	0x208931bf	2.3241622e-19
21	0xb26189ba	-1.3128039e-08
22	0x1e68ae3c	1.23180086e-20
23	0x9ea126e5	-1.7062624e-20
24	0xa9a9d770	-7.54248e-14
25	0x32b45914	2.0995266e-08
26	0x14ff0ce5	2.5753506e-26
27	0xae23adac	-3.721616e-11
28	0x9f93175e	-6.229558e-20
29	0x318403ff	3.84216e-09
30	0x1c6548c6	7.58638e-22
31	0xb481a981	-2.4151453e-07
32	0xa6fb159a	-1.7422479e-15
33	0x9ba1657d	-2.67008e-22
34	0xac81082f	-3.667309e-12
35	0x278975d9	3.815291e-15
36	0x27676abb	3.2115549e-15
37	0x16863b53	2.1686306e-25
38	0xadc5d2a3	-2.2489849e-11
39	0x0a7879e5	1.19636915e-32
40	0x1cf4f372	1.6209495e-21
41	0xab05d5e3	-4.754792e-13
42	0x2008f8ec	1.160201e-19
43	0x1b117a1f	1.2033578e-22
44	0xab7fe1ed	-9.0907734e-13
45	0x193df173	9.819831e-24
46	0x25c9041c	3.4870726e-16
47	0xa3395655	-1.0047152e-17
48	0x9cd74b3a	-1.4246952e-21
49	0x84c6772d	-4.6659022e-36

gnn.convs.2.bias f4 [50]
0	0x381ed667	3.7869813e-05
1	0x371fb00d	9.5181285e-06
2	0xb4bdf956	-3.538541e-07
3	0x356e9adc	8.888726e-07
4	0x3714c980	8.868403e-06
5	0x36d7883f	6.4233604e-06
6	0xb8316f7c	-4.2303916e-05
7	0xb601cd1d	-1.934189e-06
8	0x38120285	3.481146e-05
9	0xb5688b62	-8.6629564e-07
10	0xb5ddd89a	-1.6528822e-06
11	0x34702875	2.236646e-07
12	0xb42db1dd	-1.6176587e-07
13	0x3481fb0f	2.4210792e-07
14	0x351eb876	5.912801e-07
15	0x34993381	2.8535945e-07
16	0x37d5c6d6	2.5484169e-05
17	0xb868dece	-5.5520613e-05
18	0xb911f281	-0.00013918617
19	0x31e75194	6.732259e-09
20	0x34e22f97	4.2130407e-07
21	0x33c91e1c	9.365269e-08
22	0xb6dbad32	-6.546871e-06
23	0x3327357b	3.8931358e-08
24	0x382cd282	4.1204046e-05
25	0x301b7e1d	5.656789e-10
26	0xb53dbf6a	-7.068653e-07
27	0x349ad73d	2.8841342e-07
28	0x35a08711	1.1960238e-06
29	0xb2b1eb45	-2.07125e-08
30	0xb4d18414	-3.9025383e-07
31	0xb40e3fbf	-1.3247971e-07
32	0x348434cf	2.462534e-07
33	0xb5a97908	-1.2626706e-06
34	0x338ed971	6.6519426e-08
35	0xb3bae921	-8.703706e-08
36	0x3781db80	1.5480211e-05
37	0x37fbc398	3.0012612e-05
38	0xb671284d	-3.5935257e-06
39	0xb846efbb	-4.7430145e-05
40	0xb5b647f3	-1.3580997e-06
41	0xb320ba36	-3.742226e-08
42	0xb4d64493	-3.99105e-07
43	0x386d78ce	5.661771e-05
44	0x35737fc7	9.0710495e-07
45	0xb4a256be	-3.0237965e-07
46	0x37417ce4	1.1532775e-05
47	0xb4255bc0	-1.5400201e-07
48	0x369e7936	4.7228777e-06
49	0x35124f55	5.450468e-07

gnn.convs.2.lin.weight f4 [50, 50]
0	0x3ec27234	0.37977755
1	0xbd8f515d	-0.06997941
2	0x3eb922a8	0.36159253
3	0x3e3dbd4e	0.18529245
4	0x3d95ea80	0.07320118
5	0xbe50534e	-0.20344278
6	0xbe4bd79e	-0.1990647
7	0xbd35c751	-0.044379536
8	0xbef9713f	-0.48719212
9	0x3d291efe	0.041289322
10	0x3e2da2db	0.16956656
11	0xbd2d4bd6	-0.04230865
12	0x3e4a8d0b	0.19780366
13	0xbef43451	-0.47696164
14	0x3dd15b33	0.10222473
15	0xbd50f139	-0.051011298
16	0x3dda7b34	0.106680304
17	0xbdd07b59	-0.10179777
18	0xbba03831	-0.004889511
19	0x3e513a84	0.20432478
20	0xbdbc5039	-0.09194989
21	0x3e74e245	0.2391444
22	0xbe49ca5c	-0.197061
23	0xbda9a244	-0.08282903
24	0xbe9ffeda	-0.31249124
25	0xbdb52efe	-0.08846854
26	0xbe2ee37d	-0.17078967
27	0x3e249f7b	0.16076462
28	0xbe1363b5	-0.14393504
29	0xbe7dffbf	-0.2480459
30	0x3cb39f3b	0.021926513
31	0x3dd5475c	0.10414001
32	0x3df1dd8b	0.11809834
33	0x3e41ce31	0.18926312
34	0xbd8e0c76	-0.069359705
35	0x3bbc305e	0.0057430705
36	0x3d91bd96	0.07116239
37	0x3df23704	0.118269
38	0xbdc8c105	-0.098024406
39	0x3df9750b	0.12180527
40	0x3de41e9b	0.1113865
41	0x3e60d06d	0.21954508
42	0xbd826ca7	-0.0636838
43	0x3e67b498	0.22627485
44	0x3cb50726	0.022098135
45	0xbe9a8a0e	-0.30183452
46	0x3c23f30d	0.010006678
47	0x3dbdd091	0.092682965
48	0x3cd2eec2	0.025748614
49	0x3d8fcee1	0.07021881
50	0x3d2489bf	0.040170427
51	0xbca30f05	-0.019904623
52	0xbcf724e7	-0.030168964
53	0xbe8864f1	-0.26639512
54	0x3e396dc6	0.18108281
55	0x3ceb3c94	0.02871541
56	0x3e00cb71	0.12577607
57	0xbd734cfb	-0.059399586
58	0xbe757d61	-0.2397361
59	0x3d23e42a	0.040012516
60	0x3d7efcd5	0.06225284
61	0xbda8ae30	-0.08236349
62	0xbc9fa41a	-0.01948743
63	0x3e295bf2	0.1653898
64	0x3e768a9b	0.24076311
65	0x3ca51c50	0.020155102
66	0xbd3ecf86	-0.04658463
67	0x3e08848b	0.13331811
68	0xbe788146	-0.24268064
69	0xbe662e21	-0.22478534
70	0x3d25ffff	0.04052734
71	0xbe84338b	-0.25820574
72	0x3e83f857	0.25775406
73	0xbd269bce	-0.04067593
74	0x3e55aabd	0.20865913
75	0x3bc47718	0.0059956424
76	0xbe68df6a	-0.22741476
77	0x3cf773e5	0.03020663
78	0x3e7b3972	0.24533632
79	0x3e492e2c	0.1964652
80	0x3df71225	0.12064008
81	0xbd92f4b3	-0.07175579
82	0x3c4a5382	0.012349011
83	0xbdc178e1	-0.09446884
84	0x3d235909	0.039879832
85	0x3cf4e062	0.02989215
86	0x3dc6d278	0.097081125
87	0x3d10c75b	0.03534637
88	0xbce25cfd	-0.02763223
89	0x3e8b4271	0.27199128
90	0x3d69b2d3	0.057055306
91	0x3e0b426d	0.13599558
92	0x3dc995a6	0.09842996
93	0xbbed9503	-0.0072504296
94	0xbc679c9d	-0.014136461
95	0x3db41d61	0.08794666
96	0xbd8b820c	-0.06811914
97	0xbd0f570f	-0.034995135
98	0x3d265be0	0.040614963
99	0xbdde2fd2	-0.10848965
100	0x3dd66703	0.10468867
101	0x3dc712c6	0.097203776
102	0xbd770cc3	-0.060314905
103	0xbc9593e6	-0.018259
104	0x3d3c17f3	0.045921277
105	0xbcc9bab8	-0.024625167
106	0x3df557d0	0.119796395
107	0xbe04ec73	-0.12980823
108	0xbe4c9e4c	-0.1998226
109	0xbd2804ab	-0.041020077
110	0x3be880a7	0.0070954147
111	0x3e236485	0.15956314
112	0xbe6c1704	-0.23055655
113	0x3ec13ab8	0.3774011
114	0x3da67a47	0.08128791
115	0xbd172513	-0.03690059
116	0xbd8afed1	-0.067868836
117	0xbd164590	-0.036687434
118	0xbe92f8e8	-0.28705525
119	0x3dab6dfe	0.08370589
120	0xbe6ef43c	-0.23335356
121	0xbe04fd86	-0.12987337
122	0x3e8f4496	0.27982014
123	0xbc9ae000	-0.01890564
124	0x3e6dce45	0.23223217
125	0x3dea836b	0.11450847
126	0x3e39ece4	0.18156773
127	0x3c034021	0.008010895
128	0xbda60083	-0.08105566
129	0x3ea4e09e	0.3220262
130	0xbe31317e	-0.17304036
131	0x3d26f0d7	0.040757027
132	0xbd44144a	-0.04787091
133	0xbee21317	-0.4415519
134	0xbe393852	-0.1808789
135	0xbe18efbc	-0.14935201
136	0x3e79aec1	0.2438307
137	0x3c8e8e29	0.017401772
138	0x3d498121	0.049195413
139	0xbe773f03	-0.24145131
140	0x3e9bf9b0	0.30463934
141	0x3c8dfb8d	0.017331863
142	0xbde5fcfb	-0.11229893
143	0x3dae5f6b	0.08514293
144	0x3cdb9bae	0.026807632
145	0x3e519ecb	0.20470731
146	0x3e5792d3	0.21052103
147	0xbe316eaf	-0.17327379
148	0x3cd05e56	0.025435608
149	0x3ca2f5ec	0.019892655
150	0x3e07ede5	0.13274343
151	0x3ce28cb1	0.027654978
152	0xbd9710ef	-0.07376277
153	0xbd9c61c1	-0.076358326
154	0x3d415bf7	0.047206845
155	0x3c4a3a04	0.012342934
156	0x3e19873a	0.14992991
157	0xbc39de27	-0.011344469
158	0x3c6c6a00	0.014429569
159	0xbce7e992	-0.028309617
160	0xbc4eeaa9	-0.0126291895
161	0xbdb2370b	-0.08701905
162	0xbd8523be	-0.06500958
163	0x3da3593b	0.07976004
164	0xbbb6459a	-0.0055624964
165	0xbd3fe657	-0.04685053
166	0xbdcc122c	-0.099644035
167	0x3c780e81	0.015140177
168	0xbda298a2	-0.07939269
169	0x3c12bcc9	0.008956143
170	0xbdad805d	-0.08471749
171	0xbc3e3adf	-0.011610716
172	0xbe1f6192	-0.15564564
173	0xbb86a24a	-0.004108702
174	0x3d130650	0.035894692
175	0x3d166bf9	0.036724064
176	0x3d54d79d	0.051963437
177	0x3d244e9b	0.040114027
178	0xbcff03fd	-0.031129831
179	0xbd7f1c63	-0.06228293
180	0x3e072620	0.13198137
181	0x3e220a1b	0.15824167
182	0x3d880aeb	0.066427074
183	0xbd9bad43	-0.076014064
184	0x3e4a2e5d	0.19744249
185	0xbd43a21b	-0.047762018
186	0x3d41fb91	0.047359053
187	0x3c2da9bb	0.010599549
188	0x3c9e1846	0.019298684
189	0xbd0e33dd	-0.03471743
190	0xbe01a5c5	-0.12660892
191	0x3d75d8ea	0.06002132
192	0x3d338e97	0.043837156
193	0xbd96fd99	-0.07372589
194	0xbca4d967	-0.020123197
195	0x3c9dcc8a	0.01926257
196	0x3e71455f	0.23561619
197	0x3b14f598	0.0022729393
198	0x3d022b12	0.031779356
199	0xbdd8e50f	-0.105905645
200	0x3e25efce	0.1620476
201	0xbe0f5868	-0.13998568
202	0xbe0295d6	-0.1275247
203	0x3d02ec31	0.03196353
204	0x3c4a37a1	0.0123423645
205	0x3d0027cc	0.031287953
206	0xbd8cc949	-0.068743296
207	0x3dfdc78a	0.12391575
208	0x3dfc7513	0.12327018
209	0xbd229e12	-0.03970153
210	0x3d644e14	0.055738524
211	0xbb2109ac	-0.0024572415
212	0xbd5973ae	-0.053088836
213	0xbe34f0e1	-0.17670013
214	0x3b9c4320	0.004768744
215	0x3d5c3550	0.05376178
216	0xbe5a9127	-0.21344434
217	0xbe01b535	-0.12666781
218	0x3e4fda93	0.20298223
219	0xbc684c8e	-0.014178408
220	0x3d9a5004	0.07534793
221	0x3ce2484b	0.027622363
222	0xbd8a41df	-0.06750845
223	0x3d97f860	0.07420421
224	0x3e0ec6a8	0.13942969
225	0xbd0e6430	-0.034763515
226	0x3e996c61	0.299655
227	0xbcd424bf	-0.025896428
228	0xbdb6506a	-0.089020565
229	0x3dd54d91	0.10415185
230	0xbd006aed	-0.031351972
231	0x3de58a25	0.112079896
232	0xbc19bdab	-0.009383599
233	0xbe06d614	-0.13167602
234	0x3e3e6045	0.18591411
235	0x3b3e0e6b	0.0029000293
236	0xbe438d46	-0.1909686
237	0x3d747619	0.05968294
238	0xbcbb8d98	-0.022894666
239	0xbde122df	-0.10992979
240	0x3ca63e4e	0.020293381
241	0x3d95a1f5	0.073062815
242	0x3a085ff6	0.00052022876
243	0xbdeb197f	-0.11479472
244	0x3d765a44	0.060144678
245	0xbe0e795e	-0.13913485
246	0x3eb6be53	0.3569208
247	0xbde91ae5	-0.11382083
248	0x3d9d7c41	0.07689715
249	0xbe1246bb	-0.14284794
250	0x3d235373	0.039874505
251	0xbbe78be8	-0.0070662387
252	0xbdebe275	-0.115178026
253	0x3e80d725	0.25164142
254	0x3c22eaeb	0.009943704
255	0xba081f11	-0.00051926175

gnn.convs.2.lin_edge.weight f4 [50, 1]
0	0xaf51e45a	-1.9089566e-10
1	0xb222ce8a	-9.476603e-09
2	0x2008365e	1.1537637e-19
3	0xa0e687c7	-3.9053365e-19
4	0x9b006e69	-1.0623587e-22
5	0xadc4a0ff	-2.2354117e-11
6	0x2bcc5b3a	1.4520392e-12
7	0x241e48c7	3.4322433e-17
8	0x142bb7e1	8.6695575e-27
9	0x19fb0283	2.5953806e-23
10	0xb2a20cde	-1.8865133e-08
11	0x17588242	6.9957773e-25
12	0x30a812b8	1.2228929e-09
13	0x2c083ce9	1.9360574e-12
14	0x8e9abe8b	-3.8147417e-30
15	0x1b331c58	1.4815691e-22
16	0x2601ee95	4.5079205e-16
17	0xab1253b1	-5.1985765e-13
18	0x1acbeb76	8.433924e-23
19	0x34d2742e	3.920008e-07
20	0x2088e016	2.3187584e-19
21	0xb2619a0c	-1.313175e-08
22	0x1e68a9ea	1.2317115e-20
23	0x9ea174f6	-1.7094912e-20
24	0xa98f35d1	-6.3598114e-14
25	0x32b4590d	2.0995254e-08
26	0x14ff18a5	2.575814e-26
27	0xad409e5c	-1.0949099e-11
28	0x9f93246b	-6.231717e-20
29	0x31841d91	3.845067e-09
30	0x1c654a4e	7.586578e-22
31	0xb4814250	-2.407637e-07
32	0xa6fb13e8	-1.7422019e-15
33	0x9ba18ab6	-2.6724856e-22
34	0xac80f0a7	-3.6646966e-12
35	0x2789d50c	3.8256124e-15
36	0x27648e9b	3.1718663e-15
37	0x168632ae	2.168085e-25
38	0xadc5c9de	-2.2485954e-11
39	0x0a788383	1.19655e-32
40	0x1cf4d055	1.6200418e-21
41	0xab05f00f	-4.758424e-13
42	0x2008f8c6	1.160196e-19
43	0x1b118542	1.2037177e-22
44	0xab7fd081	-9.0883556e-13
45	0x1944c2a3	1.0172269e-23
46	0x25c8fd75	3.486622e-16
47	0xa33925f2	-1.0036905e-17
48	0x9cd742cc	-1.4244773e-21
49	0x84a97a76	-3.984417e-36

gnn.batch_norms.0.weight f4 [50]
0	0x3f05f311	0.52324015
1	0x3f33eff5	0.7028802
2	0x3f44f623	0.76938075
3	0x3f38403e	0.71973026
4	0x3f1d00d9	0.6132942
5	0x3edfa5df	0.43681237
6	0x3ef43f60	0.477046
7	0x3f350b2d	0.7072018
8	0x3f2918c6	0.66053426
9	0x3f3d77f9	0.7401119
10	0x3f2aa95d	0.6666468
11	0x3ef455cf	0.47721717
12	0x3f0b9619	0.54525906
13	0x3f23ac2b	0.6393458
14	0x3f3b8374	0.73247457
15	0x3f128eb2	0.57248986
16	0x3f07fb08	0.5311742
17	0x3ee4460e	0.44584697
18	0x3f4b5eba	0.79441416
19	0x3f030958	0.5118613
20	0x3f12465f	0.5713863
21	0x3f2e55a1	0.6809941
22	0x3f329f2b	0.6977412
23	0x3f459192	0.7717525
24	0x3ef1851a	0.4717186
25	0x3f4650ec	0.77467227
26	0x3f1eef48	0.62083864
27	0x3f547a62	0.8299924
28	0x3f3a4ccc	0.7277343
29	0x3f1ceb91	0.61296946
30	0x3f18fb89	0.5975881
31	0x3f2dfcaa	0.6796366
32	0x3f16fbe4	0.58978105
33	0x3f2657e1	0.6497784
34	0x3f400b6a	0.75017416
35	0x3f3280b3	0.6972763
36	0x3f250eb3	0.64475554
37	0x3f095c8f	0.5365686
38	0x3f086f45	0.53294784
39	0x3f3863c9	0.7202726
40	0x3f05acfa	0.52217066
41	0x3f2c6c91	0.6735316
42	0x3f2ef4cc	0.6834228
43	0x3f2a70f6	0.66578615
44	0x3f083265	0.53201896
45	0x3ee4a84e	0.44659656
46	0x3f15251a	0.5825974
47	0x3f429f4e	0.7602433
48	0x3f350a4c	0.70718837
49	0x3f19851c	0.59968734

gnn.batch_norms.0.bias f4 [50]
0	0x3d951eb7	0.07281249
1	0xbe553241	-0.20819952
2	0xbf01755c	-0.505697
3	0xbebbf7db	-0.36712536
4	0xbdc0cd15	-0.09414116
5	0xbe5733b6	-0.2101582
6	0xbe2d31fc	-0.16913599
7	0xbe4a1e97	-0.19738232
8	0xbe959296	-0.292134
9	0xbf09ec25	-0.5387595
10	0xbdae560e	-0.085125074
11	0xbce0be96	-0.027434628
12	0x3cc2be00	0.02377224
13	0xbe95d0ca	-0.29260856
14	0xbeb80ebd	-0.35948744
15	0xbe2f2598	-0.17104185
16	0xbe5fd509	-0.2185861
17	0xbdb31a1c	-0.08745214
18	0xbef252af	-0.47328708
19	0xbb2ceea9	-0.002638737
20	0xbe8dceb6	-0.2769677
21	0xbec9a25a	-0.39381677
22	0xbea72774	-0.32647288
23	0xbe6fae77	-0.23406397
24	0xbdf96b74	-0.12178698
25	0xbe7fb737	-0.24972235
26	0xbe02ffb0	-0.1279285
27	0xbe236676	-0.15957054
28	0xbea54c62	-0.32284838
29	0xbf070a33	-0.5274994
30	0xbe8e6c9a	-0.2781723
31	0xbef3d2e0	-0.47621822
32	0xbe82c6dc	-0.25542343
33	0xbe629877	-0.22128473
34	0xbe941380	-0.28921127
35	0xbeadbbda	-0.33932382
36	0xbd8dd2bd	-0.06924961
37	0xbd82ffdb	-0.06396457
38	0xbdd3fb70	-0.10350692
39	0xbe8001ac	-0.25001276
40	0xbe9395ca	-0.28825217
41	0xbd8d8a98	-0.069112
42	0xbda74fca	-0.081695154
43	0xbe186213	-0.14881162
44	0xbd87e7f8	-0.066360414
45	0xbe303a1e	-0.1720967
46	0xbe5bccbe	-0.21464822
47	0xbea025a3	-0.31278715
48	0xbe9a8b7d	-0.30184546
49	0xbd170ce7	-0.03687754

gnn.batch_norms.0.running_mean f4 [50]
0	0xb9b04af7	-0.0003362519
1	0xbb0da8fb	-0.0021615613
2	0xbb77b88e	-0.0037799212
3	0xbb299818	-0.0025878008
4	0x3ac5f12c	0.0015101782
5	0x3c891b37	0.01673661
6	0x3d592116	0.05301007
7	0xbba84ea5	-0.0051363283
8	0xbbc6a2fa	-0.006061909
9	0xbc31e41f	-0.010857611
10	0x3b719fe8	0.0036868993
11	0x3b305d87	0.0026911215
12	0x3abf481f	0.0014593637
13	0xbbaba3e6	-0.005238044
14	0xbc28640b	-0.010277758
15	0xbb68692b	-0.0035463076
16	0x3d6b381b	0.057426553
17	0xbb87596b	-0.0041305325
18	0xbb2ede48	-0.0026682783
19	0x39f58424	0.00046828494
20	0x3cfbf8ee	0.030758347
21	0xba885628	-0.0010401653
22	0xbb3381db	-0.0027390632
23	0x3b24432b	0.002506445
24	0xbb70c52d	-0.003673862
25	0xbb88aae4	-0.0041707624
26	0xbb5d92ff	-0.003380954
27	0xbbd19b20	-0.006396666
28	0xbb020b87	-0.0019843297
29	0xbb6d9ce6	-0.0036256849
30	0xbc213623	-0.009839567
31	0xbbc99c4d	-0.0061526657
32	0x3ce0919c	0.027413182
33	0xba597691	-0.0008295561
34	0xbb61deed	-0.003446515
35	0xbb837806	-0.0040121106
36	0x3b9936d2	0.0046757245
37	0x3a4cd3a4	0.00078135193
38	0x3b29d387	0.0025913434
39	0xbaf348f3	-0.0018561169
40	0x3d3cf271	0.046129648
41	0xbaf7cfef	-0.0018906574
42	0xbb3b9a8b	-0.002862605
43	0xba2d9291	-0.00066212664
44	0x3aa2400b	0.0012378705
45	0xbb50f563	-0.0031884543
46	0x3a95dede	0.0011434217
47	0xbb14ae78	-0.0022687
48	0xbb988150	-0.004654087
49	0xbacc5698	-0.0015589772

gnn.batch_norms.0.running_var f4 [50]
0	0x382c3768	4.1059597e-05
1	0x380fcd74	3.42852e-05
2	0x37df760c	2.6638641e-05
3	0x38466a3a	4.730581e-05
4	0x37d72e26	2.5651487e-05
5	0x37f17e44	2.8788236e-05
6	0x38a6b41a	7.949043e-05
7	0x37d3e960	2.5261834e-05
8	0x38250cd8	3.9351027e-05
9	0x37fddb59	3.0262092e-05
10	0x37b2e846	2.1327414e-05
11	0x3715cef7	8.92928e-06
12	0x375d6cff	1.3198004e-05
13	0x381674d0	3.5871577e-05
14	0x3848fd84	4.791982e-05
15	0x3732b4bb	1.0651706e-05
16	0x38b19dd0	8.4694126e-05
17	0x37e05667	2.6743115e-05
18	0x37ce6fa3	2.4609099e-05
19	0x37af465a	2.0894386e-05
20	0x37d92c1f	2.5888961e-05
21	0x37bb4c83	2.2327766e-05
22	0x380b962c	3.328004e-05
23	0x37a81845	2.0038462e-05
24	0x37ae88e8	2.0806168e-05
25	0x3800512e	3.0593183e-05
26	0x377d1b8d	1.508639e-05
27	0x37ae6764	2.0790561e-05
28	0x378b8995	1.6634158e-05
29	0x37468462	1.1832542e-05
30	0x3873dae8	5.8139587e-05
31	0x388bf8ad	6.674356e-05
32	0x38007a4d	3.063148e-05
33	0x36a49ec1	4.9060623e-06
34	0x37f0fe68	2.8728697e-05
35	0x3787293b	1.6112454e-05
36	0x37a1b0ee	1.9275085e-05
37	0x37283263	1.0025312e-05
38	0x37767185	1.4689173e-05
39	0x383fa054	4.5687266e-05
40	0x38865e65	6.4072e-05
41	0x37d027b4	2.481402e-05
42	0x37a3238a	1.9447663e-05
43	0x378defc0	1.6920152e-05
44	0x37299c5f	1.0109593e-05
45	0x38832647	6.2536965e-05
46	0x37ade34d	2.0729052e-05
47	0x38978f48	7.226929e-05
48	0x37cc67dd	2.436706e-05
49	0x37691bd9	1.3894366e-05

gnn.batch_norms.1.weight f4 [50]
0	0x3f93e81f	1.1555213
1	0x3f8d4404	1.1036382
2	0x3f8f676d	1.1203438
3	0x3fa24a52	1.2678931
4	0x3f96ef0c	1.1791701
5	0x3f989e63	1.1923336
6	0x3f81fe42	1.0155718
7	0x3f6d34a4	0.9265845
8	0x3f8d118f	1.1020983
9	0x3f97ad46	1.1849754
10	0x3f8387ef	1.0275859
11	0x3f919a60	1.1375237
12	0x3fa91354	1.3209023
13	0x3f90ff26	1.1327865
14	0x3f7b8f4e	0.9826554
15	0x3fb9a3d3	1.450312
16	0x3f80b098	1.0053892
17	0x3f9d82bb	1.2305521
18	0x3f9fe3c7	1.2491387
19	0x3f8b2860	1.0871696
20	0x3fa1a6c6	1.262902
21	0x3f96bf9d	1.1777226
22	0x3f7a9c02	0.978943
23	0x3f8fa33b	1.1221689
24	0x3f9655fd	1.1744992
25	0x3fa090d2	1.2544196
26	0x3fac1d28	1.3446398
27	0x3f6d885b	0.92786187
28	0x3f758be0	0.9591656
29	0x3f90ec00	1.1322021
30	0x3f9000c7	1.1250237
31	0x3f86a7e9	1.0519992
32	0x3f7f2556	0.99666345
33	0x3f84aeb1	1.0365812
34	0x3f9d5f76	1.2294757
35	0x3f9f1338	1.242774
36	0x3f9ad105	1.2095038
37	0x3f990d7a	1.1957238
38	0x3f906810	1.1281757
39	0x3f8e913d	1.1138073
40	0x3f8ca034	1.098639
41	0x3f6384ff	0.8887481
42	0x3f8fd076	1.1235492
43	0x3f9c16b9	1.2194434
44	0x3f929284	1.1450963
45	0x3fa2e871	1.2727185
46	0x3fa4a019	1.2861358
47	0x3f40d4bc	0.75324607
48	0x3f912135	1.1338259
49	0x3f6025d8	0.87557745

gnn.batch_norms.1.bias f4 [50]
0	0xbeace6d9	-0.33769873
1	0xbf01aed5	-0.506574
2	0xbf026244	-0.5093119
3	0xbee3fdf8	-0.445297
4	0xbe7b7dd6	-0.24559721
5	0xbe87b182	-0.26502615
6	0xbe3afc19	-0.1826023
7	0xbe257510	-0.16157937
8	0xbf15467b	-0.5831067
9	0xbedb5d88	-0.42844796
10	0xbddca821	-0.107742555
11	0xbeed4932	-0.46344906
12	0xbe807896	-0.25092
13	0xbeedddd7	-0.46458313
14	0xbe79e80a	-0.24404922
15	0xbec7b7bf	-0.39007375
16	0xbf0c43fb	-0.5479123
17	0xbedec851	-0.43512204
18	0xbee97580	-0.45597458
19	0xbe02570f	-0.12728523
20	0xbf07ca08	-0.5304265
21	0xbead9139	-0.3389986
22	0xbe864b55	-0.2622935
23	0xbefec1be	-0.4975719
24	0xbec4a0a9	-0.38403824
25	0xbea64a48	-0.32478547
26	0xbe95ed3b	-0.29282555
27	0xbe5cb30f	-0.2155268
28	0xbee5fefb	-0.44921097
29	0xbedae8f1	-0.42755845
30	0xbeb33e77	-0.35008594
31	0xbe9bac26	-0.30404776
32	0xbefa5d35	-0.48899236
33	0xbec2469f	-0.37944505
34	0xbeb0d417	-0.34536812
35	0xbe8e9010	-0.27844286
36	0xbe2c5d95	-0.16832574
37	0xbe7263a2	-0.2367082
38	0xbe9f9513	-0.31168422
39	0xbf0f0582	-0.5586778
40	0xbef6f89e	-0.48236555
41	0xbe48fc4d	-0.19627495
42	0xbe8a3427	-0.26992914
43	0xbea6b750	-0.3256173
44	0xbea6521b	-0.32484517
45	0xbec3060e	-0.38090557
46	0xbeab9c0c	-0.33517492
47	0xbe46fee0	-0.19433165
48	0xbe88dba9	-0.26730087
49	0xbe44ad36	-0.192067

gnn.batch_norms.1.running_mean f4 [50]
0	0xbeb23d66	-0.34812468
1	0xbe22abae	-0.15885803
2	0xbea01263	-0.31264028
3	0xbedd76d2	-0.43254715
4	0xbeff88c2	-0.49909025
5	0xbea54c6f	-0.32284877
6	0xbe554000	-0.20825195
7	0x3d523655	0.051321346
8	0xbe9a2cef	-0.30112407
9	0xbee87988	-0.4540522
10	0xbe5dabb5	-0.21647532
11	0xbe89ba4b	-0.26899943
12	0xbeeae145	-0.45874992
13	0xbebc392a	-0.36762363
14	0xbcf28914	-0.02960638
15	0xbed1d612	-0.40983635
16	0xbe9f32e9	-0.3109353
17	0xbe6be48b	-0.23036401
18	0xbecad474	-0.39615214
19	0xbe6ad089	-0.22931112
20	0xbee7d48c	-0.45279348
21	0xbe86072b	-0.26177344
22	0xbeb866ba	-0.36015874
23	0xbe7955da	-0.24349156
24	0xbeba9f6c	-0.36449754
25	0xbe93a1bc	-0.2883433
26	0xbe882d2c	-0.26596963
27	0xbda65541	-0.0812173
28	0xbe928c3c	-0.28622615
29	0xbebdd2a6	-0.37074775
30	0xbe5ba9b7	-0.2145146
31	0xbe918541	-0.28421977
32	0xbe63abe0	-0.22233534
33	0xbe7cfa6b	-0.24704902
34	0xbed4fdbe	-0.4159984
35	0xbe938e4c	-0.288195
36	0xbeeac7d1	-0.45855573
37	0xbeb1f7a7	-0.34759256
38	0xbe216360	-0.15760565
39	0xbedac9a9	-0.4273198
40	0xbf0822a7	-0.53177875
41	0xbe8ab139	-0.27088335
42	0xbda1c149	-0.07898194
43	0xbec6d2da	-0.38832742
44	0xbea65a49	-0.32490757
45	0xbece5b08	-0.40303826
46	0xbeb4e6f1	-0.35332444
47	0xbd0d1c72	-0.034450956
48	0xbeb9a621	-0.3625956
49	0xbdcd80b1	-0.100343116
