src/checkpoints/checkpoint_epoch_20.pth (torch, 142076 bytes, 78 tensors)

gnn.convs.0.att_src f4 [1, 1, 50]
0	0xbd5a5640	-0.05330491
1	0x3db81160	0.08987689
2	0x3d89c505	0.067270316
3	0xbdb83290	-0.08994019
4	0xbb28c623	-0.0025752864
5	0xbc578ea4	-0.013156567
6	0xbd74fc89	-0.05981115
7	0x3dea047a	0.11426635
8	0x3d8c8926	0.068620965
9	0xbdb0fdfb	-0.08642193
10	0xbd84e1ae	-0.064883575
11	0x3d5b73d7	0.05357727
12	0x3c0d6644	0.008630339
13	0xbdd6a342	-0.10480358
14	0x3c87e7b0	0.01658997
15	0xbda8666e	-0.08222662
16	0xbccb71f4	-0.02483461
17	0x3c4f3c0a	0.012648592
18	0x3c5c7539	0.013455682
19	0x3d69f464	0.057117835
20	0x3da9e576	0.08295719
21	0x3e35454c	0.17702216
22	0x3b67271c	0.0035271114
23	0x3d9532bf	0.0728507
24	0x3e02a619	0.12758674
25	0xbcb668e2	-0.022266809
26	0x3e0dee44	0.13860422
27	0xbdfc36cb	-0.123151384
28	0x3de681b8	0.11255211
29	0xbd54656c	-0.051854536
30	0x3d98ca23	0.074604295
31	0x3d7ac193	0.061219763
32	0x3dc9b8f2	0.09849729
33	0x3cdd037c	0.0269792
34	0xbd3fa91d	-0.04679214
35	0xbc9e21ef	-0.01930329
36	0x3b35c1dc	0.0027733957
37	0xbbd38036	-0.006454493
38	0xbd807f75	-0.062743105
39	0xbc64c718	-0.013963483
40	0xbd8ce201	-0.06879044
41	0xbc82be9f	-0.015960036
42	0xbcc37464	-0.02385921
43	0xbd856299	-0.06512947
44	0xbc75c45f	-0.015000432
45	0x3d8f6a82	0.07002737
46	0xbcb2ee5f	-0.02184218
47	0xba2710e0	-0.0006373059
48	0x3bf0e477	0.007351454
49	0xbaa3e4bc	-0.0012504081

gnn.convs.0.att_dst f4 [1, 1, 50]
0	0xbbf3c482	-0.007439197
1	0x3ac7c9b2	0.0015242605
2	0xbc80fb03	-0.015744692
3	0x3b910b9e	0.0044264337
4	0xbcd6aed8	-0.026206419
5	0xbb9023d6	-0.004398803
6	0xbc0c34e8	-0.008557536
7	0xbc1ca457	-0.009560666
8	0xbbf0e1c4	-0.007351132
9	0xbb4f9007	-0.003167154
10	0x3c3161bd	0.010826525
11	0x3c663fdb	0.01405331
12	0x3bd41cd5	0.0064731636
13	0xbd24ceab	-0.040236156
14	0x3ae3a8ce	0.0017369033
15	0x3b71c45e	0.0036890726
16	0x3c384440	0.011246741
17	0xbc4a5bdf	-0.012351005
18	0x3b7d9d8f	0.0038698649
19	0xbc8afc0b	-0.016965887
20	0xbc89c4d9	-0.016817497
21	0xbc2e2af3	-0.010630357
22	0x3baac528	0.005211491
23	0x3bbf3d81	0.0058361893
24	0xbc325ff4	-0.010887135
25	0xbb40b221	-0.0029403048
26	0xbd069198	-0.032853693
27	0xbbbb2dd6	-0.005712251
28	0xbd17caf1	-0.037058774
29	0xbc932740	-0.017963052
30	0xbc088214	-0.008331794
31	0xbb06b342	-0.0020553623
32	0x3b8ce48b	0.0042997054
33	0xbc54e1f1	-0.012993322
34	0x3c09487f	0.008379101
35	0xbcd21c32	-0.02564821
36	0xbc99c7d0	-0.018772036
37	0x3bb2322d	0.0054381103
38	0x3b1feed3	0.0024403825
39	0x3b7623e1	0.0037558007
40	0xbc105730	-0.00880985
41	0x3c7f460f	0.015580668
42	0xbb84f980	-0.004058063
43	0xbc02d483	-0.007985237
44	0xbc348ef3	-0.01102041
45	0xbb4a33e1	-0.0030853676
46	0xbc322305	-0.010872607
47	0xbbbf3f0b	-0.0058363727
48	0xbbe455c0	-0.00696823
49	0xbcaaf11b	-0.020866921

gnn.convs.0.att_edge f4 [1, 1, 50]
0	0xbee7a724	-0.45244706
1	0xb46e0ee9	-2.2170902e-07
2	0x3ea0ce42	0.31407362
3	0xbf0aa116	-0.5415205
4	0xbe8e2db1	-0.27769235
5	0x3e6b4ee9	0.2297932
6	0x3d5bb1a9	0.053636227
7	0xbe80fa8a	-0.25191146
8	0x3ea6b52a	0.32560092
9	0xbd68b601	-0.056814197
10	0xbe3a1123	-0.181706
11	0xa96112aa	-4.9976225e-14
12	0xbed79134	-0.4210297
13	0x3ec12a55	0.3772761
14	0x3e62f787	0.22164737
15	0x3eb5c5fa	0.35502607
16	0x3ee51499	0.44742277
17	0x3e870736	0.2637269
18	0x3eaab282	0.33339316
19	0x3f011379	0.5042034
20	0xbec8626a	-0.39137584
21	0xbd99ee13	-0.07516112
22	0x3dc35ba2	0.09538962
23	0x3e9c8d4e	0.30576557
24	0x3ec56524	0.38553727
25	0x3e86a470	0.2629733
26	0xbe991129	-0.29895905
27	0xbe8cf626	-0.27531546
28	0x3de306a6	0.110852525
29	0x3e3d6e12	0.1849902
30	0xbebe43e5	-0.37161174
31	0xbeaebda0	-0.34129047
32	0xbeaca4d5	-0.33719507
33	0xbf08151c	-0.5315721
34	0xbed3daaa	-0.41377765
35	0xbf0152ef	-0.5051717
36	0x3e3919cf	0.18076251
37	0xbd39ec43	-0.045391332
38	0x3e7cbd9b	0.24681704
39	0xbec59d3f	-0.38596532
40	0x3f09a5ba	0.53768504
41	0x3ebd321a	0.36952287
42	0xbe8722c8	-0.26393723
43	0xbe9e8fb2	-0.30969006
44	0x3dd9c6f7	0.10633653
45	0xa293a6ca	-4.0021025e-18
46	0x3ea05798	0.3131683
47	0x3e6ccf04	0.23125845
48	0xbeb9a010	-0.3625493
49	0x3de5ca8d	0.11220274

gnn.convs.0.bias f4 [50]
0	0x3b2d6be0	0.0026462004
1	0x3a1aa6ed	0.00058995077
2	0xbb1a7a04	-0.0023571262
3	0x3ba0da99	0.0049088714
4	0xbadd5d8b	-0.001688884
5	0xbaeee251	-0.0018225407
6	0x3b2c5d1b	0.0026300612
7	0x3b081a54	0.0020767646
8	0x38fd3fc4	0.000120758574
9	0x3aa498d8	0.0012557758
10	0x3b319e16	0.0027102283
11	0x3afc454e	0.0019246729
12	0x3acc8f97	0.0015606758
13	0x39e913f7	0.00044456098
14	0x3b95913c	0.0045644324
15	0xb96d92bd	-0.00022656746
16	0xbb10ae7f	-0.0022076664
17	0xb9e9c95e	-0.00044591253
18	0xb8abd028	-8.1926875e-05
19	0xbb2bca9f	-0.00262133
20	0x3b4bb03d	0.0031080388
21	0x3979b802	0.00023815039
22	0x3aa4182d	0.0012519412
23	0xba92ec01	-0.0011209251
24	0xb94ec001	-0.00019717218
25	0xba393c42	-0.0007066169
26	0x3bf144b9	0.0073629287
27	0xbb60bb1b	-0.003429121
28	0x3a93083d	0.0011217665
29	0x3a9f7bff	0.0012167691
30	0x39bd6c79	0.00036129708
31	0x379d22b1	1.8732013e-05
32	0xba287a15	-0.0006426883
33	0xbb50f436	-0.0031883842
34	0xbadc8da3	-0.0016826879
35	0xbb624488	-0.003452571
36	0xba6530cd	-0.00087429286
37	0xba1a5680	-0.00058875233
38	0x399ba46d	0.0002968641
39	0x3afff977	0.0019529302
40	0xbb68f76c	-0.0035547866
41	0x3a5fa1d6	0.00085308903
42	0x39c2ffc5	0.00037193127
43	0x3ae10006	0.0017166145
44	0x3a22d02c	0.00062108296
45	0xb88f4b76	-6.832827e-05
46	0x3b3e42e7	0.0029031576
47	0xbabdfb8b	-0.0014494521
48	0x3b26b0b1	0.0025434906
49	0x3a4f605a	0.0007910781

gnn.convs.0.lin.weight f4 [50, 50]
0	0x3aa7a679	0.0012790702
1	0x3e02e3bc	0.12782186
2	0xbe2c9611	-0.16854121
3	0xbe5d274b	-0.2159702
4	0x3e5bdec4	0.21471697
5	0x3eb77fdd	0.3583974
6	0xbeba1565	-0.36344448
7	0x3ef21df7	0.47288486
8	0x3c0a4ac0	0.008440673
9	0xbf295cc6	-0.66157186
10	0xbd3b8dad	-0.04578941
11	0x3df07f22	0.11742999
12	0xbe9045ff	-0.28178403
13	0x3b1be517	0.0023787671
14	0x3dcf81f5	0.10132209
15	0x3e40657c	0.18788713
16	0xbe45dff2	-0.1932371
17	0x3ce599c6	0.028027426
18	0xbd1b52e4	-0.037920848
19	0x3e1cf88d	0.1532919
20	0xbec0c503	-0.37650308
21	0x3de54769	0.11195261
22	0x3e59ec2a	0.21281496
23	0x3e99145d	0.29898348
24	0xbeb5b31d	-0.35488215
25	0xbe223707	-0.15841304
26	0xbe0ec2db	-0.13941519
27	0x3e6a6deb	0.22893493
28	0x3eb8b373	0.3607441
29	0x3db6801c	0.08911154
30	0xbea9df4c	-0.33178174
31	0x3e0e1ec0	0.13878918
32	0x3d645088	0.055740863
33	0x3e1ab580	0.151083
34	0x3e8843fb	0.26614365
35	0x3e304f7a	0.17217818
36	0x3ef13f09	0.47118405
37	0x3dbb7ccb	0.09154662
38	0x3e21a63b	0.15786068
39	0xbeb01d40	-0.34397316
40	0xbe47529f	-0.19465111
41	0x3bcb5dee	0.0062062657
42	0x3e1cb6fe	0.15304181
43	0xbd86be58	-0.06579274
44	0xbe117927	-0.14206372
45	0xbdd6f681	-0.10496236
46	0xbbc94ed3	-0.00614343
47	0xbeeb445c	-0.45950592
48	0xbd75af31	-0.05998153
49	0xbecd820b	-0.40138277
50	0x3c16a86f	0.009195431
51	0xbd1e4398	-0.03863868
52	0x3cf702c6	0.03015269
53	0x3b14dbf6	0.0022714115
54	0x3d56e2e4	0.052462474
55	0x3d4ed994	0.050500467
56	0xbdc05e23	-0.09392955
57	0xbcf8bdc4	-0.030363925
58	0x3e90a634	0.28251803
59	0x3e007206	0.12543496
60	0x3e2b5354	0.16731006
61	0xbe5c9d34	-0.21544343
62	0x3ece718b	0.40321
63	0x3c6d89b0	0.014498159
64	0x3ea92850	0.33038568
65	0xbea96e70	-0.3309207
66	0xbdfa7dd7	-0.12231033
67	0xbe7626c2	-0.24038222
68	0x3ee7c1d5	0.4526507
69	0x3e701b67	0.23447953
70	0xbe51e6c8	-0.20498192
71	0xbe88d535	-0.26725164
72	0xbf883c23	-1.0643352
73	0xbeb83f7e	-0.3598594
74	0xbd98f59d	-0.07468722
75	0x3ec584c5	0.38577858
76	0x3d9bf99c	0.076159686
77	0x3d1de232	0.038545795
78	0xbe675918	-0.2259258
79	0xbd84c81d	-0.06483481
80	0xbd7ab545	-0.06120803
81	0xbe176d01	-0.14787675
82	0x3e406939	0.1879014
83	0x3d80c389	0.06287295
84	0xbd9f31a3	-0.07773139
85	0x3e0d2df9	0.13787068
86	0x3e78485f	0.24246357
87	0x3e930b16	0.28719395
88	0xbe656543	-0.2240191
89	0x3e0bd461	0.13655235
90	0xbedad8b4	-0.42743456
91	0x3c8d10a6	0.017219853
92	0xbf037f73	-0.5136635
93	0xbc7f4754	-0.015580971
94	0x3e0df418	0.13862646
95	0xbdc0fd46	-0.09423308
96	0xbe891d55	-0.2678019
97	0xbec8b98f	-0.3920407
98	0xbe541a12	-0.2071307
99	0x3ea081d5	0.31349054
100	0xbc564190	-0.013077155
101	0x3a7b3dce	0.00095841
102	0x3e24a2dd	0.16077752
103	0xbe430ecb	-0.19048612
104	0x3c85930b	0.016305467
105	0x3e0dc406	0.13844308
106	0xbe7843c9	-0.24244608
107	0x3e551205	0.20807655
108	0x3d09f9db	0.033685546
109	0x3f278781	0.6544114
110	0x3e7ade5a	0.24498883
111	0xbe876341	-0.26442912
112	0xbec9ae94	-0.39391005
113	0xbf500e92	-0.8127223
114	0x3d30d95d	0.043176044
115	0x3f02f9e9	0.5116258
116	0xbd384d27	-0.044995453
117	0x3ec3a15c	0.38209045
118	0xbbfea1f6	-0.007770772
119	0x3df59a63	0.119923376
120	0xbe4e8655	-0.20168431
121	0xbe7fd17d	-0.24982257
122	0xbe5af87a	-0.21383849
123	0xbe5372ed	-0.2064931
124	0xbe3b4780	-0.18288994
125	0xbe4535c2	-0.19258788
126	0x3ae57504	0.0017506187
127	0x3eb07c76	0.34469956
128	0x3eaca3e2	0.33718783
129	0x3e68532f	0.22687982
130	0x3e9adfc0	0.30248833
131	0xbe09ac13	-0.13444547
132	0xbe15165e	-0.14559314
133	0x3e0a9253	0.13532381
134	0x3e76cb71	0.24101044
135	0xbe096461	-0.13417198
136	0x3d8d30e6	0.06894092
137	0xbe8e28a5	-0.27765384
138	0xbdb65205	-0.08902363
139	0xbe0b9f42	-0.13634971
140	0xbe0b46ec	-0.13601273
141	0xbe78e5eb	-0.24306457
142	0x3f06ed30	0.5270567
143	0x3e21f812	0.15817288
144	0x3db4e061	0.088318594
145	0x3db76cb6	0.08956282
146	0x3cbeff01	0.023314955
147	0x3e60c4a6	0.21950015
148	0xbe198496	-0.14991984
149	0xbccb27a7	-0.024799181
150	0xbca554aa	-0.020181973
151	0x3da43487	0.08017831
152	0x3ca2f3c2	0.019891623
153	0x3cde30d5	0.027122894
154	0xbe05edcc	-0.13078994
155	0xbcabbe0d	-0.020964647
156	0x3e434298	0.19068372
157	0x3e46c74f	0.19411968
158	0xbe2258cd	-0.15854187
159	0xbe15f32a	-0.14643541
160	0xbe17d4a8	-0.14827216
161	0xbdbf6d93	-0.093470715
162	0xbe794bc8	-0.24345315
163	0x3e067415	0.1313022
164	0x3f0de631	0.5542937
165	0x3e6840cb	0.22680967
166	0xbe6d2dad	-0.23161955
167	0xbd0da23f	-0.034578558
168	0xbe540518	-0.20705068
169	0x3cc0eda6	0.02355082
170	0x3edfa7b7	0.43682644
171	0x3ef292f7	0.4737775
172	0x3db7ac87	0.08968454
173	0xbe4acb80	-0.19804192
174	0xbe702842	-0.23452857
175	0xbd4404c6	-0.047856115
176	0xbe61c1d3	-0.22046594
177	0xbd9819f5	-0.07426826
178	0x3e7f4e06	0.24932107
179	0xbe844cd8	-0.25839877
180	0xbddca609	-0.10773856
181	0x3e1e554c	0.15462226
182	0x3da4772e	0.08030544
183	0x3e73e664	0.23818356
184	0x3e38e234	0.1805504
185	0xbe0fef7b	-0.14056198
186	0x3ea577b6	0.32317895
187	0xbe257a87	-0.16160022
188	0x3efd0a0c	0.49421728
189	0xbedf661d	-0.43632594
190	0xbe10a07e	-0.14123723
191	0x3df6d277	0.12051862
192	0x3e20725e	0.15668628
193	0x3cef108a	0.029182691
194	0xbe49cd8e	-0.19707319
195	0x3e46b2fd	0.19404216
196	0x3d988407	0.07447057
197	0x3e900702	0.28130347
198	0xbd849cb7	-0.064752035
199	0x3e884c61	0.26620772
200	0x3c4389a5	0.0119346725
201	0xbedc2478	-0.42996573
202	0xbec72dbf	-0.3890209
203	0x3eaa3869	0.33246163
204	0x3e696fc7	0.22796546
205	0x3e379d32	0.17931059
206	0xbd8adb32	-0.067800894
207	0xbc961406	-0.018320095
208	0xbddbc306	-0.10730557
209	0x3df7a92a	0.12092812
210	0xbe52bb5d	-0.20579286
211	0xbdb3051b	-0.08741208
212	0xbdd0f391	-0.102027066
213	0x3e2564d9	0.16151752
214	0x3e18ccbc	0.1492185
215	0x3bf9dc4b	0.007625138
216	0xbd215c63	-0.039394747
217	0x3c34a61d	0.011025933
218	0x3ee27a1e	0.44233793
219	0x3f198cbb	0.5998036
220	0xbe002017	-0.12512241
221	0xbebd4590	-0.36967134
222	0x3abab8a8	0.0014245706
223	0x3d4a32df	0.04936492
224	0x3e4ab3ea	0.19795194
225	0xbedaec1d	-0.42758265
226	0xbd852999	-0.06502075
227	0xbc80196a	-0.015637118
228	0x3dca3dcd	0.09875069
229	0xbd9dde67	-0.077084355
230	0x3ec8f1e6	0.39247054
231	0xbe320f2b	-0.17388599
232	0x3e39e79a	0.18154755
233	0xbe3bac16	-0.18327364
234	0xbedb7849	-0.42865208
235	0xbe835b57	-0.25655624
236	0x3e00d47b	0.12581055
237	0xbe76cf72	-0.24102572
238	0xbe519861	-0.20468284
239	0xbd430b02	-0.04761792
240	0xbdded513	-0.108804844
241	0x3da506a1	0.08057905
242	0xbe843e11	-0.25828603
243	0x3eb81317	0.35952064
244	0xbe0a534a	-0.13508335
245	0x3e04630b	0.12928407
246	0x3e41ff07	0.18944941
247	0x3dd77115	0.105196156
248	0xbc8cb62b	-0.017176708
249	0x3e14e426	0.14540157
250	0xbb05b15f	-0.002039991
251	0x3d3ab5dd	0.045583595
252	0x3d32aaeb	0.04362003
253	0xbc2a4453	-0.010392266
254	0x3e02f68c	0.12789363
255	0x3d2aab4c	0.041667268

gnn.convs.0.lin_edge.weight f4 [50, 1]
0	0xbee7a71a	-0.45244676
1	0xb46e0ef1	-2.2170913e-07
2	0x3ea0ce3d	0.31407347
3	0xbf0aa10b	-0.5415198
4	0xbe8e2dac	-0.2776922
5	0x3e6b4eed	0.22979327
6	0x3d5bb1c2	0.05363632
7	0xbe80fa90	-0.25191164
8	0x3ea6b53d	0.3256015
9	0xbd68b601	-0.056814197
10	0xbe3a1127	-0.18170606
11	0xa961152d	-4.9978403e-14
12	0xbed79127	-0.4210293
13	0x3ec12a67	0.37727663
14	0x3e62f78d	0.22164746
15	0x3eb5c5fe	0.3550262
16	0x3ee51489	0.4474223
17	0x3e87072e	0.26372665
18	0x3eaab27a	0.33339292
19	0x3f01137b	0.5042035
20	0xbec86266	-0.39137572
21	0xbd99ee08	-0.07516104
22	0x3dc35b94	0.095389515
23	0x3e9c8d42	0.3057652
24	0x3ec5651e	0.3855371
25	0x3e86a46c	0.2629732
26	0xbe991121	-0.2989588
27	0xbe8cf623	-0.27531537
28	0x3de306b3	0.11085262
29	0x3e3d6e23	0.18499045
30	0xbebe43db	-0.37161145
31	0xbeaebd9a	-0.3412903
32	0xbeaca4d7	-0.33719513
33	0xbf081525	-0.53157264
34	0xbed3daa3	-0.41377744
35	0xbf0152f4	-0.505172
36	0x3e3919cd	0.18076248
37	0xbd39ec52	-0.04539139
38	0x3e7cbd9d	0.24681707
39	0xbec59d41	-0.38596538
40	0x3f09a5ba	0.53768504
41	0x3ebd321d	0.36952296
42	0xbe8722bb	-0.26393685
43	0xbe9e8f9f	-0.3096895
44	0x3dd9c6e7	0.10633641
45	0xa293a71b	-4.002136e-18
46	0x3ea0579a	0.31316835
47	0x3e6ccf09	0.23125853
48	0xbeb9a002	-0.3625489
49	0x3de5caab	0.112202965

gnn.convs.1.att_src f4 [1, 1, 50]
0	0x3e4918db	0.19638388
1	0x3e7ddf1c	0.2479214
2	0xbe6b7e3d	-0.22997375
3	0x3d0968c7	0.03354719
4	0xbeb4e44d	-0.3533043
5	0xbe655fc1	-0.22399808
6	0x3d4ee32e	0.050509624
7	0xbe55ec07	-0.20890819
8	0x3ce06de4	0.02739615
9	0xbe758e96	-0.23980173
10	0x3ee93774	0.4555012
11	0xbe2c22bd	-0.16810127
12	0x3d63eef0	0.05564779
13	0x3e184c7f	0.14872931
14	0xbeefb680	-0.46818924
15	0xbdb084d7	-0.08619087
16	0x3e8209f5	0.25398222
17	0xbe3c0ac3	-0.1836348
18	0x3e979c7a	0.2961157
19	0x3d346201	0.044038776
20	0xbe18aca7	-0.14909612
21	0x3e24865d	0.1606688
22	0xbe269d0d	-0.16270848
23	0x3e598031	0.21240307
24	0x3e73e1d6	0.23816618
25	0xbe704ad3	-0.23466043
26	0xbdc0390b	-0.0938588
27	0xbe7e71cf	-0.24848102
28	0xbd35a9f3	-0.04435153
29	0x3edd39b7	0.43208095
30	0xbe81654a	-0.2527259
31	0x3eb3da7f	0.35127637
32	0x3d197287	0.037462737
33	0x3e15ba43	0.14621834
34	0x3ec14cab	0.37753806
35	0x3dacea06	0.08443074
36	0x3e8e7e35	0.27830663
37	0xbe690feb	-0.22759978
38	0x3ecd31e7	0.40077135
39	0xbed52179	-0.416271
40	0x3cca5f92	0.024703775
41	0xbdc3a720	-0.09553361
42	0x3e2177fa	0.15768424
43	0xbde4125d	-0.11136315
44	0x3d97cfe7	0.07412701
45	0x3e0ddcf6	0.13853821
46	0xbd155ed4	-0.03646739
47	0xbe0568e0	-0.13028288
48	0x3a56b32c	0.0008190151
49	0xbea6f9e2	-0.3261252

gnn.convs.1.att_dst f4 [1, 1, 50]
0	0xbdac6f4e	-0.08419667
1	0x3bfaddfe	0.007655858
2	0x3d685f51	0.056731526
3	0x3c347c07	0.011015899
4	0x3dba7dde	0.091060385
5	0x3e37ccc5	0.17949207
6	0x3d64a9d3	0.05582602
7	0x3e1697a8	0.1470629
8	0x3bb78a9d	0.005601241
9	0x3e0a0fcf	0.13482593
10	0xbe26f4d5	-0.16304334
11	0x3d53f586	0.05174782
12	0x3cffdce2	0.031233255
13	0xbe01fd80	-0.12694359
14	0x3eacb352	0.3373056
15	0xbca758b1	-0.020428034
16	0xbdecfacf	-0.115712754
17	0x3d73a6eb	0.059485357
18	0xbd217ecf	-0.039427575
19	0xbda1d836	-0.07902567
20	0x3d4b472c	0.04962842
21	0xbcadd744	-0.02122081
22	0x3e3a2c74	0.1818102
23	0x3c00f1a5	0.007870113
24	0xbe5922bb	-0.21204655
25	0x3e046cf4	0.12932187
26	0x3dc58b94	0.09645763
27	0x3e1d0cb3	0.15336876
28	0x3e0aa8f2	0.1354101
29	0xbeae834c	-0.34084547
30	0x3d624f4b	0.0552514
31	0xbd83018f	-0.06396782
32	0x3d8ecb10	0.06972325
33	0xbd8aa210	-0.06769192
34	0xbe2858e1	-0.16440155
35	0x3db7cbde	0.089744315
36	0xbe2d988e	-0.16952726
37	0x3c161523	0.009160313
38	0xbe064fa0	-0.13116312
39	0x3ec550dc	0.38538253
40	0xbe8f2a06	-0.2796175
41	0x3e151cce	0.1456177
42	0x3e0162b8	0.12635314
43	0x3e5e3f63	0.21703868
44	0xbd518580	-0.051152706
45	0xbd732b4d	-0.059367467
46	0x3df9911e	0.12185882
47	0x3d0fe098	0.0351263
48	0x3d22a98b	0.03971247
49	0x3e6f46b8	0.23366821

gnn.convs.1.att_edge f4 [1, 1, 50]
0	0xbd43b1c9	-0.04777697
1	0x3f1222b9	0.5708423
2	0x3ee2c082	0.44287497
3	0xbf03005a	-0.5117241
4	0xbd62ff2a	-0.055419125
5	0x3e88341f	0.26602265
6	0xbe95272b	-0.29131445
7	0xbcbc3e70	-0.022978991
8	0xbe9cbca9	-0.30612686
9	0x3f128ba6	0.57244337
10	0x3ef122a4	0.4709674
11	0x3d6d569f	0.057943936
12	0xbe166f54	-0.14690906
13	0xb16fa69c	-3.4873784e-09
14	0xbe7027c7	-0.23452674
15	0x3f1149b6	0.567531
16	0xbea30cf6	-0.31845826
17	0xbd69477c	-0.05695294
18	0x3f04e8ca	0.5191771
19	0x3eec5c9e	0.4616441
20	0xbdb790cc	-0.08963165
21	0x3efca729	0.49346283
22	0xbef1f9ca	-0.47260886
23	0x3ec33893	0.381291
24	0x3eeee68d	0.4666027
25	0x3f0a61fd	0.5405577
26	0xbee92a40	-0.45540047
27	0x2b1d4927	5.5879124e-13
28	0x3ef317bb	0.47479042
29	0x3cb7e4ba	0.022447933
30	0x3e9b87a3	0.3037692
31	0xbe904cdf	-0.28183648
32	0x3efc445d	0.49270907
33	0x3cba8862	0.02277011
34	0xbef3cb80	-0.47616196
35	0x3f008669	0.50205094
36	0x3e1d965b	0.15389387
37	0xbe3216e3	-0.17391543
38	0x3eafb84e	0.343203
39	0x3effe1f1	0.49977067
40	0xbf044705	-0.5167087
41	0xbe3a6ae8	-0.18204844
42	0xbeed5baf	-0.46359012
43	0x3ef74f67	0.48302767
44	0x3ebf6e8f	0.37389037
45	0x3f11b65b	0.5691888
46	0xbf13be85	-0.57712585
47	0xbedf90ee	-0.4366526
48	0xbee5b972	-0.44868046
49	0xbec25a6c	-0.3795961

gnn.convs.1.bias f4 [50]
0	0x390647e2	0.00012806014
1	0x38837aef	6.269465e-05
2	0x3893ccac	7.047629e-05
3	0xb8287568	-4.0163664e-05
4	0xb90eae63	-0.0001360714
5	0x3972c25f	0.00023151327
6	0x38942507	7.064087e-05
7	0x3910a29e	0.0001379349
8	0x3987bcf5	0.0002588999
9	0x398d89c2	0.00026996253
10	0x384bf760	4.8629357e-05
11	0x3943b243	0.00018663057
12	0xb852c9d4	-5.025587e-05
13	0xb932d741	-0.00017055591
14	0x38c80819	9.5382515e-05
15	0x38b60119	8.678641e-05
16	0x39422fe8	0.00018519128
17	0x393e2e4f	0.00018137063
18	0xb9246c17	-0.00015680525
19	0xb9342bb9	-0.00017182426
20	0xb9a2d29a	-0.00031055958
21	0x391b6fca	0.00014823597
22	0xb8da9eee	-0.00010424653
23	0x391ece52	0.00015144915
24	0xb74ce859	-1.2213445e-05
25	0x391af900	0.00014779344
26	0x381515fc	3.5544843e-05
27	0xb72046a8	-9.553194e-06
28	0xb6d5761a	-6.3616435e-06
29	0x39894fd4	0.00026190153
30	0xb86d6eb7	-5.6608314e-05
31	0xb9d5fba3	-0.0004081401
32	0xb96a4552	-0.00022341803
33	0x38b5d599	8.670538e-05
34	0x3898bae5	7.2827366e-05
35	0xba18325d	-0.00058058446
36	0x37c88580	2.3904024e-05
37	0x37a05d65	1.9116977e-05
38	0x38cb9d2e	9.709071e-05
39	0xb9315a4b	-0.00016913672
40	0xb882404f	-6.2108615e-05
41	0x3922002d	0.0001544959
42	0xb91e5c51	-0.00015102445
43	0x38f8fab4	0.000118722586
44	0xb84953b0	-4.8000074e-05
45	0x3949798d	0.00019214135
46	0xb8227999	-3.8737056e-05
47	0x38c4fcba	9.393082e-05
48	0xb96238fa	-0.00021574265
49	0x392aecd2	0.00016300686

gnn.convs.1.lin.weight f4 [50, 50]
0	0x3e4e8b56	0.2017034
1	0xbe63a35d	-0.22230287
2	0x3ca1ea0a	0.019764919
3	0x3dcec92f	0.100969665
4	0xbe071c09	-0.13194288
5	0xbe76383e	-0.24044892
6	0xbce8bcdb	-0.028410366
7	0x3e193049	0.14959826
8	0x3dc007aa	0.09376462
9	0xbd908945	-0.07057432
10	0xbee11c5a	-0.43966943
11	0x3dffdf29	0.12493736
12	0xbe552eb7	-0.20818602
13	0xbce60d3a	-0.028082479
14	0xbce410f7	-0.02784012
15	0xbcd43bc1	-0.0259074
16	0xbb6a1318	-0.0035716947
17	0xbeb56f5e	-0.3543653
18	0x3b225d3e	0.0024774815
19	0x3e3094b7	0.1724423
20	0x3e34c747	0.17654143
21	0xbb9e9528	-0.004839558
22	0xbdc6fb38	-0.09715885
23	0x3e24f0c6	0.16107473
24	0x3c6410e4	0.013920043
25	0xbe9b754b	-0.30362925
26	0xbec5dc15	-0.38644472
27	0xbe31cd7e	-0.17363545
28	0xbe90b63b	-0.2826403
29	0xbd3178f4	-0.04332824
30	0xbf1b064b	-0.6055648
31	0x3bfffb28	0.0078119226
32	0x3bfdcd2c	0.0077454057
33	0xbd7e1231	-0.062029067
34	0x3e0ceedb	0.13762991
35	0xbf040670	-0.5157232
36	0xbde76872	-0.11299218
37	0xbe253183	-0.16132168
38	0x3bd4d4d2	0.0064950967
39	0x3c9908d3	0.018680966
40	0x3d7bf335	0.061511237
41	0xbe2bdd9a	-0.16783753
42	0xbb50c5c4	-0.0031856159
43	0xbe3acab5	-0.18241389
44	0x3e0ce340	0.13758564
45	0x3c26f075	0.010189165
46	0x3dbbde96	0.09173314
47	0xbe099f5d	-0.13439699
48	0x3de8e1fd	0.11371229
49	0x3d83c671	0.06434334
50	0xbe0d336e	-0.1378915
51	0xbddefc9b	-0.108880244
52	0x3e0ed7b6	0.13949475
53	0x3ebe4281	0.37160113
54	0xbe5852fe	-0.21125409
55	0x3d70cc19	0.058788393
56	0x3e108583	0.1411343
57	0x3d871a6e	0.06596838
58	0x3e192e1a	0.14958993
59	0x3d85fd90	0.06542504
60	0xbeedbfd8	-0.46435428
61	0xbd315588	-0.04329446
62	0xbebf5732	-0.37371212
63	0x3d3f8d5b	0.046765666
64	0xbbd2c21e	-0.006431832
65	0x3e2062c1	0.15662672
66	0xbd780ab1	-0.06055707
67	0x3ce2925f	0.027657686
68	0x3e1446f4	0.14480191
69	0xbee49d8b	-0.44651446
70	0xbed55c1d	-0.4167184
71	0x3df694fe	0.12040137
72	0xbc3391f5	-0.010960092
73	0x3d69cc36	0.057079516
74	0x3c63f6c1	0.013913811
75	0x3d82237a	0.06354423
76	0x3c80403d	0.015655631
77	0xbd98f392	-0.07468332
78	0xbc6e95d2	-0.014562087
79	0xbd16cce1	-0.03681648
80	0xbdea45f6	-0.11439125
81	0xbe169d41	-0.14708425
82	0xbdacd160	-0.084383726
83	0x3b1e6654	0.002416988
84	0xbd7310b5	-0.059342105
85	0x3e9e331c	0.30898368
86	0xbd185cb7	-0.037197795
87	0xbef44ebe	-0.47716326
88	0xbd99d1da	-0.07510729
89	0x3da7d829	0.08195526
90	0xbc98ed29	-0.018667774
91	0xbd08ab33	-0.033366393
92	0xbdff0cfa	-0.12453647
93	0xbe1db6d1	-0.1540177
94	0xbe3e90bf	-0.18609904
95	0x3e39fd99	0.18163146
96	0x3d956ffc	0.0729675
97	0x3dcc124c	0.09964427
98	0xbef8550a	-0.4850238
99	0xbce2b623	-0.02767474
100	0xbd2d091e	-0.042245023
101	0xbe35af58	-0.1774267
102	0xbe892d3c	-0.26792324
103	0xbcc0b8b6	-0.023525577
104	0x3e128057	0.1430677
105	0x3d2affeb	0.04174797
106	0x3bac9062	0.005266235
107	0x3d8f3b5e	0.06993745
108	0x3caf60f6	0.02140854
109	0x3dd76813	0.105178975
110	0x3db5e280	0.08881092
111	0xbd9c3989	-0.076281615
112	0xbd72eead	-0.05930965
113	0x3da9f616	0.0829889
114	0xbe2721e9	-0.1632153
115	0xbe548e1e	-0.20757338
116	0x3d9db4a1	0.07700468
117	0xbf290b53	-0.66032904
118	0xbe598005	-0.21240242
119	0xbe61dac0	-0.22056103
120	0xbe6cec14	-0.23136932
121	0x3d24d24f	0.04023963
122	0xb94d471f	-0.00019576818
123	0x3ce1f612	0.027583156
124	0x3e211a3d	0.15732665
125	0xbc8e0613	-0.01733688
126	0xbea43413	-0.3207098
127	0xbce3b709	-0.027797239
128	0x3d0db4d4	0.03459628
129	0xbdd1f07d	-0.102509476
130	0x3e5aabcd	0.213546
131	0xbd523b0d	-0.051325846
132	0x3d9dee2d	0.07711444
133	0x3de6458a	0.11243732
134	0xbe65a64f	-0.22426723
135	0x3e1436c6	0.1447402
136	0xbce54770	-0.027988166
137	0xbcf8cd90	-0.030371457
138	0x3c90aa7c	0.017659418
139	0xbe4ac0d2	-0.19800118
140	0x3d66eb9e	0.056377046
141	0xbda67914	-0.081285626
142	0xbe1dddce	-0.15416643
143	0xbf065914	-0.5247967
144	0xbdbcc363	-0.092169546
145	0xbd5937c4	-0.053031698
146	0xbf4817a5	-0.7816108
147	0xbc2988cb	-0.010347555
148	0x3e08f545	0.13374813
149	0xbd842441	-0.064522274
150	0xbd8265c7	-0.06367069
151	0xbccb0b6a	-0.024785716
152	0xbdd2a3b0	-0.10285127
153	0xbd9f2292	-0.07770266
154	0x3e5f33c2	0.21797088
155	0xbe1f7229	-0.15570892
156	0x3d573bf7	0.05254742
157	0xbebbacdd	-0.36655322
158	0xbcc2a224	-0.023758955
159	0xbccc51aa	-0.024941284
160	0x3da9edfc	0.08297345
161	0x3e26d859	0.16293468
162	0xbbabab40	-0.0052389205
163	0x3e02ee79	0.12786283
164	0xbe814480	-0.25247574
165	0xbeeb0bf8	-0.4590757
166	0xbd8c7b64	-0.068594724
167	0xbf2a0942	-0.66420376
168	0xbd325aa0	-0.043543458
169	0xbdb734e3	-0.08945634
170	0xbd6f80a2	-0.058472283
171	0xbd08bc01	-0.03338242
172	0xbde283fe	-0.11060332
173	0x3d87708b	0.06613263
174	0xbbd751e1	-0.00657104
175	0xbdfe72f1	-0.12424267
176	0xbf404827	-0.75110096
177	0xbdb6345b	-0.08896705
178	0xbe3b6a42	-0.18302253
179	0xbebee56b	-0.37284407
180	0x3d7caaff	0.061686512
181	0xbb2ccc76	-0.0026366985
182	0xbe0f8b30	-0.1401794
183	0x3de1af3f	0.11019754
184	0xbde9e54b	-0.11420687
185	0x3c38ec15	0.011286755
186	0xbdf752c6	-0.12076335
187	0xbd97c0f3	-0.07409849
188	0x3d40756d	0.046986986
189	0x3d4654e0	0.048420787
190	0x3db48323	0.08814075
191	0x3d71287e	0.058876507
192	0xbe431eae	-0.19054672
193	0xbe591435	-0.21199115
194	0x3d1dbff8	0.038513154
195	0x3d133b67	0.035945322
196	0x3dd8e0bd	0.105897404
197	0xbe683c86	-0.22679338
198	0x3e93fb04	0.28902447
199	0xbd65c801	-0.05609894
200	0xbd418705	-0.047247905
201	0xbb0f3190	-0.002184961
202	0x3ca011ad	0.019539678
203	0xbdab5d21	-0.08367372
204	0x3d90a875	0.07063381
205	0xbe22f6bf	-0.15914439
206	0x3eb1e9bd	0.3474864
207	0xbdd1abbf	-0.10237836
208	0xbdc18fa7	-0.09451228
209	0x3e2c9910	0.16855264
210	0x3d1b9292	0.037981577
211	0x3db79cf3	0.089654826
212	0xbe9cd76a	-0.30633098
213	0x3e918f52	0.28429657
214	0xbc84eeb7	-0.01622711
215	0xbe2bac91	-0.16765048
216	0xbe864963	-0.26227865
217	0x3d5ba436	0.0536234
218	0xbb5db898	-0.003383195
219	0x3d4673cc	0.048450276
220	0x3ca6d1b8	0.020363674
221	0xbe698bb7	-0.22807203
222	0xbda44c3d	-0.08022354
223	0xbe6853c3	-0.22688203
224	0x3d31d48a	0.043415584
225	0x3def8f6d	0.11697278
226	0x3e4312b0	0.19050097
227	0xbed232b8	-0.4105432
228	0xbd8615f9	-0.0654716
229	0x3da275bb	0.079326116
230	0xbcbde192	-0.02317885
231	0x3d531775	0.051536042
232	0xb8bcade6	-8.99693e-05
233	0xbf44ab66	-0.76824033
234	0xbd4eff8e	-0.050536685
235	0xbea4107b	-0.32043824
236	0xbdf72bd5	-0.12068907
237	0x3d478fae	0.048721008
238	0x3d30d103	0.04316808
239	0x3e4b3188	0.19843113
240	0x3d53f20e	0.051744513
241	0x3c3523be	0.011055885
242	0x3e772988	0.24136937
243	0x3e18381a	0.14865151
244	0x3d6eef7e	0.058333866
245	0x3d5b735a	0.053576805
246	0x3d6a3af9	0.057185147
247	0xbce5c5ac	-0.028048359
248	0xbe20a937	-0.1568955
249	0xbe60790e	-0.21921179
250	0xbdc57d30	-0.09643018
251	0xbe2951f5	-0.1653517
252	0xba8462bb	-0.0010100225
253	0x3e3d6fc3	0.18499665
254	0xbcab818b	-0.020935794
255	0xbe86750e	-0.2626118

gnn.convs.1.lin_edge.weight f4 [50, 1]
0	0xbd43b1c4	-0.047776952
1	0x3f1222bb	0.57084244
2	0x3ee2c081	0.44287494
3	0xbf030059	-0.51172405
4	0xbd62ff20	-0.055419087
5	0x3e883422	0.26602274
6	0xbe95271e	-0.29131407
7	0xbcbc3e73	-0.022978997
8	0xbe9cbcaf	-0.30612704
9	0x3f128ba0	0.572443
10	0x3ef122b1	0.4709678
11	0x3d6d56a4	0.057943955
12	0xbe166f48	-0.14690888
13	0xb16fac3c	-3.4876981e-09
14	0xbe7027d8	-0.23452699
15	0x3f1149bf	0.5675315
16	0xbea30cfe	-0.3184585
17	0xbd694775	-0.056952912
18	0x3f04e8ce	0.5191773
19	0x3eec5cb4	0.46164477
20	0xbdb790ce	-0.08963166
21	0x3efca71d	0.49346247
22	0xbef1f9d6	-0.47260922
23	0x3ec33897	0.38129112
24	0x3eeee68b	0.46660265
25	0x3f0a61ff	0.5405578
26	0xbee92a3a	-0.4554003
27	0x2b1d4bf4	5.588301e-13
28	0x3ef317ce	0.474791
29	0x3cb7e4db	0.022447994
30	0x3e9b879b	0.30376896
31	0xbe904ce3	-0.2818366
32	0x3efc4461	0.4927092
33	0x3cba885d	0.022770101
34	0xbef3cb8c	-0.4761623
35	0x3f008672	0.5020515
36	0x3e1d9652	0.15389374
37	0xbe3216df	-0.17391537
38	0x3eafb85a	0.34320337
39	0x3effe1ff	0.4997711
40	0xbf04470a	-0.51670897
41	0xbe3a6ae7	-0.18204843
42	0xbeed5bac	-0.46359003
43	0x3ef74f6c	0.48302782
44	0x3ebf6ea0	0.37389088
45	0x3f11b65e	0.56918895
46	0xbf13be79	-0.57712513
47	0xbedf90e8	-0.43665242
48	0xbee5b96a	-0.44868022
49	0xbec25a72	-0.3795963

gnn.convs.2.att_src f4 [1, 1, 50]
0	0xbdaba5a7	-0.08381205
1	0x3e227458	0.15864694
2	0x3e47298d	0.19449444
3	0xbdb5fbd8	-0.08885926
4	0x3b9f556f	0.0048624794
5	0xbca4513e	-0.02005827
6	0x3d49ff37	0.049315657
7	0xbe16d9c5	-0.1473151
8	0x3da59985	0.08085922
9	0xbe211768	-0.15731585
10	0x3b90116e	0.004396609
11	0x3b3c2ebc	0.002871438
12	0xbc13a5a3	-0.009011659
13	0x3cccf631	0.025019737
14	0xbdfeee17	-0.12447756
15	0xbe21fba2	-0.15818647
16	0x3dbbc3c2	0.09168197
17	0xbeff2bb7	-0.4983804
18	0x3c2b9ecd	0.010474873
19	0xbe251e95	-0.16124947
20	0xbc9f9e2c	-0.019484602
21	0x3d48b1d3	0.04899771
22	0x3e97f066	0.29675597
23	0x3ca0a970	0.019612044
24	0x3da649a3	0.08119514
25	0x3b3b2978	0.0028558653
26	0xbda9d97b	-0.08293434
27	0xbdacb8c4	-0.08433679
28	0x3ddf9d27	0.10918646
29	0x3ca2a220	0.019852698
30	0xbb8b78bc	-0.004256336
31	0xbdac7ee8	-0.08422643
32	0xbc843de3	-0.016142791
33	0xbd1e6175	-0.03866716
34	0x3aa68d3e	0.0012706888
35	0xbedb4388	-0.4282496
36	0x3ec7d105	0.39026657
37	0xbd2384e4	-0.039921656
38	0xbb6970f0	-0.0035620295
39	0x3caa98e5	0.020824859
40	0x3d292972	0.04129929
41	0xbd869cb8	-0.065728605
42	0x3d284e22	0.04109014
43	0x3d0ca389	0.034335647
44	0x3d7edd3b	0.0622227
45	0xbd980394	-0.074225575
46	0xbd5ed728	-0.054404408
47	0xbbe27429	-0.00691082
48	0xbe216987	-0.15762912
49	0xbd20bfca	-0.039245404

gnn.convs.2.att_dst f4 [1, 1, 50]
0	0xbc4800a1	-0.012207181
1	0xbe3d238d	-0.18470593
2	0xbe320197	-0.17383419
3	0x3cda8c76	0.026678305
4	0x3b0860f1	0.0020809735
5	0xbcc79c2d	-0.024366463
6	0xbe38844c	-0.18019217
7	0x3e4950e0	0.19659758
8	0xbe6096c0	-0.21932507
9	0x3e4d1108	0.20026028
10	0x3ca77edb	0.020446232
11	0xbd401bf0	-0.046901643
12	0xbbf3dcf5	-0.0074421116
13	0xbd38d3d0	-0.045123875
14	0x3e374941	0.17899038
15	0x3e0dff54	0.13866931
16	0xbe300384	-0.17188841
17	0xbe02d4f2	-0.12776545
18	0xbda40f30	-0.08010709
19	0xbd0f19cd	-0.034936715
20	0x3cf7b10b	0.030235788
21	0xbdbf020f	-0.093265645
22	0x3ab04a01	0.0013449789
23	0xbd6c6e9e	-0.05772268
24	0xbd81d731	-0.06339873
25	0xbc305bc5	-0.010764067
26	0x3d18130c	0.03712754
27	0xbc1cee58	-0.00957831
28	0xbe0e9723	-0.13924842
29	0xbd0a9c41	-0.03384042
30	0x3cde8794	0.027164258
31	0x3d60415a	0.054749824
32	0xbc84c398	-0.016206548
33	0x3cd17b1d	0.0255714
34	0x3c8e4ee1	0.017371597
35	0x3c72993f	0.0148070445
36	0xbd473271	-0.04863209
37	0x3ce223b7	0.02760492
38	0xbcbfc45b	-0.02340906
39	0x3caeb17a	0.021324862
40	0xbda4a408	-0.08039099
41	0x3da8f794	0.08250347
42	0xbd360636	-0.044439517
43	0xbd61c0ef	-0.055115636
44	0xbd666f47	-0.056258466
45	0x3d5e63fa	0.054294564
46	0x3e45a6ac	0.19301862
47	0x3b7c754c	0.0038522063
48	0xbc603b7d	-0.013686058
49	0x3dbb55cc	0.09147224

gnn.convs.2.att_edge f4 [1, 1, 50]
0	0x8b66e2ee	-4.4467112e-32
1	0x16931670	2.376329e-25
2	0x11c51bff	3.1098374e-28
3	0x98ac4334	-4.4528816e-24
4	0xac470773	-2.8283736e-12
5	0xb5023eaa	-4.851996e-07
6	0x2b04549c	4.701324e-13
7	0x9903cae6	-6.813516e-24
8	0x94320842	-8.988332e-27
9	0xa7924c02	-4.060555e-15
10	0x3ac3d7f0	0.0014941674
11	0x3a4a9e98	0.0007729321
12	0x16474cfc	1.6099384e-25
13	0xa9dc5331	-9.784394e-14
14	0xb25712c7	-1.2518917e-08
15	0x88ae7234	-1.0499093e-33
16	0xabfe2d38	-1.8060336e-12
17	0x9d93e514	-3.9147437e-21
18	0xa543365e	-1.6931974e-16
19	0x24444ffd	4.2568478e-17
20	0x1891281f	3.7522133e-24
21	0xb39594c8	-6.965416e-08
22	0x8891551f	-8.746882e-34
23	0xaae6536d	-4.0914096e-13
24	0x98e12a95	-5.8204134e-24
25	0x924ee5d5	-6.528543e-28
26	0x2edb0a98	9.960849e-11
27	0x0e3c3cd5	2.3202079e-30
28	0x9775915f	-7.9347254e-25
29	0x23a572aa	1.7937898e-17
30	0xae6b51c8	-5.350545e-11
31	0xb7807d29	-1.5317071e-05
32	0x3a2dcc6e	0.00066298887
33	0xb995b3c3	-0.00028553428
34	0xa7235f49	-2.2672448e-15
35	0x2f5bd316	1.9992927e-10
36	0x92ac6fa7	-1.08822505e-27
37	0xa777a5bb	-3.4367979e-15
38	0x350341cf	4.8897067e-07
39	0x1470e2c7	1.21616274e-26
40	0x1ff1d722	1.0242338e-19
41	0x1dc9e74a	5.3443404e-21
42	0xb91ec0dd	-0.00015139901
43	0x1e0ea410	7.551345e-21
44	0x9b2ed698	-1.4462282e-22
45	0x352467e2	6.124593e-07
46	0x0475878c	2.8861852e-36
47	0x328714ce	1.572553e-08
48	0xaa60e8a8	-1.9975915e-13
49	0x9c1fd337	-5.2881676e-22

gnn.convs.2.bias f4 [50]
0	0x37c498f3	2.3436243e-05
1	0xb650df7e	-3.1124505e-06
2	0x375314ca	1.258142e-05
3	0xb5bf6571	-1.4260132e-06
4	0xb6535183	-3.1488896e-06
5	0x355145d6	7.796019e-07
6	0x378c8e70	1.6755628e-05
7	0x388cf19c	6.7207235e-05
8	0xb886056c	-6.390628e-05
9	0xb8c24b22	-9.2646354e-05
10	0x35387bcc	6.872549e-07
11	0xb6370fbc	-2.7278284e-06
12	0xb65c100a	-3.279189e-06
13	0x350e2fe8	5.2968835e-07
14	0x35b85f83	1.3736866e-06
15	0x368736d0	4.0296945e-06
16	0x380e83fa	3.397835e-05
17	0x34e679c8	4.2929446e-07
18	0xb403f0ed	-1.2287974e-07
19	0xb8839b43	-6.2754865e-05
20	0xb3b0ee66	-8.239003e-08
21	0x33497cd7	4.69125e-08
22	0x3680177d	3.8174317e-06
23	0xb61690b1	-2.2435963e-06
24	0x39360331	0.00017358061
25	0xb408ccb3	-1.2740456e-07
26	0x3547643b	7.427913e-07
27	0x382cba0c	4.1181265e-05
28	0xb4b85d49	-3.4340545e-07
29	0x35105b37	5.3776915e-07
30	0xb5012cc9	-4.8121416e-07
31	0xb8deb153	-0.00010618814
32	0xb40ba6ed	-1.3006111e-07
33	0xb4d4f1d2	-3.9664025e-07
34	0x34e8fee6	4.339883e-07
35	0xb4fbcc8c	-4.690122e-07
36	0xb1db83c8	-6.3887207e-09
37	0x35256590	6.161508e-07
38	0xb3f2e369	-1.1310369e-07
39	0x34832dc0	2.443394e-07
40	0xb52fa7cc	-6.5436757e-07
41	0xb451af46	-1.9528406e-07
42	0x34a08881	2.9901642e-07
43	0xb521f0f9	-6.0327835e-07
44	0x352800ce	6.258605e-07
45	0xb4f7f7f6	-4.618775e-07
46	0xb765cf86	-1.36977815e-05
47	0x363574b6	2.7039036e-06
48	0xb5342d63	-6.712127e-07
49	0x3393c361	6.88076e-08

gnn.convs.2.lin.weight f4 [50, 50]
0	0x3de6191b	0.11235257
1	0xbe83ffd7	-0.25781128
2	0xbe58501b	-0.21124308
3	0x3ea18165	0.31544033
4	0x3e881e3b	0.26585564
5	0xbc65ab96	-0.01401796
6	0x3e703a08	0.23459637
7	0xbdfd24b6	-0.12360518
8	0x3e6e8f9f	0.23296975
9	0xbe96b5e5	-0.2943565
10	0xbdd1972f	-0.10233914
11	0xbea96dcd	-0.33091584
12	0x3e652532	0.2237747
13	0xbd762377	-0.060092416
14	0xbdae8df6	-0.08523171
15	0x3d602dca	0.054731168
16	0xbec2dda6	-0.3805973
17	0x3d17452b	0.036931198
18	0x3dbe5d33	0.0929512
19	0xbdfaf8a1	-0.122544535
20	0x3eaf10a1	0.34192374
21	0xbce6f309	-0.02819206
22	0x3d1d07ab	0.03833739
23	0x3e0a49dc	0.13504738
24	0x3e98aae4	0.2981788
25	0x3e8922b4	0.2678429
26	0xbe8e955d	-0.2784833
27	0x3e53376c	0.2062661
28	0x3eb23451	0.3480554
29	0x3e3cedd3	0.18450098
30	0xbe9bee56	-0.30455273
31	0xbe02b249	-0.12763323
32	0xbd857250	-0.06515944
33	0xbe028511	-0.12746073
34	0x3c21ea16	0.009882471
35	0xbdc1a55f	-0.0945537
36	0xbdfcef43	-0.12350323
37	0x3ea06a8f	0.31331298
38	0xbdb41c8d	-0.08794508
39	0xbdd242ca	-0.10266645
40	0xbe3e78fa	-0.18600836
41	0x3eb3f42a	0.3514722
42	0x3d40378e	0.04692798
43	0x3dbc9487	0.09208017
44	0xbe3962eb	-0.1810414
45	0x3e95e858	0.29278827
46	0xbd999365	-0.074988164
47	0xbe2ae87a	-0.16690245
48	0xbdb0e765	-0.08637885
49	0xbc792bf1	-0.01520823
50	0xbe347e02	-0.17626193
51	0xbe692af0	-0.22770286
52	0x3dea77fe	0.11448668
53	0xbca879a9	-0.020565825
54	0x3d97ab94	0.07405773
55	0x3decc64e	0.11561261
56	0xbd270b26	-0.040782116
57	0x3b770f97	0.0037698501
58	0x3e583ea8	0.21117651
59	0xbcfde5b9	-0.03099333
60	0x3e226e6e	0.15862438
61	0xbb487154	-0.0030585127
62	0x3dcd3c19	0.10021228
63	0xbceefab0	-0.029172271
64	0xbe98394e	-0.2973122
65	0x3e9405c8	0.2891066
66	0x3e9b59f1	0.30342057
67	0x3d187269	0.037218485
68	0xbdd84a0e	-0.10561
69	0x3d89680e	0.067093
70	0x3d0b289e	0.033974282
71	0xbd57920a	-0.052629508
72	0xbe98dc06	-0.29855365
73	0xbe5644cf	-0.20924686
74	0x3d955921	0.072923906
75	0x3d371eec	0.044707224
76	0x3dbd40d2	0.09240879
77	0x3e19f72d	0.15035696
78	0x3d12f153	0.035874676
79	0x3dd0c958	0.10194653
80	0xbe1516a5	-0.1455942
81	0xbc12a6e2	-0.008950921
82	0xbda33024	-0.079681665
83	0x3e4a0a1f	0.19730423
84	0x3e87e3b8	0.26540923
85	0xbec572e0	-0.38564205
86	0x3cc3372b	0.023830017
87	0xbe2bc135	-0.16772921
88	0x3e04c40e	0.12965414
89	0xbe3add3b	-0.18248455
90	0x3e37419d	0.17896123
91	0xbe6551cf	-0.22394489
92	0xbd28f387	-0.04124787
93	0xbdf7209d	-0.12066767
94	0xbdbc28cd	-0.0918747
95	0x3d6d5a3f	0.057947394
96	0x3e069449	0.13142504
97	0x3e760d7d	0.24028583
98	0x3d033a59	0.032038067
99	0xbe997983	-0.2997552
100	0x3d8d35c3	0.0689502
101	0x3d2d0ef5	0.042250592
102	0x3e38d646	0.18050489
103	0x3e4c4793	0.19949178
104	0x3df7bb01	0.12096215
105	0xbe329fe4	-0.17443806
106	0x3e79415e	0.24341342
107	0xbe808117	-0.25098488
108	0xbd03f759	-0.03221831
109	0xbe40dc67	-0.18834077
110	0xbe22f4ef	-0.15913747
111	0x3e515722	0.20443395
112	0x3e0a3d49	0.13499941
113	0xbd45446d	-0.04816096
114	0xbeb1a57a	-0.3469656
115	0x3ecae158	0.3962505
116	0x3d6da435	0.05801793
117	0x3e014a1b	0.12625925
118	0x3e05eccc	0.13078612
119	0xbc8c8308	-0.017152324
120	0xbddd03cf	-0.10791742
121	0x3d5fb2c7	0.054613855
122	0xbe35be2e	-0.17748329
123	0xbcfe650a	-0.031054039
124	0x3db897df	0.09013342
125	0x3e750b2c	0.23930043
126	0xbe2df8c5	-0.1698943
127	0x3e1986cd	0.14992829
128	0xbe4acd57	-0.19804893
129	0x3e863de6	0.262191
130	0xbcb0eae8	-0.021596387
131	0x3e660cb4	0.22465783
132	0x3d05539f	0.03255045
133	0xbe4e33cf	-0.20136951
134	0xbe322d6c	-0.1740014
135	0xbda9dcbf	-0.08294057
136	0x3ea22339	0.31667498
137	0x3e94c3de	0.29055685
138	0x3e96840d	0.29397622
139	0xbe8ad0a4	-0.27112305
140	0xbe6663da	-0.22499028
141	0xbe831b4f	-0.25606772
142	0xbd8aaf12	-0.06771673
143	0x3d9758d8	0.073899925
144	0xbe06e621	-0.13173725
145	0xbd7b717d	-0.061387528
146	0xbd9a980d	-0.07548533
147	0xbb98cedb	-0.004663331
148	0xbe9693e6	-0.29409713
149	0xbe4803d2	-0.19532707
150	0x3d082aeb	0.033244055
151	0x3c98a033	0.018631076
152	0x3c99a4c2	0.01875532
153	0xbc292384	-0.010323409
154	0x3d10e16d	0.035371233
155	0xbd793755	-0.060843784
156	0x3d779b35	0.06045075
157	0xbc54f141	-0.012996973
158	0xbbdcfdb4	-0.006744111
159	0x3cced04a	0.025245804
160	0xbcbd6ce2	-0.023123208
161	0x3cbe46e7	0.023227168
162	0x3d4b44f6	0.049626313
163	0xbd8599a9	-0.06523449
164	0x3c31a1ee	0.01084183
165	0x3c412160	0.011787742
166	0xbcd29e52	-0.025710259
167	0xbdfb4e0e	-0.12270747
168	0x3dae1da1	0.08501745
169	0xbd92c4c8	-0.07166439
170	0x3ca1fe1b	0.019774487
171	0xbd19c29f	-0.03753912
172	0x3cb6c763	0.022311872
173	0x3d206a26	0.03916373
174	0x3d70c86c	0.058784887
175	0x3dc9444f	0.09827482
176	0x3c659e20	0.014014751
177	0xbdafd2b4	-0.0858511
178	0x3e05bb5b	0.13059752
179	0x3d21989f	0.03945219
180	0xbcfe1a03	-0.031018263
181	0x3d004e8b	0.031324904
182	0x3b7ce821	0.0038590508
183	0x3ca60587	0.020266308
184	0xbab40d35	-0.0013736846
185	0x3d7b6633	0.06137676
186	0xbdb51730	-0.08842313
187	0x3cb5960d	0.022166276
188	0xbd7ebe5d	-0.062193263
189	0xbd530ba3	-0.05152477
190	0x3cf6f331	0.03014526
191	0xbdbad245	-0.09122137
192	0x3db15359	0.086584754
193	0x3dccb4f3	0.09995451
194	0xbc67ab07	-0.014139897
195	0x3c0bbf4f	0.008529498
196	0xbe0057b5	-0.12533458
197	0x3cc08d01	0.023504736
198	0x3d344a08	0.044015914
199	0x3d1274ad	0.035755802
200	0x3e00d4d9	0.12581195
201	0xbd15a9df	-0.036538955
202	0xbd7310a4	-0.05934204
203	0x3e07b660	0.13253164
204	0xbde0ea90	-0.10982239
205	0xbe3b9451	-0.18318297
206	0x3e13d11c	0.14435238
207	0xbda654a3	-0.08121612
208	0x3c82e7a8	0.015979603
209	0x3e061d7b	0.13097183
210	0x3e33b37a	0.17548934
211	0x3e22829b	0.15870135
212	0xbc786cb8	-0.015162639
213	0xbe0d99b2	-0.13828161
214	0xbe516b67	-0.20451127
215	0x3d693de4	0.05694379
216	0x3e168323	0.14698462
217	0xbe83df71	-0.2575641
218	0x3cf89f25	0.030349324
219	0xbcf3f119	-0.02977805
220	0x3e835bae	0.25655884
221	0x3d8e1a10	0.06938565
222	0xbd134842	-0.035957582
223	0xbc020dc9	-0.007937857
224	0xbd8ca316	-0.06867044
225	0x3e6d47e4	0.23171955
226	0xbda28088	-0.07934672
227	0x3cbb9c95	0.022901813
228	0x3e11c9e2	0.14237168
229	0x3dea62d6	0.11444633
230	0x3cb4a1f5	0.022049883
231	0x3c8e670e	0.017383125
232	0x3d15164e	0.036398225
233	0xbce64f7a	-0.02811407
234	0xbca7d4f4	-0.020487286
235	0xbdad5ec8	-0.08465344
236	0xbda2f649	-0.079571314
237	0xbe1a6964	-0.15079266
238	0x3db7dbce	0.08977471
239	0x3ba4e24c	0.0050318595
240	0xbe186319	-0.14881553
241	0xbe53e596	-0.20693049
242	0x3dd70dc7	0.10500675
243	0x3e36b3ab	0.17841975
244	0xbe11d990	-0.1424315
245	0xbe13a7fa	-0.14419547
246	0xbdbf890d	-0.09352312
247	0x3cddf829	0.027095871
248	0x3cc79b14	0.02436594
249	0xbd44c642	-0.048040636
250	0x3d661a41	0.05617738
251	0x3bcce2a0	0.0062526017
252	0xbbefbe6d	-0.0073164017
253	0x3cbebf55	0.023284594
254	0x3cf0938c	0.02936723
255	0xbd4c0f62	-0.049819358

gnn.convs.2.lin_edge.weight f4 [50, 1]
0	0x8b66f444	-4.4480154e-32
1	0x169c3952	2.5239333e-25
2	0x91b238a5	-2.8118358e-28
3	0x98ac4525	-4.4530776e-24
4	0xac4459ed	-2.7903194e-12
5	0xb50f64b2	-5.341818e-07
6	0xab044a01	-4.699852e-13
7	0x1903a257	6.8053255e-24
8	0x14325814	9.004074e-27
9	0xa7925253	-4.0612396e-15
10	0x3ac583d4	0.0015069195
11	0xba4a9de3	-0.00077292154
12	0x9651e543	-1.6955228e-25
13	0xa9dc4c3f	-9.783189e-14
14	0xb2534f0b	-1.2299789e-08
15	0x08ae71fd	1.0499043e-33
16	0x2c0110b0	1.8341266e-12
17	0x9d93d2e9	-3.912865e-21
18	0xa617df6a	-5.269143e-16
19	0x24444c65	4.2565434e-17
20	0x18235096	2.1107942e-24
21	0xb3958047	-6.961687e-08
22	0x0891552f	8.746897e-34
23	0xaae658d1	-4.0917836e-13
24	0x18f3999d	6.2969138e-24
25	0x92520dbe	-6.6281255e-28
26	0x2ec65372	9.0188204e-11
27	0x0e41f10b	2.3905145e-30
28	0x977439a0	-7.8913385e-25
29	0xa3afc1c6	-1.9055604e-17
30	0x2e769dca	5.607407e-11
31	0xb84b9f16	-4.8547132e-05
32	0xba2db39c	-0.000662619
33	0xb98c1790	-0.00026720436
34	0x24f363b1	1.05553335e-16
35	0xacdfcb24	-6.3605943e-12
36	0x928bf004	-8.831302e-28
37	0xa777ae4f	-3.4372629e-15
38	0xb5036052	-4.894147e-07
39	0x1481bccc	1.3100139e-26
40	0x9ff246b4	-1.02607955e-19
41	0x1dca7fa0	5.3600916e-21
42	0xb9292c82	-0.00016133676
43	0x9e08314d	-7.209975e-21
44	0x9b478ef3	-1.6507084e-22
45	0x352463c3	6.1239933e-07
46	0x847547bb	-2.8832549e-36
47	0x32c5c135	2.3021679e-08
48	0xaa60e9c8	-1.9976306e-13
49	0x1c1fc101	5.285814e-22

gnn.batch_norms.0.weight f4 [50]
0	0x3f0ed995	0.55800754
1	0x3f33b9f4	0.70205617
2	0x3f303de0	0.68844414
3	0x3f0775fb	0.529144
4	0x3f3f4608	0.74716234
5	0x3f21e357	0.6323752
6	0x3efd23b4	0.49441302
7	0x3efedb21	0.49776557
8	0x3f22fb5d	0.636648
9	0x3f067806	0.5252689
10	0x3f02b653	0.51059455
11	0x3ec5da6b	0.38643202
12	0x3efc0463	0.49222097
13	0x3eb8a43f	0.3606281
14	0x3ebe2c3c	0.37143123
15	0x3f087964	0.5331023
16	0x3ed9d5cb	0.42545924
17	0x3eede4db	0.46463665
18	0x3efb1243	0.4903737
19	0x3f0b68ac	0.5445659
20	0x3efbf269	0.49208382
21	0x3f1826ad	0.59434015
22	0x3f024dc5	0.50899917
23	0x3f1ff0d2	0.6247684
24	0x3ee4d1c2	0.44691283
25	0x3f17bbf3	0.5927116
26	0x3f1cc44c	0.61237025
27	0x3f0f3009	0.5593267
28	0x3f0cf99a	0.5506836
29	0x3eeebb43	0.46627244
30	0x3f1d4537	0.6143374
31	0x3f18d46d	0.59699136
32	0x3f134ca1	0.575388
33	0x3ed6b988	0.41938424
34	0x3f11e2e2	0.5698682
35	0x3efd5567	0.4947922
36	0x3efd8c62	0.49521166
37	0x3f152755	0.5826314
38	0x3f01bc7c	0.5067823
39	0x3f1698a8	0.58826685
40	0x3f18c857	0.59680694
41	0x3f315588	0.69271135
42	0x3f02cdd1	0.510953
43	0x3f1bc030	0.6084013
44	0x3f23ef06	0.64036596
45	0x3ec18f3e	0.37804598
46	0x3f268b2d	0.65056115
47	0x3eca9392	0.39565712
48	0x3ed5a1c3	0.41724977
49	0x3f033655	0.5125478

gnn.batch_norms.0.bias f4 [50]
0	0xbe0e9686	-0.13924608
1	0xbefb3c5a	-0.49069482
2	0xbed43001	-0.41442874
3	0xbe95cd67	-0.29258272
4	0xbefedcab	-0.4977773
5	0xbe87f47b	-0.2655371
6	0xbdf88c96	-0.1213619
7	0xbe2fa296	-0.17151865
8	0xbe930123	-0.28711805
9	0xbe6f6caa	-0.23381296
10	0xbe57433c	-0.21021742
11	0xbd983df0	-0.07433689
12	0xbe94749d	-0.2899522
13	0xbe8cc9ec	-0.27497804
14	0x3d48ed34	0.04905434
15	0xbe8e9efd	-0.27855673
16	0xbdbc5de5	-0.091975965
17	0xbcd22552	-0.025652561
18	0xbc4237a7	-0.011854089
19	0xbdf111fa	-0.11771007
20	0xbdb19d7f	-0.08672618
21	0xbe72d2fe	-0.237133
22	0xbdd3938a	-0.10330875
23	0xbe7c7a02	-0.24655917
24	0xbdbe331c	-0.09287092
25	0xbe858190	-0.2607541
26	0xbe245c87	-0.16050921
27	0xbe7b5926	-0.24545726
28	0xbe942324	-0.2893306
29	0xbe7a9772	-0.24471834
30	0xbe6cbdfd	-0.2311935
31	0xbe11fdcd	-0.14256974
32	0xbe2af643	-0.16695504
33	0xbcf64e72	-0.030066703
34	0xbed481dc	-0.41505325
35	0xbe875638	-0.26432967
36	0xbeb95234	-0.36195529
37	0xbea34cab	-0.3189443
38	0xbc9fcafb	-0.019505968
39	0xbe6050c8	-0.21905816
40	0xbe87cd15	-0.26523653
41	0xbea4b59f	-0.32169816
42	0xbe14f0a1	-0.14544918
43	0xbe6f11c7	-0.23346625
44	0xbe813f93	-0.25243816
45	0xbda3d72e	-0.08000027
46	0xbe5f0456	-0.21778998
47	0xbc79495d	-0.015215245
48	0xbea145eb	-0.31498656
49	0xbee0fe52	-0.4394403

gnn.batch_norms.0.running_mean f4 [50]
0	0xbb2919cf	-0.0025802737
1	0xba818f5b	-0.0009884642
2	0xbbf180cf	-0.0073700915
3	0x3b97cb3a	0.004632381
4	0xbc3720b6	-0.0111772325
5	0xba99723b	-0.0011707017
6	0xba57b667	-0.0008228779
7	0xbabe7929	-0.0014531958
8	0xbb86798b	-0.0041038445
9	0xbb3d3917	-0.002887314
10	0xbb32c25c	-0.0027276492
11	0x3b7c468a	0.0038494193
12	0x3b17c8ac	0.0023160381
13	0xbd11a423	-0.035556924
14	0x3b992906	0.00467408
15	0xbb1f9965	-0.0024352905
16	0xba11c77d	-0.0005561037
17	0xbad9304c	-0.001657018
18	0x3b00297a	0.0019555972
19	0xbb9a289c	-0.004704548
20	0x3acdb9f7	0.0015695681
21	0xbad1ba7d	-0.0016001012
22	0xb980f704	-0.00024598103
23	0xba7688ff	-0.0009404569
24	0xb869bf1b	-5.572951e-05
25	0xbb117e67	-0.0022200586
26	0xba97c51d	-0.001157913
27	0xbc10ac1a	-0.008830095
28	0xbb1f6554	-0.002432187
29	0xb98a4fb2	-0.0002638079
30	0xba63106a	-0.00086618087
31	0x3a846e8c	0.0010103746
32	0x3ba4031b	0.005005253
33	0xbbec6744	-0.0072144587
34	0x3b287837	0.002570642
35	0xbbfd07a7	-0.0077218595
36	0xbbb7ce71	-0.0056093265
37	0x39d6dc5b	0.00040981438
38	0xbade4f38	-0.0016960865
39	0x3b1ba87c	0.0023751548
40	0xbc559365	-0.01303563
41	0x39ea96b8	0.00044744252
42	0xbb973bd0	-0.0046152845
43	0xbb016580	-0.0019744337
44	0xbb3cbc7a	-0.0028798864
45	0x3bd0ddc3	0.0063740923
46	0xbaa2e817	-0.0012428787
47	0x3a2fa629	0.000670048
48	0xbbd3e286	-0.0064662127
49	0xbb78670b	-0.0037903215

gnn.batch_norms.0.running_var f4 [50]
0	0x3755a371	1.27338435e-05
1	0x37725fc0	1.4446618e-05
2	0x372c6bfc	1.0277141e-05
3	0x3773c241	1.4529157e-05
4	0x384a30f2	4.8206137e-05
5	0x370ab175	8.266758e-06
6	0x378a793a	1.6507332e-05
7	0x37908da6	1.7232098e-05
8	0x37c51e9a	2.349848e-05
9	0x37be689b	2.2698476e-05
10	0x37e499af	2.7251283e-05
11	0x3772839c	1.4454967e-05
12	0x3811b5af	3.47399e-05
13	0x38a28ed7	7.751368e-05
14	0x37401934	1.144996e-05
15	0x372a0282	1.01333735e-05
16	0x3804e50e	3.1684576e-05
17	0x373e2dc8	1.1335542e-05
18	0x36ca6ca1	6.032715e-06
19	0x37a12b8f	1.921298e-05
20	0x37a60420	1.9790663e-05
21	0x37916814	1.7333812e-05
22	0x36d0ddca	6.2247027e-06
23	0x3710fed8	8.642404e-06
24	0x381032af	3.4379478e-05
25	0x372ff677	1.0488197e-05
26	0x38826f90	6.219663e-05
27	0x37ad82e0	2.068415e-05
28	0x3845282e	4.700588e-05
29	0x37d564d4	2.543853e-05
30	0x37962b19	1.7901462e-05
31	0x373629ef	1.0857809e-05
32	0x378b441f	1.6601813e-05
33	0x37f37ee0	2.9026938e-05
34	0x3749f463	1.2037434e-05
35	0x379e8413	1.889657e-05
36	0x37de42df	2.6495602e-05
37	0x37446bc0	1.1707598e-05
38	0x370e23ab	8.472164e-06
39	0x3747286f	1.18707385e-05
40	0x379ebbfb	1.8922603e-05
41	0x36c7624d	5.942106e-06
42	0x37778f3a	1.4755695e-05
43	0x375c2696	1.3122006e-05
44	0x37b6223b	2.171203e-05
45	0x37600878	1.3353412e-05
46	0x37809aca	1.5330868e-05
47	0x37322449	1.0618075e-05
48	0x37a31ef6	1.9445532e-05
49	0x37d93329	2.589224e-05

gnn.batch_norms.1.weight f4 [50]
0	0x3f8d0f5f	1.1020316
1	0x3f657227	0.8962731
2	0x3f943bb1	1.1580716
3	0x3f87a1b6	1.0596225
4	0x3f7ff24f	0.9997911
5	0x3f98ca7f	1.1936797
6	0x3f98cded	1.1937844
7	0x3f96dc21	1.1785928
8	0x3f83c513	1.0294517
9	0x3f9cf96c	1.2263618
10	0x3f897b2b	1.0740713
11	0x3f8ef345	1.116799
12	0x3f43ba3b	0.7645604
13	0x3f4a501b	0.7902848
14	0x3f8e43f0	1.1114483
15	0x3f93e880	1.1555328
16	0x3f3b5336	0.73173845
17	0x3f87a6b5	1.059775
18	0x3f73307a	0.94995844
19	0x3fa8818c	1.3164535
20	0x3fa96063	1.323254
21	0x3f954943	1.1662983
22	0x3f969dae	1.176687
23	0x3f41cc97	0.75702804
24	0x3f69c721	0.9131947
25	0x3f8a8442	1.0821612
26	0x3f8ab8d8	1.083766
27	0x3f472ce8	0.77802896
28	0x3f8b096a	1.0862248
29	0x3f551874	0.8324044
30	0x3f4b6d8c	0.7946403
31	0x3f838cb5	1.0277315
32	0x3f8924d2	1.0714362
33	0x3f7c379d	0.9852236
34	0x3f902cb4	1.1263642
35	0x3f67c2ef	0.9053182
36	0x3f7b09e4	0.98061967
37	0x3f802c9e	1.0013616
38	0x3f869466	1.0514038
39	0x3f993b08	1.197114
40	0x3f57e5ae	0.8433484
41	0x3fa02717	1.2511929
42	0x3f946ef8	1.1596365
43	0x3fb72406	1.4307868
44	0x3f7cf814	0.9881604
45	0x3f9da165	1.2314879
46	0x3f53f54f	0.82796186
47	0x3f4f541a	0.80987704
48	0x3f95fc80	1.1717682
49	0x3f93091a	1.1487153

gnn.batch_norms.1.bias f4 [50]
0	0xbdd2ddd7	-0.10296219
1	0xbe14435c	-0.1447882
2	0xbea5f53a	-0.32413656
3	0xbeea7a4d	-0.45796433
4	0xbec207b5	-0.37896505
5	0xbed79680	-0.4210701
6	0xbee1fe40	-0.4413929
7	0xbe73eedc	-0.23821586
8	0xbe43aa57	-0.19107948
9	0xbee98db6	-0.4561593
10	0xbe68a68b	-0.22719781
11	0xbe5f9729	-0.21835007
12	0xbf0b33c0	-0.5437584
13	0xbe2f4871	-0.17117478
14	0xbeba3dce	-0.36375278
15	0xbeda53c1	-0.42642024
16	0xbe793e4d	-0.24340172
17	0xbe95c2ce	-0.29250187
18	0x3d852732	0.065016165
19	0xbe336fad	-0.1752307
20	0xbe80f583	-0.2518731
21	0xbe6ce588	-0.23134434
22	0xbd9fd343	-0.07803967
23	0xbdb0f593	-0.086405896
24	0xbeb3652c	-0.35038126
25	0xbe91f8e9	-0.28510216
26	0xbe55473b	-0.20827954
27	0x3cafec5f	0.021475015
28	0xbec7064e	-0.38871998
29	0xbd42aeb4	-0.04752989
30	0xbd695107	-0.05696204
31	0x3cd09c75	0.02546523
32	0xbe24ef0f	-0.16106819
33	0xbe8faa73	-0.2805973
34	0xbebf45a6	-0.37357825
35	0xbe9f6070	-0.31128263
36	0xbe770ffb	-0.2412719
37	0xbea4825b	-0.32130703
38	0xbe0485a0	-0.12941599
39	0xbea15528	-0.31510282
40	0xbee10747	-0.43950865
41	0xbef4e620	-0.4783182
42	0xbe6133e1	-0.21992446
43	0xbf17c6fe	-0.59288013
44	0xbdffa1bb	-0.124820195
45	0xbecb9cbf	-0.39768025
46	0xbe2c5763	-0.1683021
47	0xbe9d4b07	-0.30721304
48	0xbe679c7a	-0.22618285
49	0xbea04967	-0.31306002

gnn.batch_norms.1.running_mean f4 [50]
0	0xbe81465a	-0.25248986
1	0xbe406d47	-0.18791686
2	0xbea87285	-0.3289987
3	0xbeb944aa	-0.361852
4	0xbdd8f520	-0.10593629
5	0xbeab6e02	-0.33482367
6	0xbea20de7	-0.31651232
7	0xbe9eea93	-0.3103834
8	0xbe62cd18	-0.2214855
9	0xbeab200c	-0.33422887
10	0xbe99bd8b	-0.30027422
11	0xbe966f02	-0.29381567
12	0xbcb6cecf	-0.02231541
13	0xbd2251db	-0.039628845
14	0xbebdc41b	-0.3706368
15	0xbeafa7b4	-0.34307635
16	0xbd75bec3	-0.059996378
17	0xbe8168d6	-0.25275296
18	0xbe9b9003	-0.3038331
19	0xbe914bae	-0.28378052
20	0xbea5a5f7	-0.32353184
21	0xbe8d80e3	-0.27637395
22	0xbe81720f	-0.25282332
23	0x3c566dfa	0.013087744
24	0xbe47c104	-0.19507223
25	0xbe37fccf	-0.17967533
26	0xbe82f6cb	-0.25578913
27	0xbe03246f	-0.12806867
28	0xbea34f17	-0.31896278
29	0xbe71fd15	-0.236317
30	0xbc5bd964	-0.013418529
31	0xbe5b1a6e	-0.21396801
32	0xbe7568aa	-0.23965707
33	0xbe88acad	-0.2669424
34	0xbe9dfcbb	-0.3085688
35	0xbe8ee237	-0.27906963
36	0xbe8b15a5	-0.2716495
37	0xbeb7d810	-0.3590703
38	0xbe995d50	-0.29954004
39	0xbedebbbe	-0.4350261
40	0xbe4084b7	-0.18800627
41	0xbec4339b	-0.38320622
42	0xbe9a5d6c	-0.301494
43	0xbecec467	-0.40384218
44	0xbe71bac3	-0.236064
45	0xbe9e9180	-0.30970383
46	0xbda85c28	-0.082207024
47	0xbd9ef8bb	-0.07762285
48	0xbe8fc073	-0.28076515
49	0xbedff980	-0.4374504
