src/checkpoints/final_model.pth (torch, 142932 bytes, 78 tensors)

gnn.convs.0.att_src f4 [1, 1, 50]
000000 eb 00 ca bd 89 36 07 3e c6 92 1c 3c 6c 6d f4 bd
       -0.09863456 0.13204397 0.009556478 -0.11934933
000010 d8 b1 a6 ba 34 8c cf 3c a2 07 da bd a0 ee 1c 3e
       -0.0012717796 0.025335409 -0.10645987 0.15325403
000020 d9 71 95 3d 48 0f e6 bd 8d 53 dc bd ab 06 b0 3c
       0.07297105 -0.112333834 -0.107581235 0.021487555
000030 82 e5 36 b9 05 17 2b bd fb 55 1b 3a 09 46 23 bd
       -0.00017442371 -0.04177 0.0005925593 -0.039861713
000040 f4 29 1d bc 94 23 d8 3a e1 46 2d 3c b9 18 a1 3d
       -0.009592522 0.0016490095 0.010575981 0.078660436
000050 70 d1 cf 3d 13 b5 3c 3e b6 1a 46 3c c8 1f 36 3d
       0.10147369 0.1842845 0.012091329 0.044463903
000060 33 55 11 3e dc b4 af 3c 47 57 02 3e 49 9e cd bd
       0.14192657 0.021448545 0.12728606 -0.10039956
000070 18 17 ea 3d be 2d 1b bd 1b 09 9e 3d 06 55 2c 3d
       0.11430186 -0.03788542 0.077165805 0.042073272
000080 77 c4 97 3d 7e 19 c7 3d 15 a6 3d bd 2e 81 a7 38
       0.074105196 0.09721659 -0.046300966 7.987242e-05
000090 61 1f 8e 3c 15 78 fd bb 03 fb b1 bd a1 76 57 3d
       0.017348947 -0.007735262 -0.08690455 0.052603368
0000a0 99 e4 a0 bd 88 ff 63 bd 14 93 db bb c9 49 5b bd
       -0.078561015 -0.055663615 -0.0067008827 -0.053537164
0000b0 4d bf 83 bc 80 ae 2c 3c b4 25 90 bd bc 2c 2e 3d
       -0.01608243 0.010539651 -0.07038441 0.04252313
0000c0 fa 1e 9b bc 46 56 36 3c
       -0.01893567 0.011128968

gnn.convs.0.att_dst f4 [1, 1, 50]
000000 5b f6 08 3b 86 56 25 3c 45 0f e6 bb b4 fd 0c 3c
       0.0020898792 0.01009143 -0.0070208632 0.008605409
000010 1a fd 44 3c ae 22 74 bb 32 ab 9c 3a f6 c3 22 3c
       0.012023235 -0.0037252116 0.0011952876 0.009934416
000020 04 02 a4 3b b7 5e f5 ba 88 cf 9e 3b 60 19 4e 3b
       0.005005123 -0.0018720244 0.004846517 0.003144823
000030 f4 ef 15 bc 10 4e a3 3c ae 2c 7e 3b 38 17 28 3c
       -0.009151448 0.019934684 0.0038783955 0.010259442
000040 4e fa 44 3c de 82 36 3c b5 e9 13 3b fd e2 ca bb
       0.012022568 0.0111396 0.002256972 -0.00619161
000050 26 b3 b1 3b 6c 54 03 bc 34 ac 07 bc eb 7b 68 3b
       0.0054229675 -0.008015733 -0.0082808025 0.0035474251
000060 35 45 04 3c 66 e5 fa 3b 97 5e 1b 3c a4 dc 91 3c
       0.008073141 0.007656741 0.009483001 0.017805405
000070 42 81 11 3c d5 c4 fd 3b 1e ca 79 3c 00 b2 c8 ba
       0.008880915 0.0077444115 0.015245942 -0.0015311837
000080 62 19 7f 3b 1a 38 1a 3c b7 7d 33 3a 3d b4 14 3c
       0.0038925041 0.00941279 0.0006847041 0.009076175
000090 8f 2a 58 3c b8 1d e3 3a c7 3e 84 bc b4 a7 ee bb
       0.0131937405 0.0017327582 -0.016143216 -0.0072831754
0000a0 bb b9 ad 3b 4d 07 be bb d8 60 0c bb a0 75 07 3c
       0.005301682 -0.00579921 -0.0021420028 0.00826779
0000b0 3b f4 62 3c f8 0d 9f 3b e8 bd de 3a 05 2f 54 b9
       0.013852174 0.00485396 0.0016993852 -0.00020235412
0000c0 59 cf 29 b8 2e 9a db 3b
       -4.0485847e-05 0.0067017293

gnn.convs.0.att_edge f4 [1, 1, 50]
000000 23 08 eb be 53 bd 5f 3d 30 f9 a2 3e 5d 89 0c bf
       -0.45904645 0.054623913 0.3183074 -0.548971
000010 67 ce 8f be 72 89 6c 3e ae 3e 91 3d a4 1d 82 be
       -0.2808716 0.23099306 0.07092033 -0.2541324
000020 6c 05 a9 3e 7c 42 17 2d e2 ec 37 be c6 df 40 2e
       0.3301195 8.598119e-12 -0.17961457 4.3854496e-11
000030 9a be da be b8 01 c4 3e ec be 63 3e 65 68 b8 3e
       -0.42723542 0.3828256 0.222408 0.36017147
000040 f6 6d e8 3e 83 67 88 3e 3d 1a ad 3e df e6 02 3f
       0.45396394 0.26641473 0.3380908 0.5113353
000050 3b 57 cb be 9d ad 81 bd 8c 05 8f 3d 39 9c 9e 3e
       -0.3971499 -0.06331942 0.0698348 0.30978563
000060 49 4e c8 3e d5 00 88 3e 9e 06 9b be 27 8c 8e be
       0.39122227 0.26563135 -0.30278486 -0.27841303
000070 20 cc c2 3d 81 96 3b 3e 48 0e c1 be 35 3b b1 be
       0.0951159 0.18319131 -0.37706208 -0.34615484
000080 eb 16 af be 83 f8 09 bf 19 fb d6 be ce 26 03 bf
       -0.34197173 -0.53894824 -0.41988447 -0.51231086
000090 c3 df 36 3e 65 8b b1 a9 a5 cb 7e 3e 61 87 c8 be
       0.17858796 -7.88456e-14 0.24882372 -0.39165786
0000a0 c8 8b 0b 3f a4 f7 bf 3e e4 83 88 be 06 ac a0 be
       0.54510164 0.37493622 -0.26663125 -0.31381243
0000b0 a0 34 b5 3d 2a ad 16 2c 3a 80 a2 3e 80 1d 6e 3e
       0.08847928 2.1412407e-12 0.31738454 0.23253441
0000c0 e2 54 bc be b1 b7 c6 3d
       -0.3678351 0.09703005

gnn.convs.0.bias f4 [50]
000000 41 21 d2 3a 51 6f ee ba 74 3f 27 3b a0 be ec 3a
       0.0016031639 -0.0018191134 0.0025519999 0.0018062182
000010 e7 fe 63 b9 34 2a 74 ba 67 04 6a b9 97 70 a0 ba
       -0.00021743366 -0.000931415 -0.00022317619 -0.0012240586
000020 5c 22 23 ba 63 9d ea b7 87 bc 9f 3a 78 65 3a 3b
       -0.00062230765 -2.7968263e-05 0.0012186923 0.0028441828
000030 df 52 0b bb c3 4c 1e bb 88 64 07 3b 9c 16 82 ba
       -0.0021259112 -0.002415464 0.0020659287 -0.0009924951
000040 96 9e 45 bb 47 5a 85 bb f1 87 69 3b 53 bb e7 ba
       -0.003015434 -0.0040696 0.0035634006 -0.0017679728
000050 f5 fa 15 bb 5e dd 82 3b 82 43 d9 ba de 22 35 3a
       -0.0022885178 0.003993674 -0.0016575905 0.00069097977
000060 49 d2 8c 3b 47 a0 8a b9 31 f5 86 bb 3f 0b 96 3b
       0.004297529 -0.00026440827 -0.0041185846 0.0045789774
000070 51 54 84 3a b2 71 b1 3a 1e 17 16 3b 5b 53 67 3b
       0.0010095929 0.0013537912 0.0022901963 0.0035297486
000080 30 b1 e0 ba 2c e5 2d 3b 30 5a 68 3a 17 f3 44 3b
       -0.001714265 0.0026534302 0.00088635366 0.003005212
000090 3d 73 47 bb e4 14 6c 3a b4 2e b5 3a 78 d9 81 3b
       -0.0030433678 0.00090057985 0.0013823123 0.003962692
0000a0 07 a6 b2 ba a6 0a a9 b9 e3 80 a7 b5 18 c9 4e 3b
       -0.0013629802 -0.00032242126 -1.2479981e-06 0.0031552967
0000b0 7d d6 a9 b9 cf 7b 88 ba 67 e5 8e 3b 44 7f 2f 3b
       -0.00032393998 -0.0010412874 0.004360843 0.0026778737
0000c0 17 fe 4c ba 05 3f 9f bb
       -0.0007819845 -0.0048598074

gnn.convs.0.lin.weight f4 [50, 50]
000000 17 67 e2 3a eb 2a 0d 3e f6 70 40 be 95 33 57 be
       0.0017273155 0.13785903 -0.18793091 -0.2101577
000010 c4 b9 84 3e 2e d5 ad 3e 1c 33 bc be 21 13 fc 3e
       0.25922978 0.33951706 -0.36757743 0.49233344
000020 df 76 b4 39 9d 90 2a bf 9f ca 0f be b0 c9 4a 3d
       0.0003442084 -0.6662691 -0.14042138 0.04950875
000030 f2 d2 92 be 81 93 4f 3d d3 d7 9d 3d 51 ce 7b 3e
       -0.28676564 0.05067778 0.07707181 0.24590422
000040 ae fd 69 be c7 72 4d 3d f1 61 d7 bc a5 d5 66 3e
       -0.22850677 0.05015829 -0.02629182 0.22542436
000050 33 37 db be c9 64 25 3e 9d ab 67 3e 5f 0a a3 3e
       -0.4281555 0.16151728 0.22624059 0.3184385
000060 b0 70 dd be 7c d5 17 bd 2b c3 ff bd 97 00 22 3e
       -0.43250036 -0.03706883 -0.12488397 0.15820538
000070 fc 41 bc 3e ce fa 21 3e 42 3f 8f be 6e dd 4f 3e
       0.36769092 0.1581833 -0.2797795 0.20299312
000080 85 0c 5c 3d 3d 81 19 3e f3 36 9d 3e b0 c5 36 3e
       0.053722877 0.14990707 0.30705985 0.1784885
000090 e4 65 0c 3f 89 a8 c4 3d 24 18 50 3e f6 8b 9c be
       0.5484297 0.09602458 0.20321709 -0.30575532
0000a0 12 7f 07 be 27 67 db bd 33 de ea 3d d6 c7 c0 bd
       -0.13232067 -0.10713034 0.114681624 -0.09413116
0000b0 bd 51 82 be 98 5b f7 bd fc af 56 bd 1b 22 16 bf
       -0.25452986 -0.12078017 -0.052413926 -0.5864579
0000c0 59 fb 06 bd 3f 49 d9 be c5 f2 c3 3b 71 1e 4c bd
       -0.032954548 -0.42438695 0.005979868 -0.04983372
0000d0 a2 c0 17 3d ba d2 27 3b 46 6b 98 3d fd 2d ec bb
       0.037048943 0.002560778 0.07442336 -0.0072076307
0000e0 6b a0 ba bd 8a 8c 6d bb 78 5a 92 3e 1c 48 da 3d
       -0.091126285 -0.0036247098 0.28584647 0.10658285
0000f0 d4 84 1a 3e fc 8a 18 be bf 1c da 3e 2c 89 2c bd
       0.15089732 -0.14896768 0.42600057 -0.042123005
000100 3f 04 99 3e b8 3e b5 be 0a 8b 39 be 4e 90 8a be
       0.29886052 -0.35399413 -0.18119445 -0.2706322
000110 c5 d5 0a 3f 66 1b 74 3e 9d 61 9b be 91 4a 97 be
       0.54232436 0.23838577 -0.3034791 -0.29549077
000120 c1 7c 8b bf 87 c1 f6 be ce 49 92 bd 2e 23 cd 3e
       -1.0897447 -0.48194525 -0.071429834 0.40065902
000130 ff ba 13 3e 3e 25 a4 bb ed 3c 43 be 12 d4 54 bd
       0.14426802 -0.0050093224 -0.1906621 -0.05196006
000140 cc 2f b5 bd 86 0d 06 be f9 00 f0 3d 75 0e 14 3c
       -0.08847007 -0.13091096 0.117189355 0.00903665
000150 11 90 e4 bd 9f b9 53 3e 47 10 9e 3e 6f 00 9e 3e
       -0.11160291 0.20676278 0.30871794 0.30859706
000160 87 7c 95 be b8 e6 9b 3d 09 ed fc be fc 02 0e bd
       -0.2919657 0.076123655 -0.49399593 -0.034670815
000170 0e c6 10 bf ef 3b 62 bd 72 11 2e 3e 61 64 2d bd
       -0.5655221 -0.05523294 0.16998842 -0.042332057
000180 f9 8b 7d be 9d 4a cc be da 26 81 be 14 a6 c6 3e
       -0.24760427 -0.39900675 -0.25224954 0.38798583
000190 59 c8 1a bc e8 07 4a bc c9 83 31 3e c6 be 38 be
       -0.009447181 -0.012330987 0.17335428 -0.18041524
0001a0 de 6b d6 3c bf 3e 05 3e 4a f8 88 be 27 b4 93 3e
       0.026174482 0.13012217 -0.2675193 0.28848383
0001b0 2b 87 2f 3b 8c 52 37 3f 41 74 99 3e 04 cf b3 be
       0.0026783447 0.7161033 0.29971507 -0.35118878
0001c0 0b a5 c3 be 03 71 40 bf 3a 5d 05 3e 35 cb 0c 3f
       -0.38211855 -0.7517244 0.13023844 0.5499757
0001d0 c1 72 8c bd 52 62 ff 3e 37 06 ac bd 59 0d 1d 3e
       -0.06857825 0.498797 -0.08399623 0.15337123
0001e0 da 82 44 be 23 45 ad be 27 7d 6f be fd 64 b5 be
       -0.19190541 -0.3384181 -0.23387586 -0.3542861
0001f0 ea ab 08 be 03 3c 44 be 1f 8e 8f bc c0 25 c7 3e
       -0.1334683 -0.19163518 -0.017523823 0.38895988
000200 2e 8a ba 3e 29 66 13 3e c9 66 81 3e dd ee 2e be
       0.36433548 0.1439444 0.2527373 -0.17083307
000210 e8 d6 4f be e7 59 cb 3d ce 82 80 3e 95 f0 ea bd
       -0.20296824 0.09929257 0.25099796 -0.11471669
000220 e8 38 55 3d c2 85 bf be 69 2d 3c bd a3 71 07 be
       0.052056223 -0.37406737 -0.045941744 -0.13226943
000230 f3 f0 d1 bd ac eb 8d be 65 70 0f 3f 61 cb e9 3d
       -0.102510355 -0.27718866 0.56030875 0.114157446
000240 b6 05 9e 3d d8 d2 e9 3d 9a 1a 27 3d 1a 66 77 3e
       0.07715933 0.114171684 0.040796854 0.24160042
000250 2c 19 ab bd 12 92 a0 bc 62 50 17 bd ff 76 b0 3d
       -0.083544105 -0.019600902 -0.036941893 0.08616447
000260 18 59 85 3c b2 75 89 3d 86 60 d7 bd 8b 5b 36 bd
       0.016277835 0.06711902 -0.10516457 -0.044520896
000270 f9 09 43 3e 5d 5b 59 3e ac 0d ae bd 0a 08 ff bd
       0.19046773 0.21226259 -0.084987015 -0.12452705
000280 9d 61 c4 bd 48 2d 1c be 17 70 9a be 5d 7b d8 3d
       -0.09588931 -0.15251648 -0.30163643 0.10570405
000290 fb 0d 1c 3f aa 99 45 3e be bc 79 be 9d 49 42 bd
       0.6095883 0.192969 -0.24388406 -0.047433484
0002a0 dc 6e 81 be f8 1f 10 3d 63 a5 d7 3e 2f e1 f0 3e
       -0.25279891 0.035186738 0.42118368 0.470468
0002b0 21 8d a5 3d 92 0e 40 be 52 de 9c be e2 69 6e 3c
       0.08083559 -0.18755558 -0.30638367 0.014551612
0002c0 61 c5 8e be ef c8 3e be 21 70 81 3e f4 18 a6 be
       -0.27884963 -0.18631338 0.2528086 -0.32440913
0002d0 88 11 e4 bd ce 2b fd 3d 84 22 d1 3d 5d b0 3c 3e
       -0.11136156 0.12361871 0.102116615 0.18426652
0002e0 85 57 42 3e 4a 04 fa bd 91 a2 9b 3e 2e 2a 77 be
       0.18978699 -0.12207849 0.30397466 -0.24137184
0002f0 12 c5 20 3f f1 aa d2 be f1 5b c7 bd 53 cf de 3d
       0.62800705 -0.41146043 -0.09734333 0.10879388
000300 f7 23 27 3e d8 8f 16 bc 0b 21 31 be bf 3f 38 3e
       0.16322313 -0.009189568 -0.17297761 0.17993067
000310 96 91 ad 3d 6b 7b a1 3e 8d 16 ae bd 11 4d 97 3e
       0.08475034 0.31539473 -0.08500395 0.29550985
000320 41 13 9f 3b 7e 4c e2 be 22 25 c3 be 51 93 be 3e
       0.00485459 -0.44198984 -0.38114268 0.37221768
000330 15 20 7b 3e 15 d3 50 3e ef f1 a3 bd dd 01 a4 3b
       0.24523957 0.20393021 -0.080051295 0.005005105
000340 af 9e a2 bd ec 4a 45 3e 77 4c 8b be 8b cf 8e bd
       -0.07940423 0.19266862 -0.27206776 -0.069731794
000350 28 0d f6 bd c7 60 2e 3e 62 52 55 3e 80 c8 10 3c
       -0.12014228 0.17029105 0.20832208 0.008836865
000360 bf 5a 16 be ad 90 07 3c bb 2c f5 3e a9 57 20 3f
       -0.14683054 0.0082742395 0.4788569 0.6263376
000370 41 19 c3 bd 67 b7 cf be 51 66 93 3c bc 35 41 3d
       -0.09526301 -0.40569612 0.017993124 0.047170386
000380 e2 63 4b 3e 72 f9 01 bf 21 bb 9f bc 99 b8 53 bd
       0.19862321 -0.5077125 -0.01949841 -0.051689718
000390 06 6c b2 3d 4a 99 1c be 69 99 c9 3e 82 dd 60 be
       0.0871201 -0.1529285 0.39374855 -0.21959499
0003a0 67 ab 34 3e 22 4c 3e be e2 01 e3 be d0 a6 a3 be
       0.1764351 -0.1858373 -0.44337374 -0.31963205
0003b0 71 df 26 3e 37 fd 5d be f5 f7 48 be 87 35 9a 3c
       0.16296174 -0.21678625 -0.19625838 0.018824352
0003c0 06 9e 7b bd 15 a7 1a 3d 88 f5 91 be 45 d5 a6 3e
       -0.06143 0.037756998 -0.28507638 0.32584587
0003d0 2d 26 43 be f5 7a 20 3e 00 e9 76 3e 33 23 1d 3e
       -0.19057532 0.15671904 0.2411232 0.15345459
0003e0 0f 93 63 bd cf 21 04 3e 77 16 18 bb 38 b3 5d 3d
       -0.055560168 0.12903522 -0.002320675 0.054125994
0003f0 31 5c cb 3c 7e 9c df bc ef 13 01 3e 5e 7d 52 3d
       0.024824234 -0.027296301 0.1260526 0.05138909

gnn.convs.0.lin_edge.weight f4 [50, 1]
000000 18 08 eb be 35 bd 5f 3d 28 f9 a2 3e 68 89 0c bf
       -0.45904613 0.0546238 0.31830716 -0.54897165
000010 53 ce 8f be 6e 89 6c 3e 93 3e 91 3d ad 1d 82 be
       -0.280871 0.230993 0.07092013 -0.25413266
000020 73 05 a9 3e 79 40 17 2d df ec 37 be fb 6e 40 2e
       0.3301197 8.597672e-12 -0.17961453 4.3754316e-11
000030 96 be da be b4 01 c4 3e ed be 63 3e 74 68 b8 3e
       -0.4272353 0.3828255 0.22240801 0.3601719
000040 fd 6d e8 3e 74 67 88 3e 41 1a ad 3e e2 e6 02 3f
       0.45396414 0.26641428 0.33809093 0.5113355
000050 42 57 cb be 95 ad 81 bd 6f 05 8f 3d 40 9c 9e 3e
       -0.3971501 -0.06331936 0.06983458 0.30978584
000060 3d 4e c8 3e de 00 88 3e 8a 06 9b be 29 8c 8e be
       0.3912219 0.26563162 -0.30278426 -0.2784131
000070 26 cc c2 3d 8a 96 3b 3e 48 0e c1 be 2b 3b b1 be
       0.095115945 0.18319145 -0.37706208 -0.34615454
000080 f5 16 af be 7a f8 09 bf 14 fb d6 be cd 26 03 bf
       -0.34197202 -0.5389477 -0.41988432 -0.5123108
000090 ce df 36 3e dd d1 b1 a9 95 cb 7e 3e 54 87 c8 be
       0.17858812 -7.8967845e-14 0.24882348 -0.39165747
0000a0 bf 8b 0b 3f a6 f7 bf 3e da 83 88 be 0b ac a0 be
       0.5451011 0.37493628 -0.26663095 -0.31381258
0000b0 96 34 b5 3d 7e ac 16 2c 34 80 a2 3e 95 1d 6e 3e
       0.088479206 2.1412034e-12 0.31738436 0.23253472
0000c0 e6 54 bc be ac b7 c6 3d
       -0.36783522 0.097030014

gnn.convs.1.att_src f4 [1, 1, 50]
000000 d5 50 60 3e 83 bb b8 3e 01 65 66 be df c6 3e 3c
       0.21905835 0.3608056 -0.22499467 0.011644094
000010 f7 dd c8 be ac 89 68 be d1 c6 48 bd 2e 60 9d be
       -0.39231846 -0.22708768 -0.04901773 -0.30737442
000020 83 98 47 3d fb 81 41 be 51 d9 08 3f ee 88 12 be
       0.04872943 -0.1889724 0.534566 -0.14310047
000030 2d 60 88 3d 4d 4b 8d 3d cd bb 16 bf 30 07 1d be
       0.06658969 0.06899128 -0.5888031 -0.15334773
000040 2c f0 41 3e 72 61 64 be b8 8a aa 3e c4 0c 58 bb
       0.18939275 -0.22302797 0.3330896 -0.0032966593
000050 38 a8 bf bd 57 a8 5a 3e 6e 19 26 be 28 06 39 3e
       -0.09358257 0.21353279 -0.16220638 0.18068755
000060 04 c6 e1 3d 2a ae 8b be a1 69 08 be 2f 2d b9 be
       0.110240966 -0.27281314 -0.13321544 -0.36167285
000070 55 e0 90 3d a2 68 cd 3e f8 d2 4b be 3a 17 ac 3e
       0.07074038 0.4011889 -0.19904697 0.3361147
000080 4f fb 4a 3d dc c3 9b 3d 71 56 c5 3e 19 28 07 3e
       0.049556073 0.076057166 0.38542512 0.1319889
000090 fc d3 17 3e 41 ba aa be b1 7e c1 3e 88 ec ea be
       0.1482696 -0.33345225 0.3779197 -0.45883584
0000a0 52 e9 04 bc 50 49 cf bd 2b 59 0a 3e 49 c3 a0 bd
       -0.0081122685 -0.10121405 0.13510577 -0.07849748
0000b0 02 6a c0 3d 75 09 1d 3e a4 f6 e2 bd c7 ab 65 bd
       0.093952194 0.15335639 -0.11082199 -0.056072023
0000c0 69 eb 19 bd cd 8b da be
       -0.03757802 -0.42684785

gnn.convs.1.att_dst f4 [1, 1, 50]
000000 99 93 7e bd 69 34 7a bd 02 ae ce 3d ca ef bd 3d
       -0.06215248 -0.06108514 0.10091783 0.09274252
000010 43 e4 89 3d b9 c4 5b 3e 4b d2 ed 3d 81 93 23 3e
       0.067329906 0.21461762 0.11612376 0.15974237
000020 ec 98 28 3b d7 7c fa 3d c0 03 2c be 07 60 ce 3d
       0.0025725914 0.122308426 -0.16798306 0.100769095
000030 aa 79 04 3d 9e ca c7 bd c4 9b c4 3e 2d 38 24 bc
       0.03234259 -0.09755443 0.3840009 -0.010023159
000040 8e c2 ab bd 7c d9 bc 3d 82 eb 83 bd 2a cc 99 bd
       -0.08386718 0.09221169 -0.06441404 -0.07509644
000050 6b b1 82 bc f1 19 db bb f5 18 4a 3e 07 f4 25 3c
       -0.01595374 -0.006686442 0.19736083 0.010128981
000060 8c c0 d3 bd 7c cb 29 3e 28 29 a0 3d 01 92 01 3e
       -0.1033946 0.1658153 0.0782035 0.12653352
000070 5a 9f fd 3d 85 dc a4 be 56 66 30 3d c1 87 c4 bc
       0.123839095 -0.32199493 0.043066345 -0.023990514
000080 95 aa 14 3d 75 4c 35 bb aa 4f 10 be b6 9e 2e 3e
       0.036295492 -0.002766398 -0.1409289 0.17052731
000090 db f2 09 be 03 8c 97 3d 66 9d af bd 67 88 cb 3e
       -0.13471548 0.07399752 -0.08574943 0.39752504
0000a0 b3 a2 42 be fe 34 43 3e 78 fa fe 3d 59 ba 29 3e
       -0.19007377 0.19063184 0.12450117 0.16574992
0000b0 69 1b 86 bd d7 e6 45 bd 81 2b b6 3d 6a e7 c7 3d
       -0.06548197 -0.04831585 0.088950165 0.097609356
0000c0 6a 00 3a 3d 69 1f 82 3e
       0.04541055 0.2541459

gnn.convs.1.att_edge f4 [1, 1, 50]
000000 7e 3a 25 3b d5 16 14 3f 4d bb e5 3e 2b c5 04 bf
       0.0025211866 0.5784734 0.44869462 -0.51863354
000010 9c 5b 0d 3d cc 60 88 3e 78 f2 95 be a0 e4 b2 97
       0.034511194 0.2663635 -0.2928655 -1.1560693e-24
000020 5e d8 9d be fe 80 14 3f 95 5d f4 3e b7 d4 94 24
       -0.30829138 0.58009326 0.47727647 6.454512e-17
000030 9c 44 0a be b2 1d 9d bc 41 90 6e be 40 3b 13 3f
       -0.13502735 -0.019179199 -0.23297216 0.57512283
000040 c7 65 a4 be 09 c6 46 bd 20 b4 06 3f bf 82 ef 3e
       -0.321089 -0.048528705 0.526186 0.4677944
000050 82 04 54 bd 47 07 00 3f d1 37 f5 be 78 87 c5 3e
       -0.05176211 0.50011104 -0.47894147 0.38579917
000060 69 17 f2 3e 4b 3f 0c 3f 73 42 ec be e5 b9 73 3c
       0.47283486 0.5478408 -0.46144447 0.014875864
000070 3b 5a f6 3e 87 7b 43 ab fa 96 9c 3e 49 e0 90 be
       0.48115715 -6.9449345e-13 0.30583936 -0.28296116
000080 2e aa ff 3e 3c 69 2f bc fa 10 f7 be 4f 42 02 3f
       0.49934524 -0.010706242 -0.4825514 0.5088243
000090 ec cc 12 3e 05 84 2a be 4c 7d b1 3e d7 aa 01 3f
       0.14335984 -0.16651924 0.34665906 0.50651306
0000a0 24 10 06 bf d4 e9 33 be ec 85 f0 be dc a2 fa 3e
       -0.5236838 -0.17569667 -0.46977174 0.48952377
0000b0 5c a5 c1 3e 22 a9 13 3f e5 b6 15 bf 88 7c e2 be
       0.37821472 0.5767995 -0.584822 -0.44235635
0000c0 5a c2 e8 be 0a a4 c4 be
       -0.45460778 -0.38406402

gnn.convs.1.bias f4 [50]
000000 78 67 b7 37 ec 2c 47 b8 b6 50 53 b9 7d 50 d5 b8
       2.1863481e-05 -4.7487134e-05 -0.00020152595 -0.000101716236
000010 56 c6 82 b7 90 4c 3a b9 bf fc a8 b9 5f 2b 04 b9
       -1.5589565e-05 -0.00017766864 -0.00032231768 -0.00012604658
000020 4d a5 52 38 3a ad 7a 38 f6 55 aa 39 36 ac 19 39
       5.022185e-05 5.9765975e-05 0.00032488973 0.0001465537
000030 4d eb eb 38 79 3b 67 38 77 92 1b 39 d4 bf 0b 39
       0.000112495014 5.513008e-05 0.00014836514 0.00013327535
000040 78 4d ec 36 34 ca 84 38 bb b4 13 b9 fd 58 c4 b8
       7.0423666e-06 6.331914e-05 -0.0001408634 -9.362584e-05
000050 2f a0 43 39 5d 81 65 b9 58 31 27 b8 f2 f8 06 38
       0.00018656322 -0.00021887333 -3.9861858e-05 3.2179938e-05
000060 d9 75 c4 38 7e e1 84 38 65 bc b0 b8 e2 28 40 b9
       9.367959e-05 6.336252e-05 -8.427425e-05 -0.00018325777
000070 97 c6 30 b9 d5 0a ee b8 8b 47 5b b9 81 98 8d b8
       -0.00016858648 -0.00011350742 -0.0002091212 -6.75181e-05
000080 24 5c 9b 38 2d 86 51 39 c5 b7 72 39 d9 b7 aa 38
       7.4081385e-05 0.00019981778 0.00023147378 8.140476e-05
000090 b7 dc 1a 37 06 8b 3a b9 15 ee cb b8 d4 87 86 39
       9.2305045e-06 -0.00017790133 -9.7241405e-05 0.00025659672
0000a0 1b 29 44 37 df b3 c6 b9 f6 f0 e8 b8 d8 79 4d 38
       1.1692081e-05 -0.00037899517 -0.000111075045 4.8989285e-05
0000b0 ac fb a1 36 05 f6 8a b9 bd 14 c8 37 43 14 db 37
       4.8274724e-06 -0.0002650471 2.3851515e-05 2.611627e-05
0000c0 fb 43 fe b8 19 9b 8d 39
       -0.00012124326 0.00027009172

gnn.convs.1.lin.weight f4 [50, 50]
000000 a5 c8 6e 3e 78 e9 7c be 57 bd f4 bb 18 68 f3 3d
       0.23318727 -0.24698436 -0.00746886 0.11885089
000010 15 ff 16 be f1 ad 9e be 4a e4 b1 bd 3d 59 24 3e
       -0.14745744 -0.30992082 -0.08686121 0.16049667
000020 51 22 31 3e 52 4e c3 bd 7b d3 e3 be 00 f0 b8 3d
       0.17298247 -0.09536423 -0.44497284 0.09030151
000030 85 cf 2d be d7 79 3f bd 7a 8b 2a 3c f7 02 ae bd
       -0.16973694 -0.046747055 0.01040923 -0.08496659
000040 69 ef 7b bc cb e4 9f be 2f f4 a3 3b 90 e4 12 3e
       -0.015376904 -0.31229243 0.005003474 0.14345002
000050 d2 3d 1d 3e f4 e3 64 bd 4c 6f 4c bd 07 9c d1 3d
       0.15355614 -0.055881456 -0.04991083 0.10234838
000060 65 84 f0 3d 3c 25 c4 be 68 0a b9 be 70 d6 6c be
       0.11744002 -0.38309658 -0.36140752 -0.23128676
000070 9a dc 4a be 0d 62 a3 bd 1d 0f 21 bf 58 82 3a bd
       -0.19810715 -0.07977686 -0.62913686 -0.04553446
000080 2f 75 ca bc e2 15 54 bd 46 d3 7a 3d 92 cf 15 bf
       -0.02471408 -0.05177868 0.061236642 -0.5851985
000090 9c 93 14 be ab a0 0c be 60 8d 0f 3d 7d be b5 3c
       -0.14509434 -0.13733165 0.035046935 0.022185558
0000a0 53 45 f4 3d 86 a3 4f be e8 89 db bb 61 da 4a be
       0.11927285 -0.20277223 -0.0066997893 -0.19809867
0000b0 f8 38 f4 3d 06 31 42 bd 38 71 ac 3d 74 d5 36 be
       0.119249284 -0.047410034 0.08420032 -0.17854863
0000c0 84 91 f2 3d cd 40 17 3b 8f 4e a9 bd 75 22 be bd
       0.11844161 0.0023079396 -0.08266937 -0.09283916
0000d0 6a 7d 02 3e 85 03 c0 3e c9 ba 25 be 3b 5f c0 3c
       0.12743154 0.37502685 -0.16184534 0.02348291
0000e0 56 cc 3f 3e 5b e9 fa 3d 54 3d 2b 3e 3f 96 4a 3d
       0.18730292 0.1225154 0.16722614 0.049459692
0000f0 02 55 da be 83 90 b9 bc 6c 4d fa be db f7 c1 bd
       -0.4264298 -0.022651916 -0.48887193 -0.09471103
000100 85 c9 c9 bd d4 fe 6e 3e 8d 05 e9 bd 9c d9 c1 3d
       -0.0985289 0.23339397 -0.11378012 0.09465334
000110 b3 4e e5 3d 80 14 d1 be d9 5c e1 be e1 6b 10 3e
       0.11196651 -0.40835953 -0.4401615 0.14103653
000120 02 d3 05 3d d6 5d c1 3d f3 70 11 bd 44 66 87 3d
       0.032671936 0.09441726 -0.035508107 0.066113025
000130 f5 10 9f bc cf d3 54 bd 09 25 5b bc 08 5b 89 bd
       -0.019417265 -0.05195981 -0.013375529 -0.06706816
000140 d4 dd 3f be a7 fc b5 bd a7 88 22 3c 1e a1 6b 3d
       -0.18736964 -0.0888608 0.009920276 0.0575267
000150 de 1e c2 bd 2d cf a8 3e 71 41 97 3d cc 81 11 bf
       -0.09478544 0.32970563 0.07385529 -0.5683868
000160 c6 25 8e bd 95 9f 98 3d 80 9e c9 bd 1b 6b 55 bd
       -0.069407985 0.07452313 -0.098446846 -0.052104097
000170 81 36 07 be ce 6d 2b be 9e ad 3d be e8 3d 41 3e
       -0.13204385 -0.16741106 -0.18523261 0.18871272
000180 bc f9 0f 3d 7a 68 6a 3d 78 af d4 be ff b0 f6 bd
       0.035150275 0.057228543 -0.41540122 -0.12045478
000190 fe 38 fb bc d7 c9 63 be eb c3 5e be c4 71 19 bc
       -0.030666824 -0.22244965 -0.21754424 -0.009365503
0001a0 f5 37 7d 3e 3f 77 0c 3d 81 88 42 3d fc b0 00 3d
       0.24728377 0.03429341 0.04749346 0.031418785
0001b0 32 52 5f 3d 60 2c 04 3e fc ac 4d 3d 37 9b d3 bd
       0.054521747 0.12907553 0.0502138 -0.10332339
0001c0 ed a5 4a bd 2a a5 8b 3c 2a 39 6c be 21 85 94 be
       -0.049474645 0.01704653 -0.23068681 -0.2900782
0001d0 d8 a1 f0 3d 5e ff 33 bf 56 b2 6d be 96 4b 9d be
       0.11749619 -0.70311534 -0.23212561 -0.3072173
0001e0 ae 90 71 be a6 d3 90 bd 21 04 40 bc cc 2a e3 3d
       -0.23590347 -0.07071619 -0.011719734 0.11092147
0001f0 c5 50 1f 3e bc 80 66 3d b4 2f d3 be a1 14 2b bd
       0.15558155 0.056275114 -0.41247332 -0.04176772
000200 30 7a 1e ba 37 18 8d bc 54 73 26 3e ec e0 aa bc
       -0.0006045429 -0.01722346 0.16254932 -0.020859204
000210 5d 62 b2 3d 4c 28 9f 3d 25 7e 9b be 86 b7 cc 3d
       0.087101676 0.07771358 -0.30369678 0.09995942
000220 b1 a6 20 3d 06 a1 c6 bc 59 bc 1b bd b6 10 28 be
       0.03922147 -0.024246704 -0.03802142 -0.16412625
000230 73 8e 8a 3d 9a b7 3e bd 29 aa 16 be 83 c6 e7 be
       0.06765451 -0.046561815 -0.14713348 -0.4526864
000240 e5 13 af bd 78 9c bd bd 0e 6a 36 bf b2 70 6a bc
       -0.085487165 -0.0925836 -0.71255577 -0.014309095
000250 c2 b7 e7 3d 11 da 30 be fb 10 11 bd 10 27 f3 b9
       0.11314346 -0.17270686 -0.035416584 -0.00046377676
000260 82 e3 fc bd 4d cd 9a bd 35 a9 4f 3e 93 55 60 be
       -0.12348081 -0.07558689 0.20279391 -0.21907644
000270 8b fd 4b 3c 2b 1b bb be e2 56 19 bd 21 59 09 bd
       0.012450586 -0.36544165 -0.037436374 -0.033532266
000280 fe cc d3 3d a8 9f 45 3e e3 17 db bc cc 34 e2 3d
       0.103418335 0.19299185 -0.026744789 0.110452265
000290 0b 63 80 be 96 2f fa be a6 f3 0a be 0d ab 14 bf
       -0.25075564 -0.4886443 -0.13569507 -0.580735
0002a0 3c 53 6b bd 5d 4f dc bd 14 c9 77 bd 4c 0e 87 bd
       -0.057452425 -0.10757325 -0.060494497 -0.06594524
0002b0 0e c6 62 bd 40 77 92 3d 95 60 1c bd 00 46 78 bd
       -0.05536466 0.071516514 -0.038178045 -0.060613632
0002c0 62 cb 47 bf 0c 90 84 bd 75 ab 3d be 8e df fc be
       -0.7804471 -0.06472787 -0.18522437 -0.4938931
0002d0 30 36 6e 3d 19 66 83 3d f9 02 0e be a7 5a 24 3e
       0.058157146 0.06415958 -0.13868321 0.16050206
0002e0 90 c5 b6 bd 40 1d 95 bd 5f 02 07 be eb 99 b1 bd
       -0.08924401 -0.072809696 -0.13184498 -0.08671936
0002f0 f1 10 cf 3d 06 2a ba 3c 6a 27 d1 3d dc b5 33 3d
       0.10110653 0.022725116 0.10212596 0.043874606
000300 17 8d 16 be dd d8 2b be d6 44 37 3d e7 88 90 3d
       -0.14702259 -0.16781946 0.04474338 0.07057362
000310 fa 82 07 3e 5b 07 8e be 15 b8 70 3e 7f b1 5c be
       0.13233557 -0.27739987 0.23507722 -0.21552084
000320 c4 d8 d3 bb 3d ba 77 3c c0 5b 22 3d 17 db ff bc
       -0.0064650495 0.015120086 0.03963828 -0.0312324
000330 a2 ea 01 3e 47 90 06 be 26 3d 9a 3e 8e 41 20 be
       0.12687162 -0.13140975 0.30124778 -0.15650007
000340 ef 45 03 bd 0e b0 17 3e 09 71 41 3c 66 4e 03 3e
       -0.032049116 0.14813253 0.011806735 0.12822875
000350 9e 7b aa be f3 55 6a 3e 3e d4 da bb 94 f6 2e be
       -0.33297437 0.2288435 -0.0066781333 -0.1708625
000360 ec 26 ab be 98 82 1f 3d 1b 03 07 bd b8 37 31 3b
       -0.33428133 0.038942903 -0.032961946 0.0027041268
000370 0e 1c 8a 3d c1 c3 87 be 7a b7 c2 bd 36 a5 46 be
       0.06743632 -0.26516536 -0.095076516 -0.1939896
000380 fe ea 37 3d 64 54 64 3e 0d 60 42 3e 32 4f 00 bf
       0.04490184 0.22297817 0.18981953 -0.5012084
000390 69 12 ef bc e5 79 d9 3d a9 34 8f bd 2c 70 34 3d
       -0.029183583 0.10618953 -0.06992466 0.044052288
0003a0 d5 31 86 bd f5 22 55 bf b8 f5 04 bd ff 5a 91 be
       -0.065524735 -0.83256465 -0.0324609 -0.28389737
0003b0 84 5e cc bd 98 e3 fc 3c c2 1b 30 bc 22 77 2b 3e
       -0.09978965 0.030870244 -0.0107488055 0.16744664
0003c0 04 dc 7b 3d 2d 43 bd bc 04 83 54 3e 14 34 fd 3d
       0.06148912 -0.023103321 0.20753103 0.12363449
0003d0 5e 6c 93 3c 97 d4 06 3e 8c 07 41 3d 09 84 ad bc
       0.01799601 0.13167034 0.047126338 -0.021181123
0003e0 87 50 5f be 5a cf 76 be 33 ee ad bd 09 be 7c be
       -0.21808062 -0.24102536 -0.084926985 -0.24681868
0003f0 67 b8 85 bd 8b a7 4a 3e ea 07 0c bc 00 1a 81 be
       -0.065293126 0.19790475 -0.008546809 -0.2521515

gnn.convs.1.lin_edge.weight f4 [50, 1]
000000 88 3a 25 3b db 16 14 3f 5e bb e5 3e 2b c5 04 bf
       0.002521189 0.57847375 0.44869512 -0.51863354
000010 9e 5b 0d 3d db 60 88 3e 79 f2 95 be a7 e5 b2 97
       0.0345112 0.26636395 -0.29286554 -1.1560953e-24
000020 60 d8 9d be fe 80 14 3f 85 5d f4 3e 51 fa 94 24
       -0.30829144 0.58009326 0.477276 6.460882e-17
000030 9d 44 0a be 94 1d 9d bc 3f 90 6e be 47 3b 13 3f
       -0.13502736 -0.019179143 -0.23297213 0.57512325
000040 d2 65 a4 be 07 c6 46 bd 25 b4 06 3f cf 82 ef 3e
       -0.32108933 -0.048528697 0.5261863 0.46779487
000050 b3 04 54 bd 4c 07 00 3f e0 37 f5 be 8c 87 c5 3e
       -0.051762294 0.50011134 -0.47894192 0.38579977
000060 6e 17 f2 3e 51 3f 0c 3f 78 42 ec be a3 b9 73 3c
       0.472835 0.54784113 -0.46144462 0.014875802
000070 51 5a f6 3e 3e 77 43 ab fe 96 9c 3e 48 e0 90 be
       0.4811578 -6.94434e-13 0.30583948 -0.28296113
000080 46 aa ff 3e 49 69 2f bc fb 10 f7 be 55 42 02 3f
       0.49934596 -0.010706254 -0.48255143 0.50882465
000090 f1 cc 12 3e 0d 84 2a be 61 7d b1 3e e1 aa 01 3f
       0.14335991 -0.16651936 0.3466597 0.50651366
0000a0 21 10 06 bf e2 e9 33 be 01 86 f0 be ec a2 fa 3e
       -0.5236836 -0.17569688 -0.46977237 0.48952425
0000b0 5d a5 c1 3e 1f a9 13 3f f1 b6 15 bf 91 7c e2 be
       0.37821475 0.57679933 -0.5848227 -0.44235662
0000c0 61 c2 e8 be 11 a4 c4 be
       -0.454608 -0.38406423

gnn.convs.2.att_src f4 [1, 1, 50]
000000 ff 0f 4a bc b2 40 56 3e 57 47 07 3e 3e ea 32 bd
       -0.012332915 0.20923117 0.13210808 -0.043680422
000010 e8 c9 51 3d d6 bc c5 bc b5 9f 7d 3d af 58 45 be
       0.051217943 -0.024137896 0.061919887 -0.19272111
000020 2a c2 d5 3d 56 7b 31 be 50 11 3d bd ef 1d 97 3b
       0.104374245 -0.17332205 -0.04615909 0.0046117227
000030 ae ee 21 3c 01 28 c5 3b 69 95 80 bd 17 c1 37 be
       0.009883566 0.0060167317 -0.06278498 -0.17944752
000040 e3 c9 11 3e f5 a2 0f bf f3 4e 36 3c f7 ea 4d be
       0.1423717 -0.5610803 0.011127221 -0.20109163
000050 0b 69 74 bc f4 15 5a 3d 1b 42 b0 3e a5 33 82 bc
       -0.014917622 0.053243592 0.34425434 -0.015893767
000060 f2 30 02 3e 58 78 78 3c 6e 4f 52 bd fb 33 96 3d
       0.12713984 0.015165411 -0.05134528 0.07334133
000070 33 4c b4 3d 42 93 e2 3b 9b 87 c0 bb fd a4 02 bc
       0.08803596 0.006914527 -0.0058755404 -0.007973907
000080 d6 6f 06 bb 04 22 33 bd c6 3a 11 3d 40 73 e6 be
       -0.0020513437 -0.04373361 0.03545644 -0.45009804
000090 e2 88 c6 3e 98 6f a3 3b 22 3e 1c 3d cd a1 96 3c
       0.38776308 0.0049876682 0.038145192 0.0183877
0000a0 ac fe b9 3c 61 e9 da bc a3 07 81 3c c4 6b 1e bc
       0.022704445 -0.026722612 0.015750712 -0.009669248
0000b0 c8 e9 cb 3b f1 c8 da 3b a9 97 b0 bd 09 e9 56 bd
       0.0062229373 0.006676786 -0.08622677 -0.052468333
0000c0 02 76 53 be fe 36 04 3d
       -0.20650485 0.032279007

gnn.convs.2.att_dst f4 [1, 1, 50]
000000 ba f7 1d 3c d9 1b 43 be 2f 48 89 be d6 c1 e9 3c
       0.009641582 -0.19053592 -0.26812884 0.028534811
000010 19 06 f2 bc a7 8d e3 3b c2 66 2f be 3a 29 44 3e
       -0.029543923 0.0069443765 -0.17129043 0.19156352
000020 fa 0b 1a be c6 2a 49 3e 28 54 fe 3c 55 bc 95 bd
       -0.15043631 0.19645223 0.031045988 -0.07311312
000030 6d b0 1c bd 29 71 3a bc 2f 9d 24 3e b4 e0 2b 3e
       -0.03825419 -0.011379519 0.16075586 0.16784936
000040 62 bd 37 be 02 91 9d bd 80 f4 a8 bd 8a 9d 5c 3d
       -0.17943338 -0.07693674 -0.0824976 0.05386118
000050 30 1b 8c 3d 58 af c6 bd ab 73 03 be 42 86 92 bc
       0.06841123 -0.09701413 -0.12837093 -0.017886285
000060 9b 31 27 bc 78 04 20 bd fa 84 4d 3d 72 51 cc bc
       -0.010204698 -0.03906676 0.050175644 -0.02494118
000070 df 14 0c be a7 26 8d 3c 6d 8d e4 3c 81 77 00 3d
       -0.13679837 0.017230345 0.027899468 0.031363968
000080 ad 40 bd 3b ce fd b5 3c 22 36 5c bd 52 9b d0 3d
       0.005775532 0.02221575 -0.053762563 0.10185875
000090 a9 d5 19 be 5f 19 bb 3b 2f ae 32 bd 00 c4 de 3c
       -0.15022911 0.0057098116 -0.043623146 0.02719307
0000a0 5e 63 b3 bd 1c 92 67 3d 1d 42 60 bd ec ed 87 bc
       -0.08759187 0.056535825 -0.05475055 -0.016592942
0000b0 57 bc 61 bd 94 33 06 3d ee 04 58 3e 2d 57 91 3c
       -0.055111255 0.032764032 0.2109563 0.017741764
0000c0 6b 4a 34 3c 39 84 93 3d
       0.011004071 0.07202954

gnn.convs.2.att_edge f4 [1, 1, 50]
000000 c0 5e 27 a9 8d 01 76 35 b2 11 09 b1 2b af 85 14
       -3.716363e-14 9.16444e-07 -1.9946182e-09 1.349866e-26
000010 ae 18 c9 27 8b 23 4b 9b 48 e9 a7 3c e0 80 9a 1c
       5.5815465e-15 -1.6803251e-22 0.02049698 1.0224179e-21
000020 10 73 2b 30 8f 74 a2 21 01 bb b5 b8 8e 2d 78 95
       6.237295e-10 1.10084e-18 -8.665585e-05 -5.0119137e-26
000030 a2 85 23 9c ee f2 48 8b 32 f9 02 00 7a 82 f4 bb
       -5.410489e-22 -3.870136e-32 2.73065e-40 -0.007461843
000040 85 ef 9e 2f e7 5c c0 03 d4 e3 45 1d 32 b9 cd 29
       2.8910221e-10 1.1306075e-36 2.6190517e-21 9.135955e-14
000050 7e a3 eb 98 00 78 de 30 2f 29 15 39 33 2c 8e 3c
       -6.091116e-24 1.6186732e-09 0.0001422509 0.01735506
000060 55 6f 53 2f 97 41 32 2a 59 bc 54 2a 24 0f 75 36
       1.9229891e-10 1.5832332e-13 1.8894729e-13 3.6516658e-06
000070 45 e6 dd 83 e1 8c fb 8c 48 30 3c 9c d1 e0 8e b3
       -1.304208e-36 -3.8757462e-31 -6.2266384e-22 -6.653284e-08
000080 3d bf 95 25 83 03 e2 b4 6d 67 7c 8d c7 bc b0 b9
       2.5976968e-16 -4.2098335e-07 -7.777799e-31 -0.00033709986
000090 fd 17 ed b8 74 73 8c 34 17 f7 e3 27 b1 f9 52 a1
       -0.00011305509 2.6161035e-07 6.327305e-15 -7.148123e-19
0000a0 7e fb 27 b1 8b 5d ff 00 ab 30 af b2 e3 c6 dd 91
       -2.4444655e-09 2.3451608e-38 -2.0394813e-08 -3.4990225e-28
0000b0 f0 ee 9f 03 58 f1 5d 2d 9f 3a d5 24 fc d8 9a 0b
       9.4000374e-37 1.2615985e-11 9.247333e-17 5.9645124e-32
0000c0 b8 1c ca 39 da be d5 24
       0.0003854984 9.269734e-17

gnn.convs.2.bias f4 [50]
000000 d3 9e 63 38 46 59 73 38 15 96 0a b8 59 30 12 35
       5.4268934e-05 5.8018857e-05 -3.304154e-05 5.4459593e-07
000010 89 a2 87 36 36 71 08 35 60 6d 1a 37 95 70 bc b8
       4.042235e-06 5.082869e-07 9.204581e-06 -8.9855086e-05
000020 1e d0 15 38 e8 48 96 b6 7a dd 7f 34 64 35 90 b2
       3.5718193e-05 -4.4788358e-06 2.3829298e-07 -1.6788086e-08
000030 9c 58 98 34 e6 6f 69 b4 e2 49 36 33 32 26 62 b8
       2.8376678e-07 -2.1740524e-07 4.2442373e-08 -5.391817e-05
000040 34 a2 73 b7 28 aa ed 33 c7 a3 2e 37 86 73 7c b7
       -1.45216945e-05 1.1067124e-07 1.0409341e-05 -1.5047268e-05
000050 08 a3 1d b7 d7 4d b5 32 3c 0e 91 b6 d8 3a f1 34
       -9.395888e-06 2.110657e-08 -4.322994e-06 4.4932563e-07
000060 7d 8d 0e b7 e4 c1 32 b4 7d ae a2 33 8c 2f 8f b8
       -8.496802e-06 -1.6648079e-07 7.575452e-08 -6.827628e-05
000070 ea d0 3d b4 de 15 17 b2 be 7d f2 34 c6 8b d1 b8
       -1.7677999e-07 -8.794329e-09 4.5167502e-07 -9.9919314e-05
000080 9e fb 85 31 c9 0c 60 34 47 82 24 34 99 7d a7 34
       3.899415e-09 2.0866277e-07 1.5321085e-07 3.1197558e-07
000090 4a 11 58 b1 9d 2d 52 b5 79 92 4b 34 1a 83 67 34
       -3.1441965e-09 -7.829747e-07 1.8959135e-07 2.1561246e-07
0000a0 2c b8 a9 32 cb ef 06 33 a1 8c ba b5 ed c7 94 b5
       1.9757941e-08 3.1417397e-08 -1.3899008e-06 -1.1085045e-06
0000b0 18 c8 25 b5 5a 24 00 35 a4 70 aa 37 df f2 a8 35
       -6.1758465e-07 4.7736614e-07 2.0318032e-05 1.258766e-06
0000c0 77 ae da 38 a9 65 9d b6
       0.00010427547 -4.6907994e-06

gnn.convs.2.lin.weight f4 [50, 50]
000000 6a d6 05 3e fe 46 90 be 87 22 6a be c0 ac be 3e
       0.13070074 -0.28179163 -0.22864734 0.37241173
000010 9e 1f a8 3e d2 71 08 3d 4d 7e 94 3e 16 b4 c3 bd
       0.32836622 0.033311673 0.2900261 -0.09555833
000020 c6 b1 8e 3e 00 71 a7 be 91 0c 16 3b a4 dc aa be
       0.27870005 -0.327034 0.0022895674 -0.3337146
000030 70 ca 28 3e c1 3a e5 bd c8 4b 8c bd 5a 95 fa 3d
       0.16483474 -0.11192847 -0.068503916 0.12235518
000040 b1 7a de be 86 3d 56 3c 67 44 2b 3d 6b 43 bd bd
       -0.4345298 0.013076192 0.04181328 -0.092413746
000050 f1 58 b2 3e 99 22 dc bc 7f 21 c8 3c d7 7e 3e 3e
       0.34833482 -0.026871966 0.024430035 0.18603073
000060 25 57 aa 3e d1 b1 5d 3e 80 44 8f be 8a d3 4d 3e
       0.3326961 0.21649863 -0.2798195 0.20100227
000070 6a 3c cb 3e f5 d1 1e 3e 18 e4 be be e1 f2 30 be
       0.3969453 0.1550978 -0.37283397 -0.17280151
000080 96 16 3b bd e5 71 c8 bd 66 fb 8e 3d c8 34 b1 bd
       -0.045675837 -0.09787349 0.06981544 -0.08652645
000090 bd 19 24 be af c2 8e 3e 49 52 06 be b2 b1 58 be
       -0.16025443 0.27882907 -0.13117327 -0.21161535
0000a0 e3 bd e5 bd 1c ca ac 3e 32 ac 20 3d 2e 0d 47 3d
       -0.11217859 0.33747947 0.03922672 0.048596554
0000b0 3d dd 13 be f6 48 85 3e 4e 71 f6 bd 66 05 3b be
       -0.14439864 0.26032227 -0.1203333 -0.18263778
0000c0 a0 c0 b9 bd 79 32 26 bd 29 47 8d be 1b b8 67 be
       -0.090699434 -0.04057548 -0.27593353 -0.22628824
0000d0 af bd be 3d 92 44 b9 bd c7 91 a5 3c fb 33 fb 3d
       0.09313523 -0.09046282 0.020211114 0.12265774
0000e0 c4 5f 8a bb 8e 7b 93 3c 0f dd 51 3e f3 56 da bb
       -0.004222842 0.018003251 0.20494483 -0.006663197
0000f0 86 bf 05 3e 91 71 6c 3c db 21 f1 3d 57 08 a7 3a
       0.13061342 0.014431373 0.117740355 0.0012743574
000100 01 2b 84 be d2 a4 a5 3e 3d b3 95 3e 85 c8 bb 3d
       -0.2581406 0.3235231 0.2923831 0.091691054
000110 e1 2b 0c be 8b 72 9b 3d 04 53 76 3d 86 e6 ae bd
       -0.13688613 0.07590207 0.060137764 -0.085400626
000120 f0 71 a7 be a3 33 51 be 09 35 30 3d 74 7e 0e 3d
       -0.32704115 -0.20429854 0.04301933 0.034788564
000130 0b cb d2 3c 54 fb 21 3e eb 32 af 3d d7 62 c9 3d
       0.025731584 0.1581853 0.08554634 0.09833305
000140 78 be 3d be 59 75 63 bd c3 d7 07 be 5d 32 65 3e
       -0.1852969 -0.055531833 -0.132659 0.22382493
000150 c9 66 95 3e aa 81 d0 be 99 34 40 3d 0c cc bb bd
       0.2917998 -0.40723926 0.04692516 -0.09169778
000160 bf 09 2c 3e bd 65 e3 bd 86 25 32 3e 61 d0 97 be
       0.16800593 -0.111033894 0.17397127 -0.29651168
000170 bf d2 f6 bc d7 83 2e be 19 db 4e bd f4 59 e9 3d
       -0.030129788 -0.1704248 -0.050501917 0.1139411
000180 79 ee 31 3e 83 0b 9f 3e 06 66 8a 3c 0b 68 b1 be
       0.17376126 0.3106347 0.016894352 -0.3464969
000190 28 d1 96 3d 2b 77 c8 3d e8 3c 0c 3e ed de 38 3e
       0.07364112 0.097883545 0.13695109 0.1805379
0001a0 a7 30 a6 3d 6d 61 0e be 7b 8a 89 3e 60 4e 79 be
       0.081147484 -0.13904352 0.26863465 -0.24346304
0001b0 c0 2e e7 bc 0e 28 4a be 6d ba 20 be c1 05 44 3e
       -0.028220534 -0.19741842 -0.15696116 0.1914282
0001c0 c0 2b 5c 3e 9b 2d 9d bc f9 e0 b8 be b6 65 e0 3e
       0.21501064 -0.019186785 -0.3610914 0.438276
0001d0 4d a3 3c bb dd 30 ba 3d 80 7d 08 3e 61 3a 86 bd
       -0.0028783858 0.09091351 0.13329124 -0.06554104
0001e0 c6 d3 5e bc c3 c9 0a 3c 2a 13 35 be 04 01 70 bd
       -0.013600295 0.008470955 -0.17683092 -0.05859472
0001f0 dd 69 0c 3e 90 32 9c 3e 51 50 4a be 9b 99 2e 3e
       0.13712259 0.30507326 -0.19757201 0.17050783
000200 9a ce 27 be 84 28 81 3e 38 59 b2 bd 98 3d 7e 3e
       -0.16387406 0.25226223 -0.087084234 0.24828184
000210 5c e2 2b 3d e1 d9 43 be 72 ed 6e be 4a 3b 31 be
       0.04196392 -0.19126083 -0.23332766 -0.17307773
000220 6e c3 b4 3e 7b f1 a5 3e 1b 3e 8d 3e 5e 0c 79 be
       0.3530535 0.32410797 0.27586445 -0.24321124
000230 77 2d 69 be f8 0b 83 be 55 ac 23 bd 91 74 51 3d
       -0.2277125 -0.2559507 -0.03995927 0.051136557
000240 56 f2 f2 bd 0a a5 f2 bc a6 1f 6f 3c 58 ec 19 bd
       -0.11862628 -0.029619712 0.014594948 -0.03757891
000250 1c 7c 86 be 57 a7 22 be 60 df 81 bc a5 ac 0f 3d
       -0.26266563 -0.15884148 -0.015853584 0.035076756
000260 c7 b8 6c 3d 73 e0 3b bd c6 f0 06 3d f7 2b ac bc
       0.057793405 -0.04586835 0.032944463 -0.021017058
000270 00 c9 28 3d 61 ea 50 bb 56 74 22 3c b0 b4 23 3c
       0.041207314 -0.0031877982 0.009915432 0.00999181
000280 80 e2 b3 bb 0c ee 62 3d f4 64 8d 3c e9 ca 5d bd
       -0.0054896474 0.0554028 0.017260052 -0.05414859
000290 75 07 17 bc 19 34 85 3c 3c 46 c8 3b 9a d8 b6 bd
       -0.0092180865 0.016260194 0.006111888 -0.08928032
0002a0 98 91 fe 3d 13 2a 19 bd 38 21 1d bd 99 f7 8b bd
       0.124301136 -0.03739364 -0.038361758 -0.06834335
0002b0 62 d3 96 ba 53 b3 d6 3b 29 b8 b4 3d 3b c4 00 3e
       -0.0011507089 0.006552139 0.08824188 0.12574856
0002c0 35 67 8f 3d bd c1 3a bd 23 66 af 3d e0 ab 8e 39
       0.07002107 -0.04559492 0.08564403 0.00027212407
0002d0 2d f5 6a bd 88 5c f2 3c b8 7c 90 3d ad 5c bb bc
       -0.057362724 0.029585138 0.07055038 -0.02287134
0002e0 dd 69 4a bd 8c 25 9f 3d cc d4 0b be 0e 95 64 bd
       -0.049417365 0.077708334 -0.13655394 -0.055806212
0002f0 31 75 12 bd 36 50 0a bd 98 cf 27 3c d5 c3 b0 bd
       -0.035756294 -0.0337679 0.010242365 -0.08631102
000300 b8 1d 75 3d 24 5c 91 3d 96 67 aa bd ad 93 7b 3b
       0.059842795 0.070976526 -0.08320539 0.0038387582
000310 1e dd 2f bd f4 07 cd bc 6a 4e 12 3d 67 83 40 3c
       -0.042935483 -0.025028206 0.035719313 0.011750079
000320 f6 31 10 3e 89 0e a2 bd c2 da 68 bd 5f 9f ca 3d
       0.14081559 -0.079129286 -0.05684925 0.09893679
000330 87 c8 fc bd b5 a8 7e be 47 fa 95 3d 54 f7 82 bc
       -0.12342935 -0.24869044 0.07323127 -0.015987076
000340 fb 3b 34 3d 0e 6c 82 3d 04 f3 7f 3e 7a bc f0 3d
       0.044002514 0.06368266 0.24995047 0.11754699
000350 9a 77 11 3d 15 9c f0 bd 0e 6e 32 be 66 cd 8d 3c
       0.03551445 -0.1174852 -0.17424795 0.017309856
000360 89 d5 d7 3d 9e cc fa bd b4 34 f0 3d 11 d9 92 bd
       0.105387755 -0.12246059 0.11728802 -0.071703084
000370 57 bd 25 3e 78 62 9d 3a fd 8e 4b bd ec 72 ef bc
       0.16185509 0.0012007495 -0.04969691 -0.029229604
000380 b7 a6 b9 bb 33 72 7e 3e b2 d0 48 bd 24 46 67 3d
       -0.005665626 0.24848251 -0.049027152 0.056463376
000390 ec d5 ed 3d 04 d3 7c 3d 52 7e 86 3d d9 b9 82 3d
       0.11613068 0.061724678 0.065670624 0.06383104
0003a0 9e d8 31 3d 9e b1 f1 bb c2 a8 0d be d3 45 0d be
       0.043419473 -0.00737591 -0.13833907 -0.13796167
0003b0 90 30 85 bd b5 c9 07 be 5c c4 b2 3b ea 84 63 bb
       -0.06503403 -0.13260539 0.005455537 -0.0034716674
0003c0 bc 27 bb bd 4e 9b 21 be d3 0a 03 3e bd f4 56 3e
       -0.09138438 -0.157819 0.12797098 0.20991798
0003d0 fe 72 36 be 82 17 77 bd 94 86 be bd df 02 6b bd
       -0.17817304 -0.060325153 -0.093030125 -0.057375785
0003e0 40 5e 39 3c d9 54 e2 bc bf a9 11 3d cc 3a 9c 3c
       0.011313975 -0.02762835 0.035562273 0.019071005
0003f0 09 96 e2 bc cc a0 bd bd a6 52 58 bb 90 fb 02 3d
       -0.027659433 -0.09259185 -0.0033008247 0.03197819

gnn.convs.2.lin_edge.weight f4 [50, 1]
000000 c4 6a 1c 29 8f 7f 77 b4 30 9d 00 31 99 12 5f 94
       3.4731563e-14 -2.3050073e-07 1.8715802e-09 -1.12622906e-26
000010 87 9c 80 27 75 9f 40 1b 14 dc a7 bc be 04 98 9c
       3.5696844e-15 1.5933391e-22 -0.020490684 -1.0059742e-21
000020 66 a0 49 b0 c9 05 98 a1 9f fb 23 38 30 31 60 15
       -7.3351314e-10 -1.0301452e-18 3.909657e-05 4.5275242e-26
000030 c5 90 3d 9c c8 e0 c1 8a 75 14 01 80 56 73 f3 3b
       -6.2721965e-22 -1.8669777e-32 -9.9174e-41 0.0074295206
000040 48 93 e2 af ed 5f c2 83 fb ad 45 9d a0 a4 cd 29
       -4.121381e-10 -1.1424319e-36 -2.6162679e-21 9.132387e-14
000050 80 c6 b8 18 e8 e9 ac b0 16 3a b6 b8 34 2c 8e bc
       4.776332e-24 -1.2581127e-09 -8.6892556e-05 -0.017355062
000060 ae 24 56 af df f8 0e aa 22 0b 40 aa 3a 24 75 b6
       -1.9476218e-10 -1.2698478e-13 -1.7056888e-13 -3.6528932e-06
000070 95 0d de 03 ab a6 3b 8e 79 12 a3 1b be a1 91 33
       1.3051106e-36 -2.3129777e-30 2.6978026e-22 6.7815094e-08
000080 59 90 94 a5 ee 0f 03 b5 cc b0 76 0d a5 47 e0 b9
       -2.577172e-16 -4.8824484e-07 7.6017414e-31 -0.0004277799
000090 f6 23 eb b8 33 bc 8e 34 c0 f6 e3 a7 6e ed 4f 21
       -0.000112123715 2.6586494e-07 -6.3272684e-15 7.0448564e-19
0000a0 f4 15 3d b1 74 4a fe 80 47 0e af b2 62 5d d9 11
       -2.7515599e-09 -2.3352925e-38 -2.0379174e-08 3.4294115e-28
0000b0 00 ae a1 83 dd 84 5e ad 76 fd d6 24 f6 53 9f 8b
       -9.502678e-37 -1.26487406e-11 9.3237085e-17 -6.13709e-32
0000c0 85 1d ca 39 7c ba d5 24
       0.00038550436 9.268994e-17

gnn.batch_norms.0.weight f4 [50]
000000 87 fa fe 3e 66 49 2b 3f 95 0c 21 3f 21 32 ed 3e
       0.49800512 0.6690887 0.62909824 0.46327308
000010 24 49 35 3f 2b e3 0b 3f 9d c6 db 3e 66 bd ed 3e
       0.7081473 0.54643506 0.42924967 0.46433562
000020 de 14 13 3f b6 58 f8 3e 98 b3 d9 3e cd 67 b3 3e
       0.57453716 0.4850518 0.42519832 0.3504013
000030 32 d7 e4 3e 6c ff ba 3e 52 99 9f 3e ca 1b 00 3f
       0.4469543 0.36522996 0.31171662 0.500424
000040 9e 30 be 3e 51 48 c9 3e fc 98 d3 3e 77 cb ed 3e
       0.37146467 0.39312986 0.41327655 0.46444294
000050 06 21 ce 3e c4 9e 0a 3f 88 b5 de 3e 93 12 15 3f
       0.4025957 0.5414851 0.43497872 0.58231467
000060 b1 d8 c5 3e c6 89 05 3f 70 75 09 3f 22 fc 08 3f
       0.38641885 0.5216335 0.5369482 0.53509724
000070 f4 86 04 3f 86 a5 f9 3e 67 4b 12 3f 17 bf 03 3f
       0.5176842 0.48759097 0.57146305 0.51463455
000080 bc f8 ed 3e 99 8c b4 3e c1 ff 08 3f 17 53 f8 3e
       0.46478832 0.35263517 0.5351525 0.48500893
000090 b5 a3 03 3f d1 80 01 3f 8a 64 d3 3e a9 97 08 3f
       0.5142167 0.50587183 0.41287643 0.53356415
0000a0 a2 61 05 3f a7 b8 28 3f f8 a9 ed 3e f6 15 0d 3f
       0.521021 0.6590676 0.46418738 0.55111635
0000b0 72 e5 15 3f bf 3d a7 3e d5 19 1a 3f 28 50 b2 3e
       0.5855323 0.32664296 0.60195667 0.3482678
0000c0 4f da d3 3e b3 ee 02 3f
       0.41377494 0.51145476

gnn.batch_norms.0.bias f4 [50]
000000 99 1d 10 be fe de 02 bf 2d 7e d2 be db ce 89 be
       -0.1407379 -0.5112151 -0.4111189 -0.2691563
000010 cb 98 00 bf 46 7f 72 be 93 f9 c5 bd 9e dd 34 be
       -0.50233144 -0.23681363 -0.09666743 -0.17662665
000020 e0 84 8c be 4e 9f 65 be 0d ff 47 be 4d 12 58 bd
       -0.27445126 -0.22424051 -0.19530888 -0.052751828
000030 da ae 8c be 9d eb 90 be 8f 26 fc 3c f3 1e 9b be
       -0.2747715 -0.2830476 0.030780105 -0.3029705
000040 bf cb 93 bd e8 f2 12 bd ff 04 18 bd bd ef e0 bd
       -0.07216596 -0.035876185 -0.03711414 -0.109832264
000050 db 5e c2 bd 0a 15 7e be 2c 61 ed bd a2 cf 7c be
       -0.094907485 -0.24812713 -0.115908 -0.2468858
000060 75 d1 86 bd 83 65 87 be b7 0c 18 be 02 bf 82 be
       -0.065829195 -0.26444635 -0.148486 -0.25536352
000070 9b 50 96 be 27 a1 85 be 50 99 80 be 16 6e 0c be
       -0.29358372 -0.26099512 -0.25116968 -0.1371387
000080 1c a9 e5 bd 1f 92 18 bc dc 86 ce be 9a e8 99 be
       -0.11213896 -0.009312182 -0.40337265 -0.30060273
000090 29 db bf be 6b d6 9d be 3d 1e 36 bc 9f 27 40 be
       -0.37471893 -0.3082765 -0.011115608 -0.18765114
0000a0 ec 5a 33 be d8 0a a7 be 8f b6 bc bd dd 1d 7c be
       -0.17515153 -0.3262546 -0.09214508 -0.24620767
0000b0 19 4a 68 be e7 e9 84 bd 18 81 4f be 78 9b e7 bc
       -0.22684516 -0.06489926 -0.20264089 -0.028272375
0000c0 9c 6a a3 be 68 ac ed be
       -0.31917274 -0.46420598

gnn.batch_norms.0.running_mean f4 [50]
000000 05 d3 f2 ba eb 7e d8 bb ad e1 12 ba 32 f9 90 bb
       -0.0018526023 -0.0066069267 -0.00056030863 -0.0044242376
000010 b1 e4 30 bc 9d 25 bf 39 54 fd 2b ba eb a8 c9 bb
       -0.010796712 0.00036458383 -0.0006560881 -0.00615417
000020 29 63 79 bb e5 d6 62 3a a8 58 65 3a 97 6a d6 3a
       -0.0038053489 0.00086532376 0.00087488675 0.001635867
000030 24 bc 65 bb 9b ba 0a bd ee 7c 76 3b 40 e8 10 ba
       -0.0035054768 -0.033869367 0.0037611085 -0.0005527772
000040 9a 8d 06 bc 83 a6 96 bb ab 90 d2 3b d3 bc 1b bb
       -0.008212471 -0.0045974865 0.006425937 -0.002376367
000050 5f a7 2f bb dd 61 b5 3b 35 a4 66 ba de 74 e4 ba
       -0.0026802642 0.005535348 -0.00087982725 -0.0017429849
000060 37 91 64 ba 78 86 01 bb 4c fa 17 bc 3f 14 45 bb
       -0.00087191485 -0.0019763988 -0.009275984 -0.0030071882
000070 f8 a0 e8 bb 10 0b 4f 3b 5e cd 24 bb 03 41 f6 39
       -0.007099267 0.0031592287 -0.0025146822 0.00046969214
000080 d8 aa 82 ba f9 4d d1 3b dc ef e2 ba 82 d8 86 3b
       -0.0009969128 0.006387469 -0.0017313915 0.004115165
000090 10 85 c4 bb 18 41 39 bb a1 3d ef 3a 8c 45 d1 3b
       -0.0059973076 -0.0028267559 0.001825262 0.0063864645
0000a0 b4 ed 96 bb 00 aa 09 3b b7 51 e5 3b 1f 4c 9e b9
       -0.004605973 0.002100587 0.0069982666 -0.00030192823
0000b0 15 bb 97 bb 00 29 80 bb dd 68 75 b9 69 09 83 3b
       -0.004630456 -0.0039111376 -0.00023404085 0.0039989245
0000c0 53 ed 09 bc ec 2d 7f bc
       -0.008418399 -0.0155749135

gnn.batch_norms.0.running_var f4 [50]
000000 53 21 81 37 d7 3c 94 37 5d 33 2d 37 ce 29 bb 37
       1.5393516e-05 1.7671306e-05 1.03235625e-05 2.2311604e-05
000010 0b 73 54 38 b4 92 14 37 76 cb b5 37 f2 1d 9e 37
       5.065188e-05 8.855644e-06 2.1671625e-05 1.8849012e-05
000020 10 7e fb 37 03 51 c7 37 5a 16 b6 37 94 a6 71 37
       2.9980234e-05 2.3760373e-05 2.1706499e-05 1.4403504e-05
000030 ff 12 09 38 76 71 66 38 16 01 74 37 6d 3f 67 37
       3.2681037e-05 5.4941942e-05 1.4543786e-05 1.378344e-05
000040 c9 6b 1b 38 7a f8 67 37 a7 99 e6 36 8e f1 be 37
       3.7055263e-05 1.3826526e-05 6.8724216e-06 2.2762248e-05
000050 21 22 bf 37 ff 42 a8 37 28 68 fe 36 44 b6 34 37
       2.2784867e-05 2.0058358e-05 7.5819153e-06 1.0771273e-05
000060 3c 5d 1f 38 03 ac 32 37 7e b3 7c 38 2c 19 be 37
       3.7995385e-05 1.0649676e-05 6.0248647e-05 2.2661487e-05
000070 e1 56 44 38 d7 26 c7 37 b8 24 92 37 e1 8d 55 37
       4.6810954e-05 2.3740735e-05 1.7421655e-05 1.2728823e-05
000080 b0 ed 95 37 c3 3c 02 38 71 bd 8a 37 64 b4 be 37
       1.7872866e-05 3.1051004e-05 1.6539097e-05 2.2733766e-05
000090 a0 1d 05 38 66 41 85 37 a7 68 35 37 67 0f 81 37
       3.173726e-05 1.5885289e-05 1.0812807e-05 1.538517e-05
0000a0 41 37 ad 37 1c af db 36 64 e3 86 37 4e ef 79 37
       2.0648937e-05 6.547094e-06 1.6079932e-05 1.4897274e-05
0000b0 2d df dd 37 de c6 82 37 2e e6 86 37 b1 93 1a 37
       2.6449177e-05 1.5589812e-05 1.608123e-05 9.213502e-06
0000c0 ea be b6 37 d8 a1 13 38
       2.1784992e-05 3.519826e-05

gnn.batch_norms.1.weight f4 [50]
000000 58 7e 8d 3f ca b4 62 3f 40 b3 93 3f d6 07 8a 3f
       1.1054182 0.8855711 1.1539078 1.0783641
000010 53 e1 7b 3f e7 da 9e 3f ca 16 9c 3f a1 64 96 3f
       0.9839069 1.2410554 1.2194455 1.174946
000020 7a a8 83 3f e2 3a 99 3f 87 dc 89 3f 5b 61 91 3f
       1.028579 1.1971095 1.0770425 1.1357836
000030 2c 09 47 3f 13 86 41 3f 5a 61 90 3f d8 8b 92 3f
       0.7774837 0.75595206 1.1279709 1.1448927
000040 11 50 3c 3f 3d 76 78 3f 0c 21 6c 3f 58 b7 a5 3f
       0.7355967 0.9705542 0.92237926 1.2946577
000050 76 fc a1 3f 09 28 8f 3f ae b8 91 3f 67 69 38 3f
       1.265517 1.1184093 1.1384485 0.7203583
000060 3f 57 65 3f 9b 13 8d 3f 1e a7 89 3f 9e b3 3e 3f
       0.8958625 1.1021608 1.0754125 0.74492824
000070 e4 a6 8c 3f 32 fa 5e 3f 11 a0 4b 3f eb 2d 86 3f
       1.0988431 0.8710052 0.79541117 1.0482763
000080 3c 47 8c 3f 94 e9 75 3f 37 2a 92 3f c2 16 71 3f
       1.0959239 0.96059537 1.1419133 0.9417535
000090 74 9d 73 3f 6c f5 81 3f 8d b4 88 3f 40 3b 94 3f
       0.9516213 1.0153022 1.06801 1.1580582
0000a0 13 96 57 3f f0 b1 9c 3f ac a0 91 3f 68 9b b7 3f
       0.8421337 1.2241802 1.1377158 1.4344301
0000b0 9d fc 7c 3f de 52 a4 3f cf 5c 46 3f 87 b3 4f 3f
       0.9882296 1.2837789 0.77485365 0.8113331
0000c0 a8 6c 8e 3f 1c be 95 3f
       1.1126909 1.1698642
