src/checkpoints/kitti_only_backup/best_model.pth (torch, 125090 bytes, 60 tensors)

gnn.convs.0.att_src f4 [1, 1, 50]
000000 32 39 8d 3e f9 c8 46 3e 02 4f 04 3e 38 82 ac ba
       0.275827 0.19412602 0.12920764 -0.0013161367
000010 b3 19 00 3d 90 9b 66 be 4e c7 87 be ed 3a 7e bc
       0.03127451 -0.2252028 -0.26519245 -0.015516979
000020 d4 d0 1a be 7f 19 1c 3e fd de 51 3e 4d ad 02 be
       -0.15118724 0.15244101 0.2049522 -0.12761422
000030 5c be d6 3d 12 aa a6 3e e3 55 a0 be 66 74 2d be
       0.10485527 0.32551628 -0.31315526 -0.16938934
000040 68 a8 a2 be a5 52 40 3e dc f6 76 be d5 66 8a be
       -0.3176911 0.18781526 -0.24117607 -0.2703158
000050 7d ea 3d 3e dc a5 56 bc ab 5c 8d be b1 06 fb bd
       0.18546481 -0.013101067 -0.27609763 -0.12257136
000060 99 f9 aa bd c6 b0 a3 be d8 f5 17 be 29 ac 45 be
       -0.08348388 -0.31970805 -0.14839876 -0.19303955
000070 04 ab 33 be 50 56 62 be 3c c2 b5 bd 1f 42 70 3d
       -0.17545706 -0.22103238 -0.08874938 0.058656808
000080 92 6e b9 bd a7 72 ad 3d 82 0a 15 be f0 63 a0 3e
       -0.09054293 0.08469134 -0.1455479 0.31326246
000090 aa c0 f6 bd 41 4d ad be 40 b4 2f 3c c1 d3 42 3c
       -0.120484665 -0.33848003 0.010724127 0.011891306
0000a0 5b 46 17 3c c9 07 97 bd 7c 0e 7e 3e 27 e5 d2 bd
       0.009233083 -0.07374532 0.24810213 -0.102976136
0000b0 45 74 b8 bc 4c 00 2e be c7 a7 8f 3c 37 81 49 3e
       -0.02251638 -0.16992301 0.017536057 0.19678198
0000c0 da 51 0d be 6c d8 ed bd
       -0.13800755 -0.11613545

gnn.convs.0.att_dst f4 [1, 1, 50]
000000 2f 27 18 3e e2 a3 61 bd b8 13 97 3e ed 97 35 be
       0.14858697 -0.05508793 0.29507232 -0.17733736
000010 d9 65 94 bd 3a 9e 35 3c 25 32 91 3e 19 fb 96 3c
       -0.072459884 0.011085087 0.2835857 0.01843028
000020 aa 56 41 be f8 5d 74 3e 83 2f 86 3e 9d f3 34 3c
       -0.18880716 0.23863971 0.26208124 0.01104441
000030 df 1b 73 be 60 9a 84 3d 36 41 df 3d 23 f9 49 3e
       -0.237411 0.06474757 0.1090111 0.19723944
000040 e9 6b aa 3e 56 eb 1e 3d d0 3d ad 3e 37 df bd bd
       0.33285454 0.038798653 0.33836222 -0.092710905
000050 18 f8 84 3e 9e ea 7f 3e 7b e2 a7 be 67 52 4a be
       0.2597053 0.24991843 -0.32789978 -0.19757996
000060 54 c7 af bd f5 c5 e6 bd ed 64 d7 bd 62 b2 5c 3e
       -0.08582941 -0.11268226 -0.10517297 0.21552423
000070 07 ba ca bd 1a 49 99 be 33 1e 2e be e5 71 02 be
       -0.09898763 -0.29938585 -0.17003708 -0.1273876
000080 00 d3 b0 be 9d cf a9 3e 9e 01 64 be da 80 35 3d
       -0.3453598 0.3316621 -0.22266242 0.044312336
000090 34 b2 cb 3a da 35 b8 bd aa cf 30 be 28 2a 28 3e
       0.001554078 -0.08994646 -0.17266718 0.16422331
0000a0 d0 d4 5f 3e 48 7e 1c be e4 c7 a7 be 9f 99 4a 3e
       0.21858525 -0.15282547 -0.32769692 0.19785164
0000b0 9e 9a 08 3e 10 20 53 3e 01 75 82 be dc 2f 21 3e
       0.13340232 0.206177 -0.25479892 0.15740913
0000c0 28 78 07 3e de ba 87 be
       0.1322943 -0.26509756

gnn.convs.0.bias f4 [50]
000000 2c 64 91 ba 21 ef 1c bb 64 99 03 3c 40 1b 62 bb
       -0.0011092476 -0.0023946243 0.008032177 -0.0034501106
000010 63 5f 23 3b 2b 85 7e 3b 07 bc 95 bb 94 84 fb bb
       0.002492868 0.0038836699 -0.0045695337 -0.0076757167
000020 a4 67 91 3b 0b ba 51 ba 4a fa 93 bb 27 22 13 bc
       0.0044374038 -0.000800044 -0.0045159208 -0.0089803105
000030 ea 08 21 3b 69 11 04 bc d7 36 2b bc dd 87 71 bb
       0.0024571964 -0.0080607915 -0.010450087 -0.0036854662
000040 ab 0c a9 38 83 72 d0 3b 34 63 cc 3b 9b c4 a2 b9
       8.0609076e-05 0.006361307 0.006237412 -0.0003104553
000050 f7 68 f9 bb 20 2c 52 ba aa f1 25 3b d0 5b 72 3c
       -0.0076113897 -0.00080174394 0.0025321045 0.014792398
000060 a6 1b e9 ba 56 35 6e bb 01 0c 01 bb 2e 09 92 bb
       -0.0017784729 -0.0036347709 -0.0019690993 -0.0044566607
000070 3d 33 73 3b 1e 1f 17 3b f5 96 1c 3b 99 80 94 bb
       0.0037109398 0.0023059319 0.0023893688 -0.0045319316
000080 bd d0 f6 3a 25 2e 46 ba 07 cd 9c bb 7e dc ef bb
       0.0018830519 -0.00075599767 -0.0047851834 -0.007319986
000090 29 1b 8c 3b 15 72 05 3b b3 0e d4 ba ce 7e d5 bb
       0.0042756987 0.0020362188 -0.0016178697 -0.0065153604
0000a0 ac 8c 7c 3a 27 45 40 bc f4 3c 97 bb 02 39 6c bb
       0.0009633999 -0.011735237 -0.0046154205 -0.0036044721
0000b0 e2 79 60 3b 13 86 8b bb 09 0a 52 3c f6 4d b7 bb
       0.0034252335 -0.0042579263 0.012819775 -0.0055940105
0000c0 33 b6 5d bc 3d eb ab 3b
       -0.013532209 0.0052465484

gnn.convs.0.lin.weight f4 [50, 50]
000000 41 ae 38 be 97 8e c8 3c 50 05 33 be 3f fe 66 bd
       -0.18035223 0.024482055 -0.17482495 -0.05639481
000010 d6 5f 4b bd 27 cc 27 be 1c de 4e 3e 5a a4 6c be
       -0.049651943 -0.16386472 0.20201916 -0.2310957
000020 a9 5f 15 3e 60 4a fd bd e1 e6 12 bc ef db 8d bb
       0.14587273 -0.123677015 -0.008966179 -0.0043291966
000030 67 4b b2 3d 2b 12 f9 bc dc 70 db 3c 90 63 53 3e
       0.08705788 -0.030404171 0.026787214 0.20643449
000040 2e 59 5d 3e 97 09 b5 3d 63 f8 31 bd 43 e4 e6 bd
       0.2161605 0.0883972 -0.04344977 -0.11274006
000050 a6 62 9a 3d 0e ea 90 bd 97 95 29 3c 3d 98 47 be
       0.07538347 -0.070758924 0.010350606 -0.19491668
000060 5b 84 03 be 67 d5 1a be 41 77 f4 3c 46 e3 26 be
       -0.12843458 -0.15120469 0.029842021 -0.16297635
000070 84 58 8b 3d 8e 42 17 3e 43 2d 67 3e 3e d4 a1 3d
       0.068039924 0.14771482 0.2257586 0.0790181
000080 4f 9c de bd 49 bc 5a 3e 60 4f 9a 3d ec 3c f7 bd
       -0.10869657 0.21360888 0.07534671 -0.12072167
000090 63 b1 48 3d c4 55 57 3d df 91 36 3e 7f a9 70 3e
       0.048997294 0.052572027 0.17829083 0.23502158
0000a0 05 07 e7 bd 5e 75 f0 3d f1 ae b3 3d 33 c6 ba bd
       -0.11280636 0.11741136 0.08773602 -0.09119835
0000b0 69 4a c7 bd 1f 77 ed 3d af cb e1 bd fe 68 81 3e
       -0.097309895 0.11594986 -0.11025178 0.25275415
0000c0 85 54 1a be b5 d2 62 3e 52 13 81 3d 1b e6 8e bd
       -0.15071304 0.22150691 0.06302513 -0.06977483
0000d0 45 d8 7e 3e fc a4 d3 3c a2 2c 79 3e 11 63 55 3e
       0.24887188 0.025835507 0.24333432 0.20838572
0000e0 7e b2 58 be 92 d5 61 bd a1 c7 0b bb 86 c2 24 3e
       -0.2116184 -0.055135317 -0.0021328705 0.1608983
0000f0 e2 74 54 be c1 71 21 3c fe 47 9c bd a2 e7 d8 bd
       -0.20747712 0.009853781 -0.07630919 -0.105910555
000100 b4 d4 d1 bd df d1 24 be 84 21 39 3e be 59 6c bb
       -0.10245648 -0.16095684 0.18079191 -0.0036064233
000110 cd 69 a4 3d 2c 67 3b be a7 10 36 3e 71 2d 22 3e
       0.080279924 -0.18301076 0.1777979 0.15837647
000120 d3 d2 2f be 13 83 13 3e 8d fe 8e bc dc 60 64 3e
       -0.17170267 0.1440547 -0.017455364 0.22302574
000130 2e c5 b9 bd 4c 84 88 bd 21 a0 6c be d8 dc 80 be
       -0.09070812 -0.066658586 -0.2310796 -0.2516849
000140 3c c1 e0 bc b8 9b 17 be 2e 9c 73 bd 28 15 c4 bb
       -0.027435891 -0.14805496 -0.059475116 -0.0059839673
000150 8e f2 b7 3d ff 8f 29 bc 2c 00 21 3e e0 4b 36 be
       0.089818105 -0.010349273 0.15722722 -0.17802382
000160 75 40 a5 3d 46 9d 4c be 3d 1b 05 bd 36 8f 09 be
       0.08068935 -0.1998187 -0.03249668 -0.13433537
000170 8f 9d b7 3d e1 d2 96 3d 6c 53 c7 bb 3b 71 56 be
       0.08965599 0.07364441 -0.0060829427 -0.20941631
000180 b8 0a 0e 3e 70 6b 33 3e ea c2 1b bd d8 d8 fa bd
       0.13871276 0.17521453 -0.03802768 -0.12248391
000190 35 56 55 3e 56 3b e7 bc 65 86 11 3e f3 f8 20 3d
       0.20833667 -0.028226536 0.14211424 0.039299916
0001a0 d0 8e 7d 3e 03 7e 83 bd a4 e5 87 bd c0 42 04 be
       0.2476151 -0.06420519 -0.06635597 -0.12916088
0001b0 83 01 66 be 56 74 08 be 1a 8b 8b 3d 47 83 25 3e
       -0.22461514 -0.13325629 0.06813641 0.1616336
0001c0 5f 72 0d be b1 39 76 be 2d 8a 72 be 5f 98 98 3d
       -0.1381316 -0.24045445 -0.23685522 0.074509375
0001d0 0b 49 3a be 03 3a 99 3d db 24 2b 3e 15 83 e3 3d
       -0.18191926 0.07481768 0.16713278 0.11108986
0001e0 50 bc 18 3d 7d 73 0e 3e 44 f5 43 be af bd 42 3e
       0.037288964 0.13911243 -0.1913653 0.19017671
0001f0 59 ba 44 be 95 bd 69 bd 2d 14 60 3e 13 fb 30 be
       -0.19211711 -0.057065565 0.21882696 -0.17283277
000200 42 f3 78 b9 fe c7 b9 3d 9e fe 19 3e 59 cd 34 3e
       -0.00023741744 0.090713486 0.15038535 0.17656459
000210 7f 63 1c bd fc 3d 70 be c9 1d dc 3d f0 ae 5e 3e
       -0.038180824 -0.23461145 0.107478686 0.21746421
000220 50 1f 4a 3e 02 b7 3a 3e 57 d8 b1 3d ca d1 21 3d
       0.19738507 0.18233874 0.08683842 0.03950671
000230 8f b7 03 3e 08 5e 43 bd 24 d0 07 3e 66 f3 53 bc
       0.12862991 -0.047697097 0.13262993 -0.012936449
000240 f1 70 99 3d 34 c0 3e be e9 86 5c be 06 01 ff 3d
       0.07492245 -0.18628007 -0.21535839 0.12451367
000250 61 be 85 bb a3 83 32 3d 24 ab e4 3d 41 b9 14 3e
       -0.004081533 0.04358257 0.11165455 0.14523794
000260 05 6c 09 be 1e 7e 6b be 9b f9 39 bd 5d 23 b4 3d
       -0.13420112 -0.22997329 -0.045404058 0.087958075
000270 e8 c4 54 3e 8d 51 f6 3d 22 16 76 3e b5 7a 11 3e
       0.20778239 0.12027273 0.2403188 0.14206965
000280 c2 1c d0 3c 05 14 d5 3d 36 66 f1 3d 12 c6 e1 bd
       0.025404338 0.10404209 0.11787073 -0.11024107
000290 23 e8 1d 3e 06 e0 10 3d e1 c4 de ba 7d 86 54 be
       0.15420584 0.035369895 -0.001699593 -0.20754428
0002a0 52 66 94 bd f8 28 26 3e ab 2f 49 3e 1a 34 00 bd
       -0.072460786 0.16226566 0.1964709 -0.031299688
0002b0 70 91 dd 3d de 8a d5 3c b8 5a 60 3d 1b ad b3 3d
       0.108187556 0.026067194 0.054774016 0.087732516
0002c0 23 db 38 bc c6 39 3a 3e 9b fa 69 be 75 e0 12 be
       -0.011282715 0.18186101 -0.22849505 -0.14343436
0002d0 1b c1 85 3c 52 38 4d 3c dd a3 33 3d 77 eb 2e 3e
       0.016327431 0.012525635 0.043857444 0.1708201
0002e0 65 2d 13 be 69 9b d6 3d ba 98 10 be 75 be 0d 3e
       -0.14372785 0.10478861 -0.1412076 0.13842185
0002f0 01 1a 26 3e 8f 20 42 be a0 5c 92 3b 9d 7c 03 be
       0.16220857 -0.18957733 0.004466608 -0.12840505
000300 a1 73 4a be 8a 07 4b be f6 91 52 3d cf 45 11 be
       -0.19770671 -0.19827095 0.05140873 -0.14186786
000310 9e 3f 17 be c3 7d 43 be 98 1f 14 bd 25 12 8d bc
       -0.14770362 -0.19090943 -0.036162943 -0.017220566
000320 c4 ec 41 bd 3f 78 aa 3d 88 d5 45 3e 35 ae 99 3d
       -0.047344938 0.08323716 0.19319737 0.075039305
000330 18 1c 35 3e 18 3b 74 3e a5 73 23 3e 73 62 5d be
       0.17686498 0.23850667 0.15962084 -0.21619587
000340 19 56 34 3e db d0 17 3d 0b 67 65 bd 13 7c 47 3e
       0.17610969 0.037064414 -0.056006473 0.19480924
000350 f8 d2 d5 3c 5e 45 57 be 74 a2 5e 3d 37 df 22 bd
       0.026101574 -0.21022555 0.054354146 -0.039763656
000360 b5 a7 40 be 52 59 5b 3e eb c2 b4 3c de a4 67 bd
       -0.18813975 0.21420792 0.0220656 -0.056553714
000370 ee aa c6 bd cb fa 55 bd 81 61 ac 3d 8c f0 85 3d
       -0.09700571 -0.052241128 0.08417035 0.06540021
000380 82 f9 8b 3d 89 1c 66 be a0 bc 88 bd fb 98 35 3e
       0.06834699 -0.22471823 -0.06676602 0.17734139
000390 cf cf 55 be af 06 ed 3d 53 1d 18 3e fc 85 66 be
       -0.20880054 0.115735404 0.14854936 -0.22512048
0003a0 72 1a 83 3d f5 db f0 3c f6 d4 04 be 38 cf 8b bd
       0.064015284 0.029401759 -0.12971863 -0.06826633
0003b0 d2 8e 05 be 80 de 5b 3e fe 33 45 be 40 c7 73 be
       -0.13042763 0.21471596 -0.19258115 -0.23806477
0003c0 e9 30 57 be 68 17 20 be b1 43 c0 3d a0 64 4b bd
       -0.21014751 -0.15633929 0.09387911 -0.04965651
0003d0 08 3e 2a 3e 01 fe 3e be 49 df d4 3d 96 3e 82 be
       0.16625226 -0.18651582 0.10394151 -0.25438374
0003e0 71 95 9c bd 68 19 bb bc e1 ae e6 3d 53 e1 43 3e
       -0.07645691 -0.022839263 0.11263824 0.19128923
0003f0 6c 90 70 3e 3b a4 0a be 2a 66 64 3e 5d a3 54 3d
       0.23492593 -0.13539211 0.22304597 0.051913608

gnn.convs.1.att_src f4 [1, 1, 50]
000000 bb 37 3f 3e d3 40 23 3e ba 0a 96 be 49 83 8a 3e
       0.18673603 0.15942697 -0.2930506 0.27053288
000010 90 20 a4 3e b4 38 2d be d5 bd a5 be ad fa 81 3d
       0.32056093 -0.16916162 -0.32371393 0.06346641
000020 c2 9c e2 3d 0a fd 7a be 3a ac 34 be 4e c3 3a be
       0.110650554 -0.24510589 -0.17643824 -0.18238565
000030 5a 2b 00 3d f0 cc 3b 3d 70 c2 1b bd 95 0e 6d be
       0.031291343 0.04584974 -0.038027227 -0.23150094
000040 37 98 47 bd c1 49 a2 bd 2c 7c 61 be 57 00 93 be
       -0.048729148 -0.07924224 -0.22020024 -0.28711197
000050 0b 1e 47 3e ad cf 86 be 41 39 f0 bd 1e 4a d0 bd
       0.19445054 -0.2633032 -0.1172967 -0.10170387
000060 5a ee 76 be 29 bc 5f be b9 d8 ab bc a5 e0 43 be
       -0.24114361 -0.21849121 -0.020977365 -0.19128664
000070 7b a4 67 be 28 ca ed 3d 2d 0b 2b 3d 15 ec 05 be
       -0.22621338 0.11610824 0.041758705 -0.1307834
000080 ae 5b 07 be 7d 76 50 3e 21 fd a3 3e 8b c3 6c 3e
       -0.13218567 0.203577 0.3202906 0.23121469
000090 c9 38 6d 3e 87 38 cd bc 43 57 59 bd d7 f1 08 be
       0.23166193 -0.025051368 -0.053061735 -0.13373505
0000a0 43 2b 1b bd fa 29 0c 3d 39 45 1b 3e 8b 7b 95 3e
       -0.037883054 0.03421972 0.15163125 0.29195818
0000b0 c6 98 a2 3d 19 75 aa be 3f 51 93 be b5 a4 9a 3d
       0.079392955 -0.33292463 -0.28772923 0.075509466
0000c0 20 43 39 3e a4 1c 56 be
       0.18092012 -0.20909363

gnn.convs.1.att_dst f4 [1, 1, 50]
000000 29 f7 55 3d 90 d9 be 3a 81 7f bb 3b 4c 9f 9b 3d
       0.052237663 0.0014560688 0.0057219868 0.07598743
000010 e7 81 53 be 6c b6 c6 bd 2d 85 66 3e ca bb 9f be
       -0.20655023 -0.09702763 0.2251174 -0.3119796
000020 a3 64 e1 3d f3 8a c5 bb 93 30 06 bd 5d b8 aa 3e
       0.11005523 -0.006028527 -0.032761168 0.33343783
000030 17 5d db bd 70 c8 92 3e 6e fc 85 3e 8a e1 73 be
       -0.10711115 0.28668547 0.2616915 -0.23816505
000040 36 7b 77 3d 18 74 82 3d 18 3c b8 b7 e1 25 9e 3e
       0.060420237 0.063697994 -2.1962493e-05 0.30888274
000050 1d db aa 3e dd a6 75 3e f8 dd 90 bd e7 c9 32 be
       0.33370295 0.23989435 -0.07073587 -0.17459832
000060 49 3b 81 be 89 f4 6f be 86 b4 87 3e c0 3b 91 bd
       -0.25240543 -0.23433127 0.26504916 -0.070914745
000070 c8 a5 36 3d e3 a5 29 be 69 00 5e 3e 9c 51 db 3d
       0.044591695 -0.16567187 0.21679844 0.10708925
000080 31 b2 a8 3c f8 5b 6e be 7b e0 3f bd 3c 5d 02 be
       0.02059278 -0.23277271 -0.04684494 -0.12730879
000090 40 e9 26 3e c2 fd 5a 3d d7 de 6b 3d 65 d5 39 be
       0.16299915 0.05346466 0.057585564 -0.1814781
0000a0 c8 78 36 3c 4b 3c 65 be 79 d4 bb bc 08 4c 3c 3e
       0.011137195 -0.22386281 -0.022928463 0.18388379
0000b0 72 da 5b 3e a1 06 82 be 3a de 53 3e 33 b6 84 be
       0.21470049 -0.25395682 0.20690241 -0.25920257
0000c0 51 a8 95 3d c5 8b 7a 3e
       0.073074944 0.2446738

gnn.convs.1.bias f4 [50]
000000 ae 7b 01 bb 08 f2 2c bb 53 80 20 bb a1 e4 09 ba
       -0.0019757557 -0.002638938 -0.002449055 -0.00052602036
000010 3c 69 c8 3a 2c cd 2a ba 15 da 74 3a 96 19 09 bb
       0.0015290151 -0.00065155583 0.0009340358 -0.0020919791
000020 1c f4 30 3a 5a f6 95 3a d8 6a 83 bb 54 c8 f0 b9
       0.00067502423 0.0011441216 -0.0040105395 -0.00045925623
000030 c0 a7 57 3b 72 0c 1f bb b1 fc e6 3a 81 d1 17 39
       0.0032906383 -0.0024268893 0.0017622915 0.00014478528
000040 8d 53 3e bb 93 4a c1 39 01 52 f5 39 ab 18 b5 3a
       -0.00290415 0.0003686739 0.0004679114 0.0013816556
000050 70 3e a7 b8 fd cc 0e 3a ce 91 26 3a 9f 3b ca 3a
       -7.9748104e-05 0.0005447416 0.0006354124 0.0015429145
000060 49 28 07 b9 81 43 b5 ba 8f 95 03 bb 83 9b fe 39
       -0.0001288961 -0.0013829322 -0.0020078158 0.0004856252
000070 5a e7 2f 3a 9a 35 1d 3b d7 6b 24 3b 43 04 d7 ba
       0.0006710194 0.0023988248 0.0025088692 -0.0016404468
000080 98 4d 40 3a 5a 29 18 ba f9 47 f0 3a 87 f5 55 39
       0.0007335781 -0.00058045017 0.0018331996 0.00020404729
000090 aa 0e 45 ba 12 80 1b 3b eb b3 c8 b7 50 9a b0 39
       -0.0007517139 0.002372746 -2.3925639e-05 0.00033684308
0000a0 73 ab 31 ba e8 d3 a4 3a e5 d6 b8 3a 99 52 25 39
       -0.0006777562 0.001257536 0.001410213 0.00015766396
0000b0 77 b0 e6 3a fe d5 17 3b 4c 7e e6 3a 5f 27 76 39
       0.0017600198 0.002316832 0.0017585247 0.00023475055
0000c0 e3 56 1e 3b 79 67 9f 3a
       0.0024160675 0.0012161575

gnn.convs.1.lin.weight f4 [50, 50]
000000 69 d4 ae bd 6b c8 20 3e c5 f3 21 be e2 33 68 be
       -0.08536608 0.15701453 -0.15815647 -0.22676042
000010 15 25 31 be 09 7f 4a be 4c 2f 8d bc fd 34 96 bb
       -0.17299302 -0.19775023 -0.017234467 -0.0045839534
000020 96 b0 14 be 93 73 c7 bd a3 80 b1 3d ca a2 f5 bd
       -0.14520487 -0.09738841 0.08667114 -0.1199394
000030 ae 8f 46 be d4 e9 9e bd 92 42 14 be 60 df 83 3d
       -0.19390747 -0.07759443 -0.1447852 0.0643909
000040 bb f9 c9 3d 87 94 04 3e 85 0e c3 3a fe 07 5a be
       0.098620854 0.12947284 0.0014881646 -0.21292111
000050 71 5c d9 3d 25 ae f0 bd 95 c8 01 be 9f 3e 1d 3e
       0.10613335 -0.117519654 -0.12674172 0.1535592
000060 12 34 be 3d 22 6e 06 3d 4b 85 4e be ab 51 2b be
       0.092872754 0.032819875 -0.20168035 -0.16730373
000070 06 59 29 3d 9f 70 fd bd 39 8f 58 be a4 f1 4d 3d
       0.041344665 -0.123749964 -0.21148385 0.050279275
000080 a0 a3 f0 bd d3 c7 81 3d 0e c0 67 be 87 9d 41 3e
       -0.11749959 0.063369416 -0.22631857 0.18907748
000090 c6 56 e1 bb 4a 1f 5e bd 2b 5e d9 bd f7 0e 5d be
       -0.0068767993 -0.05422906 -0.10613664 -0.2158774
0000a0 72 67 c5 bd 55 19 57 3e 09 30 a8 bc da e9 1f bd
       -0.09638871 0.21005757 -0.020530717 -0.039041378
0000b0 aa 79 1f be 42 c0 47 be 95 51 57 be f1 59 f1 bc
       -0.15573755 -0.19506934 -0.21027215 -0.029461833
0000c0 7b 23 d3 3d 78 49 26 bd f7 de c4 3c 16 79 11 be
       0.10309502 -0.04059741 0.0240321 -0.14206347
0000d0 11 84 20 3d 43 86 38 be 85 bd 04 3c 24 30 5c 3e
       0.03918845 -0.18019967 0.008101826 0.21502739
0000e0 06 fe 25 bd bf a7 6e be bb 37 0a be fd 83 f2 bc
       -0.04052546 -0.23306178 -0.13497822 -0.029603953
0000f0 f8 19 45 3e 18 54 f3 3d 62 f8 32 be c7 73 14 3e
       0.19248188 0.11881274 -0.17477563 0.1449729
000100 55 01 08 3c 0a 4a 83 be 4e 18 07 be 95 80 85 3b
       0.008301099 -0.25642425 -0.13192865 0.004074166
000110 6a 21 66 3e 7e 70 2f 3c b6 d8 bb 3d ab d2 26 bd
       0.22473684 0.010707973 0.09172194 -0.040728252
000120 fb 86 26 3e 29 2e 03 3e 7d d1 14 3e 37 94 ff 3c
       0.16262428 0.12810577 0.14533038 0.031198604
000130 ce fc 1a 3e 5d a0 57 be d0 49 0a 3d da f3 d1 3b
       0.151355 -0.21057267 0.0337618 0.006407243
000140 c0 e6 db 3c 5c 66 4f 3e 61 f3 16 3e 0d db 4a be
       0.026843429 0.20253891 0.14741279 -0.19810124
000150 25 2e fc 3d d5 77 78 bd d3 3b 46 be 7a 3b f1 bd
       0.12313489 -0.060661156 -0.19358759 -0.117789224
000160 25 be b7 bd 7d 4b 20 be 5a cb e1 bd 2b 2f ca 3d
       -0.08971814 -0.15653796 -0.11025114 0.09872278
000170 39 6c 24 3e 39 11 4d 3d 05 e6 92 bd 09 d1 a7 b9
       0.16056909 0.050065253 -0.07172779 -0.00032008465
000180 b7 c3 c6 bc 84 7d 46 3e f5 70 48 be 32 22 13 bb
       -0.024263246 0.19383818 -0.1957434 -0.0022450802
000190 c9 c3 b2 3d 84 8f 0b be ed 91 22 3e 3e 46 83 3e
       0.08728749 -0.13628966 0.15875979 0.25639528
0001a0 1e d6 be 3c 3d 5f 84 3d 64 dc 4e be 7c 03 bc 3d
       0.023295458 0.06463478 -0.2020126 0.09180352
0001b0 f9 d8 27 be 52 d4 42 bc e8 d3 42 3e 76 7b 60 bd
       -0.16391362 -0.011891441 0.19026148 -0.05480524
0001c0 9a 3c 1d bd 8d 2a f1 3d 76 7f 82 3e e9 82 0d 3d
       -0.038387872 0.11775694 0.2548787 0.034548674
0001d0 33 57 a0 bd f5 a8 0a be db cf 08 3e eb 66 4c 3e
       -0.07829132 -0.13541014 0.1336054 0.19961135
0001e0 d3 3f ec 3d 8c f9 5c 3e 22 06 b6 bd b7 ca 3b 3e
       0.11535611 0.2157957 -0.088878885 0.18339048
0001f0 93 ae c5 3d 30 f0 ca bd f4 f6 40 3e 68 6c 2e be
       0.09652438 -0.099090934 0.18844205 -0.17033541
000200 88 64 d4 bd 81 a8 9b bd 71 97 12 be fb ea 58 be
       -0.10370737 -0.07600499 -0.14315583 -0.21183388
000210 4a 9c aa bd fb b7 89 3e 54 67 25 be fc cc 5c ba
       -0.08330591 0.26898178 -0.16152698 -0.0008422879
000220 58 80 89 3d db 0c ca bc 0a 81 66 3e b5 0e 13 3e
       0.06713933 -0.024664333 0.22510162 0.14361079
000230 c3 2c 64 3e f4 dd 1a ba 0e 0a 2b be ab 68 85 3d
       0.222827 -0.00059077074 -0.16703054 0.065141045
000240 35 09 73 3d cf f5 cb bc b3 3d c0 3d 43 e3 bc 3c
       0.059334952 -0.024897484 0.09386768 0.023057586
000250 a8 59 61 be 26 48 14 bd 8c 62 b3 3d 4d d4 0c 3e
       -0.22006857 -0.03620162 0.08759031 0.13752861
000260 00 93 51 be d9 c3 5a be 33 08 2e 3e c9 f6 01 be
       -0.20466232 -0.21363772 0.16995315 -0.12691797
000270 a2 ed f8 ba fc 67 16 be c1 5b 5f be 6f 2a f2 bc
       -0.0018991719 -0.14688104 -0.21812345 -0.02956125
000280 10 23 1d be 54 8a bf bc 89 d7 54 3d 22 ad f8 bd
       -0.15345407 -0.02338139 0.051963363 -0.121423975
000290 f0 78 10 3e 1d 67 6a be 6a 72 46 be b6 9e fb 3d
       0.14108634 -0.22890897 -0.19379583 0.12286131
0002a0 7c 86 04 3e ec 7b 1b 3e 92 d5 96 3d 9e 45 e9 bd
       0.12941927 0.15183991 0.07364954 -0.113902315
0002b0 1f f5 47 bc d1 fa 4a be d7 b2 82 3d c6 96 0e 3e
       -0.0122044375 -0.19822241 0.06381767 0.13924703
0002c0 6d b6 47 be 58 79 03 3e 7c 35 64 be fd 02 03 3d
       -0.19503184 0.12839258 -0.22286028 0.03198527
0002d0 fd 04 4a 3e 4a bd b2 bd 9d c3 5b be fb 17 9b 3d
       0.19728465 -0.0872751 -0.2146134 0.07572933
0002e0 ae b2 5d 3d c5 9c 5c be 5f f8 13 3e fd 7c 49 be
       0.05412548 -0.21544178 0.14450215 -0.19676585
0002f0 84 6b c2 bd 4a e7 ad 3d 29 2c 16 be ef de 14 3e
       -0.09493163 0.084913805 -0.14665283 0.14538167
000300 fb 5c 73 be d5 e2 1f be 37 dc 8c bd 43 8d 5c 3e
       -0.23765938 -0.15613873 -0.0687794 0.21538262
000310 59 20 5a be 42 aa e6 bb e3 6c 39 be ad 84 56 3e
       -0.21301402 -0.0070393393 -0.18107943 0.2094905
000320 b7 66 63 bd 32 a1 5b 3e d8 df d9 3d 6f 04 4a 3d
       -0.05551788 0.2144821 0.10638398 0.049320634
000330 c1 47 97 3d d5 95 33 3e 41 99 f5 3c 32 97 77 be
       0.07386733 0.17537625 0.029980304 -0.2417877
000340 34 29 57 be 29 9d 9b 3d 57 e6 33 3d b8 ab cb 3d
       -0.21011811 0.07598335 0.04392084 0.09944862
000350 40 bf 50 3e 45 d0 fc bd 08 56 3a be f0 24 58 be
       0.20385456 -0.12344412 -0.18196881 -0.2110784
000360 4f 45 4a 3e 85 a4 cf 3d 0c b4 fa 3d 38 32 46 3e
       0.19753002 0.101388015 0.122413725 0.19355094
000370 fb e9 81 be e6 1b 3c be a0 3e 57 3c 7c b2 87 3d
       -0.25373825 -0.18370017 0.01313749 0.0662584
000380 a2 e2 93 bd bb 4a 40 3e fa 86 09 be 31 60 aa 3d
       -0.07220961 0.18778507 -0.13430396 0.08319128
000390 e0 f3 fc bc d7 d0 89 bd 8a bb aa 3c 9a 89 c5 bd
       -0.030878007 -0.06729286 0.020841379 -0.09645386
0003a0 36 c0 6b be 47 1e 12 3e 8f 8a 99 3d 03 85 ad 3d
       -0.23022541 0.14269362 0.07497131 0.084726356
0003b0 c6 99 0d be 16 e2 59 3e 07 90 31 be 9d d4 26 be
       -0.13828191 0.21277651 -0.17340098 -0.16292043
0003c0 2c 9e 89 3d ef 06 11 3d c8 bf 7a 3d ad 60 7d be
       0.06719622 0.035407003 0.061218053 -0.2474391
0003d0 64 06 60 3e 71 e1 45 be dd 36 60 bd 59 f1 c0 3c
       0.21877438 -0.1932428 -0.05473982 0.023552584
0003e0 89 e1 e2 bd 64 fb 2e be 8d 38 df 3d 1b b8 c7 bd
       -0.11078174 -0.17088085 0.10899458 -0.09751912
0003f0 6d aa 65 3e 76 42 8a 3c 89 42 28 3e 6f 90 cc 3d
       0.22428294 0.016877394 0.16431631 0.09988486

gnn.convs.2.att_src f4 [1, 1, 50]
000000 1d cb c6 3d 3e da 33 bd 70 3a 39 be 4a c8 fc 3d
       0.097067095 -0.043909304 -0.18088698 0.123428896
000010 49 56 67 be 6c 90 d2 3c 4a fa ab 3e ac fe 23 3e
       -0.22591509 0.025703631 0.33589393 0.16015118
000020 7b 38 b1 be 22 6a 44 be 43 a9 db 3d 40 cd b1 3c
       -0.34613404 -0.19181111 0.107256435 0.021704316
000030 1e 4e a7 be 68 26 12 3e a3 a7 94 3d 4c 6e 4c be
       -0.32676786 0.14272463 0.07258537 -0.1996395
000040 2e 8c e5 3b da 38 7b 3e 94 b2 64 bd e5 98 20 bb
       0.007005236 0.24533406 -0.055834368 -0.0024505195
000050 47 85 43 be 81 1d e8 3d fe af 98 3c 0b 79 9a 3e
       -0.1909381 0.113337524 0.018638607 0.30170473
000060 5a c3 01 be 8c a9 79 3e 97 46 ae be 6a 63 83 3e
       -0.12672177 0.24381083 -0.3403823 0.25661784
000070 54 24 78 3e 40 6f a5 be 57 04 9a 3e ad 99 68 3d
       0.24232608 -0.3231144 0.30081436 0.05678718
000080 85 83 9e be 19 e4 d6 bd 40 de b3 3d 02 40 4b 3e
       -0.30959716 -0.10492725 0.08782625 0.19848636
000090 1e 9f 5f be ad e8 a3 3e 55 bc 52 3d 09 cd 00 bd
       -0.21838042 0.32013455 0.05144914 -0.031445537
0000a0 b9 17 1c bd 49 a0 1a bb 93 db 7b be 0c 6f 9f be
       -0.03810856 -0.0023594073 -0.2459548 -0.3113941
0000b0 9d 43 36 bd f8 ad 8d 3e 95 e3 9c be da 6d b1 be
       -0.044498075 0.2767179 -0.3064238 -0.34654123
0000c0 20 8a 88 3d 11 d7 8b 3e
       0.0666697 0.2731252

gnn.convs.2.att_dst f4 [1, 1, 50]
000000 0e e5 b1 bc bd 0f 79 be 94 fa 6e bc 08 e3 36 be
       -0.021715667 -0.2432241 -0.01458611 -0.17860043
000010 ed 96 63 3e 85 e1 74 3e c8 0e 2f be 8d 97 13 be
       0.22225542 0.23914154 -0.17095482 -0.14413281
000020 02 3c 2a 3e 27 09 bb bd 96 82 1a 3d c5 82 80 be
       0.16624454 -0.09132605 0.037722193 -0.2509977
000030 2d 85 9c 3e f3 53 6d be 9b 5b 9e bc 45 2b a2 be
       0.30570355 -0.23176555 -0.01933079 -0.31673637
000040 72 be 95 be 75 ed 71 be c3 71 91 3e 8b b6 23 3e
       -0.2924686 -0.23625739 0.28407106 0.15987603
000050 4b 47 55 3d a2 ef 72 bd 1d 3f 4d 3e 5d cc ef bb
       0.052069943 -0.059310563 0.20043607 -0.007318063
000060 8b 8f 6c bd 66 70 72 3c 2d 87 ef 3d 01 62 a4 be
       -0.05775408 0.014797306 0.116957046 -0.3210602
000070 51 38 e4 bd f3 e1 fd bd 87 95 0a 3e f6 24 33 be
       -0.11143554 -0.12396612 0.13533603 -0.17494568
000080 0a 93 7e be 3a 9f 32 3e 8a be a7 3e ce a2 9a 3e
       -0.24860778 0.17443553 0.32762557 0.30202335
000090 97 7e 89 3e 86 ad 9c 3d 44 fa 9c be ac d8 e3 bd
       0.26854393 0.076502845 -0.30659688 -0.11125311
0000a0 d2 74 cc bc 42 3a 8c 3e 92 10 8c 3d de 4a 9b be
       -0.024958048 0.27388197 0.06839098 -0.30330557
0000b0 b4 34 8c be f5 ef 84 be 6a 39 04 3d 4c 5b ec bd
       -0.2738396 -0.25964323 0.032281317 -0.11540851
0000c0 00 4c bc 3d 74 33 98 be
       0.09194183 -0.29726756

gnn.convs.2.bias f4 [50]
000000 05 3d d3 39 86 dc 8a ba f3 7e e3 38 d2 48 2e b9
       0.0004029052 -0.0010594286 0.000108478496 -0.00016621061
000010 9c 51 00 3a 80 e2 c8 ba fe 6d ee 3a cd 36 9f 39
       0.0004894973 -0.0015326291 0.0018190739 0.00030367673
000020 b3 32 db b9 13 97 10 ba 5f f1 85 3a d5 8c 9b ba
       -0.0004180871 -0.0005515676 0.0010219029 -0.0011867533
000030 b7 b3 dd b8 78 1e 43 3a f7 5c 9e 39 da 0d 3b 39
       -0.00010571576 0.00074432 0.00030205373 0.0001783887
000040 fa 36 f6 b9 be 79 1b b8 4a 5e a8 3a 81 50 24 3a
       -0.00046961737 -3.706826e-05 0.0012845483 0.00062680995
000050 29 a9 86 3a cd 1d af 3a 8e 7e 25 ba 55 53 c8 39
       0.0010273802 0.0013360322 -0.00063131086 0.0003820906
000060 5f df ab 3a f5 05 6e 3a 44 49 03 b9 a3 b9 a8 ba
       0.0013112834 0.0009079867 -0.00012520427 -0.0012872707
000070 b7 eb 69 b9 77 29 1f ba 78 07 3d 39 69 70 ac b9
       -0.00022308422 -0.00060715474 0.00018027227 -0.0003289015
000080 69 0e 2d 3a bd 1e 4d ba 32 85 0f 3a 61 72 0e ba
       0.00066015736 -0.000782471 0.0005474865 -0.0005433914
000090 e7 b8 2b ba e0 f1 b3 3a 13 a5 63 3a a6 13 d1 39
       -0.0006550685 0.00137287 0.0008683961 0.00039878226
0000a0 a5 84 a3 38 1a cf 18 3a 5e aa 3e ba 50 a6 1b ba
       7.797153e-05 0.00058292004 -0.00072733115 -0.0005937563
0000b0 d3 a6 9e ba 34 1b 1b 39 67 e7 c5 3a 3e e3 3b 3a
       -0.0012104161 0.00014792086 0.001509887 0.00071673456
0000c0 79 a9 57 3a 0a cb 10 bb
       0.00082268525 -0.0022093677

gnn.convs.2.lin.weight f4 [50, 50]
000000 2c 73 73 be cf 0a f5 bc 77 80 30 3e 39 26 96 bd
       -0.23774403 -0.02991238 0.17236505 -0.07331509
000010 74 12 df bc ed 09 40 3b 71 11 a2 3d 05 ac 00 bd
       -0.027230479 0.0029302791 0.07913483 -0.03141405
000020 c1 7e 5b be df 4d 10 3e aa 03 2f 3e ed 4d 1f bd
       -0.21435072 0.14092205 0.17091241 -0.038892675
000030 ca 2f f7 bd 04 89 52 be 08 64 29 bb 16 b0 c5 bd
       -0.12069662 -0.2056008 -0.0025846977 -0.09652726
000040 99 bc 9e bd 15 36 31 3e 77 1f 48 be 90 7c 7c 3d
       -0.07750816 0.17305787 -0.19543253 0.06164223
000050 58 8f 32 be d1 f1 27 be a8 72 58 bd 11 24 53 be
       -0.17437494 -0.1640084 -0.05284372 -0.20619227
000060 ff 6b 89 3b 1f 6c 37 bc 32 5a e3 3c 54 ce e6 bc
       0.0041937823 -0.011195212 0.02775297 -0.028174557
000070 c9 e9 23 be d9 a9 69 3e ee c4 7e 3d 5f f4 ed bc
       -0.1600715 0.22818698 0.062199526 -0.02904719
000080 52 55 2b 3e ce b8 4b bd 3c a8 f5 bd 29 91 34 bd
       0.16731766 -0.04973679 -0.11994979 -0.044083748
000090 c9 99 22 3e bc 3d 11 3e a4 97 48 3e 62 02 11 be
       0.15878977 0.14183706 0.19589096 -0.14161065
0000a0 d3 f9 b2 bd d8 c4 4f bd b0 8c bf 3d a8 43 95 3c
       -0.087390564 -0.050724834 0.09353006 0.018220738
0000b0 97 b0 50 be 88 ff 05 3e 95 eb 55 be 05 34 49 be
       -0.20379864 0.13085759 -0.20890649 -0.1964875
0000c0 57 66 ee 3d 38 c5 80 be d8 d8 e7 3d 83 da 93 3d
       0.116406135 -0.25150466 0.113206565 0.07219412
0000d0 92 3c 28 be d3 e0 88 3d 28 1e ed bd 4e 95 50 3d
       -0.16429356 0.06683507 -0.115780175 0.050923638
0000e0 9d 12 29 be ed 62 3b be 46 96 a9 3d f6 e5 61 be
       -0.16511007 -0.18299456 0.082806155 -0.2206038
0000f0 c9 8d 68 3e 21 23 37 3e 26 7a 5c be 08 91 4c be
       0.22710337 0.17884494 -0.21530971 -0.199772
000100 66 21 2d 3d 5f 81 04 be 84 ea 43 3d 92 bf 8c 3b
       0.04226818 -0.12939976 0.047831073 0.004295298
000110 ca a7 65 3e 32 95 a3 3d d2 bd 93 3d 1b 5f 65 bd
       0.22427288 0.07987441 0.0721394 -0.055998903
000120 df 29 7f 3e 1e 8e 4b 3e d9 3d e4 bd 3b e6 28 bd
       0.24918316 0.19878432 -0.11144609 -0.04123519
000130 c0 54 1f be 1c f5 0a 3d 1c 71 67 be ab ee 40 3e
       -0.15559673 0.03392516 -0.22601742 0.18841045
000140 72 28 18 3d 38 01 a8 bd ea bc 89 be 32 a4 17 bd
       0.037147947 -0.082033575 -0.26901942 -0.037021823
000150 f2 d6 81 3e 9a 97 7d bd ac 43 d9 bc 86 3b 44 be
       0.25359303 -0.061912157 -0.026521526 -0.19163331
000160 7a 0e bd 3c b4 81 e7 bd e7 38 68 3d c2 00 99 3e
       0.023078192 -0.11304036 0.05669489 0.2988339
000170 70 8f ad bd 3d 97 8d bd 72 2a a3 3c 99 ed 34 be
       -0.08474624 -0.06913612 0.0199177 -0.17668761
000180 43 b4 22 be a2 0a c6 bb cd 0c 87 bc 82 f3 6c 3e
       -0.15889077 -0.006043748 -0.016485596 0.23139766
000190 fe 86 fb bd 96 05 58 be f1 0a e0 3d cd de 51 3e
       -0.12281607 -0.21095881 0.10939587 0.20495148
0001a0 42 15 58 3e fb 50 3a be b8 26 54 bd 4f d3 09 3e
       0.21101859 -0.18194954 -0.051794738 0.13459514
0001b0 d2 a8 61 be 26 5b e2 3d 47 ea 8e be f0 c7 f5 3b
       -0.22037056 0.110525414 -0.27913114 0.007500641
0001c0 1f 74 c7 bd 41 8d 12 be 9e 12 4f 3d 57 fa 60 bd
       -0.09738945 -0.14311697 0.050554864 -0.054926243
0001d0 7d 9d 47 be c5 7f 6b bd 71 03 03 be 82 6a 3a bb
       -0.19493671 -0.057494897 -0.12794282 -0.0028444831
0001e0 5c ed 5a be c5 00 e4 3d 52 ef 34 3e 6d cd 9e bd
       -0.21379608 0.11132959 0.17669418 -0.077540256
0001f0 10 dd 73 bd e5 9f 6a bd 1b ca a7 3c 6a d5 35 3e
       -0.059536994 -0.057281394 0.020482114 0.17757192
000200 53 3b 14 be 9f 64 6f 3e e3 64 d9 3d d5 80 4a 3e
       -0.14475755 0.23378228 0.10614946 0.19775708
000210 df 52 48 3e 7d e6 61 3d 6a 2c fe 3d ba c2 24 3e
       0.19562863 0.05515145 0.12410815 0.16089907
000220 db 2f 45 3e 4a 87 3e be f8 88 0a 3e ce 4a 14 be
       0.19256537 -0.18606296 0.13528812 -0.1448166
000230 88 ae 18 bc 04 5b c5 3d 0f c1 5d 3d e4 bd 5e be
       -0.009318955 0.096365005 0.054139193 -0.21752125
000240 a1 94 f9 bc 80 15 27 3c 44 f7 14 bd a9 b9 25 be
       -0.03046638 0.010197997 -0.036368623 -0.16184105
000250 3e b2 cf 3d 75 f0 1c be 25 da c9 bd 31 90 05 bd
       0.10141419 -0.15326102 -0.09856061 -0.032608215
000260 10 56 4f be fd 89 87 bd 90 55 11 be b8 4d 79 be
       -0.20247674 -0.06618116 -0.14192796 -0.24346054
000270 57 4e c0 3c 0b 84 9c 3d e2 b7 98 3b c7 65 71 3e
       0.023474855 0.07642373 0.0046605924 0.23573981
000280 5a 10 6f be ab 92 1e bc aa c7 57 be 0f 64 fe 3d
       -0.23346081 -0.009678523 -0.2107226 0.124214284
000290 9a c6 2c be 4d 76 d6 3d 30 f5 22 3e 82 ba 95 3d
       -0.16872635 0.10471783 0.15913844 0.07310964
0002a0 02 92 67 be c2 13 31 3d 83 ef d4 3d b1 85 83 3d
       -0.22614291 0.043231733 0.10397246 0.06421984
0002b0 01 09 39 be bb 96 89 3d 50 8e 5d be 8b 1b 20 3e
       -0.18069841 0.06718203 -0.21636319 0.15635507
0002c0 5f 0a 38 be 94 bf 48 bd 49 47 e3 bd 25 31 1f 3d
       -0.17972706 -0.04901083 -0.11097581 0.038865227
0002d0 69 22 23 3d 57 a8 41 3e 87 32 51 be 6d af 58 3d
       0.039827738 0.18911873 -0.20429431 0.052901674
0002e0 87 c6 4d 3d 3f 09 33 be 83 04 67 be 30 65 f6 3d
       0.05023816 -0.17483996 -0.22560315 0.12031019
0002f0 6e ae 4a 3e 1c 5f 86 3d 25 8b 54 3e 5c 7b 48 bd
       0.19793102 0.065611094 0.20756204 -0.04894577
000300 d8 a5 39 3e 60 e3 65 be a1 e2 c7 bd 2c 66 5e be
       0.1812967 -0.22450018 -0.09760023 -0.21718663
000310 d2 c8 37 be 0a 8b 27 be c8 d5 37 3e ad 7f 54 be
       -0.179477 -0.16361633 0.17952645 -0.2075183
000320 bd d3 31 3e e5 06 37 3e 64 44 77 3e 64 a3 7c 3d
       0.17365928 0.17873724 0.24147183 0.06167926
000330 3b f2 81 be 2d 0d 72 be e9 9e 0f bd 7e ee 18 be
       -0.2538012 -0.23637839 -0.035063658 -0.14934728
000340 51 bb 86 3e ed e6 65 3e 32 22 bc bd b0 be e6 3c
       0.26314786 0.22451372 -0.0918621 0.028167099
000350 c8 f7 22 be 9a 5e 48 3e 54 b7 13 be 14 2b 43 bd
       -0.15914834 0.19567338 -0.14425403 -0.047648504
000360 4f 25 7a 3d e5 65 f8 bd c4 6a 13 bd 69 9e d3 3d
       0.061070736 -0.1212881 -0.03599049 0.10332949
000370 b4 08 e2 bc 9f 16 78 be f5 c7 cb 3d 0f 44 e5 3d
       -0.02759204 -0.2422738 0.09950248 0.11194622
000380 c3 9e 80 3d 73 4e 9e 3d f4 04 7b 3e 68 1b 08 be
       0.062802814 0.07729807 0.24513608 -0.13291705
000390 3a f8 eb bd bd 6d 8a bc 71 ef 7d 3d 4d 1d 94 3d
       -0.11521955 -0.01689803 0.061995927 0.07232151
0003a0 8c f7 1e 3e d5 a0 0f be 3c 9a 2d 3e 29 36 30 3d
       0.15524119 -0.14026196 0.16953367 0.0430204
0003b0 e4 35 73 3e 36 bb 08 be 44 04 36 3e 45 01 2f 3e
       0.23751026 -0.13352665 0.17775065 0.17090328
0003c0 de e9 9d 3d 68 60 25 3d a3 e7 1f be 1d 38 0f 3e
       0.07710622 0.040375143 -0.15615706 0.1398625
0003d0 e2 a5 7b bd 51 5f 47 bd af 1f 3d 3d 57 b8 67 3e
       -0.061437495 -0.048674885 0.046172794 0.22628914
0003e0 7f 91 3c 3e 1c a7 8a bd 6f 28 02 3e 90 87 87 3c
       0.18414877 -0.06770155 0.12710737 0.016544133
0003f0 c6 a2 38 3e f8 22 a3 3d 8b 1c 44 be 56 c1 3e 3c
       0.18030843 0.07965654 -0.19151513 0.011642775

gnn.batch_norms.0.weight f4 [50]
000000 0a ff 82 3f 2b a0 7e 3f 2f 89 7e 3f 09 3a 7d 3f
       1.0234082 0.99463147 0.99428076 0.9891668
000010 07 da 80 3f 60 f4 7b 3f a2 15 80 3f 80 f6 7c 3f
       1.0066537 0.9841976 1.0006602 0.9881363
000020 05 2c 84 3f 9b ab 7d 3f 5d 31 83 3f 4c 61 80 3f
       1.0325934 0.99089974 1.024944 1.0029693
000030 a6 40 84 3f 95 fc 80 3f 4a fe 80 3f d4 8c 7c 3f
       1.0332229 1.0077082 1.0077603 0.98652387
000040 38 00 81 3f d4 ad 7d 3f 24 c5 7a 3f 79 2b 82 3f
       1.0078192 0.99093366 0.9795706 1.0169517
000050 9d b0 7f 3f 43 af 80 3f 91 49 80 3f 68 cb 83 3f
       0.99878865 1.0053486 1.0022451 1.029645
000060 c4 73 7c 3f 9d 41 7d 3f 2a 18 82 3f b1 79 7a 3f
       0.98614144 0.9892824 1.0163624 0.97841936
000070 fb 05 7d 3f 02 c4 78 3f 95 a9 7b 3f 16 ea 80 3f
       0.9883725 0.97174084 0.98305637 1.0071437
000080 7e 10 81 3f 6b 46 7e 3f 7f 96 7d 3f 61 72 7a 3f
       1.0083158 0.993262 0.99057764 0.9783078
000090 70 71 82 3f e4 64 7f 3f 9a b3 7d 3f 41 9d 7b 3f
       1.0190868 0.9976332 0.99102175 0.98286825
0000a0 63 09 7c 3f 36 8a 7e 3f 89 1b 7c 3f 23 38 7e 3f
       0.98451823 0.99429643 0.98479515 0.9930441
0000b0 2d 7f 7b 3f 59 d5 7c 3f 25 50 7c 3f 61 f2 82 3f
       0.9824093 0.9876304 0.9855979 1.0230218
0000c0 b6 06 81 3f 54 09 80 3f
       1.0080173 1.0002847

gnn.batch_norms.0.bias f4 [50]
000000 df c3 56 ba ee 7d 62 3a 71 e4 bb bc 2c a2 a3 bb
       -0.0008192639 0.0008639981 -0.022936078 -0.0049936976
000010 cc 0a 5b bc da 36 d5 bc 6d d3 22 3c 27 eb 53 bb
       -0.013369273 -0.026027132 0.009938103 -0.0032336207
000020 ee ae 97 3c fc 1c 30 bc 04 2f cd bc 6b 29 06 3c
       0.01851603 -0.010749098 -0.025046833 0.008188586
000030 66 8e 26 3b 82 ab 02 bc 98 30 ed bb 44 87 b0 bc
       0.0025414466 -0.007975461 -0.007238459 -0.021548875
000040 ee 77 2e 3c 25 28 58 bb 2b 77 3f 3a 17 9f 70 b9
       0.010648711 -0.0032982912 0.0007303829 -0.00022947449
000050 39 1e a6 3b fd 89 b5 3b ce db f9 3a 0d 8d 4a 3c
       0.005069521 0.005540131 0.0019062699 0.012362731
000060 fa 3a 0c bb 91 7d 25 3c e8 6f 72 3c 29 68 87 bc
       -0.0021397457 0.010100738 0.014797188 -0.01652916
000070 bf 2d a0 bc 7f 5e 54 bc cf ff 68 bc de 35 1a bc
       -0.019553063 -0.012961983 -0.014221146 -0.009412257
000080 f1 5f 8e 3b ae a6 16 bd 33 f0 fb 3b 47 b3 b0 bc
       0.004344933 -0.036780052 0.007688546 -0.021569861
000090 7d ac 60 bc 67 a3 9b ba 77 fc 5f bc ce 42 ce bb
       -0.013712999 -0.0011874259 -0.013671032 -0.006294585
0000a0 88 fe 59 bc d9 dd c6 3b 87 d4 a1 3a d8 70 8b bc
       -0.013305314 0.006068927 0.0012346663 -0.017021582
0000b0 68 20 5b bc bb 01 80 bc 64 a9 0a bd e2 18 ec bb
       -0.0133744255 -0.015625825 -0.03385295 -0.0072051147
0000c0 68 41 0b 3c cb 5e 3a 3c
       0.008499481 0.0113751395

gnn.batch_norms.0.running_mean f4 [50]
000000 2b 17 3c bd db b9 6c 3c f2 76 a6 3d d3 df 17 3d
       -0.045920532 0.014448608 0.08128156 0.03707869
000010 c5 d4 b6 3a 4c 3c 93 3d fc b7 4c 3d dc ac c2 3c
       0.0013948908 0.07189235 0.04998015 0.023764066
000020 0a c7 1c bd c6 3b 5e 3d 8a 35 15 bc fc 9d 5f bd
       -0.038275756 0.054256223 -0.009107003 -0.054594025
000030 78 d7 69 bb f1 ba ac bc 7e 62 14 3d 00 88 57 3d
       -0.0035681408 -0.021085234 0.036226742 0.052619934
000040 89 da 65 3d e6 b0 d3 3d 5c 10 ff 3c f8 ff a5 bc
       0.056116614 0.10336475 0.03113573 -0.020263657
000050 d8 b5 0d bd ed 27 aa 3c 11 83 c2 bc c4 e2 71 3c
       -0.034597248 0.020770991 -0.023744138 0.014763538
000060 9d ad 16 3d d6 4d 9e 3c 67 e5 99 bc 52 d6 38 bd
       0.036786664 0.019324224 -0.018786145 -0.045126267
000070 c4 ec 6f 3d b3 00 ab 3c 8e 10 98 3d d4 b2 84 3c
       0.058575407 0.020874357 0.074250326 0.016198553
000080 60 10 fc 3c 6d 2b 82 bc 48 53 26 bd 46 41 f9 bc
       0.030769527 -0.015889848 -0.040606767 -0.030426633
000090 0d 1f ba bc 64 bb 68 bc 0b c6 c3 3d 80 5b 85 bd
       -0.022719884 -0.014204834 0.09559258 -0.06511593
0000a0 6c 17 cf 3c a4 53 af 3d 28 34 8b 3d 59 63 98 3d
       0.025279723 0.08560875 0.067970574 0.07440824
0000b0 c2 13 36 bc 2b 96 aa bc 1d a7 8b 3d f1 aa f6 bb
       -0.011113109 -0.020823559 0.06818984 -0.007527702
0000c0 38 12 22 3d 82 a8 87 3a
       0.039568156 0.0010349902

gnn.batch_norms.0.running_var f4 [50]
000000 51 66 c1 38 96 2d e0 37 e4 98 32 39 4f f6 7f 38
       9.222015e-05 2.6724108e-05 0.00017032359 6.102613e-05
000010 aa ec df 37 da 48 03 39 4e d0 c8 38 d3 0d 8f 38
       2.6693877e-05 0.00012520273 9.575543e-05 6.821346e-05
000020 43 bc d7 38 6d f5 b6 38 58 a9 68 37 e9 77 87 38
       0.000102870654 8.7241504e-05 1.3867706e-05 6.459637e-05
000030 60 c1 01 38 a4 4c 5a 38 09 f7 e8 38 a6 9e 02 39
       3.093609e-05 5.2046627e-05 0.00011108636 0.00012456867
000040 7c a7 b7 38 a9 4f 8b 39 0a d4 1a 38 fd b7 09 38
       8.7573164e-05 0.00026571497 3.6913938e-05 3.2834698e-05
000050 7f 87 4b 38 59 6d 83 38 0e c0 d7 37 86 bf 00 38
       4.8525162e-05 6.266934e-05 2.571943e-05 3.069595e-05
000060 99 f8 af 38 e0 35 af 37 17 a9 8e 37 d9 c0 65 38
       8.390955e-05 2.0886713e-05 1.7006458e-05 5.4777458e-05
000070 41 51 da 38 18 59 00 38 54 74 33 39 a3 5f ff 37
       0.00010410185 3.0600553e-05 0.00017114106 3.0442903e-05
000080 fc 8e d1 37 f5 60 f2 37 ec 41 86 38 fa be f2 37
       2.4981324e-05 2.8893797e-05 6.401897e-05 2.8937578e-05
000090 5b 47 9f 38 97 24 72 37 5c b4 8b 39 ad 26 b5 38
       7.595002e-05 1.4432843e-05 0.00026646524 8.6379565e-05
0000a0 49 2b 93 38 6a 26 82 39 ba 93 48 39 7e 69 55 39
       7.017569e-05 0.00024824153 0.00019128519 0.00020352562
0000b0 7e 8a 8f 37 6a 42 d7 37 4a 8f db 38 1f f3 21 38
       1.7111419e-05 2.5660924e-05 0.000104694234 3.8611815e-05
0000c0 4e c1 cf 38 b9 2d 16 37
       9.906535e-05 8.951342e-06

gnn.batch_norms.1.weight f4 [50]
000000 be f0 7e 3f 06 a8 80 3f f2 56 83 3f 80 19 7f 3f
       0.99586093 1.0051277 1.0260909 0.99648285
000010 d4 5a 80 3f 6d 55 82 3f f0 0e 81 3f 20 d3 7e 3f
       1.0027719 1.018232 1.0082684 0.995409
000020 05 50 85 3f 31 6d 82 3f a3 43 84 3f b3 63 81 3f
       1.0415045 1.0189573 1.0333141 1.0108551
000030 0a 7e 87 3f 82 fa 7b 3f 3e b4 82 3f 1d c3 80 3f
       1.0585339 0.9842912 1.0211256 1.0059544
000040 67 e1 78 3f 78 d9 79 3f 43 1d 81 3f de 38 81 3f
       0.97218937 0.97597456 1.0087055 1.009548
000050 da 30 78 3f fd 18 7c 3f eb 73 7c 3f 73 1d 7d 3f
       0.9694954 0.9847563 0.98614377 0.9887306
000060 42 c5 82 3f 18 0f 7e 3f e2 85 78 3f ad da 83 3f
       1.0216448 0.9924178 0.9707929 1.030111
000070 31 73 80 3f 49 f2 7f 3f 26 81 80 3f 5a 7c 86 3f
       1.0035154 0.9997907 1.0039413 1.0506699
000080 a0 0f 84 3f 25 5c 81 3f dc 32 80 3f c7 0c 82 3f
       1.0317268 1.0106245 1.0015521 1.0160149
000090 d3 27 83 3f 76 e3 82 3f 4f ba 7d 3f 97 cd 7c 3f
       1.0246528 1.0225666 0.9911241 0.98751205
0000a0 6e 37 80 3f d3 50 7a 3f 1f 84 80 3f 91 1b 7a 3f
       1.0016916 0.9777958 1.004032 0.97698313
0000b0 f4 a1 82 3f 18 1d 7f 3f 1f 02 83 3f 46 1a 80 3f
       1.0205674 0.9965377 1.0235022 1.0008018
0000c0 02 f4 7f 3f 05 91 80 3f
       0.999817 1.0044256

gnn.batch_norms.1.bias f4 [50]
000000 78 8f 7a 3c 5d ea 00 bb 4a 76 29 bc ca 14 77 bc
       0.015292995 -0.0019670941 -0.010343144 -0.01508064
000010 fa 98 4d 3c 25 01 44 bb f8 2c 13 3b e6 5c f3 3a
       0.0125486795 -0.0029907909 0.0022457223 0.0018567115
000020 d5 56 6d 3b 22 30 b0 3c 2d 6b b0 bc 01 2b 4f 3c
       0.0036215086 0.021507327 -0.02153548 0.01264453
000030 06 8f 50 3b ff 54 7b bc 39 75 8b 3b 5e b2 67 3c
       0.003182353 -0.015340089 0.0042559174 0.014141647
000040 4e 78 f6 bc 7b ca 8f bc 2c 26 95 3c 46 e0 b7 3b
       -0.030086663 -0.017552605 0.018206678 0.0056114523
000050 54 04 fe bc 73 fb f2 bb 7e 2c 6c 3c 6e 61 4f bc
       -0.031007923 -0.007415229 0.014414905 -0.012657506
000060 51 66 9b bc 8e f7 1b 3b b5 6c 87 bc 0d 2b 91 3c
       -0.018969687 0.0023798677 -0.016531328 0.017720724
000070 6d be 1b 3c 53 44 0c bb e7 28 8f ba 5c dc 53 bb
       0.00950585 -0.002140303 -0.0010922224 -0.003232739
000080 d2 83 ce 3c 86 50 b4 ba a1 61 2a bc ad ab a0 3c
       0.025209341 -0.0013756908 -0.010399253 0.019613111
000090 ca 4c b4 3b f7 ac e3 3c bd 44 d0 bc d0 71 9a 3b
       0.005502318 0.027792437 -0.025423402 0.0047132745
0000a0 ca a3 a3 3a 4a dc 87 bc 96 82 5f 3c bd 93 8d bc
       0.0012484726 -0.016584534 0.013641974 -0.017282361
0000b0 ee cc 6b 3c fb 26 ba 3b 79 9b 77 3a 6b 21 81 bc
       0.014392121 0.0056809164 0.00094454695 -0.015763005
0000c0 5e 22 06 bc 6d 06 98 bc
       -0.008186905 -0.018557752

gnn.batch_norms.1.running_mean f4 [50]
000000 ce be 64 bf 29 9f 19 bb 87 c8 bf 3e e1 ed 2c bf
       -0.89353645 -0.0023440814 0.37457678 -0.67550474
000010 b8 4e 12 be f4 71 bc 3e fe da 3a bd 64 12 8a bf
       -0.14287841 0.3680569 -0.045619003 -1.0786862
000020 73 25 31 be 83 59 05 bf 14 57 fa 3e 66 d0 28 3e
       -0.17299442 -0.5208971 0.4889456 0.16485748
000030 a6 a1 fc 3e 2a 7e ec bd cd b3 31 bd a3 07 80 3e
       0.49342078 -0.115475014 -0.043384362 0.25005826
000040 bd 82 42 3e fa 38 ea 3e 75 f4 2e be 9b 66 ae 3e
       0.18995185 0.45746595 -0.1708544 0.34062657
000050 6e e4 35 3f 82 7a 08 3f e1 78 28 bd e4 65 af be
       0.7105168 0.5331193 -0.041130904 -0.34257424
000060 5d 6b 03 3f 5a b7 af be 90 58 81 3e c3 16 94 be
       0.513357 -0.34319574 0.2526288 -0.28923616
000070 c0 d3 14 bf 10 f0 c7 be 74 6c e5 be 12 b9 01 3e
       -0.58135605 -0.3905034 -0.44809306 0.12668255
000080 1b 96 d1 be 84 52 16 3e dd c3 1b 3d 0d 88 1a 3f
       -0.40934834 0.14679915 0.038028587 0.60363847
000090 3f 2b ea 3e 18 9e dd bb 70 bb 98 3e da a2 84 bd
       0.4573612 -0.006763231 0.29830503 -0.06476374
0000a0 8c 7e 00 bf c5 e2 45 be 29 e9 0d bf f1 87 63 3c
       -0.50193095 -0.19324787 -0.554339 0.013887391
0000b0 75 99 a1 be 0f 56 a9 3d bf c5 ec be 4d d6 0d 3f
       -0.3156239 0.082683675 -0.46244618 0.5540512
0000c0 79 9f 0f 3e 97 96 ee 3e
       0.14025678 0.46599266

gnn.batch_norms.1.running_var f4 [50]
000000 35 d7 12 3e a7 65 af 3d c8 58 09 3e fe cd 9f 3e
       0.14339907 0.085643105 0.13412774 0.31211847
000010 54 17 a8 3d 88 13 b8 3d 98 e7 f3 3d 36 31 51 3e
       0.082075745 0.089881 0.119094074 0.20428929
000020 ee 77 e0 3d b0 d9 89 3d 71 6e 03 3e 8c a6 d6 3d
       0.10960375 0.06730974 0.12835099 0.10480985
000030 ba f0 1e 3e 19 0a f2 3d 87 9b b1 3d 96 53 08 3e
       0.15521517 0.11818332 0.086722426 0.13313136
000040 82 cc 06 3e 54 b2 84 3e 08 1d 6c 3d 4c e6 89 3e
       0.13163951 0.25917304 0.057644874 0.26933515
000050 2b c3 aa 3e 8d 2e 26 3e 3e 45 8d 3e eb 13 16 3e
       0.33352026 0.16228695 0.2759189 0.14656036
000060 d1 1b 10 3e 80 c1 94 3d 51 6a a4 3d 78 df a0 3d
       0.14073111 0.0726347 0.08028091 0.07855123
000070 ac 6a 98 3e a5 51 c3 3d 65 81 18 3e 74 38 18 3e
       0.29768884 0.09537057 0.1489311 0.14865285
000080 64 a2 dc 3d 08 a7 05 3e 90 b4 15 3e 8d ca f7 3e
       0.10773161 0.13051999 0.1461966 0.4839672
000090 09 16 4a 3e bd 0a cf 3d 69 7a 45 3e 05 a5 23 3e
       0.19734968 0.1010947 0.19284977 0.15980919
0000a0 37 52 fe 3d aa 8a 40 3f ad 20 64 3e e4 bb 7c 3e
       0.12418025 0.75211585 0.2227809 0.2468105
0000b0 a7 6f ab 3d d1 6e 3a 3e 8d 3b 1e 3e 6a 99 2e 3e
       0.08370905 0.18206336 0.15452404 0.1705071
0000c0 44 81 58 3e 8d 54 00 3e
       0.21143061 0.12532254

gnn.batch_norms.2.weight f4 [50]
000000 7b 52 72 3f c1 4c 6e 3f d5 e2 73 3f 26 67 70 3f
       0.94657105 0.9308587 0.95267993 0.9390739
000010 b5 d7 6e 3f f4 17 70 3f 97 bc 6f 3f e5 33 73 3f
       0.9329789 0.9378655 0.9364714 0.9500106
000020 57 ae 72 3f c5 03 72 3f d8 c4 71 3f 56 5d 70 3f
       0.9479727 0.94537 0.94440985 0.9389242
000030 1e a3 6f 3f 37 0c 70 3f 15 9f 73 3f d8 cc 6e 3f
       0.9360827 0.9376864 0.95164615 0.93281317
000040 67 c7 75 3f 3c af 6e 3f b3 7b 71 3f af 0b 6f 3f
       0.9600739 0.93236136 0.94329375 0.933772
000050 0d 80 6e 3f 7c 0b 70 3f 08 63 71 3f ef a3 72 3f
       0.9316414 0.93767524 0.94291735 0.9478139
000060 49 ab 6e 3f f6 b1 6e 3f 07 4b 71 3f 23 6b 72 3f
       0.9323011 0.93240297 0.9425511 0.9469473
000070 55 60 6f 3f 43 27 70 3f af b6 6e 3f ab 05 72 3f
       0.93506366 0.9380991 0.93247503 0.945399
000080 53 e4 72 3f ef 6f 71 3f 42 2f 71 3f eb 45 70 3f
       0.94879645 0.9431142 0.94212735 0.93856686
000090 ea 51 71 3f 95 51 71 3f 2c fc 6e 3f 1e 44 72 3f
       0.94265616 0.9426511 0.93353534 0.9463519
0000a0 72 e7 70 3f 93 dd 70 3f 27 fc 73 3f 80 15 6e 3f
       0.9410316 0.94088095 0.9530663 0.93001556
0000b0 a5 ba 6f 3f 9a 92 71 3f eb b9 73 3f fb d6 71 3f
       0.9364417 0.9436432 0.95205563 0.9446866
0000c0 7a 78 72 3f a6 9a 6d 3f
       0.9471508 0.928141

gnn.batch_norms.2.bias f4 [50]
000000 b0 63 31 3a a8 6d b6 39 55 d4 9d 39 62 43 8b b9
       0.0006766869 0.00034795445 0.00030103573 -0.0002656235
000010 82 f3 f4 b9 54 cb d0 38 90 09 e0 39 aa 49 b2 b9
       -0.00046720734 9.956086e-05 0.00042731734 -0.0003400569
000020 99 33 8c 38 ea 94 b4 b9 25 f5 b7 b8 32 88 5b 39
       6.685331e-05 -0.00034443225 -8.771782e-05 0.00020936204
000030 4c 5b 2b 3a 58 13 4d 39 a1 7e b9 39 d4 ec e4 39
       0.00065367366 0.0001955753 0.00035380296 0.00043664
000040 f8 d8 42 39 df c1 cb 38 ef bc 57 ba 0a bf e8 b7
       0.00018582109 9.7159056e-05 -0.00082297524 -2.7745515e-05
000050 d7 cb 4d ba 7e e6 a6 b8 10 ea 9f 3a 71 87 d9 b7
       -0.0007850504 -7.958429e-05 0.0012200493 -2.5931486e-05
000060 bc f2 9e 39 e8 4c 9e b9 09 6c 85 39 ce e2 0e b9
       0.0003031696 -0.00030193408 0.0002544823 -0.00013626667
000070 2a 54 e0 b8 23 ba b7 38 04 b3 b3 3a 8f ef 7b 3a
       -0.00010696829 8.760791e-05 0.0013709967 0.0009610587
000080 09 3a ea 39 81 43 4d 3a ae 4c 84 ba be 7d eb 39
       0.00044675198 0.0007830188 -0.0010093653 0.00044916378
000090 62 fa 7b b9 4e 2d e4 39 e8 8d 8c 38 e1 f6 c1 37
       -0.000240305 0.00043521303 6.702152e-05 2.3122355e-05
0000a0 84 cd 4c ba 3d 40 96 b9 61 9b 32 ba f3 c7 7e b8
       -0.00078126066 -0.0002865809 -0.00068133144 -6.0744536e-05
0000b0 9a 82 2f 3a 7f 6f 37 b9 c8 09 e2 b9 98 51 73 38
       0.00066951814 -0.00017493776 -0.00043113367 5.8011705e-05
0000c0 39 54 ac b8 51 2a 3d 39
       -8.217287e-05 0.00018040209

gnn.batch_norms.2.running_mean f4 [50]
000000 b6 bb 72 bf 8b 10 d2 be cc 87 18 be c4 7e 8b bf
       -0.94817674 -0.41028246 -0.14895552 -1.0898061
000010 09 5e 92 3f 64 5f 50 bf fd f4 28 bc a8 88 2e be
       1.1434947 -0.81395555 -0.010312316 -0.17044318
000020 55 64 19 bf 22 34 20 3f aa c7 2f 3f 30 8f 63 be
       -0.5991872 0.6257955 0.6866404 -0.2222259
000030 05 13 15 bf 3e 6b eb 3e a6 6c a2 3d 9f b3 49 3f
       -0.58232147 0.45980257 0.07930879 0.78789705
000040 d1 93 d7 3e aa 7b bf 3d 0c ba 20 bf 30 3d 53 3f
       0.42104962 0.09349759 -0.62783885 0.8251524
000050 fe 77 0c bd 74 6a 3f 3f ea bc 7d bf ed 65 06 bf
       -0.03429412 0.7477181 -0.99116385 -0.52499276
000060 73 94 3d 3f dc 69 6e bf 41 2a be be 03 21 fe be
       0.7405464 -0.9313028 -0.37141612 -0.4963456
000070 7e 5d 1f 3f ee ce 00 bf c2 5d 23 be 94 b1 e4 3e
       0.6225203 -0.5031575 -0.15953735 0.4466673
000080 4b 32 4e bd 07 06 87 3e 0c fc 8f 3f 98 64 7b bf
       -0.05034093 0.26371786 1.1248794 -0.9820037
000090 a1 53 54 bf 8d af 9a bf 8a fc 9f 3f b2 9c 14 3f
       -0.8294011 -1.2084824 1.2498944 0.580516
0000a0 0a 3b f2 3e e4 f3 4d 3d cf c2 15 3d bb bf 81 bf
       0.47310668 0.05028142 0.036562737 -1.0136636
0000b0 16 ff a0 be 8c 40 8a bf cf 6e 4e 3e e3 29 0e be
       -0.31444615 -1.0800948 0.20159458 -0.13883166
0000c0 6c 30 7e 3e b2 01 ce be
       0.24823159 -0.40235668

gnn.batch_norms.2.running_var f4 [50]
000000 00 43 b6 3e 60 88 fb 3e 46 ed 13 3f 85 8a b8 3f
       0.35597992 0.49127483 0.57783926 1.4417273
000010 2e 3f b8 3f 98 83 40 3f 7b 88 a1 3e ea b2 7f 3e
       1.4394281 0.75200796 0.3154944 0.24970594
000020 50 a7 05 3f 61 e3 87 3e 48 0b 6e 3f ed b1 7f 3e
       0.52208424 0.26540664 0.92985964 0.24970217
000030 ad 36 1a 3f 04 c4 1b 3f c7 a8 7a 3e 95 66 ae 3f
       0.6023968 0.6084597 0.24478446 1.3625056
000040 e9 32 f8 3e f9 3f 5d 3f da 3a 79 3e a8 e3 84 3f
       0.4847634 0.8642574 0.24338856 1.0381975
000050 26 21 b7 3e 01 01 f4 3e 5f a3 bc 3e 34 ad 6c 3f
       0.35767478 0.47657016 0.36843392 0.92451787
000060 38 50 00 3f d1 7f 12 3f 99 b1 5f 3f e2 a5 04 3f
       0.50122404 0.5722628 0.8738037 0.5181562
000070 ae 84 38 3f f9 b7 f5 3e a4 59 7c 3e 41 1f e7 3f
       0.72077453 0.47991922 0.2464357 1.8056413
000080 2a 40 92 3f 6a b0 35 3f 8a 90 3e 3f 2e c3 1d 3f
       1.1425831 0.7097231 0.744393 0.61625946
000090 f7 3b 4d 3f a4 cc 18 3f 7b 13 58 3f 42 e7 2c 3f
       0.80169624 0.59687257 0.84404725 0.6754037
0000a0 65 80 fe 3e e9 f4 f6 3e ad 46 a4 3e 68 73 b5 3f
       0.49707332 0.48233727 0.3208517 1.4175844
0000b0 c4 a2 51 3f cb 0e 64 3f 8b a8 94 3e e6 69 90 3e
       0.81888986 0.8908507 0.29034838 0.28205794
0000c0 28 1b a7 3f b8 4c 13 3f
       1.3055162 0.5753894
