src/checkpoints/kitti_only_backup/checkpoint_epoch_30.pth (torch, 134175 bytes, 60 tensors)

gnn.convs.0.att_src f4 [1, 1, 50]
00000000: 821a a7bc b87b ddbe 8ccd 00bd c914 b0be
00000010: 6791 303e 9678 b4be d2b2 df3d 3274 d03d
00000020: b3ad 88be 363b 7ebd 4717 6bbe 9d1c aabc
00000030: 0a6a 33be aa99 773d ff7a fc3c 4f7c 1c3e
00000040: c25b e73d edec 013e 3574 ad3e 157d 7c3e
00000050: e575 75be 56bf e43c e537 7ebe 5f68 283e
00000060: 3a4b 3e3e 47e0 793e 8bb8 37be 8885 373d
00000070: 6860 aa3d f8e0 26be 3f9b a9be 67e5 7ebe
00000080: 7b36 dabd a283 af3d 158d 693c 9df7 fcbd
00000090: 25de ebbd e9ba 47be 3e93 07bf 59db 64be
000000a0: 6cd1 f13d 9da2 a53e 3a01 c6be 49c2 21be
000000b0: fafe 513e 43a0 df3d 1dc9 283e 5701 d83e
000000c0: 9dfa 91bd f08e e6bd
-0.020398382 -0.43258452 -0.031446025 -0.34390858 0.17242967 -0.3524825 0.10922779 0.101784125
-0.26695022 -0.062068187 -0.22958098 -0.020765597 -0.1752092 0.06044928 0.030820368 0.15281795
0.11296798 0.12688036 0.3387772 0.2465709 -0.23970754 0.027923267 -0.2482601 0.16446064
0.18583384 0.24401961 -0.17941491 0.04480508 0.08319169 -0.16296756 -0.33126256 -0.24892198
-0.106549226 0.08570029 0.014254828 -0.12351916 -0.1151698 -0.19504894 -0.5295905 -0.223493
0.11807522 0.32350627 -0.3867281 -0.1579677 0.20507422 0.10919239 0.16482969 0.42188522
-0.07127879 -0.11257732

gnn.convs.0.att_dst f4 [1, 1, 50]
00000000: 7dfe 0d3d 0b63 00be 96bd f33d 6f0d 7d3e
00000010: 4245 b1bd fb75 52be 159e 293d 267e 933e
00000020: ac46 9a3d 0d17 16be 03a4 29be 797e 0ebe
00000030: 993b 07be 013d 8c3d e1b5 733e 3673 ffbd
00000040: 3b3c 883e b5d5 963e 13c5 4a3d ab29 67be
00000050: 7b99 44be 740d 063d 39eb 9a3d 6b23 f83c
00000060: 2ff6 063e e13e 8f3e 802e ba3c 02d4 8b3e
00000070: c75c b33d 3e6b 303d 7d35 793e 2937 d13d
00000080: ffb8 863e 5044 063e 5426 483c d3dc 1dbe
00000090: da22 33be 6f16 0ebd 501c 573e df06 44bd
000000a0: 4188 21bd b636 463e 285b 4dbe 35de 423d
000000b0: 147e 903c 217b 92bd fcbf cc3d fda7 46be
000000c0: b3c1 383e 923a c73d
0.034666527 -0.12537782 0.11901395 0.24712156 -0.08655788 -0.20552818 0.041410524 0.2880718
0.07533011 -0.1465723 -0.16566472 -0.13915433 -0.13206328 0.06847573 0.2379985 -0.124731466
0.26608452 0.2945992 0.04950435 -0.22574489 -0.19199173 0.032727674 0.075643964 0.030290326
0.13179849 0.2797766 0.022727251 0.27310187 0.0875793 0.043071024 0.2433681 0.10215599
0.26313016 0.13111997 0.012216169 -0.15416269 -0.17493764 -0.034689363 0.21006894 -0.047858115
-0.039436582 0.19356808 -0.20054305 0.047575194 0.017638244 -0.07152391 0.099975556 -0.1940002
0.1804264 0.09727968

gnn.convs.0.bias f4 [50]
00000000: 86db de39 02f5 043b 3312 9fba 3807 a63a
00000010: 0556 0dbb e3ba 7638 f689 243a f289 99ba
00000020: a364 05b9 5340 8d3a 6018 c93a 6a80 b939
00000030: de19 66b9 251e 40b9 15c0 363a db39 cdba
00000040: fa4a 433b 626a 1e3a e022 9b3a 1f7c 1539
00000050: 403b 9939 f9f9 39bb 71ef 8cba d8ba bdba
00000060: 4068 813b dc58 71b8 0ead 3b3b 2c80 d8ba
00000070: 2f2c 02ba e8b2 a73a d5e7 6cb9 5efc 723b
00000080: 1a25 2239 8ea1 903a 158e deba 0047 2c39
00000090: 6e12 1cb8 2dbb 1abb 0b0e c5ba ec60 1c3b
000000a0: 6e06 f0ba 7944 a0b5 1a88 00ba a540 15bb
000000b0: 318c 52bb ec4c bf3a a79e f639 0b5c 933a
000000c0: f9ef 92b8 9e98 2dbb
0.00042506697 0.0020287638 -0.0012136161 0.0012666946 -0.0021566164 5.8825022e-05 0.00062766613 -0.0011714085
-0.00012721359 0.0010776616 0.0015342347 0.00035381626 -0.00021944146 -0.00018321777 0.00069713715 -0.0015657501
0.0029799328 0.0006043074 0.0011835955 0.00014255986 0.0002922658 -0.0028377755 -0.0010752511 -0.001447524
0.003949195 -5.7541634e-05 0.0028637084 -0.001651769 -0.00049656903 0.0012794407 -0.00022593078 0.0037076692
0.00015463345 0.0011034475 -0.00169796 0.00016429648 -3.7210462e-05 -0.00236101 -0.0015034092 0.002386148
-0.0018312463 -1.1940857e-06 -0.0004903093 -0.0022774127 -0.0032127018 0.0014595068 0.00047038982 0.0011242641
-7.006521e-05 -0.0026488672

gnn.convs.0.lin.weight f4 [50, 50]
00000000: 1fb9 2bbe 970c 1d3e fabc 8abd 7eab 15be
00000010: 4c0c 173e 6fca d63c f81d f4bc b13c 633e
00000020: 6ed1 b43e 4cc1 6dbd f55d 283e f881 983d
00000030: b46b d03d 09e2 3bbe afd0 5e3e 6af2 1c3e
00000040: 0852 273e 6ee0 c5bd 99ca e8bd fd3f 293e
00000050: 6cb9 003e 2765 c53d 31d8 993e 2b5a 03bc
00000060: da5f fbbd 3dc9 7e3e b46f be3d b78c 33bd
00000070: 22c0 4e3e 4aef 823e 5926 903e 719c 80bc
00000080: aacd 373e b65e f4bc fd48 8bbd ece9 ff3d
00000090: cd3e debc 9245 d5bd 9f87 643e 9c98 e0bc
000000a0: 501b 7e3d 45ac c73c 7975 623e c4cb 1fbc
000000b0: 4fe5 0cbe 8fae fe3d 2ddd 7e3e f301 243e
000000c0: becc 50bd d2a7 b03e 2fe5 81bd 4222 0a3e
000000d0: 918d d93d 0b20 8d3e 027d df3c bd7a 9abe
000000e0: 7922 8c3d 3a4f 6c3e f766 0bbe f937 50be
000000f0: 91e8 34be 97e3 0fbd b94d fe3b b2e8 1d3e
00000100: 51fb 64be 970c d53c 2dc4 1d3d 8ce8 b43d
00000110: 808d 053d 051a cd3d 2fd5 2cbe 2c08 383e
00000120: a945 43be 4890 7bbe 5a87 683e 52b8 3dbe
00000130: b906 d23d c5e0 6b3d d2ce 803d dcb4 703e
00000140: 1f70 94bd 86fb 3a3d b7b7 843a 939f 16be
00000150: 39e9 893e 73b0 b1bc 09c2 253d 0a9d 4a3e
00000160: 17ee 68be 8286 903d cb5f 0dbe c53a 533e
00000170: e046 783d 625b 23be e138 213e aad3 463d
00000180: 1c62 4bbe 8834 f8bd a018 76be 5b3e 1b3e
00000190: 47eb 3b3e 5dc2 133e 9e13 233c b1ef 123e
000001a0: 75b0 a5bd 353f 5e3d a1a6 563e 1b4d 9ebd
000001b0: ff6f 04be 7be7 b1bd 3335 a6bc 47c5 b2bb
000001c0: 5799 2e3e 7593 8b3d 44a8 a23d aaff 94bb
000001d0: 095a bc3d 22b1 5c3e 9ef0 61bc e537 8d3e
000001e0: 59c5 41be 7396 7c3c 1f2a 5ebe 0607 98bd
000001f0: b49c 33bc 9ce8 8ebc 5f79 5ebd 97b9 5bbc
00000200: c965 223e e4cc e63d 7f27 42be fb07 443e
00000210: ebdc 16bc 4ddc 543e 2527 c03d 2c0d 47bd
00000220: f4cc 5fbd f7f0 29be 3153 2f3c 1b9b d3bd
00000230: a336 283d 372f 253e b3cc 3fbe 077c 103e
00000240: e8e3 433e a454 1d3e 4f5b 74bc 48cb b03d
00000250: 203b e83c 92bc 3abe b2f5 c53d ed91 3ebd
00000260: 42a7 f63d a18e 293e b718 ac3d 87db 073e
00000270: 5fc4 6a3e 1e21 19be 0c4d 0c3e 0b61 b0bd
00000280: 0de2 dbbd 2435 a73d dc0b 68be 1895 243e
00000290: ff4f 09be 9bc2 e8bd dcfa bcbd a62d e4bc
000002a0: 3544 90bd 60b1 983d 326a dcbd 45ba b7bd
000002b0: c02e a23e 5507 2abe 190b 03be 7cfa 493e
000002c0: 9878 593e 04ff 16bc d411 a7bd 145a f63d
000002d0: 6e50 31be d1b0 ca3d c285 0f3e 3ee6 d93d
000002e0: 0dce 623e 1cc0 513e 88bd 783d a659 a63d
000002f0: cad1 b13d f5b0 d7bd 35e8 63be 66a0 b03d
00000300: 2f4a 203e 865c d33d cb74 9bbd 14cd cb3d
00000310: 5702 44bd 4f65 09be 0f26 0d3d f5b9 523e
00000320: 29a2 d43d d8bf 7abd 7399 acbd 970a 40be
00000330: dd68 763e 1061 08be 9977 b83d b665 0e3e
00000340: 4f02 d9bd b118 acbd 91cd 71be 4f6c aabd
00000350: 5c3c 0dbb cd8f ebbd 95f7 213d aed1 78bd
00000360: 30a5 bcbb 5434 363e 6e8e eebd dfe6 b43d
00000370: bd20 eb3d e9c9 8cbd d1ce 16be 1751 a4bc
00000380: 4767 5e3d 2089 04be 2423 5abe 0d41 e93d
00000390: f9ad 213e a959 513e b7dc 3b3e f862 c3bb
000003a0: 0583 48bd 9624 573e c7a4 603e d938 e4bd
000003b0: e998 98bd 8624 0f3e e28c f13d 457f 343e
000003c0: 9548 2dbe 197d 36be 9a06 c93d 7fdc 32be
000003d0: 21e3 03be d064 663d 4d43 36be 998c 55be
000003e0: 8f56 55be c07f 0f3e cb33 3bbe c799 1dbd
000003f0: f05e e53d 2826 13be e59d 61bd 6791 3d3d
-0.16769837 0.15336834 -0.06774326 -0.146162 0.14750785 0.026219575 -0.029799446 0.2219112
0.35316032 -0.05804567 0.16442092 0.074466646 0.10176793 -0.18347944 0.21759294 0.15326849
0.16339886 -0.09661947 -0.113667674 0.16528316 0.12570733 0.09638434 0.30047753 -0.008017103
-0.122741416 0.24881454 0.092986494 -0.043835368 0.2019048 0.25573188 0.28154257 -0.015699597
0.17949548 -0.029830318 -0.06801031 0.12495789 -0.027129555 -0.1041366 0.2231736 -0.02741652
0.062037766 0.024374137 0.22115125 -0.009753171 -0.1375935 0.12435638 0.2488906 0.16016369
-0.050976507 0.34503037 -0.063425414 0.13489631 0.10622705 0.2756351 0.027281288 -0.30171767
0.06842513 0.23077098 -0.13613497 -0.20333852 -0.17666842 -0.035129156 0.00776073 0.15420797
-0.22361495 0.02600698 0.038517166 0.08833417 0.032605648 0.100147285 -0.16878198 0.17971867
-0.19069542 -0.24566758 0.22707883 -0.18527344 0.102551885 0.057587404 0.06289448 0.23506492
-0.07247948 0.045650028 0.0010125552 -0.1470931 0.26935747 -0.021690583 0.04046825 0.19786468
-0.22747074 0.07056905 -0.13806073 0.20627888 0.060614467 -0.15952829 0.15744354 0.048541702
-0.19861645 -0.121193945 -0.24032831 0.15160505 0.1835147 0.14429612 0.009953408 0.14349248
-0.08090297 0.054259498 0.20962001 -0.077295505 -0.12933348 -0.086867295 -0.02028904 -0.005455646
0.17050682 0.068152346 0.0794225 -0.004547079 0.0919686 0.21551946 -0.013790278 0.27581707
-0.18922938 0.015416729 -0.21695755 -0.074232146 -0.010962654 -0.017444901 -0.054314967 -0.013410947
0.1585914 0.112695485 -0.18960379 0.1914367 -0.009207944 0.20787163 0.09382466 -0.048596546
-0.054638818 -0.16595827 0.010700987 -0.103323184 0.04106773 0.16131292 -0.1873043 0.14109813
0.19129908 0.15364319 -0.014914348 0.08632523 0.028348505 -0.18235996 0.09666003 -0.046525884
0.12043621 0.16558315 0.084031515 0.13267337 0.22926472 -0.1495404 0.13701266 -0.086122595
-0.10736475 0.08164433 -0.22660774 0.160725 -0.13409422 -0.11365243 -0.09227535 -0.027853798
-0.070442595 0.074557066 -0.10762443 -0.08971075 0.31676292 -0.1660436 -0.12797202 0.19724458
0.21237409 -0.009216074 -0.08157697 0.120289 -0.17315838 0.09897006 0.14015868 0.10639618
0.22148915 0.2048344 0.060727626 0.08122568 0.08682592 -0.10531799 -0.22256549 0.086243436
0.15653299 0.10320382 -0.07590636 0.09951225 -0.047853794 -0.13417552 0.034460124 0.2057875
0.10382492 -0.061218113 -0.084277056 -0.1875404 0.2406344 -0.13318276 0.090071864 0.13905987
-0.105961435 -0.08403147 -0.23613574 -0.083214395 -0.002155087 -0.11502037 0.039542753 -0.06074684
-0.0057569966 0.17793399 -0.1164826 0.08833098 0.11480854 -0.06874449 -0.14727332 -0.020058198
0.05429771 -0.12942934 -0.21302468 0.113893606 0.15789022 0.20444359 0.18345915 -0.0059627257
-0.048953075 0.2101005 0.21937858 -0.11143655 -0.0745104 0.13978776 0.117944494 0.17626674
-0.16922219 -0.17821158 0.09815712 -0.17466925 -0.12879612 0.056248486 -0.1779911 -0.20854415
-0.208338 0.14013577 -0.18281476 -0.03847673 0.111997485 -0.14370024 -0.05508222 0.046281245

gnn.convs.1.att_src f4 [1, 1, 50]
00000000: 06aa 743e d66c 263e d8df 5bbe 8d3e 9ebe
00000010: 9c28 b8be 5cbd 19bc 8631 87bc 5aea 9fbe
00000020: 35f9 543b d43b 253e 88b1 1abd 20df 45be
00000030: e240 5a3e 7d35 58bd 6e01 40be 4528 09be
00000040: b314 e2bd e68c cbbd 6fed 03be ad01 d9bc
00000050: 5d5d e8bd c50d 1e3e 20b5 a03e d34c 7a3e
00000060: d956 0bbe 0280 a6be ea79 47be 09c2 49be
00000070: efd2 32bd e710 1fbe c6bd 92bc 53fa 3dbd
00000080: 4123 493d 58b5 123e a54e 813e 3fd9 983e
00000090: b9fe 8a3d 9282 a23d 9023 2dbe 01cb 88bc
000000a0: c7ba 203c 2c85 993e 75f2 f1bc 4468 a8be
000000b0: e9ae be3e bd08 a73e 77bf 9abe 516a 3e3e
000000c0: 5dd7 ba3e 16c4 c73e
0.23892984 0.16252455 -0.21472108 -0.30907097 -0.35968482 -0.009383526 -0.016503107 -0.31233484
0.0032497172 0.16136104 -0.037766963 -0.19323397 0.21313813 -0.052785385 -0.18750545 -0.13394268
-0.11039104 -0.099389836 -0.12883542 -0.026490057 -0.11345933 0.1543494 0.31388187 0.24443369
-0.13607349 -0.32519537 -0.194801 -0.19702925 -0.043658193 -0.15533791 -0.017912757 -0.046381306
0.049105886 0.1432699 0.25255314 0.29853246 0.06786866 0.079350606 -0.16908097 -0.016698362
0.009810156 0.29984415 -0.029534558 -0.32892048 0.3724282 0.32623854 -0.302242 0.18595244
0.36492434 0.3901679

gnn.convs.1.att_dst f4 [1, 1, 50]
00000000: 76d7 3cbe 2218 f1bc 75b9 55be 9990 42be
00000010: a21c 2d3c 880e 8dbe 5ec9 6e3d 6952 b7bc
00000020: c3d1 913e b1c9 56be 0b6f d83d 9e2e 343e
00000030: b567 a2be d7de 8cbd 40d6 c33d b9e9 603e
00000040: 8b0f a03e 7082 923e 5b0f 763e 34f9 943c
00000050: 7527 a03e c1de a43e 1c6a 3d3e 0d6c 6cbe
00000060: ee19 a13e c0c0 843e 8d4a da3e 993d f63d
00000070: c518 f6bc 61fb e4bc 3c00 403e 46f6 0f3c
00000080: ecaa 9f3e f235 9fbd 1a8d d43e dd81 56be
00000090: 1e86 9dbe 15d6 c53e 74ef 033e a18a 88be
000000a0: 243a ac3e 317a 843e 5484 f8bd b89e 113e
000000b0: 97b4 5b3e 9e69 98be f3eb 933d 8a88 b0be
000000c0: bcfc 1bbd cea4 b1bc
-0.18441567 -0.029430453 -0.20871527 -0.19000472 0.010565909 -0.2755015 0.058297507 -0.022378163
0.28480348 -0.20975377 0.10568055 0.17595908 -0.31719747 -0.06878441 0.09562349 0.21964158
0.31261858 0.2861514 0.24029295 0.018185236 0.31280103 0.32201198 0.18497509 -0.23088093
0.31465095 0.25928307 0.42635003 0.120234676 -0.030041108 -0.027951898 0.1875009 0.0087867435
0.3118509 -0.07773961 0.41513902 -0.20947976 -0.30766386 0.38639894 0.12884313 -0.26668265
0.33638108 0.25874475 -0.121346146 0.14220703 0.21455608 -0.2976808 0.07222738 -0.3447917
-0.038082823 -0.02168503

gnn.convs.1.bias f4 [50]
00000000: 0d7a ab37 3f9d 7fb6 91dd bdb8 6dc3 0339
00000010: fbda 7c37 db4c 3db7 f5de 4238 9b77 ccb8
00000020: 6876 df37 8b74 c937 0a61 95b6 d02e 6ab5
00000030: c350 4eb8 8fca cab8 7414 2939 d29e 4bb8
00000040: 201a a4b8 c081 0039 cce0 84b8 d2ae 27b8
00000050: 82d6 ba37 e6ee 2438 c56e 3eb7 fcf3 1736
00000060: 1733 1738 b25e 1038 06c2 1b38 3f80 e8b8
00000070: f734 c238 fd89 10b8 bf3f a138 074d 4037
00000080: fdda 5db7 4f5e ad38 69ce db37 6a01 a838
00000090: 2705 e138 0a8a fb37 60ef 4838 b9d4 c338
000000a0: 020d 8238 612f 9737 23a2 8eb8 cbf6 5bb7
000000b0: 7cfa 14b7 895c 8b37 a386 9b38 30fd 14b7
000000c0: 1739 b937 f98f 0538
2.0441623e-05 -3.808949e-06 -9.053492e-05 0.00012565935 1.5071356e-05 -1.1283172e-05 4.646085e-05 -9.749756e-05
2.6638809e-05 2.4015337e-05 -4.451843e-06 -8.7239914e-07 -4.9189443e-05 -9.66984e-05 0.00016124715 -4.8546884e-05
-7.8249956e-05 0.00012255367 -6.336122e-05 -3.9978717e-05 2.2272816e-05 3.932314e-05 -1.1350673e-05 2.264277e-06
3.6048787e-05 3.4420467e-05 3.7135578e-05 -0.0001108651 9.260506e-05 -3.4460787e-05 7.688952e-05 1.1462026e-05
-1.3223614e-05 8.266849e-05 2.6202952e-05 8.011128e-05 0.00010729796 2.9985811e-05 4.790665e-05 9.337947e-05
6.201306e-05 1.8022665e-05 -6.801288e-05 -1.3110878e-05 -8.879808e-06 1.6613181e-05 7.416054e-05 -8.880437e-06
2.2080303e-05 3.1843756e-05

gnn.convs.1.lin.weight f4 [50, 50]
00000000: ff28 66be fb76 9abe 3982 603e 5945 903c
00000010: 8a49 ab3d 7a53 2839 9925 3cbe b26d 283e
00000020: 463b 5f3e 9bbc d5bc 8cb0 0e3e e50c 13bd
00000030: ffda 063e 0f3d 6dbe be66 48be a693 84be
00000040: 6809 8f3e 5477 273e f83f d0bd 5edf 18be
00000050: 3840 81be fd89 a53b 1950 553e ba4f bbbd
00000060: 2b19 aa3d 178b 503c e4d7 19bc 0687 693d
00000070: b4b7 3c3e 82a8 133e a49d 94be de7f f03d
00000080: a75d 2a3d e6f0 65bd 9b5a 5bbe 8215 b43c
00000090: 776b 80bd dab1 ce3d 682b 3cbe 550c 40be
000000a0: b4b9 87be 46a7 633e 804a d9bd a041 2fbe
000000b0: eeb6 d73d 4e2e 323e e42e 98bd 9dda aabb
000000c0: beff 6a3d 280d 25be 8dc1 ff3d a044 563e
000000d0: 5d06 843e e4db 38bd 9b9e b33d 5f07 c4bd
000000e0: 7a1f 94bd 241c 433d 6c5d 553e e0f5 c43c
000000f0: 1e98 153e b180 6d3d 3969 ddbd 2fff b9bd
00000100: 2040 abbd ffdd 093c 1d51 3e3d 11e5 47be
00000110: f7c4 fb3d fcba 0b3e 952d fb3d aeea 61be
00000120: 14ee dbbc 75fc f73d 3f22 0a3e 87ff b63d
00000130: eb70 1cbe 2e24 10be d15a b13d df20 323e
00000140: 27ff 9abe 9e9e e8bd 5fc2 7dbe f9ea 733d
00000150: 7d25 263e 4b87 8dbe f9fd b6bd ecb0 91bb
00000160: 806d 3fbe ea65 d63d 7a92 da3d 4aeb 043d
00000170: 9f57 24be 4906 afbd 0764 09be 2be4 33be
00000180: d4a4 0a3e c2f5 3a3d 2be8 883e f7af cdbd
00000190: 91a5 293e 6cea 81be 57c0 b53d 38e2 243e
000001a0: 53b3 f2bd 1d8a 253e 1055 ce3d 34f0 08be
000001b0: f9ea 88bd 14f5 ddbc 34d9 a73d ca6e f33d
000001c0: 316c 7f3e 240b c83d 6c8b 88be 9f66 03be
000001d0: 1e09 5fbd 0c17 76bd de08 8cbd 58ac 09be
000001e0: e81e 91bd 00fa 593e 0c88 7fbe 6840 00be
000001f0: 5164 27be c36a 593e 5104 4abe 5d8b 42be
00000200: 9b3a 773d 739e 5cbe 14e4 a6bd 4b73 6d3e
00000210: 48d5 b8bd ae09 04bd 0f52 403e 0253 4dbc
00000220: 6a9c 88be b141 933d 306b c7bd da63 e23d
00000230: f2c1 13bd b83b 45be 4893 0a3d e1dc 78be
00000240: c74e 8c3d 59e2 693e dd6f 2d3e 2ed6 163e
00000250: 9b5c 413e b641 29bd 05f4 20be b587 cb3d
00000260: c772 c73d 10f8 93bc 0061 6e3d f316 283e
00000270: 8556 5cbe 259d 423d 4708 8dbe 4211 e7bb
00000280: 16a6 853d 207a 21be 083a 163e 38ed bbbd
00000290: 2856 f0bd 9411 52be f665 0a3e f1b9 94bd
000002a0: ab0a 16be 1b57 d33d d74f 563b 7134 3a3d
000002b0: 22c1 4abe ce78 5fbe 2013 63be 2c52 c7bd
000002c0: e0e9 3d3d 9e9a 6dbe 5cb7 c83c af1b 9c3c
000002d0: 8342 743e 7f35 143e c46c 393e 09f5 b4bd
000002e0: 5990 7dbc 95b8 41bc d8cb 013e d829 b93d
000002f0: b840 0a3e 39c8 e1bd 0ef2 c43d 094f d33c
00000300: 908c 19be 19fb b33d 17d2 4d3e 0068 cabd
00000310: 4203 7dbe 2ed6 34be 81fe 67be 24b9 1f3e
00000320: df53 99be b19b f3bd 2d2b 093e e6fb 0e3e
00000330: 92d0 e7bd 1756 2f3e cda1 a93d 07f2 80bd
00000340: 3f21 633e 025d 593e 1bb9 91bd f92f 28be
00000350: d019 89bd 65ee f73c d930 fabd 0ac5 9fbd
00000360: 6f65 b83c 0c50 62bd 8135 e63c 3224 19be
00000370: 70df 0c3d da74 183e 5a4c 3ebe e882 1c3e
00000380: 4f03 66be f238 37be 7237 0a3e dee8 753d
00000390: 6c9c 38be ceb2 38be aa09 9ebd 0461 fabc
000003a0: e4fa d03c eaed 4d3e ad6c 34be 51ce fa3c
000003b0: f1a4 52be dcc8 463e 8d6d 7ebe 9774 31bd
000003c0: b622 223e 5409 053e 6b90 063e 575d 63be
000003d0: fa06 ac3d 8d41 193e 6da8 cb3d 876b 03bd
000003e0: 28c5 4e3e ebdd 52be f8b7 2a3d f167 2dbe
000003f0: 3bed 07be 5ec3 8f3d c584 dfbd bd0a 633e
-0.22476576 -0.301689 0.21924676 0.017611193 0.08363636 0.00016052826 -0.18373717 0.16448095
0.21799955 -0.02609091 0.13934535 -0.03590097 0.13169478 -0.23167823 -0.19570443 -0.25893897
0.27936864 0.16354114 -0.10168451 -0.14928958 -0.25244308 0.00505185 0.20831336 -0.09146066
0.08305582 0.012728474 -0.009389851 0.057013534 0.18429452 0.1441975 -0.2902652 0.11743139
0.04159322 -0.05613794 -0.21421282 0.021982912 -0.06270497 0.10092516 -0.18375933 -0.18754704
-0.26508868 0.22231779 -0.10609913 -0.17114878 0.10532938 0.17400476 -0.07430819 -0.005214049
0.0573728 -0.161183 0.12488089 0.20924616 0.25786105 -0.04513158 0.08770486 -0.095717184
-0.07232566 0.04763426 0.20836419 0.024043024 0.1460881 0.057984058 -0.10811085 -0.090818755
-0.0836184 0.008414744 0.046464074 -0.19520976 0.122934274 0.13645548 0.122645535 -0.2206218
-0.026846923 0.12108699 0.13489626 0.08935457 -0.1527745 -0.14076301 0.086599 0.17395352
-0.3027279 -0.11358379 -0.24781178 0.05955026 0.16225238 -0.27642283 -0.0893516 -0.0044461396
-0.18694115 0.10468657 0.106724694 0.03245095 -0.1604905 -0.08546121 -0.13417064 -0.17567508
0.1353944 0.04564453 0.2673963 -0.10043328 0.16567065 -0.25374162 0.088745765 0.1610192
-0.1185061 0.16165967 0.10074818 -0.1337288 -0.066854425 -0.027094401 0.08195725 0.11886366
0.24943615 0.0976775 -0.2666887 -0.12832116 -0.054452054 -0.060080573 -0.06837629 -0.1344465
-0.07085973 0.21286774 -0.24954242 -0.12524569 -0.16346861 0.21232133 -0.19728209 -0.18998475
0.060358625 -0.21544819 -0.08148971 0.23188512 -0.09025055 -0.032235794 0.18781303 -0.012531998
-0.26681834 0.07190264 -0.09737241 0.110542014 -0.036073633 -0.19261062 0.033831865 -0.24303009
0.06850963 0.22840251 0.16937204 0.1473014 0.18882982 -0.041322432 -0.15718086 0.099379934
0.09738689 -0.018062621 0.058197975 0.16415004 -0.2151738 0.047513146 -0.27545378 -0.007051618
0.06525819 -0.15769243 0.14670575 -0.09176105 -0.11735183 -0.20514518 0.13515458 -0.07262028
-0.14652507 0.103193484 0.0032701397 0.04546017 -0.19800237 -0.21823427 -0.22175264 -0.0973247
0.04636562 -0.23203513 0.024501495 0.01905617 0.23853497 0.14473532 0.18107897 -0.08835799
-0.01547631 -0.011823793 0.12675416 0.09041184 0.1350125 -0.110245176 0.09616481 0.025794523
-0.14995027 0.087881275 0.20099674 -0.09883118 -0.24708274 -0.17659828 -0.2265568 0.1559797
-0.299468 -0.1189493 0.13395377 0.13963279 -0.113190785 0.17122684 0.08282814 -0.06296163
0.22180651 0.21226886 -0.07115384 -0.1642455 -0.066943765 0.030265043 -0.12216348 -0.07801254
0.022509305 -0.05525212 0.028101685 -0.14955214 0.034392774 0.14888325 -0.18583813 0.15284312
-0.224622 -0.17892817 0.13497713 0.060036533 -0.1802842 -0.18036959 -0.07716687 -0.030563839
0.025510259 0.20110288 -0.17619582 0.030615957 -0.20570733 0.1941256 -0.24846478 -0.04332408
0.15833554 0.1299184 0.13141029 -0.22203575 0.08399768 0.14966412 0.09944234 -0.032084968
0.20192397 -0.20592467 0.041679353 -0.16934182 -0.1327409 0.07019685 -0.10913996 0.22172065

gnn.convs.2.att_src f4 [1, 1, 50]
00000000: f328 73be 3760 48bd a9e9 943d f781 8bbd
00000010: ced9 013e a57f 9c3e dbe7 3c3d 5616 44bc
00000020: 0b33 9abe 67d8 88bd 03cb a3be 2354 d9bd
00000030: 2781 833e bff8 abbe f722 ca3d 9568 90bc
00000040: 7e3a 53be ef99 35bb 1835 45be 5d59 35be
00000050: 08ce b2be 72f5 ed3d e470 7b3e 2dd3 c1be
00000060: f56e 8abe 9810 b73e aeab cf3d b5ad 0f3e
00000070: 8d17 ac3e 3908 a23e 5014 2e3e 9bc1 81be
00000080: a56e 8f3e b8a1 8d3c 7fb0 a9be 212d 6cbe
00000090: 31d3 32be 5746 5dbd 9f23 11bd f04b 353e
000000a0: 2329 88bd 6470 5fbe 094e 6e3d 6842 93be
000000b0: 520c 48be c65c 893e 9f6b 5b3e 6642 28bd
000000c0: 3d3a d23d 99d9 bbbc
-0.2374609 -0.048919883 0.0727113 -0.06811898 0.12680742 0.30566135 0.046119552 -0.011968216
-0.30117068 -0.066819005 -0.31990823 -0.10611751 0.25684473 -0.33588216 0.0986995 -0.017627994
-0.20627782 -0.002771016 -0.19258535 -0.1770987 -0.34922814 0.116190806 0.24554783 -0.37856427
-0.27037778 0.35754848 0.10140167 0.14031108 0.33611718 0.31646898 0.16999936 -0.25343022
0.28014103 0.017289028 -0.33142468 -0.2306409 -0.17463376 -0.05402216 -0.03543436 0.17704749
-0.06648471 -0.21820217 0.05817989 -0.287616 -0.1953595 0.26828593 0.21427773 -0.041078947
0.10265014 -0.022930907

gnn.convs.2.att_dst f4 [1, 1, 50]
00000000: 1c2d 493e cc98 5e3e 0345 ad3e 1a20 0e3d
00000010: 87c8 58be 45ac 22bd a3f8 963d 16c6 713c
00000020: 2cc6 553e 6c49 ce3d 1c53 d33d e1b7 2abe
00000030: d740 27be 3b56 653d 218f 7e3e b467 983e
00000040: 8474 6cbe 749b a3be d9d5 acbe ef73 973e
00000050: 9ee1 2ebe fc36 21bc 3c06 00be ba40 4d3e
00000060: ee2c 803e deab 903e 662c 893d 4540 943e
00000070: ce5d 903e 4aba 56be 6fdf 24be 5a67 58be
00000080: 6570 a23e 9dc8 4bbe 7171 9d3d 4256 17bd
00000090: 584f 223d 73ac b2be 94bd ac3d c212 eebd
000000a0: 0104 643e 38a2 f8bb 517b 633d 3219 d73d
000000b0: 2e53 273c 2bfd 89bd a196 923e b41a 4d3e
000000c0: 921f 053e 8039 a73e
0.19646114 0.21737975 0.33841714 0.034698583 -0.21170245 -0.03971507 0.073716424 0.0147567
0.20876378 0.10072598 0.10318586 -0.16671707 -0.16333328 0.05599044 0.24859287 0.2976662
-0.23091322 -0.3195454 -0.33756903 0.29580638 -0.17078254 -0.009839769 -0.12502378 0.20044222
0.2503428 0.28256124 0.066979215 0.28955284 0.28196567 -0.20969501 -0.16100858 -0.21133175
0.31726375 -0.19900747 0.07687653 -0.036947496 0.03962645 -0.34897193 0.08434597 -0.116246715
0.22267152 -0.0075876974 0.055537526 0.105028525 0.010212703 -0.06737741 0.28630546 0.20029718
0.13000324 0.32661057

gnn.convs.2.bias f4 [50]
00000000: b1c7 ccb7 ab68 35b8 30eb 1e36 522f 26b8
00000010: 2a38 d137 2f19 47b8 22c4 6136 47c7 4b38
00000020: 6a46 62b8 1397 51b7 de48 8a36 d9ec 17b8
00000030: 171a 6fb7 b66f adb6 647c 70b7 37ab 0bb8
00000040: 1bf6 1936 a952 ad36 523c 82b7 80ec 36b7
00000050: ac1a 6937 2ee1 53b8 3ae3 d6b6 87cd b5b8
00000060: 3d86 d437 673f d636 e59f 91b7 ff50 1cb8
00000070: d14b 99b7 7e59 9538 36e0 b0b7 49d9 0737
00000080: 9047 5737 0726 c638 5a13 0038 1c2b eeb7
00000090: a1ea 1d38 a4f4 3b36 3caa 06b8 f1e2 5436
000000a0: 22d6 74b8 a120 92b7 d966 8c38 d58c dc37
000000b0: c2e1 b237 44ad 5db6 31e6 51b8 02b5 0fb8
000000c0: 7746 5cb8 b62d bb37
-2.4411684e-05 -4.3251242e-05 2.3680732e-06 -3.9621555e-05 2.4940895e-05 -4.746875e-05 3.3641777e-06 4.8584563e-05
-5.3948177e-05 -1.24925455e-05 4.1212033e-06 -3.6221787e-05 -1.4251585e-05 -5.1688066e-06 -1.4334077e-05 -3.329964e-05
2.294203e-06 5.1654247e-06 -1.5525296e-05 -1.090311e-05 1.3894092e-05 -5.0516035e-05 -6.4041496e-06 -8.669035e-05
2.5334879e-05 6.385078e-06 -1.7359804e-05 -3.7268732e-05 -1.8274326e-05 7.121543e-05 -2.1085241e-05 8.097218e-06
1.2831661e-05 9.448459e-05 3.05356e-05 -2.8391885e-05 3.7650232e-05 2.800757e-06 -3.2106633e-05 3.172256e-06
-5.837356e-05 -1.741975e-05 6.694877e-05 2.6291624e-05 2.132438e-05 -3.303242e-06 -5.0043865e-05 -3.4262433e-05
-5.2517713e-05 2.2313423e-05

gnn.convs.2.lin.weight f4 [50, 50]
00000000: 000d 1e3e 8d49 24be 9ccc 2ebe 18fe 7d3d
00000010: a014 35be fd03 a73e 3e41 c9bd 4f32 a23d
00000020: abc9 403d 89ac 34bc 9abb 33bd c145 413c
00000030: 659c 04bc 2641 c0bd 04dc 23be bd26 65be
00000040: 8526 153e ef89 07bc 5c82 7e3e 4995 95bd
00000050: ba83 3a3e 3546 bf3d ac5f d1bd e95e 61bd
00000060: 43e2 923e 488b 3fbe fc20 af3e d7a1 54be
00000070: 54bb 263d f64a 93bd 3faa aabc f194 1a3e
00000080: dc55 e6bd d0d1 6b3e cc6c 1cbd 444b 5dbd
00000090: 2ad2 143e 6f67 b7bc 4c40 5e3e f52f fc3d
000000a0: 6287 083e 423a 823e bf69 683e 7851 093e
000000b0: 33ba b0bd 869c 14bd 7278 bb3c d5e8 5abd
000000c0: ec3d 9bbd 6136 8dba 0137 d13d e2e1 a3bd
000000d0: 8cf1 11be a33e 063d 3486 543e 4ce6 113e
000000e0: 841c ec3c 0752 24bc 2102 3cbe f50d 28be
000000f0: e241 953e 1fbe 8bbd c269 6cbd 0b34 bc3d
00000100: ff00 2f3e 7af5 0dbd fddf 9b3c 557e 18be
00000110: b57a 423e a83e 0bbe 670e a43e 9d17 0c3d
00000120: e748 04bd d885 5d3e 2f46 ac3d aa0a 2a3e
00000130: 568c 823e a4e2 56bd 7ca9 15be 0a76 17bc
00000140: 718f 643d 27cd e4bd c67d 83bd a9fb a6bc
00000150: 7783 e93d 89cc a13d 1160 f03c b379 09be
00000160: 69c8 173e 7f65 183e 5568 f3bc ed53 023e
00000170: 9cde c13d 9c7a 983d b0e9 883d 3a99 11be
00000180: e321 39bd 8d40 2bbe 3c69 fd3d 0f87 cf3d
00000190: dcbc 4ebe 58c6 1a3d f49f b83d 5e1b 49be
000001a0: ff7e d73d 0c42 8a3e 887f 473d 663b 353e
000001b0: 75cc 683d 26fc c0bd 8d48 bc3d 6770 083e
000001c0: a1c7 203c bf9a 903e a209 1c3e 0206 ab3d
000001d0: 6a2c 3dbd 12b5 8fbd 123d 613e 4d8d 0dbe
000001e0: 916d ecbb 3291 383d 78a0 7b3d a288 82bd
000001f0: 6eec bf3d b6c6 76be 6c9d 023d 8230 2abd
00000200: efd4 bdbc 58c5 72bd 9533 d53c b863 35bd
00000210: b954 903d ecad 423e d864 1a3e 4abf d8bc
00000220: 13a7 fbbd eb78 8e3d 6e95 653e 833e adbd
00000230: b1e7 2bbe 336d 873e 8eca 2cbe ac68 3c3e
00000240: 0770 f43a db0b 53be 92c3 15bd e0e8 d7bd
00000250: 17ba 5fbc 0302 ac3d 40aa f23d 9ef1 05bd
00000260: 47b5 9a38 4d62 2c3d 971e 40bd 2977 8d3e
00000270: 3421 e23c 987b 78bc 3752 223d 15de 1bbe
00000280: 9099 093e 18e3 143e bff1 96bd 4e0e c83d
00000290: fc62 0ebe 6053 a3bd 6f46 d2bd 6eac b5bd
000002a0: 57f4 0c3d bc5f a6bd 8243 923e 4560 153e
000002b0: b706 af3d 4944 cfbd d62f 4f3e d5f5 e7bd
000002c0: 26da 42be 7ec5 17bd 6e5f cabd 84f7 d8bc
000002d0: 902b e83d 2248 843e 2473 24bd d987 f13d
000002e0: 401f 093e 2223 51bd 20e2 fe3d ca4e ba3d
000002f0: abf5 12bd 010c 8c3d 51c7 ebbc be12 743e
00000300: 7a29 d63c b4cd e4bd 890a cabd cdba c1bd
00000310: c01e d23d 319e ae3c 5906 c6bd 1cea 173e
00000320: 7bef 25be 64ba 5abd 3e54 54bd 8485 40be
00000330: 337e e3bd ef36 a33e 90e7 fa3d c338 553e
00000340: c06f 50be e6ca 46be f78e ae3d ebd0 fbbd
00000350: d751 2fbe 1f68 a43e 58ff ed3c 7dda 97bc
00000360: 43f8 c03d d28a 3abd dbd3 b63b 6fd9 37bd
00000370: f560 d7bc 2fac 4d3e d3f8 173e fff7 84bd
00000380: 6223 4dbd bb10 963c 979d 0e3e b655 b63c
00000390: c148 ffbc 602d cabc 0ac2 e9bd 631b 993e
000003a0: d50e 18be 24a0 ab3e 3c96 e43d bd6a 8dbd
000003b0: 02ee 263e 0f4b 253e 81e8 413e 3b09 103e
000003c0: 4e77 b5bd 4248 12bd c170 c4bd 58e9 143e
000003d0: 9a9e 9a3c 9ab2 22bd 42cb 533d 03c0 673d
000003e0: c638 053d d9ab 303c 4031 1cbe cd24 a93d
000003f0: b66b 203e 42b1 023c 5c0f 3b3e c150 81be
0.15434647 -0.16043682 -0.1707024 0.0620099 -0.17683649 0.3262023 -0.09826897 0.07919752
0.047067326 -0.011027464 -0.043880083 0.011796416 -0.008093928 -0.09387426 -0.16001898 -0.22378059
0.14565475 -0.008272632 0.24854416 -0.073038645 0.18214312 0.09339563 -0.10223326 -0.055022154
0.2868825 -0.18705475 0.34204853 -0.20764862 0.040705994 -0.07192032 -0.020833133 0.15095879
-0.11246845 0.23029256 -0.038189694 -0.054026857 0.14533296 -0.022388188 0.21704215 0.123138346
0.13332894 0.25435072 0.22696589 0.13409984 -0.08629265 -0.036282085 0.022884581 -0.053444702
-0.0758017 -0.0010773652 0.10215569 -0.08002068 -0.14252299 0.03277458 0.2075432 0.14248008
0.028822191 -0.0100293225 -0.18360187 -0.16411574 0.29151827 -0.06823372 -0.057718046 0.09189614
0.17090224 -0.034657933 0.019027704 -0.14891942 0.18992122 -0.1359812 0.32042238 0.034202207
-0.032296088 0.21633089 0.08411824 0.1660563 0.25497693 -0.052462235 -0.14615434 -0.009244451
0.05580086 -0.11171942 -0.06420474 -0.020383673 0.11402028 0.0790034 0.029342683 -0.13425331
0.14822544 0.14882468 -0.029712835 0.12727328 0.094662875 0.07445261 0.06685197 -0.14218608
-0.045198333 -0.16723843 0.123735875 0.10133182 -0.20189232 0.03778681 0.09014884 -0.19639346
0.105222695 0.27003515 0.048705608 0.1769844 0.05683561 -0.094230935 0.091935255 0.13324128
0.00981322 0.28243062 0.1523805 0.08350755 -0.046184935 -0.07016958 0.21995953 -0.13823433
-0.00721521 0.045060344 0.06143233 -0.06373717 0.09371267 -0.2409924 0.03188841 -0.041550167
-0.023172824 -0.059270233 0.026025573 -0.044284552 0.070474096 0.19011658 0.15077531 -0.026458401
-0.12287726 0.06956657 0.22420284 -0.08459189 -0.16787602 0.264505 -0.16874143 0.18399304
0.0018649109 -0.20609991 -0.036563464 -0.10542464 -0.013655207 0.08398821 0.11848879 -0.032701127
7.377058e-05 0.042085934 -0.046904173 0.27629974 0.027603723 -0.015166186 0.039629187 -0.15221436
0.13437486 0.14539754 -0.07370328 0.097683534 -0.13904947 -0.07974887 -0.102673404 -0.08870779
0.034412708 -0.08123729 0.2856713 0.14587505 0.08546203 -0.10120446 0.20233092 -0.113261856
-0.1902853 -0.037053578 -0.09881483 -0.026485212 0.11336434 0.25836283 -0.04014887 0.11793489
0.13390827 -0.051058896 0.12445474 0.09097059 -0.03587882 0.06838227 -0.028781565 0.23835275
0.026142824 -0.11172047 -0.09865291 -0.094594575 0.10259771 0.021315666 -0.096691795 0.148354
-0.16204636 -0.053400412 -0.051838152 -0.18800932 -0.11108055 0.31877849 0.12251198 0.20822434
-0.20355129 -0.19413337 0.08523362 -0.12295707 -0.17121063 0.32110688 0.029052421 -0.0185368
0.09422352 -0.045542546 0.0055794544 -0.044885095 -0.02629135 0.20085214 0.14841013 -0.06492614
-0.05008257 0.018318525 0.13927303 0.022257667 -0.031162621 -0.02467984 -0.11413963 0.29903707
-0.14849408 0.33520615 0.111614674 -0.06905124 0.1630173 0.16141914 0.1893635 0.14066021
-0.08860646 -0.03571344 -0.095918186 0.14542139 0.018874455 -0.03972111 0.051707514 0.0565796
0.032524846 0.010783159 -0.15253162 0.08258972 0.15666088 0.007976832 0.18267578 -0.25256923

gnn.batch_norms.0.weight f4 [50]
00000000: a7de 863f 3b1b 833f 1224 763f 3a45 6a3f
00000010: bf25 683f 0441 733f 5dc2 913f bb1d 643f
00000020: ec20 7a3f 67d1 7b3f 7342 683f 84f9 753f
00000030: 4816 7a3f e12b 603f 527e 803f 9fda 753f
00000040: 0a77 7e3f 5f0a 743f 6960 5a3f bdb7 6e3f
00000050: 3775 653f 7c5b 8a3f 77c1 743f ccc2 793f
00000060: a1c8 493f 2ce3 6a3f 4b6d 793f d22c 783f
00000070: 6705 843f debc 6e3f 5bf3 833f 7319 553f
00000080: a19e 743f 5472 493f aba5 6f3f 2c2e 6d3f
00000090: adaa 6c3f 1277 753f a10c 7f3f c5fd 6e3f
000000a0: e101 6b3f d52b 4e3f ec35 793f 2590 5d3f
000000b0: 37fa 6f3f 82ca 813f 736d 623f 1d2d 653f
000000c0: 5806 773f 3dae 6c3f
1.0536698 1.0242685 0.9614879 0.9151188 0.90682596 0.9502108 1.138744 0.89107865
0.97706485 0.983664 0.90726393 0.96083856 0.9769025 0.87566954 1.003855 0.96036714
0.9940039 0.95328325 0.8530336 0.9324911 0.8963198 1.0809169 0.95607704 0.9756286
0.7882176 0.91752887 0.9743239 0.9694339 1.0314149 0.9325694 1.0308641 0.8324196
0.9555455 0.78690076 0.93612164 0.9264858 0.9244793 0.9588481 0.99628645 0.9335597
0.9179974 0.8053563 0.97347903 0.8654807 0.9374117 1.0139925 0.88448256 0.8952196
0.96494055 0.92453367

gnn.batch_norms.0.bias f4 [50]
00000000: 6447 54be def3 653d cbaf 4cbd 8085 afbd
00000010: 7482 20bd 5c32 aebe f3bf bebe 2293 04bd
00000020: 0858 c3bc b68f cc3c df8a b2bd 576d cfbc
00000030: 51fa 23be 67ea d0be 1dda 10be adf2 55bd
00000040: 5fae 4abd 290a 443c 5d8e 13be 6f5e 8cbd
00000050: 57e6 50bc 0955 e4be f4ad a6bd 236b 06bd
00000060: 803e 18be 0a6d 03bd bc68 d2be 138c 1ebc
00000070: bfab 27bd c194 5ebe 4b88 46be 22ec 17be
00000080: 249f 5bbe 044a a0bd 9c81 d6be a00e 5ebd
00000090: 71ce 76bd 0c93 9d3b 5eac a0be faeb 89bc
000000a0: f0b1 e2bd 93f2 50be 0d59 8cbe b068 24be
000000b0: e7f2 aebd 311c 8cbb 161b 0fbd 83c7 26bd
000000c0: 8ad1 7c3c b234 8bbd
-0.20730358 0.056140773 -0.049972337 -0.08570385 -0.03918691 -0.34022796 -0.3725582 -0.03236688
-0.023845688 0.02497087 -0.08717894 -0.025320692 -0.16013457 -0.40803835 -0.14145704 -0.052233387
-0.0494827 0.011965313 -0.14409776 -0.06853949 -0.01275023 -0.44596127 -0.08138648 -0.032817017
-0.14867592 -0.03208641 -0.4109553 -0.009676951 -0.040935274 -0.21736433 -0.19387929 -0.14836171
-0.21447426 -0.07826617 -0.4189576 -0.054213166 -0.06025547 0.004808789 -0.31381506 -0.016836155
-0.11069095 -0.20405035 -0.2741169 -0.1605556 -0.08542424 -0.0042758216 -0.03493794 -0.040717613
0.015430817 -0.0679716

gnn.batch_norms.0.running_mean f4 [50]
00000000: aed1 9f3c 482c c4bb 638a 843d 7ed9 4a3d
00000010: 37cc 313c 02e1 c5bc 769d 6ebd f08f 893c
00000020: 1b81 5b3d ed1d 803d c3cb f9ba 9902 2abd
00000030: 3857 2dbd 10c5 21bb fd10 8b3b 9fb2 66bb
00000040: df2d 953c 8ac3 9d3d 6a9c a63c f070 8d3d
00000050: 8ed0 503a e20e 19bd 334a bfba 7702 31bc
00000060: bb3f 723d 86f6 5e3d ebdf 06bd a5fb 783d
00000070: 5081 6bbd 6133 38ba 413c 82bd 5420 0a3d
00000080: 34ac 55bd d738 2a3d f8ff 7ebb 0a26 10bd
00000090: 4672 d2bc 6b34 87bc a13c 03bb dc82 c83c
000000a0: c6c9 e33c c9e3 a23d fad9 dbbc f39c 033d
000000b0: 183c 8cbc 96a4 a6bc 4b50 963d e9c8 98bc
000000c0: da3f 3d3d 83e6 683d
0.019509163 -0.005986724 0.06471708 0.049523823 0.010851911 -0.024155144 -0.058255635 0.016792268
0.05358992 0.06255708 -0.0019057918 -0.041506384 -0.042319506 -0.0024684109 0.0042439685 -0.0035201681
0.01821035 0.07703312 0.020338256 0.06906307 0.00079656474 -0.03736771 -0.0014594257 -0.01080381
0.05914281 0.05443432 -0.03292839 0.060786862 -0.05749637 -0.0007026699 -0.06359149 0.033722237
-0.05216618 0.041558113 -0.0038909893 -0.035192527 -0.025689255 -0.016504487 -0.0020025151 0.024476461
0.027806174 0.07953603 -0.026837338 0.0321321 -0.017118499 -0.020342153 0.073395334 -0.018650489
0.04620347 0.056860458

gnn.batch_norms.0.running_var f4 [50]
00000000: f2e3 8338 65e4 9f37 4fdd fb38 06d4 7d38
00000010: efe4 9e37 15d7 6338 b4e9 0839 97a9 1538
00000020: ae19 c438 5887 e938 2446 ca36 10ed 9438
00000030: 3cd8 7038 bcb3 fe37 1654 8737 9ef1 f436
00000040: f92b 0137 5745 2439 3231 f937 aae5 1339
00000050: 1511 9736 544e 6b38 a08a f136 f5c7 8937
00000060: dd3a aa38 3f23 b438 4dee 8438 2069 f838
00000070: eb87 9f38 65c2 cb36 aff6 0c39 fcc7 e737
00000080: ed92 eb38 c71a e538 85fc 0c37 459f 0938
00000090: 9e9e e537 065c ef36 6a2c 2038 e867 8c37
000000a0: 94b6 0938 d496 2739 5d8d 0938 4b74 3738
000000b0: 9c07 7b37 5229 9e37 8343 0939 e021 bf37
000000c0: 4aa9 8c38 e7ba bc38
6.289025e-05 1.9060632e-05 0.000120098346 6.0517363e-05 1.8941673e-05 5.432133e-05 0.00013057032 3.568231e-05
9.3507915e-05 0.000111355155 6.0282346e-06 7.101346e-05 5.7421843e-05 3.0362855e-05 1.613241e-05 7.2998946e-06
7.699237e-06 0.0001566609 2.9706021e-05 0.00014104569 4.5021393e-06 5.6101315e-05 7.1984978e-06 1.6424785e-05
8.117196e-05 8.589634e-05 6.3386375e-05 0.000118451426 7.6070275e-05 6.072502e-06 0.00013443337 2.763047e-05
0.0001123304 0.000109245586 8.403445e-06 3.2811677e-05 2.737279e-05 7.133468e-06 3.8188336e-05 1.6737686e-05
3.2833384e-05 0.00015982549 3.2795e-05 4.3738906e-05 1.49625375e-05 1.8854309e-05 0.00013090488 2.2784749e-05
6.707253e-05 8.999352e-05

gnn.batch_norms.1.weight f4 [50]
00000000: 3995 6f3f 12ec 753f bd0f 843f 27de 6c3f
00000010: 9c19 693f d96f ae3f a6d4 653f 586e 823f
00000020: baf2 723f 34b6 753f 96be 9c3f 7ac1 683f
00000030: 8fe2 5f3f d0d1 bc3f 47d6 743f f52d 5f3f
00000040: 1f6a 693f 21f0 783f cc19 8f3f 0570 6f3f
00000050: a091 aa3f bf21 7c3f 6d37 6e3f 6b8e 8c3f
00000060: 4611 c03f fd98 633f af6a a83f 507f 683f
00000070: 06af 753f 8131 783f e611 663f 0ad9 ab3f
00000080: 2790 6a3f 2a2a c23f 35b8 993f 147e 753f
00000090: fe02 703f 6273 843f 889d a83f fccf 7d3f
000000a0: efc5 713f f616 a13f c1e8 633f 4de7 5b3f
000000b0: 7216 633f 1226 623f e202 763f fad7 723f
000000c0: 8848 703f a08a 803f
0.9358707 0.9606334 1.0317303 0.9252648 0.910547 1.3627883 0.897776 1.0189924
0.9490162 0.95981145 1.2245662 0.9092022 0.87455076 1.475153 0.9563946 0.871795
0.9117755 0.9724141 1.1179748 0.93530303 1.3325691 0.9848899 0.93053323 1.0980963
1.5005271 0.88905317 1.3157557 0.90819263 0.9597019 0.96950537 0.8987106 1.342561
0.9162621 1.5169117 1.200934 0.95895505 0.93754566 1.0347712 1.3173075 0.99145484
0.9444265 1.2585132 0.8902703 0.8589981 0.88706124 0.8833934 0.9609815 0.94860804
0.93860674 1.0042305

gnn.batch_norms.1.bias f4 [50]
00000000: 766a 3bbd 7b70 93bb 061a 073c 1a01 9bbd
00000010: baf4 f5bd a933 ccbe b7fe c3bb 51e9 073d
00000020: 5677 a7bd f949 4d3a 15f3 5abe 4266 afbd
00000030: 5327 81bd 6026 f0be d92d 0dbd 5ae4 bdbd
00000040: 725b c6bd 8331 7ebd ce3e 81be 2562 68bd
00000050: 2693 99be 86aa 13bd 1cb7 aabd 1f89 84be
00000060: 4b16 dbbe bbda 97bd fd38 87be 5c7b 05be
00000070: b0a7 463d ba16 5dbe 786e 98bd 38ff e4be
00000080: 4bb9 49bd 9317 03bf c2c2 b4be 2b26 72bd
00000090: cfbd 68bc 13a3 5fbd 64da babe a0e0 503d
000000a0: 11d5 39bd 645b dcbe 0011 92bd 17b5 fbbd
000000b0: c40f a2bd 73cf 6cbd b9ac 42bc 515c 28bd
000000c0: 9a41 88bc 8012 b8bd
-0.045755826 -0.0044994927 0.008245951 -0.075685695 -0.120095685 -0.39883164 -0.005981292 0.033181492
-0.081770584 0.0007831152 -0.21381791 -0.08564426 -0.063063286 -0.46904278 -0.03446755 -0.0927207
-0.096854106 -0.062058937 -0.2524323 -0.056734223 -0.29995078 -0.036051296 -0.083357066 -0.25885865
-0.42790446 -0.074147664 -0.26410666 -0.13035339 0.048499763 -0.21590701 -0.07442945 -0.44725966
-0.049248975 -0.51207846 -0.35304838 -0.05911843 -0.01420541 -0.05459888 -0.36494744 0.05099547
-0.04536921 -0.43038476 -0.07132149 -0.122903995 -0.07913163 -0.057815026 -0.011882001 -0.041103665
-0.016632844 -0.089879036

gnn.batch_norms.1.running_mean f4 [50]
00000000: dd1f 03be 8265 053f 3984 73be 951c 14bf
00000010: d112 7abd 4c5c ae3e 631f 09bd 24ac 3ebf
00000020: 5ef5 58bf 3ca8 d93d fa61 d83e fead cbbe
00000030: f8d4 1a3f 77d1 893e 5c42 19be c155 01bf
00000040: d961 d9bd b9aa 19be 26ec 133f 4ea5 4abe
00000050: 4421 de3e 1085 24bf d1d2 983d 9c03 e83d
00000060: 4275 a83e 2587 f6be ac76 3b3f 4603 ff3e
00000070: 8da4 033f 4ac4 923e dacf 103e 66bb 8f3e
00000080: d0db 65be 5e9d 183f 72dc 2f3f 35fb d6be
00000090: e92f 66be 176b 333f 84b0 c53e abf7 f2be
000000a0: 74d4 0bbf 8ba0 103f c34a 03be 6aa3 2cbf
000000b0: d560 293e 53d4 553f c966 66be 4598 103f
000000c0: 9141 a6be 11be 8a3e
-0.12805124 0.52108014 -0.23780908 -0.5785611 -0.0610531 0.34054792 -0.0334772 -0.74481416
-0.847494 0.10627791 0.4226225 -0.39781183 0.60481215 0.26917621 -0.1496672 -0.50521475
-0.10614366 -0.15006532 0.5778221 -0.19789621 0.43384755 -0.6426554 0.07462085 0.113288134
0.3290196 -0.48149982 0.73227954 0.49807185 0.5142296 0.28665382 0.14141789 0.2807266
-0.22447133 0.59615123 0.6869575 -0.4198853 -0.22479214 0.7008528 0.38611233 -0.4745458
-0.5462105 0.5649497 -0.12821488 -0.6743685 0.16540845 0.83527106 -0.22500147 0.56482345
-0.32471898 0.27098134

gnn.batch_norms.1.running_var f4 [50]
00000000: a19e ba3e 8b43 d03e 98ac ee3d db99 0c3e
00000010: 67ea 6e3e 8e21 563e 916f 7c3e 3329 a13e
00000020: 404c 9a3e b0a8 f33e 6e85 743e 80ac 2b3e
00000030: 2283 573e 8c8a 5e3e c314 3a3e ed1d 0d3e
00000040: ebdf 043e b3b8 f03d 1cc0 c13e 90ed 013e
00000050: 62ca 523e cd97 7b3e e9b5 603e f1f4 203e
00000060: c321 923e ca1a a73e dee3 c23e 93cc b83e
00000070: 9d49 1f3e 04ae 1c3e 7258 7b3d b9df ad3e
00000080: 48d8 e23d e831 933e 35fe f33e e427 9e3e
00000090: 8c57 ae3d 99fb 0e3f 14d5 843e d995 823e
000000a0: fe8d 573e 0e14 9b3e 03ce cf3d 8210 493e
000000b0: e5e1 283e 3dca 043f cba2 7a3e 0166 223e
000000c0: 2131 c53d fa7a 4e3e
0.3644915 0.4067653 0.116540134 0.13730566 0.23331605 0.20911238 0.24651934 0.31476745
0.301363 0.47589636 0.23879024 0.16765022 0.21046117 0.21732539 0.18171982 0.13780947
0.12976043 0.117539786 0.3784188 0.12688279 0.20585015 0.24569626 0.21944393 0.15718438
0.28541383 0.32637626 0.38064474 0.36093578 0.15555425 0.15300757 0.061363645 0.3395975
0.110764086 0.28749013 0.47654882 0.3088981 0.08512792 0.5585266 0.25943816 0.2550495
0.2105026 0.30288738 0.101467155 0.19635203 0.16492422 0.5187109 0.24476163 0.15859224
0.09628511 0.201641

gnn.batch_norms.2.weight f4 [50]
00000000: ffb1 313f f186 343f 2d27 3c3f 214c 3a3f
00000010: bdc8 283f 1da8 203f 03d5 453f 399d 383f
00000020: ff36 383f d9b6 3c3f e9a5 403f bbf1 3a3f
00000030: 53b9 393f 9772 153f 52cf 383f 33ba 363f
00000040: 2f59 323f ed09 1b3f 1dee 373f 0893 483f
00000050: 080f 1d3f 19a0 1f3f 0229 3c3f 9c37 463f
00000060: 409b 303f 74d4 2b3f 9708 463f 3a99 313f
00000070: 1e9c 333f 4e46 2e3f 52d1 323f 19c0 003f
00000080: 63cc 223f 7a3d 413f 03b1 333f 3aa1 293f
00000090: 5516 243f d4e4 313f bd89 2b3f 3e78 223f
000000a0: 0e12 353f 6d68 253f f609 353f c3fa 3f3f
000000b0: f7ea 333f a5e5 2d3f a212 363f 92da 3a3f
000000c0: 766c 203f 689f 203f
0.69412225 0.70518404 0.7349728 0.72772413 0.659313 0.6275652 0.77278155 0.721149
0.7195892 0.73716503 0.7525316 0.730251 0.7254841 0.58377975 0.72191346 0.7137787
0.69667333 0.6056202 0.7184771 0.7834935 0.6135106 0.62353665 0.7350007 0.77428603
0.6898689 0.6712105 0.7735686 0.6937443 0.7016009 0.68076026 0.6985065 0.5029312
0.6359312 0.7548443 0.70191973 0.6626164 0.64096576 0.6948979 0.67007047 0.63464725
0.70730674 0.64612466 0.70718324 0.74992007 0.702804 0.67928535 0.7112218 0.7298976
0.626655 0.62743235

gnn.batch_norms.2.bias f4 [50]
00000000: 0612 dd38 e20d 6c38 330f 1438 331d 82b8
00000010: 1d2b 3b38 47c8 7835 b348 0b38 86e7 2cb8
00000020: 112d d8b7 e8e7 c238 f76c 5db5 8c0b a738
00000030: 80e4 c9b8 198a 26b8 9951 6a38 d196 46b7
00000040: 6448 b738 c754 88b7 6b92 9c38 e40d c2b8
00000050: ee9a 4038 85aa 01b8 48df 8ab8 6193 c336
00000060: 533a 93b8 8a3d a838 398a 4db7 2415 17b7
00000070: 53b5 6a37 556d 6fb8 d9f6 6d38 cc69 c638
00000080: 8175 88b4 4360 a0b8 53ef 06b9 d283 b038
00000090: 7628 c2b8 a95d 1b37 86b7 9d38 7172 af36
000000a0: 52a8 1eb7 16cf f4b6 75e8 e4b6 6ec3 46b7
000000b0: a495 21b8 979a ce38 ae29 7037 ba4e 7e37
000000c0: 2d4e a1b7 8bb8 40b8
0.00010541458 5.6279714e-05 3.5300105e-05 -6.204322e-05 4.4624427e-05 9.267864e-07 3.320789e-05 -4.122362e-05
-2.5770192e-05 9.293837e-05 -8.248748e-07 7.965331e-05 -9.626988e-05 -3.9706098e-05 5.586594e-05 -1.1836834e-05
8.739604e-05 -1.625194e-05 7.465932e-05 -9.253228e-05 4.5920657e-05 -3.0914805e-05 -6.621942e-05 5.82861e-06
-7.02037e-05 8.022327e-05 -1.2251135e-05 -9.005224e-06 1.3989705e-05 -5.7083864e-05 5.6735098e-05 9.461082e-05
-2.541747e-07 -7.647325e-05 -0.00012868391 8.4168874e-05 -9.258177e-05 9.260527e-06 7.520527e-05 5.228729e-06
-9.456724e-06 -7.2958746e-06 -6.821991e-06 -1.1847222e-05 -3.8524755e-05 9.85164e-05 1.4314819e-05 1.515791e-05
-1.9229099e-05 -4.5948236e-05

gnn.batch_norms.2.running_mean f4 [50]
00000000: 1ac4 133f 5da5 0e3f f0e8 d63e bcc4 013f
00000010: 844b 093f 51ee b6be fad4 13bf 825d e3be
00000020: 5b4f ff3e f425 ef3e 4739 03bf bd4c 143f
00000030: efc0 183f 0a2d 523f 831b 0dbf 1cd1 43bf
00000040: fcca 7fbe 1773 143f bea1 ec3e 0614 223f
00000050: e57b afbe bc93 ba3e 7965 0b3f 6dce 91be
00000060: 9984 2fbf 4c21 923e 4e9a d83e d4b6 1ebf
00000070: 7e44 0a3e c968 28bf 9f86 a93e b21f 463f
00000080: 8be2 db3d c710 a6be 2f0a e6be e94a 023f
00000090: 04da acbe 30d8 253f 78b0 d33e 1c45 e93e
000000a0: 43a9 df3e 60ad 353f bd3f 053f aeae 343f
000000b0: 49e4 0b3f 80dc e23e ea1d 083f c4e3 313f
000000c0: 0e27 febe a337 26bf
0.577211 0.55721074 0.41974592 0.5069082 0.5363085 -0.35728696 -0.5774685 -0.44407278
0.4986523 0.46708643 -0.51259273 0.57929593 0.59669393 0.82099974 -0.55120105 -0.7649095
-0.24979776 0.57988113 0.4621715 0.63311803 -0.34274212 0.36440837 0.5445171 -0.28477803
-0.685617 0.28541028 0.42305225 -0.61997724 0.1350269 -0.6578489 0.3311052 0.77392113
0.10736569 -0.32434675 -0.44929644 0.50895554 -0.33760083 0.64783 0.41345572 0.4556054
0.43683824 0.70967674 0.5205038 0.7057904 0.5464521 0.44308853 0.53170645 0.6948817
-0.4963917 -0.64928645

gnn.batch_norms.2.running_var f4 [50]
00000000: f14e 0b41 8228 e540 78ab e040 3519 c340
00000010: 5c5c f640 e70f ac40 668a 0041 b08f fa40
00000020: d464 c840 7b80 ec40 d6c5 f540 3722 b140
00000030: 2b1c 0141 0ceb 1741 dcc4 eb40 b1af 2441
00000040: 8e2c 2441 b1e8 db40 cc83 de40 094f bd40
00000050: 539b 1941 f92b 0f41 a1ed 2141 4f43 1b41
00000060: 5af3 3f41 5d91 d940 f384 e540 44f7 b940
00000070: 1209 2541 bfe7 b240 03c0 fa40 db6d d240
00000080: b1fa b240 358a d840 87c0 0a41 4a31 b940
00000090: 09c9 0a41 25e7 f440 f7ff 0241 1272 0d41
000000a0: a04b cf40 a77b f440 b463 f240 977c cc40
000000b0: a6d2 ce40 ed59 d340 298f d440 9386 1341
000000c0: d9a1 e040 3f24 0a41
8.706773 7.161195 7.0209312 6.096827 7.6987743 5.376941 8.033789 7.83004
6.262308 7.3906837 7.6804 5.5354266 8.069377 9.4948845 7.3677807 10.292893
10.260878 6.8721547 6.9535885 5.915898 9.600421 8.9482355 10.120515 9.703933
11.996912 6.7989945 7.172479 5.811434 10.314714 5.5907893 7.835939 6.57591
5.593102 6.766871 8.672004 5.7872667 8.674081 7.653216 8.187491 8.840349
6.4779816 7.6400943 7.574671 6.3902087 6.463214 6.6047273 6.6424756 9.220355
7.019757 8.633849

exp_avg f4 [1, 1, 50]
00000000: 3a5d 9036 6661 20b7 9379 14b6 2b95 fa35
00000010: aa14 e736 35b7 90b6 68c6 0835 fae0 cb35
00000020: 5f5f 0e37 1cad 2936 11ae 4eb4 376d 9b35
00000030: e501 7535 7140 a335 6db5 11b5 8e89 c7b6
00000040: fe07 ff36 d552 e7b5 9359 4237 56dd 2936
00000050: ab89 de36 d9c4 fcb5 7ec3 6134 cffa d536
00000060: 1335 0e36 4382 5d36 4359 a7b6 1161 5836
00000070: 8b0b 1635 9b6e 59b4 c5ac 08b7 ba19 b9b5
00000080: 9a81 2136 be03 ff35 0ded b134 2d63 cbb6
00000090: 6d7c f9b6 2409 87b4 9445 57b7 6b73 2e36
000000a0: 982b 1bb6 e2db 3436 3642 fbb6 03bc 95b5
000000b0: d246 3135 355e 6e36 d9e0 e235 7d13 4a37
000000c0: f845 95b4 8ea7 2c36
4.3023874e-06 -9.5594205e-06 -2.2124484e-06 1.8669865e-06 6.886742e-06 -4.3128625e-06 5.0952667e-07 1.5190155e-06
8.486065e-06 2.5283725e-06 -1.924857e-07 1.1580186e-06 9.127237e-07 1.2163201e-06 -5.428072e-07 -5.9466756e-06
7.6005226e-06 -1.7234948e-06 1.1584157e-05 2.5311797e-06 6.6321422e-06 -1.8832753e-06 2.1025878e-07 6.3770926e-06
2.1190542e-06 3.3007389e-06 -4.9873793e-06 3.2243008e-06 5.589615e-07 -2.0249938e-07 -8.146458e-06 -1.3791062e-06
2.4066308e-06 1.900007e-06 3.3141296e-07 -6.061417e-06 -7.4352633e-06 -2.515236e-07 -1.2831199e-05 2.5995203e-06
-2.3122175e-06 2.6950079e-06 -7.488091e-06 -1.1156084e-06 6.6040695e-07 3.55196e-06 1.6903751e-06 1.2044676e-05
-2.7804322e-07 2.5727527e-06

exp_avg_sq f4 [1, 1, 50]
00000000: 356a 7533 3dec 9632 5e6d 1634 c85a f532
00000010: 9ce0 5332 5f07 e333 d5ba 6534 d619 6d33
00000020: b724 0c34 02c2 1334 f349 cf31 9d13 2d33
00000030: 3d64 3033 873f e833 a070 1933 f4bc f931
00000040: ff0d e131 6604 aa33 c556 7833 1008 c833
00000050: 9a73 3a32 e737 eb33 25db 6f32 2f91 0a33
00000060: 4a20 8c33 4194 3433 cef2 ba33 e66e 8933
00000070: 6863 2d33 e85d 9932 99ad fb33 2cc9 bd32
00000080: aef3 9c33 979a b033 0475 4233 9694 f832
00000090: 57f9 9e32 68ea bf32 e956 0f34 c2ad 4d32
000000a0: 1c39 ca32 1e81 1834 3dc7 d733 dcef 8a33
000000b0: bc5d a832 8cbe a032 1472 0034 9166 8b32
000000c0: c377 7c32 0467 8c33
5.7140102e-08 1.7569727e-08 1.4009626e-07 2.8563036e-08 1.2332887e-08 1.0571852e-07 2.1395256e-07 5.520436e-08
1.3051873e-07 1.3761021e-07 6.0329e-09 4.029754e-08 4.106936e-08 1.08148974e-07 3.572552e-08 7.2683353e-09
6.549953e-09 7.917042e-08 5.7820916e-08 9.314692e-08 1.085291e-08 1.0953209e-07 1.3961459e-08 3.2262673e-08
6.5251314e-08 4.2044352e-08 8.705466e-08 6.399732e-08 4.037011e-08 1.7854248e-08 1.17196755e-07 2.2093978e-08
7.308641e-08 8.2237584e-08 4.527557e-08 2.8938569e-08 1.8507007e-08 2.2341922e-08 1.334953e-07 1.1972078e-08
2.3541865e-08 1.4203076e-07 1.0047959e-07 6.469756e-08 1.96004e-08 1.8713102e-08 1.196243e-07 1.6228372e-08
1.4695561e-08 6.5379965e-08

exp_avg f4 [1, 1, 50]
00000000: 383b ba34 2781 a8b5 aec5 9f35 2ce7 2536
00000010: 26c0 68b5 97fc 09b6 f355 de34 9163 4136
00000020: f142 4a35 98c1 c4b5 a2fb deb5 9cd8 bab5
00000030: f851 b1b5 02e0 3735 07cc 1f36 11c5 a7b5
00000040: 38db 3236 febe 4536 f7ed 0435 a384 17b6
00000050: 3df0 00b6 efbf af34 9231 4b35 774b a334
00000060: 5bf2 b035 22d8 3b36 c90b 7434 b552 3736
00000070: cf23 6b35 02e9 e734 f959 2336 962c 8935
00000080: 50a1 3036 cb10 b035 4242 0334 75fc ceb5
00000090: a761 ebb5 1767 bab4 de1e 0d36 938d 00b5
000000a0: a7d3 d3b4 66ed 0136 8d9f 06b6 4a82 ff34
000000b0: 78af 3d34 c420 40b5 4e3a 8635 bd46 02b6
000000c0: 825b f235 9b9a 8235
3.4688287e-07 -1.2554564e-06 1.1903956e-06 2.4721476e-06 -8.670635e-07 -2.0561617e-06 4.141326e-07 2.8817196e-06
7.5348277e-07 -1.4659481e-06 -1.6613524e-06 -1.3921122e-06 -1.3211384e-06 6.8498787e-07 2.3811606e-06 -1.2499823e-06
2.665167e-06 2.946646e-06 4.9520116e-07 -2.2577958e-06 -1.9213323e-06 3.273594e-07 7.569553e-07 3.0416024e-07
1.3183557e-06 2.7990977e-06 2.2728558e-07 2.7317267e-06 8.759643e-07 4.3196638e-07 2.4341264e-06 1.0220272e-06
2.631994e-06 1.3117909e-06 1.222443e-07 -1.5421671e-06 -1.7537285e-06 -3.4720208e-07 2.1028604e-06 -4.7889733e-07
-3.945581e-07 1.9360682e-06 -2.0060427e-06 4.759225e-07 1.7665832e-07 -7.1573254e-07 1.0000747e-06 -1.9412685e-06
1.8057037e-06 9.730751e-07

exp_avg_sq f4 [1, 1, 50]
00000000: 5077 e031 cf44 c430 f228 c133 5658 a832
00000010: 1400 6330 349d 7932 3c2f d233 23bb bb32
00000020: d9b6 b633 ed76 8f33 7c87 aa2f f576 9b32
00000030: 02e4 ac32 38fa c032 71ad 2d32 6187 1630
00000040: 7d8a 8230 ddac 9333 ab3b 0433 ce57 8d33
00000050: c5b8 9d31 baeb db32 995b b131 1f0a 1a2f
00000060: d43d 4833 e8a7 4932 02b7 3133 5cde 4733
00000070: d447 1b33 ba5e a12f 4bf1 6b33 1b11 6a32
00000080: 814a fe32 ea6d 8332 74e8 9d31 a150 bd32
00000090: 53e8 de2f fc80 6731 899f 1d31 d821 b631
000000a0: bc3d 0032 b8fc db33 4c62 f632 5898 2533
000000b0: e832 7e30 fa60 cd31 07c7 1d33 1e1a ce31
000000c0: a485 8e31 131b 4a33
6.5328223e-09 1.4280434e-09 8.994711e-08 1.9597945e-08 8.258223e-10 1.4529451e-08 9.787479e-08 2.1854765e-08
8.508295e-08 6.680589e-08 3.1019087e-10 1.809847e-08 2.0127121e-08 2.2465528e-08 1.0109361e-08 5.4762067e-10
9.498106e-10 6.8766646e-08 3.0787913e-08 6.581796e-08 4.5903072e-09 2.5602152e-08 5.1617914e-09 1.4009814e-10
4.662236e-08 1.1737917e-08 4.137747e-08 4.6535533e-08 3.6154077e-08 2.9353037e-10 5.4934656e-08 1.3624482e-08
2.9603372e-08 1.530039e-08 4.5957282e-09 2.2039162e-08 4.054664e-10 3.3688243e-09 2.2937192e-09 5.3007447e-09
7.464617e-09 1.02439515e-07 2.868287e-08 3.8555612e-08 9.2477004e-10 5.97731e-09 3.6735425e-08 5.9983583e-09
4.147937e-09 4.7056414e-08
