src/checkpoints/kitti_only_backup/checkpoint_epoch_10.pth (torch, 128415 bytes, 60 tensors)

gnn.convs.0.att_src f4 [1, 1, 50]
0.24383093 0.16909522 0.1355912 0.038084224 0.0036782566 -0.21959682 -0.2392494 0.03182293
-0.1772054 0.17538401 0.16945675 -0.13782586 0.09196404 0.2672654 -0.28092098 -0.14138393
-0.2811027 0.19332018 -0.20185523 -0.3269436 0.16325943 -0.0014286833 -0.29366633 -0.15016487
-0.039867442 -0.33558345 -0.14517073 -0.18448216 -0.15645026 -0.18650053 -0.08306451 0.05880346
-0.07311112 0.036091797 -0.15338387 0.31486022 -0.1616959 -0.32720384 0.027502254 0.0052940003
0.043587424 -0.057344966 0.28333408 -0.07854645 0.015891148 -0.17171982 0.02909846 0.13232645
-0.12717943 -0.124418825
00000000: d1ae 793e 4c27 2d3e 6bd8 0a3e 34fe 1b3d
00000010: e80e 713b fddd 60be cbfd 74be c358 023d
00000020: 5575 35be de97 333e 1286 2d3e 3922 0dbe
00000030: a557 bc3d 03d7 883e e0d4 8fbe f3c6 10be
00000040: b1ec 8fbe baf5 453e 23b3 4ebe 2765 a7be
00000050: 7b2d 273e a842 bbba 6f5b 96be d2c4 19be
00000060: 0b4c 23bd 98d1 abbe a3a7 14be e4e8 3cbe
00000070: 7f34 20be fff9 3ebe ba1d aabd e6db 703d
00000080: 48bb 95bd fed4 133d a910 1dbe 5c35 a13e
00000090: 9c93 25be 4387 a7be 684c e13c 4b79 ad3b
000000a0: ba88 323d 8ee2 6abd 2a11 913e f6dc a0bd
000000b0: 272e 823c 52d7 2fbe e55f ee3c 9680 073e
000000c0: 533b 02be 4ccf febd

gnn.convs.0.att_dst f4 [1, 1, 50]
0.14677843 -0.053840652 0.2935052 -0.17505883 -0.07046389 0.011002605 0.2811143 0.018206922
-0.1874078 0.23669407 0.24493743 0.010952506 -0.22725946 0.0634514 0.10782106 0.19597973
0.33052042 0.03860912 0.33334488 -0.090669036 0.25652522 0.24592842 -0.32317314 -0.1780968
-0.08491692 -0.11030629 -0.10127991 0.21227704 -0.09803206 -0.27914348 -0.16889714 -0.12511802
-0.34126988 0.3261437 -0.22030522 0.042226475 0.0015475182 -0.088183254 -0.17193918 0.16296718
0.21335931 -0.15212512 -0.32548565 0.19681725 0.0735824 0.19932611 -0.252325 0.1270261
0.1313551 -0.2347131
00000000: 164d 163e 0488 5cbd 5046 963e 9f42 33be
00000010: 5f4f 90bd 4544 343c 37ee 8f3e af26 953c
00000020: d5e7 3fbe ee5f 723e e1d0 7a3e 2472 333c
00000030: b4b6 68be cff2 813d 4ad1 dc3d e9ae 483e
00000040: f939 a93e 9924 1e3d 2eac aa3e b0b0 b9bd
00000050: 4657 833e a9d4 7b3e f376 a5be 025f 36be
00000060: ece8 adbd 44e8 e1bd d76b cfbd 275f 593e
00000070: 08c5 c8bd e5eb 8ebe 5ff3 2cbe f01e 00be
00000080: edba aebe 4ffc a63e b197 61be abf5 2c3d
00000090: 18d6 ca3a 6c99 b4bd d310 30be dee0 263e
000000a0: dd7a 5a3e b0c6 1bbe 0ea6 a6be 768a 493e
000000b0: 5fb2 963d 251c 4c3e be30 81be 2113 023e
000000c0: f481 063e a258 70be

gnn.convs.0.bias f4 [50]
-0.0132471435 -0.006569002 0.008577171 0.00085108285 0.007437268 -0.0036986328 -0.0027238396 -0.0007346167
-0.00492009 0.0007658983 -0.041501667 -0.0041487506 -0.002736445 -0.008670907 -0.0009483831 6.549544e-05
-0.0031617149 -0.0021035848 0.0013305737 -0.003672995 -0.014314092 0.00074490305 8.2082566e-05 0.0034051104
0.0025192131 -0.0037699842 -0.00085968577 -0.0038571022 -0.0018816629 -0.003495324 -0.0045601777 -0.00842004
-0.00388277 -0.001878124 -0.002988672 -0.003965211 -0.010509587 -0.005587151 0.002333232 0.00038159924
0.0029720422 0.0075543034 0.0018065504 -0.0029794055 -0.006983936 -0.001002071 -0.0016895653 -0.011048997
0.002878518 -0.024873458
00000000: 8c0a 59bc c840 d7bb 4387 0c3c 341b 5f3a
00000010: 53b4 f33b c364 72bb 7282 32bb 4b93 40ba
00000020: b538 a1bb 91c6 483a a7fd 29bd 3ef2 87bb
00000030: ee55 33bb 6b10 0ebc ea9c 78ba 995a 8938
00000040: c634 4fbb 4cdc 09bb a566 ae3a a1b6 70bb
00000050: a785 6abc 9945 433a be23 ac38 4628 5f3b
00000060: 6219 253b d711 77bb 895c 61ba 70c7 7cbb
00000070: 21a2 f6ba ce11 65bb 8b6d 95bb 35f4 09bc
00000080: 1276 7ebb 622b f6ba 98dd 43bb 9aee 81bb
00000090: 6730 2cbc 6b14 b7bb 23e9 183b 6211 c839
000000a0: 98c6 423b 178a f73b c6c9 ec3a 2142 43bb
000000b0: 80d9 e4bb ec57 83ba 6774 ddba da06 35bc
000000c0: 85a5 3c3b 6cc3 cbbc

gnn.convs.0.lin.weight f4 [50, 50]
-0.19988285 -0.029492613 -0.11753766 -0.117351286 -0.05479981 -0.16971298 0.16042177 -0.202755
0.15686764 -0.13183767 -0.047294416 -0.038039945 0.009864729 -0.09097636 -0.03553647 0.13703378
0.1565617 0.037904292 -0.106201194 -0.17760827 0.040891863 -0.111501224 -0.018983433 -0.17624901
-0.1432417 -0.11447394 0.075131536 -0.13999973 0.09014255 0.16613424 0.22951321 0.069619514
-0.12948659 0.17418058 0.038026173 -0.15783708 0.04694434 0.0661981 0.20414352 0.2545633
-0.098305054 0.11049011 0.07298363 -0.11315213 -0.09530747 0.12732069 -0.0866676 0.24966626
-0.15391354 0.24799973 0.09887683 -0.05232616 0.1867089 0.024825376 0.23586719 0.2157317
-0.17058282 -0.033137184 -0.0007454619 0.1762598 -0.19970989 0.0029376638 -0.06816463 -0.12749855
-0.12405707 -0.17346093 0.17238413 -0.005144044 0.07100217 -0.18390845 0.17033236 0.15076402
-0.1832175 0.12622601 -0.030026142 0.23274046 -0.0795354 -0.07329536 -0.2203115 -0.25554216
-0.030200668 -0.14759971 -0.054105762 0.01596027 0.111261144 0.0022859764 0.16705778 -0.17306963
0.078863405 -0.19161168 -0.022550883 -0.1312271 0.08535242 0.05996617 -0.016218426 -0.2124298
0.1380468 0.16738895 -0.04247627 -0.12852955 0.19069812 -0.03559927 0.08559261 0.09385722
0.2929404 -0.07819299 -0.024507299 -0.14122345 -0.21682195 -0.110029176 0.083642185 0.18320842
-0.09741275 -0.23840931 -0.23260605 0.09313019 -0.19234642 0.096514806 0.1874415 0.09232766
0.0090733515 0.13728912 -0.22261061 0.1725086 -0.24991775 -0.101448014 0.18404453 -0.16895767
-0.031294946 0.03655358 0.08976778 0.1357574 -0.03301749 -0.23354389 0.10220724 0.18450123
0.15977547 0.13807967 0.059656434 -0.005173396 0.10022657 -0.07334299 0.09126952 -0.040273197
0.049280223 -0.21517876 -0.246074 0.076306194 -0.030396052 0.026490916 0.13882782 0.14610407
-0.10742746 -0.18152633 -0.042968076 0.08577884 0.22146605 0.12480954 0.23923649 0.1161626
-0.005607541 0.072488695 0.117107645 -0.1043475 0.16374317 0.065492205 0.019833954 -0.17373396
-0.0397904 0.19362092 0.22496212 0.015462101 0.1405629 0.060280103 0.06383802 0.09316971
0.016986428 0.21405703 -0.19560546 -0.11040783 0.044392873 0.041562654 0.05690927 0.1864082
-0.12931593 0.11668821 -0.13530429 0.12623715 0.14863248 -0.1898277 0.006180416 -0.13059297
-0.19903935 -0.20595694 0.053604037 -0.1454722 -0.14471869 -0.2034548 -0.062418208 -0.025836075
-0.093921386 0.09123648 0.15107973 0.09411963 0.14119594 0.23402978 0.13570683 -0.24759123
0.14572294 0.027750112 -0.061052553 0.19887796 0.03532085 -0.20629837 0.05271177 -0.022585714
-0.18662643 0.20541267 0.016542906 -0.07904646 -0.13081412 -0.051139355 0.0876046 0.034483496
0.07711443 -0.24118455 -0.062400445 0.1978829 -0.18880443 0.12812458 0.16697153 -0.21436289
0.07033982 0.04603167 -0.11594293 -0.04916785 -0.1302727 0.21437187 -0.18823506 -0.21786511
-0.18990688 -0.12989576 0.13824594 -0.007681302 0.1798873 -0.16316737 0.105332516 -0.22517629
-0.06491968 -0.04189898 0.09391882 0.18513812 0.19858511 -0.1145645 0.23626138 0.07824735
00000000: 17ae 4cbe 7e9a f1bc 96b7 f0bd df55 f0bd
00000010: c475 60bd 3dc9 2dbe 9b45 243e 029f 4fbe
00000020: e9a1 203e 7400 07be cab7 41bd c6cf 1bbd
00000030: ac9f 213c d051 babd b18e 11bd 9552 0c3e
00000040: b651 203e 8841 1b3d 0380 d9bd f1de 35be
00000050: 3a7e 273d c15a e4bd 2583 9bbc 9f7a 34be
00000060: f4ad 12be 5071 eabd 90de 993d 175c 0fbe
00000070: a89c b83d 181f 2a3e 8305 6b3e ad94 8e3d
00000080: 2298 04be 655c 323e 55c1 1b3d 0ba0 21be
00000090: b548 403d df92 873d 000b 513e 1f56 823e
000000a0: 2954 c9bd a448 e23d 7178 953d 4ebc e7bd
000000b0: 9030 c3bd 5b60 023e c87e b1bd 83a8 7f3e
000000c0: 839b 1dbe a4f3 7d3e ef7f ca3d f553 56bd
000000d0: 9e30 3f3e 965e cb3c 2b87 713e c5e8 5c3e
000000e0: 43ad 2ebe dbba 07bd 1a6b 43ba 737d 343e
000000f0: c080 4cbe d285 403b e699 8bbd fb8e 02be
00000100: a211 febd be9f 31be 7785 303e 5e8f a8bb
00000110: 9669 913d 7f52 3cbe 9b6b 2e3e e261 1a3e
00000120: 5e9d 3bbe 6441 013e 62f9 f5bc 8453 6e3e
00000130: 75e3 a2bd e11b 96bd 5699 61be 6cd6 82be
00000140: 6467 f7bc 6124 17be 019e 5dbd 1dbf 823c
00000150: e2dc e33d 52d0 153b 3211 2b3e 2a39 31be
00000160: 2383 a13d da35 44be a1bc b8bc 6660 06be
00000170: 40cd ae3d 169f 753d 81dc 84bc 3387 59be
00000180: 245c 0d3e 0268 2b3e 99fb 2dbd 409d 03be
00000190: 5e46 433e 8ad0 11bd 2e4b af3d 3738 c03d
000001a0: 49fc 953e a523 a0bd 88c3 c8bc e19c 10be
000001b0: 9306 5ebe fa56 e1bd 984c ab3d fd9a 3b3e
000001c0: 5680 c7bd 9221 74be 4830 6ebe 0bbb be3d
000001d0: 76f6 44be 8ea9 c53d aaf0 3f3e 4916 bd3d
000001e0: 65a8 143c 8595 0c3e 09f4 63be 18a6 303e
000001f0: 70ea 7fbe fac3 cfbd 2b76 3c3e 3d03 2dbe
00000200: 212f 00bd 35b9 153d 2bd8 b73d fd03 0b3e
00000210: 593d 07bd 2126 6fbe 0852 d13d e4ed 3c3e
00000220: 2e9c 233e c264 0d3e 4e5a 743d 9785 a9bb
00000230: 9743 cd3d d934 96bd 84eb ba3d 82f5 24bd
00000240: 0fda 493d d257 5cbe d3fa 7bbe 6c46 9c3d
00000250: 2401 f9bc 7a03 d93c e128 0e3e 4e9c 153e
00000260: ee02 dcbd 0ae2 39be 4bff 2fbd d1ac af3d
00000270: ffc7 623e 259c ff3d 69fa 743e a8e6 ed3d
00000280: 77bf b7bb f474 943d 22d6 ef3d 24b4 d5bd
00000290: 4aac 273e c720 863d d17a a23c 51e7 31be
000002a0: 42fb 22bd 9044 463e 785c 663e c154 7d3c
000002b0: b9ef 0f3e 45e8 763d 82bd 823d c3cf be3d
000002c0: 1f27 8b3c c431 5b3e cc4c 48be 801d e2bd
000002d0: 4dd5 353d 9a3d 2a3d b219 693d cbe1 3e3e
000002e0: 656b 04be 3afa ee3d 358d 0abe 5044 013e
000002f0: 1d33 183e 3162 42be 1685 ca3b 2aba 05be
00000300: f9d0 4bbe 60e6 52be e88f 5b3d aaf6 14be
00000310: 2331 14be 7556 50be 3caa 7fbd 2da6 d3bc
00000320: db59 c0bd 31da ba3d a5b4 1a3e cbc1 c03d
00000330: ab95 103e 81a5 6f3e bbf6 0a3e 8e88 7dbe
00000340: 6538 153e 3454 e33c 3e12 7abd aaa6 4b3e
00000350: 98ac 103d e13f 53be 4ce8 573d ad05 b9bc
00000360: 001b 3fbe b357 523e fd84 873c 1ce3 a1bd
00000370: 23f4 05be 8077 51bd 0a6a b33d 913e 0d3d
00000380: 2cee 9d3d 15f9 76be 9c97 7fbd d1a1 4a3e
00000390: f355 41be 1733 033e 96fa 2a3e f281 5bbe
000003a0: 530e 903d b48b 3c3d 7d73 edbd 3a64 49bd
000003b0: 3566 05be 4d84 5b3e b1c0 40be 0818 5fbe
000003c0: f376 42be 6503 05be 5890 0d3e 6eb3 fbbb
000003d0: 6034 383e 5915 27be 93b8 d73d 9d94 66be
000003e0: 9cf4 84bd 449e 2bbd 8358 c03d d994 3d3e
000003f0: e559 4b3e cba0 eabd 81ee 713e 2640 a03d

gnn.convs.1.att_src f4 [1, 1, 50]
0.20826095 0.19973804 -0.2707648 0.26006794 0.35581255 -0.13769376 -0.2984086 0.06180576
0.1518656 -0.2447595 -0.15952414 -0.22894646 0.019377211 0.059791185 -0.044121057 -0.241883
-0.06778063 -0.11500156 -0.2507802 -0.3126884 0.18832317 -0.29479688 -0.17837119 -0.09874074
-0.23303042 -0.2585536 -0.026158059 -0.17593084 -0.2394765 0.14991808 0.010071229 -0.13613357
-0.16849509 0.19524865 0.32141024 0.24635905 0.22587386 -0.02853831 -0.033694126 -0.1440289
-0.0764295 0.035522804 0.15055719 0.27557674 0.033518564 -0.33453453 -0.31766227 0.08732175
0.18032905 -0.22271617
00000000: 5c42 553e 2188 4c3e afa1 8abe a027 853e
00000010: 102d b63e 98ff 0cbe 03c9 98be 0928 7d3d
00000020: a882 1b3e 3ca2 7abe 4c5a 23be f170 6abe
00000030: f5bc 9e3c 9ae7 743d 48b8 34bd 2db0 77be
00000040: 92d0 8abd f085 ebbd 4366 80be b218 a0be
00000050: cad7 403e 9eef 96be f0a6 36be 9638 cabd
00000060: 879f 6ebe 2361 84be 6d49 d6bc 3727 34be
00000070: 5439 75be 2084 193e cc01 253c 9966 0bbe
00000080: fa89 2cbe 43ef 473e e28f a43e 8c45 7c3e
00000090: 7a4b 673e 2dc9 e9bc da02 0abd 507c 13be
000000a0: 1287 9cbd 5c80 113d aa2b 1a3e 6518 8d3e
000000b0: c34a 093d 1c48 abbe a1a4 a2be bfd5 b23d
000000c0: 2ea8 383e b50f 64be

gnn.convs.1.att_dst f4 [1, 1, 50]
0.014161919 0.014042402 0.05468485 0.084250644 -0.19267511 -0.050805815 0.20596167 -0.32952523
0.14226016 -0.02277146 0.022979802 0.34805402 -0.06948733 0.23018582 0.30601227 -0.21531765
0.08980215 0.07354214 -0.00987406 0.30981305 0.33448854 0.24714385 -0.120618045 -0.22135124
-0.20386992 -0.28798 0.26439676 -0.07296732 0.052992076 -0.15992568 0.21554032 0.17555411
-0.02203093 -0.24763213 -0.005271892 -0.15965909 0.20110638 0.077577405 0.08224474 -0.24775381
-0.032712135 -0.28448528 -0.0028759493 0.14068954 0.1614528 -0.26738155 0.17012051 -0.21851425
0.117966704 0.30017194
00000000: 6507 683c 1a12 663c 39fd 5f3d 9a8b ac3d
00000010: a04c 45be c219 50bd 9ee7 523e 88b7 a8be
00000020: a6ac 113e 368b babc 2340 bc3c 2334 b23e
00000030: 604f 8ebd d5b5 6b3e a4ad 9c3e 3b7c 5cbe
00000040: 31ea b73d 439d 963d cfc6 21bc d19f 9e3e
00000050: 1542 ab3e 4713 7d3e 9806 f7bd e6a9 62be
00000060: 47c3 50be 1d72 93be 035f 873e e46f 95bd
00000070: 380e 593d 8fc3 23be 9ab6 5c3e 75c4 333e
00000080: 357a b4bc 4793 7dbe d6bf acbb ac7d 23be
00000090: d5ee 4d3e e7e0 9e3d ee6f a83d 2db3 7dbe
000000a0: 29fd 05bd 0ea8 91be 6c7a 3cbb eb10 103e
000000b0: e253 253e 3ce6 88be 1234 2e3e 33c2 5fbe
000000c0: 8798 f13d 23b0 993e

gnn.convs.1.bias f4 [50]
1.731352e-05 -0.00036532542 0.00018442234 5.6346587e-05 -9.9436176e-05 -6.912105e-05 -0.0003062129 6.900964e-05
-0.00023348957 -5.372614e-05 0.0007741961 -0.00026359298 0.0008300135 -0.00065240375 -0.000112910144 -7.700341e-05
-0.0003091258 -0.0001535471 9.382199e-05 -0.00028059352 0.00015794832 0.00013010866 0.00016209223 -5.277412e-05
-3.8926595e-05 5.150143e-05 0.00016086105 0.0009460908 0.00022360269 0.00027628342 -0.0010626008 -0.00010393509
0.0008030128 -0.00010370896 8.650679e-05 0.00024098299 0.00015945501 -5.4481978e-05 9.32602e-05 -0.00011684854
0.0004429073 1.2395525e-05 -0.00017513808 0.00017975603 3.5212368e-05 0.00015155532 0.00033126565 -3.2039687e-05
-0.00049065944 -6.447452e-06
00000000: 803c 9137 2689 bfb9 7f61 4139 b055 6c38
00000010: 6488 d0b8 15f5 90b8 338b a0b9 45b9 9038
00000020: e1d4 74b9 0158 61b8 6cf3 4a3a da32 8ab9
00000030: 4395 593a 1306 2bba 2cca ecb8 e47c a1b8
00000040: 2a12 a2b9 7c01 21b9 4cc2 c438 a01c 93b9
00000050: ee9e 2539 c76d 0839 4df7 2939 c859 5db8
00000060: 1d45 23b8 3d03 5838 cfac 2839 1403 783a
00000070: e476 6a39 22da 9039 f746 8bba baf7 d9b8
00000080: 4781 523a 537e d9b8 fb6a b538 61b0 7c39
00000090: 6133 2739 9483 64b8 b094 c338 950c f5b8
000000a0: 0336 e839 60f6 4f37 45a5 37b9 e47c 3c39
000000b0: feb0 1338 d2ea 1e39 b9ad ad39 5a62 06b8
000000c0: 999f 00ba 3157 d8b6

gnn.convs.1.lin.weight f4 [50, 50]
-0.12109027 0.14722393 -0.14107871 -0.20227693 -0.17977737 -0.15906574 -0.011660336 0.006188727
-0.18747598 -0.06997831 0.028615853 -0.15349671 -0.22348277 -0.09835503 -0.0991515 0.07588966
0.09846122 0.15444858 -0.012656843 -0.24348609 0.06956357 -0.11155905 -0.14223425 0.12350387
0.09047704 0.03077462 -0.22051372 -0.18127291 0.08423292 -0.09232418 -0.19427902 0.017049002
-0.11575274 0.024581265 -0.25347498 0.16928847 -0.053979643 -0.04164536 -0.06593321 -0.2436552
-0.07323444 0.2518799 0.00453702 -0.026847567 -0.14756994 -0.21732219 -0.15746288 -0.06489545
0.11293331 -0.08194793 -0.0032449008 -0.1434738 0.029457446 -0.1992339 0.032773152 0.22653043
-0.058782123 -0.22488295 -0.16244319 -0.042674128 0.18085063 0.08216516 -0.17694958 0.12138304
-0.024178566 -0.2648508 -0.095754825 -0.0031236026 0.23675063 -0.019659232 0.051393654 -0.031043693
0.14085852 0.13970056 0.1438102 0.015528837 0.14948577 -0.21245448 0.007918902 0.0006410035
0.008404118 0.2122719 0.1495123 -0.21912073 0.11059622 -0.0524652 -0.20429784 -0.10696139
-0.106861584 -0.17702724 -0.12354665 0.0990173 0.15043771 0.03587977 -0.047145564 -0.0015091833
-0.026741523 0.19891922 -0.21453805 -0.02920508 0.14399719 -0.1407545 0.16379464 0.2737978
-0.007894807 0.016449824 -0.15803644 0.061091132 -0.13054307 0.006302076 0.22609526 0.012413287
-0.03708931 0.12003561 0.25894544 0.031489942 -0.11025194 -0.13337344 0.11349491 0.24961735
0.14713159 0.16711825 -0.0807496 0.16591242 0.06271728 -0.09772286 0.14918092 -0.17990221
-0.08199863 -0.09821754 -0.107560314 -0.17767188 -0.09132772 0.32236558 -0.14290857 -0.02597897
0.10775952 -0.0465617 0.24545309 0.15848187 0.20506844 -0.023569787 -0.16314046 0.067844555
0.062446002 -0.06137123 0.09072576 0.016932689 -0.17634474 0.023426564 0.07379974 0.14129058
-0.21339907 -0.23136255 0.1937027 -0.08536253 -0.03445276 -0.14200279 -0.2244032 -0.03446397
-0.120346084 -0.038128458 0.09059386 -0.08671678 0.14046043 -0.21150766 -0.142888 0.13287814
0.13591044 0.14766297 0.0700576 -0.11482875 -0.039196372 -0.13318877 0.03447141 0.13084407
-0.1866019 0.10506678 -0.22257075 0.030278606 0.188611 -0.089430384 -0.18324047 0.09324552
0.03712906 -0.23466562 0.17736994 -0.20566912 -0.07633988 0.06685884 -0.14634627 0.19147018
-0.2510366 -0.16364427 -0.08007748 0.20269021 -0.20863795 0.0776065 -0.17334367 0.22814128
-0.079412974 0.1964696 0.09889421 0.05042594 0.07340614 0.17244515 0.024071325 -0.23985097
-0.23301521 0.07204888 0.061210625 0.08355563 0.20322295 -0.117986016 -0.19331382 -0.22808544
0.19872871 0.09786171 0.11686323 0.17991935 -0.27444923 -0.18991505 -0.018345283 0.079443544
-0.0916819 0.18612218 -0.18041702 0.063309446 -0.033762906 -0.0803404 0.006718108 -0.081706285
-0.21141106 0.119756706 0.06672003 0.071739994 -0.13160278 0.20526676 -0.18178709 -0.19228697
0.058683738 0.035304684 0.05205054 -0.2533493 0.21307309 -0.2305212 -0.04893434 0.049589776
-0.13438678 -0.118691966 0.12630877 -0.08236517 0.22274573 0.022171924 0.16610679 0.0829089
00000000: 2dfe f7bd dfc1 163e f076 10be af21 4fbe
00000010: 8f17 38be 21e2 22be fe0a 3fbc ceca ca3b
00000020: b4f9 3fbe ca50 8fbd cb6b ea3c 3e2e 1dbe
00000030: abd8 64be 5d6e c9bd f10f cbbd 0a6c 9b3d
00000040: 09a6 c93d c527 1e3e a65e 4fbc 6b54 79be
00000050: 5877 8e3d 1279 e4bd dba5 11be 99ef fc3d
00000060: 074c b93d 0e1b fc3c 59ce 61be 9b9f 39be
00000070: 4f82 ac3d 7614 bdbd 14f1 46be 59aa 8b3c
00000080: c60f edbd a65e c93c 79c7 81be f559 2d3e
00000090: c219 5dbd 5394 2abd fe07 87bd c080 79be
000000a0: f0fb 95bd 67f6 803e 48ab 943b 6eef dbbc
000000b0: 931c 17be b589 5ebe f33d 21be e8e7 84bd
000000c0: 9449 e73d 51d4 a7bd 67a8 54bb ccea 12be
000000d0: be50 f13c f903 4cbe 243d 063d 98f7 673e
000000e0: 86c5 70bd b747 66be 8257 26be 11cb 2ebd
000000f0: e830 393e 3546 a83d 4532 35be ac97 f83d
00000100: 2112 c6bc 869a 87be 1b1b c4bd 5bb5 4cbb
00000110: c26e 723e 660c a1bc 2782 523d 584f febc
00000120: 373d 103e aa0d 0f3e fb42 133e aa6c 7e3c
00000130: cc12 193e ab8d 59be 48be 013c 0409 283a
00000140: 6db1 093c ce5d 593e c119 193e 2f61 60be
00000150: 4580 e23d c0e5 56bd 7433 51be 930e dbbd
00000160: 3fda dabd a146 35be 0706 fdbd 95c9 ca3d
00000170: 580c 1a3e aaf6 123d b51b 41bd cacf c5ba
00000180: 0a11 dbbc 7bb1 4b3e ddaf 5bbe 7e3f efbc
00000190: 0074 133e f321 10be c8b9 273e 3a2f 8c3e
000001a0: 3859 01bc c8c1 863c 4ed4 21be b23a 7a3d
000001b0: 15ad 05be a581 ce3b 8485 673e 1961 4b3c
000001c0: f6ea 17bd 3bd5 f53d 7f94 843e 99fb 003d
000001d0: c5cb e1bd 0c93 08be 0570 e83d b19b 7f3e
000001e0: aaa9 163e 0c21 2b3e 0c60 a5bd f2e4 293e
000001f0: eb71 803d ec22 c8bd e2c2 183e 4938 38be
00000200: e6ee a7bd 4726 c9bd 9548 dcbd 9eef 35be
00000210: 070a bbbd 1a0d a53e a056 12be d9d1 d4bc
00000220: 06b1 dc3d 7bb7 3ebd 0e58 7b3e 1249 223e
00000230: 76fd 513e 6d15 c1bc 4b0e 27be 16f2 8a3d
00000240: 61c7 7f3d 6660 7bbd 6dce b93d 6cb6 8a3c
00000250: b793 34be 11e9 bf3c 5124 973d 7aae 103e
00000260: 4985 5abe 4eea 6cbe 005a 463e 8dd2 aebd
00000270: 561e 0dbd 2e69 11be f4c9 65be 182a 0dbd
00000280: 0278 f6bd 962c 1cbd 4689 b93d 9198 b1bd
00000290: dcd4 0f3e 7795 58be 3b51 12be 3511 083e
000002a0: 1b2c 0b3e f634 173e 5c7a 8f3d 562b ebbd
000002b0: 608c 20bd a362 08be e531 0d3d fdfb 053e
000002c0: 9214 3fbe 402d d73d 96e9 63be d70a f83c
000002d0: 3e23 413e 4727 b7bd 64a3 3bbe 82f7 be3d
000002e0: a414 183d 2f4c 70be 77a0 353e ed9a 52be
000002f0: 1558 9cbd 4aed 883d ccdb 15be c210 443e
00000300: df87 80be 5d92 27be a9ff a3bd 068e 4f3e
00000310: 30a5 55be 28f0 9e3d 0181 31be de9d 693e
00000320: 45a3 a2bd 542f 493e 0c89 ca3d 6e8b 4e3d
00000330: f555 963d 7695 303e 3a31 c53c 7e9b 75be
00000340: 8a9b 6ebe 5d8e 933d feb7 7a3d 371f ab3d
00000350: ad19 503e a7a2 f1bd 0ff4 45be 3b8f 69be
00000360: 8a7f 4b3e b86b c83d fd55 ef3d c73c 383e
00000370: 9c84 8cbe 1779 42be d948 96bc 4cb3 a23d
00000380: b8c3 bbbd d096 3e3e 3dbf 38be 62a8 813d
00000390: f94a 0abd 8289 a4bd 9323 dc3b a055 a7bd
000003a0: 247c 58be 0143 f53d 83a4 883d 6bec 923d
000003b0: e1c2 06be 7331 523e 6526 3abe e0e6 44be
000003c0: 5c5e 703d a59b 103d f232 553d 00b7 81be
000003d0: d52f 5a3e c00d 6cbe 606f 48bd a61e 4b3d
000003e0: b09c 09be c614 f3bd 1657 013e 12af a8bd
000003f0: 7517 643e e5a1 b53c e617 2a3e 24cc a93d

gnn.convs.2.att_src f4 [1, 1, 50]
0.10144907 -0.046548836 -0.19433591 0.13265352 -0.24049257 0.040509038 0.36416924 0.15443477
-0.3299071 -0.20891988 0.10535398 0.04417376 -0.311712 0.14763162 0.053302567 -0.21897483
0.016204666 0.25104898 -0.06480898 -0.014771776 -0.15577982 0.0951702 0.045277957 0.28579062
-0.15274791 0.24816564 -0.3384354 0.2421727 0.22677378 -0.2912144 0.28889593 0.06150508
-0.31868175 -0.12831733 0.08585368 0.20977779 -0.21690992 0.34885654 0.024862269 -0.053142764
-0.0651724 -0.00826512 -0.2568772 -0.29979044 -0.044150442 0.27870166 -0.32021517 -0.33270022
0.0671121 0.2728126
00000000: 88c4 cf3d fea9 3ebd feff 46be 53d6 073e
00000010: af43 76be ceec 253d 6474 ba3e 2624 1e3e
00000020: 95e9 a8be 18ef 55be d4c3 d73d 8bef 343d
00000030: b798 9fbe be2c 173e cb53 5a3d f03a 60be
00000040: a6bf 843c 7e89 803e 92ba 84bd 5205 72bc
00000050: bf84 1fbe 98e8 c23d 6175 393d 2653 923e
00000060: f369 1cbe 221f 7e3e 6847 adbe 1ffc 773e
00000070: 6337 683e 0e1a 95be 2bea 933e c0ec 7b3d
00000080: 412a a3be 9e65 03be 0ed4 af3d fdcf 563e
00000090: a21d 5ebe 539d b23e f5ab cb3c 3aac 59bd
000000a0: 1b79 85bd 6d6a 07bc 6985 83be 227e 99be
000000b0: 18d7 34bd fcb1 8e3e 3ef3 a3be af57 aabe
000000c0: 1272 893d 18ae 8b3e

gnn.convs.2.att_dst f4 [1, 1, 50]
0.00062317826 -0.2399421 -0.03183455 -0.16310968 0.20185834 0.2583761 -0.1412468 -0.12196304
0.16567418 -0.1308506 0.02914612 -0.23859245 0.31509802 -0.23871262 -0.01213209 -0.32575426
-0.2870416 -0.24010159 0.30670285 0.14298931 0.057705034 -0.07689579 0.22806598 -0.02321636
-0.069443375 0.04791322 0.113369755 -0.32706398 -0.11635216 -0.12893066 0.14073119 -0.17714788
-0.26658592 0.14737643 0.30626392 0.32603228 0.27984485 0.10779241 -0.32905728 -0.14747468
-0.044658706 0.25909972 0.0528256 -0.28771317 -0.26358208 -0.25052175 0.015868811 -0.123289555
0.10285904 -0.2764258
00000000: c95c 233a 62b3 75be f264 02bd 3906 27be
00000010: f4b3 4e3e df49 843e 00a3 10be c2c7 f9bd
00000020: 7ea6 293e b3fd 05be d8c3 ee3c 9451 74be
00000030: 8754 a13e 1571 74be acc5 46bc 43c9 a6be
00000040: 1ef7 92be 31dd 75be 2808 9d3e ca6b 123e
00000050: 1d5c 6c3d 8a7b 9dbd 218a 693e 3c30 bebc
00000060: 5438 8ebd a740 443d 672e e83d ee74 a7be
00000070: 0b4a eebd 6606 04be d61b 103e 4166 35be
00000080: f37d 88be d9e9 163e a0ce 9c3e b4ed a63e
00000090: d347 8f3e 44c2 dc3d 327a a8be 9a03 17be
000000a0: 0cec 36bd b8a8 843e a85f 583d 244f 93be
000000b0: 3bf4 86be 6344 80be 4fff 813c 3c7f fcbd
000000c0: c3a7 d23d af87 8dbe

gnn.convs.2.bias f4 [50]
-0.00010496204 8.0637896e-05 -0.00039348658 -6.0336875e-05 0.00014113428 -0.00016014013 0.00010708061 -0.00026098234
0.0002319558 -0.00016909235 -9.121374e-05 3.9827224e-05 9.824787e-05 -2.858396e-05 0.0003348772 -0.00014959068
-7.603549e-05 0.00011599517 0.00020845045 -9.1671e-05 0.000102881764 0.00011581834 0.0001726222 7.861936e-06
0.00023604212 5.4145734e-05 0.000108692344 0.00018946108 1.57869e-05 -1.3816048e-05 0.00023128827 -1.5234743e-05
-4.4614717e-07 -0.00014719235 0.00017397053 0.00023242964 -2.7352721e-06 0.00014647673 -0.00011752395 9.689837e-05
3.6036345e-05 -3.461998e-05 0.0002486858 3.389847e-05 0.0001829699 8.8257206e-05 6.556584e-05 1.9782636e-05
1.38438545e-05 -5.2567077e-05
00000000: 111f dcb8 241c a938 e04c ceb9 3a12 7db8
00000010: 72fd 1339 4aeb 27b9 7790 e038 75d4 88b9
00000020: 2939 7339 624e 31b9 014a bfb8 280c 2738
00000030: 6c0a ce38 96c7 efb7 7592 af39 71db 1cb9
00000040: 3e75 9fb8 6f42 f338 7e93 5a39 7e3f c0b8
00000050: 3ac2 d738 7fe3 f238 eb01 3539 c2e6 0337
00000060: 1382 7739 8a1a 6338 c2f1 e338 12aa 4639
00000070: 1c6e 8437 79cb 67b7 f985 7239 b998 7fb7
00000080: 0086 efb4 a557 1ab9 dc6b 3639 5bb8 7339
00000090: 9e8f 37b6 8c97 1939 3177 f6b8 eb35 cb38
000000a0: bb25 1738 ec34 11b8 0b62 8239 342e 0e38
000000b0: 9cdb 3f39 ba16 b938 6480 8938 e3f2 a537
000000c0: e742 6837 787b 5cb8

gnn.convs.2.lin.weight f4 [50, 50]
-0.18912973 0.0077682245 0.063211694 -0.040114004 0.016746948 -0.06062422 0.10423856 0.004854167
-0.24731529 0.17253707 0.07894478 0.042700592 -0.19342878 -0.1632816 -0.0065890467 -0.07973389
-0.11294484 0.14276493 -0.14559208 0.08538671 -0.14097427 -0.16490449 -0.05862809 -0.17234561
-0.07856528 -0.049646188 0.057042543 0.07553171 -0.14253539 0.19812013 0.10400037 -0.11500344
0.19517593 -0.012515774 -0.14373128 0.00012571237 0.14421798 0.15728898 0.20656507 -0.09896997
-0.10842662 -0.06349386 0.14751843 -0.009159316 -0.13877039 0.1553244 -0.1904144 -0.24727592
0.023252191 -0.3127016 0.1364031 0.01891319 -0.049212396 0.08206776 -0.12649909 0.122681394
-0.14058714 -0.17950793 0.15156487 -0.16589741 0.2968288 0.15135644 -0.10278982 -0.13986611
0.08022058 -0.086094804 0.1118136 0.01405509 0.2304225 0.100267604 0.06537312 -0.056316383
0.22862463 0.21966879 -0.049886126 -0.007994892 -0.16209851 -3.5352332e-05 -0.21138157 0.20004803
0.040479355 0.0031721096 -0.23572885 -0.036456253 0.28197283 -0.08576277 0.030478833 -0.1609708
0.07889834 -0.092100985 0.08117623 0.33322522 -0.091904916 -0.049057994 0.05905985 -0.1297607
-0.13471535 0.08273726 0.07476615 0.30301356 -0.09723773 -0.16458431 0.044525057 0.20775947
0.1836403 -0.2276358 -0.023736814 0.13898905 -0.2607547 0.10813737 -0.33338395 0.04300981
-0.15865804 -0.13289653 0.048092015 -0.03807131 -0.18847121 -0.037091855 -0.11798788 0.031046484
-0.15529902 0.102752216 0.20340572 -0.087138385 -0.08565631 -0.047568515 0.041097313 0.17520775
-0.100534916 0.21745461 0.06553481 0.1284505 0.19287299 0.055328675 0.115128666 0.15967453
0.16893733 -0.15455152 0.14263028 -0.12855387 -0.0077504735 0.0913556 0.09230482 -0.20267913
-0.0425313 0.04874567 -0.036802005 -0.22524054 0.048354093 -0.18849276 -0.10100877 0.05890334
-0.2527158 -0.033710506 -0.07517434 -0.27426922 0.059143588 0.10329848 -0.012775574 0.2530316
-0.30988532 0.044574097 -0.26594323 0.09304487 -0.13866365 0.08985111 0.097746894 0.094262876
-0.1844461 0.0813728 0.16699274 0.09509313 -0.13880676 0.071072154 -0.24288884 0.09608369
-0.07785915 0.035138134 -0.05720742 0.064191885 0.10423568 0.13999246 -0.17300113 0.08656269
0.05186263 -0.05977715 -0.23116706 0.12855445 0.19492304 0.09182162 0.16583076 -0.050942518
0.24833743 -0.18640895 -0.0779269 -0.172719 -0.16223855 -0.20530736 0.098851554 -0.24953859
0.17347814 0.11325345 0.29245633 0.0145383915 -0.25647444 -0.20508428 -0.13156861 -0.1527507
0.28276214 0.18490922 0.04655615 -0.01134445 -0.10416181 0.1285387 -0.18063845 -0.07826219
0.13278618 -0.12983178 -0.048912793 0.037870307 -0.08849653 -0.2239335 0.08270044 0.07391211
0.13640262 0.09173029 0.19535094 -0.16494335 -0.13489027 -0.022590663 0.037569854 0.13067973
0.09608542 -0.15748012 0.21515234 -0.022943072 0.26470548 -0.14192699 0.11533177 0.16084531
0.06215661 0.016531575 -0.17752232 0.08064933 -0.09529166 -0.068291724 0.026566371 0.23405942
0.22744535 0.009829143 0.07776186 0.09838089 0.11090772 0.10320884 -0.14700598 -0.025125347
00000000: 39ab 41be 978c fe3b 2275 813d 954e 24bd
00000010: e530 893c 1a51 78bd 077b d53d b40f 9f3b
00000020: 3840 7dbe 8fad 303e cdad a13d d1e6 2e3d
00000030: 3212 46be 4b33 27be eee8 d7bb 864b a3bd
00000040: a04f e7bd f830 123e 1716 15be 3adf ae3d
00000050: 8f5b 10be b9dc 28be 0224 70bd 5e7b 30be
00000060: d5e6 a0bd cd59 4bbd 71a5 693d 5fb0 9a3d
00000070: ccf4 11be 01e0 4a3e 25fe d43d ec86 ebbd
00000080: 33dc 473e f60e 4dbc 4b2e 13be a8d1 0339
00000090: e1ad 133e 5d10 213e cb85 533e c5b0 cabd
000000a0: c70e debd 1209 82bd 120f 173e f510 16bc
000000b0: d319 0ebe 5c0d 1f3e fefb 42be e635 7dbe
000000c0: 617b be3c 6d1a a0be 41ad 0b3e d6ef 9a3c
000000d0: f092 49bd 2413 a83d fa88 01be 6240 fb3d
000000e0: 13f6 0fbe edd0 37be d233 1b3e 03e1 29be
000000f0: f2f9 973e 2ffd 1a3e 7883 d2bd 1039 0fbe
00000100: b04a a43d 7952 b0bd 87fe e43d 5247 663c
00000110: e0f3 6b3e 1a59 cd3d 58e2 853d 02ac 66bd
00000120: 931c 6a3e dbf0 603e 6555 4cbd 02fd 02bc
00000130: 27fd 25be 4747 14b8 6974 58be 64d9 4c3e
00000140: aecd 253d 2be3 4f3b e762 71be 2753 15bd
00000150: be5e 903e 64a4 afbd bfae f93c 88d5 24be
00000160: 7495 a13d 719f bcbd b93f a63d 7f9c aa3e
00000170: a538 bcbd 09f1 48bd bee8 713d fddf 04be
00000180: d2f2 09be 2772 a93d ff1e 993d 9824 9b3e
00000190: 9324 c7bd ca88 28be e85f 363d e6be 543e
000001a0: 340c 3c3e 5c19 69be b573 c2bc 2553 0e3e
000001b0: a481 85be 2077 dd3d 4db1 aabe 0e2b 303d
000001c0: 4177 22be 0716 08be 22fc 443d a9f0 1bbd
000001d0: 99fe 40be a1ed 17bd a1a3 f1bd 3255 fe3c
000001e0: b506 1fbe c16f d23d 9749 503e 9c75 b2bd
000001f0: 936c afbd 34d7 42bd a855 283d a969 333e
00000200: 40e5 cdbd 6cac 5e3e 1d37 863d 8788 033e
00000210: 7f80 453e 52a0 623d 94c8 eb3d b881 233e
00000220: e8fd 2c3e c142 1ebe ac0d 123e a0a3 03be
00000230: aff7 fdbb a518 bb3d 4f0a bd3d 1e8b 4fbe
00000240: 4d35 2ebd 8aa9 473d b3bd 16bd 75a5 66be
00000250: f10e 463d 3f04 41be b0dd cebd a144 713d
00000260: f763 81be 0714 0abd 01f5 99bd 046d 8cbe
00000270: 8c40 723d 278e d33d a450 51bc 5c8d 813e
00000280: 4aa9 9ebe 5493 363d b629 88be 4f8e be3d
00000290: d8fd 0dbe dc03 b83d 862f c83d e50c c13d
000002a0: 70df 3cbe c8a6 a63d 2500 2b3e 30c0 c23d
000002b0: 5c23 0ebe 478e 913d dab7 78be 87c7 c43d
000002c0: 9e74 9fbd 01ed 0f3d 5452 6abd 0977 833d
000002d0: 8479 d53d 2f5a 0f3e 3527 31be c847 b13d
000002e0: e96d 543d e3d8 74bd 0fb7 6cbe c7a3 033e
000002f0: e899 473e f90c bc3d 8acf 293e 1aa9 50bd
00000300: 2b4c 7e3e fde1 3ebe 2398 9fbd 40dd 30be
00000310: dd21 26be 183c 52be af72 ca3d 0b87 7fbe
00000320: 41a4 313e 6df1 e73d d6bc 953e 6f32 6e3c
00000330: 9e50 83be 9d01 52be ecb9 06be ae6a 1cbe
00000340: 33c6 903e d858 3d3e a9b1 3e3d 12de 39bc
00000350: c952 d5bd a69f 033e 49f9 38be ed47 a0bd
00000360: 1af9 073e 9ff2 04be c858 48bd e51d 1b3d
00000370: ab3d b5bd d34e 65be d95e a93d 3b5f 973d
00000380: 21ad 0b3e 17dd bb3d 140a 483e e9e6 28be
00000390: ad20 0abe 0e10 b9bc d9e2 193d e8d0 053e
000003a0: 6fc8 c43d 7842 21be e550 5c3e 1cf3 bbbc
000003b0: 7a87 873e 4f55 11be 1033 ec3d a2b4 243e
000003c0: ee97 7e3d 3a6d 873c 69c8 35be 7a2b a53d
000003d0: 4628 c3bd 88dc 8bbd b8a1 d93c 46ad 6f3e
000003e0: 6fe7 683e 6a0a 213c 9c41 9f3d ec7b c93d
000003f0: 9623 e33d 285f d33d bc88 16be acd3 cdbc

gnn.batch_norms.0.weight f4 [50]
1.0412241 0.945818 0.9681595 0.96374327 0.98865545 0.95852077 0.9867166 0.9438787
1.0485822 0.96522385 1.0286833 1.0217009 0.9902578 1.0157713 1.0163684 0.95455384
0.9883322 0.947581 0.9448639 1.042402 0.9638137 0.98288673 0.96551335 1.0115722
0.9647419 0.9301741 0.9819871 0.9749394 0.9614575 0.92111045 0.9486055 0.9290326
0.9812812 1.0402166 0.94039035 0.9648562 1.0714747 0.94633234 0.96152544 0.9857169
0.967694 0.9772837 0.9416701 0.98463595 0.95340914 0.999039 0.9525134 1.0524393
0.97424644 0.9752412
00000000: d546 853f 2121 723f 4dd9 773f e1b7 763f
00000010: 8618 7d3f 9e61 753f 7699 7c3f 09a2 713f
00000020: f137 863f e918 773f e5ab 833f 18c7 823f
00000030: 8981 7d3f cb04 823f 5c18 823f a45d 743f
00000040: 5703 7d3f ab94 723f 9ae2 713f 6e6d 853f
00000050: 7fbc 763f 779e 7b3f e22b 773f 337b 813f
00000060: 53f9 763f e41f 6e3f 8263 7b3f a195 793f
00000070: 1422 763f e5cd 6b3f cfd7 723f 15d5 6d3f
00000080: 3f35 7b3f d125 853f 6cbd 703f d100 773f
00000090: 1526 893f d642 723f 8826 763f f157 7c3f
000000a0: cbba 773f 442f 7a3f 4b11 713f 1a11 7c3f
000000b0: 9f12 743f 05c1 7f3f ebd7 733f 55b6 863f
000000c0: 3768 793f 68a9 793f

gnn.batch_norms.0.bias f4 [50]
-0.123459965 -0.019700449 -0.034167968 0.006456751 -0.016953751 -0.022616748 0.039977204 -0.043276425
-0.07435263 -0.04489503 -0.17011523 -0.10101634 -0.07132279 -0.077675834 0.07598124 -0.056401018
0.03245068 -0.018450394 -0.015062202 -0.16880164 -0.061905403 -0.006329694 -0.029635556 -0.04228546
0.03616481 -0.009934328 -0.0157771 -0.016248526 -0.053283703 -0.031459816 -0.025024671 -0.06093752
-0.00960507 -0.25369322 -0.04006736 -0.010453591 -0.24447131 -0.019753389 -0.040178243 0.01993668
0.022896731 0.03858934 -0.021924667 -0.03567874 -0.019380242 -0.0033753049 -0.049187876 -0.1455556
-0.0074069635 -0.13957562
00000000: 94d8 fcbd d662 a1bc b6f3 0bbd 2793 d33b
00000010: 98e2 8abc c246 b9bc 23bf 233d 9f42 31bd
00000020: 3146 98bd dae3 37bd b032 2ebe a8e1 cebd
00000030: af11 92bd 8214 9fbd 0d9c 9b3d c104 67bd
00000040: 01eb 043d 4825 97bc 74c7 76bc 56da 2cbe
00000050: 8590 7dbd 5269 cfbb 44c6 f2bc 8533 2dbd
00000060: 8d21 143d 97c3 22bc fa3e 81bc a11b 85bc
00000070: 0340 5abd 02dc 00bd 8a00 cdbc 9f99 79bd
00000080: 955e 1dbc 14e4 81be ac1d 24bd 8a45 2bbc
00000090: b056 7abe dcd1 a1bc f191 24bd 4052 a33c
000000a0: ed91 bb3c db0f 1e3d 5c9b b3bc df23 12bd
000000b0: 50c3 9ebc 3834 5dbb 3a79 49bd 870c 15be
000000c0: 1db6 f2bb e9ec 0ebe

gnn.batch_norms.0.running_mean f4 [50]
-0.07514442 0.02000702 0.07158181 0.057155266 -0.009171498 0.07274326 0.06389629 0.03127219
-0.06903706 0.060713105 -0.042808022 -0.03846608 -0.003913525 -0.013538972 0.0670328 0.04579447
0.07029087 0.10191837 0.04137621 -0.03663366 -0.038629267 0.03189111 -0.025401928 0.006074652
0.045663055 0.028222207 -0.01052661 -0.055184193 0.067856885 0.0239702 0.064818166 0.014016901
0.030454649 -0.020852022 -0.022494955 -0.032113977 -0.040714096 -0.02284588 0.10668998 -0.052853774
0.033866465 0.11179897 0.07338699 0.082279615 -0.02175273 -0.037075136 0.0681318 0.0017641825
0.065884516 -0.020232923
00000000: 51e5 99bd c3e5 a33c 7c99 923d a41b 6a3d
00000010: 0d44 16bc 6bfa 943d 0fdc 823d 4517 003d
00000020: 4d63 8dbd 4eae 783d 7757 2fbd 9c8e 1dbd
00000030: 073d 80bb 90d2 5dbc 7e48 893d fb92 3b3d
00000040: a9f4 8f3d 94ba d03d 1a7a 293d 2d0d 16bd
00000050: b939 1ebd 41a0 023d b417 d0bc e00d c73b
00000060: 2f09 3b3d 4232 e73c cd77 2cbc d208 62bd
00000070: 8df8 8a3d 275d c43c 63bf 843d 25a7 653c
00000080: 077c f93c dcd1 aabc 5747 b8bc f289 03bd
00000090: d3c3 26bd 4827 bbbc 4780 da3d 337d 58bd
000000a0: 90b7 0a3d dcf6 e43d eb4b 963d 3782 a83d
000000b0: c832 b2bc 19dc 17bd af88 8b3d 243c e73a
000000c0: 76ee 863d 84bf a5bc

gnn.batch_norms.0.running_var f4 [50]
0.00013636964 4.003339e-05 0.00013025399 9.706505e-05 3.5824352e-05 0.00014302775 0.00014719857 7.286825e-05
0.00014902465 0.0001096832 1.1065348e-05 5.5189845e-05 2.611817e-05 4.8182304e-05 0.00016556792 0.00012178114
0.00013038289 0.0002790128 5.7986377e-05 4.9066784e-05 5.512665e-05 7.684467e-05 2.69572e-05 2.8813187e-05
8.880036e-05 3.226584e-05 9.974515e-06 7.298019e-05 0.00015716578 3.943836e-05 0.00015515542 2.577277e-05
3.2288746e-05 2.9572508e-05 4.5063032e-05 3.513361e-05 7.064394e-05 1.3061335e-05 0.00029865126 9.033026e-05
7.7273915e-05 0.0002648515 0.00020075125 0.00023899908 1.719812e-05 5.7212965e-05 0.00015091347 4.3657063e-05
0.00012330119 8.430308e-06
00000000: 72fe 0e39 86e9 2738 ca94 0839 678f cb38
00000010: 1b42 1638 b8f9 1539 5159 1a39 d8d0 9838
00000020: 8043 1c39 b805 e638 4fa5 3937 a57b 6738
00000030: 5818 db37 5b17 4a38 4d9c 2d39 c064 ff38
00000040: 64b7 0839 7748 9239 6636 7338 0fcd 4d38
00000050: ca37 6738 ab27 a138 2522 e237 d9b3 f137
00000060: 553a ba38 2f55 0738 3758 2737 f10c 9938
00000070: decc 2439 9e6a 2538 37b1 2239 9a32 d837
00000080: c76d 0738 7a12 f837 1002 3d38 6d5c 1338
00000090: ad26 9438 0222 5b37 4b94 9c39 b06f bd38
000000a0: 1e0e a238 c4db 8a39 c180 5239 d49b 7a39
000000b0: ae44 9037 f4f7 6f38 873e 1e39 6a1c 3738
000000c0: 694a 0139 e66f 0d37

gnn.batch_norms.1.weight f4 [50]
0.99301124 0.9934996 1.1433676 0.9655073 0.94240004 1.016269 1.0572505 0.958453
1.1855816 1.001015 1.2468672 1.0084184 1.2362126 0.94322985 0.9862163 0.94609755
0.97387016 0.9361401 0.9960038 0.944195 0.943155 0.9560776 0.9423648 0.94909024
1.1221077 0.9694853 0.9248649 1.0754097 0.9733948 0.9860681 0.9953102 1.198427
0.99814373 0.9648144 1.0643085 1.005919 1.0233346 1.0217755 0.931336 0.94687724
0.96958166 0.97142 1.0417958 0.9478015 0.9880458 0.95467377 1.0292276 1.1472205
1.1428931 1.1932734
00000000: fc35 7e3f fd55 7e3f df59 923f 7d2b 773f
00000010: 2141 713f 1a15 823f fc53 873f 2d5d 753f
00000020: 23c1 973f 4221 803f 5899 9f3f db13 813f
00000030: 373c 9e3f 8377 713f ac78 7c3f 7333 723f
00000040: 8e4f 793f e1a6 6f3f 1bfa 7e3f c3b6 713f
00000050: 9b72 713f 80c1 743f d23e 713f 94f7 723f
00000060: 3aa1 8f3f 3030 783f f2c3 6c3f 06a7 893f
00000070: 6730 793f f66e 7c3f a6cc 7e3f 0e66 993f
00000080: 5986 7f3f 14fe 763f 433b 883f f4c1 803f
00000090: a1fc 823f 8ac9 823f 096c 6e3f 8c66 723f
000000a0: 8136 783f fbae 783f 9159 853f 1ea3 723f
000000b0: 92f0 7c3f 8065 743f bbbd 833f 1fd8 923f
000000c0: 524a 923f 2fbd 983f

gnn.batch_norms.1.bias f4 [50]
0.027066361 -0.009303416 -0.17832279 -0.051337026 -0.052657172 -0.092130736 0.010020169 -0.014954171
-0.23364368 -0.019061618 -0.22836632 0.031449765 -0.23247051 -0.044002347 -0.0072140335 -0.05080042
-0.09989093 -0.039840654 0.007828433 -0.02931776 -0.040232927 -0.045304224 0.009556647 -0.0791152
-0.24344303 -0.0056005325 -0.031519026 0.06868082 -0.037194915 -0.03272632 0.0038242273 -0.22109663
-0.006926839 -0.040433295 -0.11656055 0.009659532 -0.100194775 0.03489645 -0.05965653 0.010162166
-0.023569355 -0.001767757 0.016361363 -0.023975722 0.002018478 -0.021422107 0.00064690533 -0.18802956
-0.19672962 -0.16312599
00000000: 46ba dd3c 5b6d 18bc 409a 36be c646 52bd
00000010: 0caf 57bd 0aaf bcbd a32b 243c 5702 75bc
00000020: 4a40 6fbe 1c27 9cbc dcd8 69be 78d1 003d
00000030: c00c 6ebe ce3b 34bd b363 ecbb 1a14 50bd
00000040: 9e93 ccbd f42f 23bd d442 003c cd2b f0bc
00000050: 48cb 24bd ec90 39bd 7c93 1c3c 2607 a2bd
00000060: 2149 79be ac84 b7bb 181a 01bd 88a8 8c3d
00000070: b259 18bd 090c 06bd e39f 7a3b 2867 62be
00000080: 89fa e2bb 629d 25bd 4cb7 eebd 0443 1e3c
00000090: eb32 cdbd 94ef 0e3d 685a 74bd 377f 263c
000000a0: 8514 c1bc 15b4 e7ba 4408 863c bc68 c4bc
000000b0: 7148 043b 6a7d afbc 1595 293a d28a 40be
000000c0: 7d73 49be 800a 27be

gnn.batch_norms.1.running_mean f4 [50]
-0.6235497 -0.012359164 0.3845143 -0.70896596 -0.23888995 0.29024744 -0.14021176 -1.3488429
0.29341146 -0.8086593 0.5174348 0.16053712 0.4297753 -0.19610848 -0.32652548 0.19623682
0.10087558 0.36703828 -0.21226315 0.27370444 1.0075356 0.58093125 -0.0989277 -0.48307317
0.4198416 -0.6057996 0.19598563 -0.39827758 -0.9892213 -0.31501597 -0.6651523 0.35869116
-0.33665776 0.270575 0.37267676 1.0834422 0.71029717 -0.33524543 0.19686437 -0.04340058
-0.6220373 -0.3685816 -0.6465771 0.3066084 -0.30339444 -0.28001407 -0.80429125 0.3247761
0.58195716 0.31537628
00000000: f4a0 1fbf 177e 4abc 0fdf c43e cb7e 35bf
00000010: 919f 74be 509b 943e ac93 0fbe e2a6 acbf
00000020: 073a 963e 4c04 4fbf 9b76 043f d863 243e
00000030: 820b dc3e a9d0 48be 592e a7be 4ef2 483e
00000040: db97 ce3d 71ec bb3e 835b 59be fd22 8c3e
00000050: edf6 803f e9b7 143f 9b9a cabd 5e55 f7be
00000060: 7af5 d63e af15 1bbf 75b0 483e 0aeb cbbe
00000070: 9b3d 7dbf c649 a1be 6c47 2abf 5ea6 b73e
00000080: 685e acbe ce88 8a3e 7dcf be3e 3cae 8a3f
00000090: 09d6 353f 4aa5 abbe d096 493e cec4 31bd
000000a0: d63d 1fbf bab6 bcbe 1486 25bf c7fb 9c3e
000000b0: 8456 9bbe 015e 8fbe 08e6 4dbf 0e49 a63e
000000c0: 25fb 143f 0079 a13e

gnn.batch_norms.1.running_var f4 [50]
0.22237697 0.18946028 0.21925044 0.50747687 0.12701036 0.12591793 0.13556544 0.6636395
0.21014129 0.24446556 0.20315371 0.18036503 0.21875064 0.13432957 0.18143013 0.14031559
0.19422582 0.5181246 0.1178847 0.21444383 0.50487775 0.24298932 0.57495636 0.2311918
0.22603492 0.1320495 0.14767377 0.21137783 0.36762616 0.21285476 0.21206331 0.20506948
0.20047066 0.15755367 0.18898495 0.46332672 0.29690993 0.20738836 0.24866323 0.45679307
0.24380833 1.156643 0.3386624 0.23887081 0.12144861 0.3355084 0.23056285 0.26861918
0.33974722 0.18906946
00000000: cab6 633e e001 423e 3083 603e 01ea 013f
00000010: 010f 023e a1f0 003e abd1 0a3e 47e4 293f
00000020: 472f 573e 2e55 7a3e 8707 503e 9cb1 383e
00000030: 2b00 603e b18d 093e d2c8 393e e4ae 0f3e
00000040: 22e3 463e d0a3 043f 896d f13d 2a97 5b3e
00000050: ab3f 013f 31d2 783e 5730 133f 8bbd 6c3e
00000060: b375 673e fc37 073e cb37 173e 6e73 583e
00000070: 7f39 bc3e 99f6 593e 2027 593e bcfd 513e
00000080: 2e48 4d3e c055 213e 4585 413e 2939 ed3e
00000090: 9404 983e 9d5d 543e 93a1 7e3e c8e0 e93e
000000a0: e4a8 793e e10c 943f 2865 ad3e 8d9a 743e
000000b0: 0dba f83d c2c7 ab3e ab18 6c3e 7488 893e
000000c0: 59f3 ad3e 6d9b 413e

gnn.batch_norms.2.weight f4 [50]
0.81372124 0.7954223 0.85305095 0.78774756 0.7898846 0.76167077 0.8140055 0.8501507
0.802 0.80092645 0.7879024 0.7930146 0.7775523 0.79598343 0.8126906 0.7242652
0.83780205 0.7873662 0.79613894 0.7850264 0.8033325 0.8086198 0.7790486 0.7931474
0.82445747 0.80865145 0.8279942 0.8451527 0.75943744 0.7765149 0.8076269 0.825404
0.83362275 0.83695686 0.79840237 0.7892685 0.82488024 0.7757865 0.7885569 0.8031195
0.7994153 0.811936 0.79406655 0.73704296 0.8098673 0.81599957 0.7991367 0.7140697
0.84514505 0.7814361
00000000: 0950 503f cca0 4b3f 8c61 5a3f d3a9 493f
00000010: e135 4a3f dbfc 423f aa62 503f 7aa3 593f
00000020: df4f 4d3f 8409 4d3f f9b3 493f 0103 4b3f
00000030: ab0d 473f 92c5 4b3f 7e0c 503f 7269 393f
00000040: 327a 563f d590 493f c3cf 4b3f 7df7 483f
00000050: 33a7 4d3f b501 4f3f bb6f 473f b50b 4b3f
00000060: a50f 533f c803 4f3f 6ef7 533f ed5b 583f
00000070: 7e6a 423f aec9 463f a3c0 4e3f ad4d 533f
00000080: 4d68 553f ce42 563f 1964 4c3f 800d 4a3f
00000090: 5a2b 533f f299 463f ddde 493f 3d99 4d3f
000000a0: 7ba6 4c3f 0adb 4f3f f247 4b3f d9ae 3c3f
000000b0: 7753 4f3f 59e5 503f 3994 4c3f 46cd 363f
000000c0: 6d5b 583f 320c 483f

gnn.batch_norms.2.bias f4 [50]
0.00025147374 2.992476e-06 0.00011694985 0.00012892464 -6.659669e-05 -5.7961435e-05 -0.00017005576 7.132407e-05
-2.1755986e-05 5.5801306e-06 0.00010686927 -0.00014203164 -0.00021675609 -6.7666515e-05 -0.00020569176 0.00011795442
0.00017777353 2.0730895e-05 -0.0002134973 0.00022009722 -0.00019177071 -4.6661506e-05 -4.687624e-05 -6.3141306e-05
-0.00014686587 0.00015774541 -2.831824e-05 1.0555862e-05 -6.9006287e-06 -5.4370043e-06 -0.00023016908 -7.869243e-05
5.9082548e-05 0.00014620148 -1.2057443e-05 -8.896754e-06 0.00015176946 4.2368556e-05 -5.0161784e-06 3.7570466e-05
-9.661883e-05 9.492227e-05 -0.00013651057 -8.228683e-05 -0.00022386112 0.00011013137 -4.3718315e-05 7.275031e-05
9.757445e-06 4.7756243e-05
00000000: 3cd8 8339 59d2 4836 f942 f538 f22f 0739
00000010: d3a9 8bb8 9e1b 73b8 ff50 32b9 d293 9538
00000020: a080 b6b7 f53c bb36 011f e038 54ee 14b9
00000030: 0549 63b9 2fe8 8db8 f6ae 57b9 4c5e f738
00000040: b868 3a39 42e7 ad37 3fde 5fb9 e6c9 6639
00000050: 0f16 49b9 69b6 43b8 fb9c 44b8 bb6a 84b8
00000060: 0200 1ab9 7668 2539 f58c edb7 1519 3137
00000070: f38b e7b6 836f b6b6 8b59 71b9 ad07 a5b8
00000080: 67cf 7738 a94d 1939 534a 4ab7 4443 15b7
00000090: 4e24 1f39 e4b4 3138 a550 a8b6 fb94 1d38
000000a0: d79f cab8 0111 c738 4724 0fb9 6891 acb8
000000b0: 43bc 6ab9 54f6 e638 2f5e 37b8 8691 9838
000000c0: e8b3 2337 e04d 4838

gnn.batch_norms.2.running_mean f4 [50]
-0.73545474 0.6134443 -0.15010625 -0.51096743 0.5649687 -0.6570489 0.040803835 0.11505978
-0.3595722 0.18062827 0.25750375 -0.2874809 -0.23091823 0.39198548 0.14702755 0.8663362
0.5383086 0.15721753 -0.089521036 0.2418841 0.19453044 0.5269502 -0.70720583 -0.5228874
0.60968053 -0.140262 -0.01094874 -0.5210447 0.34449962 -0.23207635 -0.018982233 0.37527785
0.346292 -0.15446618 0.43277082 -1.014813 -0.3014101 -1.3427864 0.8940057 0.1050982
-0.116631344 0.09873934 -0.27456468 0.02190358 -0.1109551 -0.5517659 -0.044612944 0.49110562
0.1738639 -0.037919685
00000000: c346 3cbf b00a 1d3f 74b5 19be c3ce 02bf
00000010: caa1 103f 5b34 28bf ec21 273d 76a4 eb3d
00000020: d919 b8be 9ef6 383e 88d7 833e b230 93be
00000030: d475 6cbe 52b2 c83e 648e 163e 36c8 5d3f
00000040: 98ce 093f a2fd 203e ce56 b7bd 77b0 773e
00000050: fd32 473e 35e6 063f 710b 35bf f3db 05bf
00000060: 0614 1c3f d7a0 0fbe 5862 33bc 2f63 05bf
00000070: 4162 b03e 6ca5 6dbe a180 9bbc 6b24 c03e
00000080: 2f4d b13e 622c 1ebe 2394 dd3e 64e5 81bf
00000090: 6d52 9abe 6de0 abbf 8fdd 643f ba3d d73d
000000a0: 6adc eebd da37 ca3d be93 8cbe 236f b33c
000000b0: 6d3c e3bd 8840 0dbf 10bc 36bd 3272 fb3e
000000c0: 6109 323e ac51 1bbd

gnn.batch_norms.2.running_var f4 [50]
2.4343953 3.4718063 2.180032 4.228014 4.35696 3.9433014 2.2559621 2.090809
2.2731495 2.739221 3.0148532 1.8187209 2.3775659 2.544581 1.7255381 5.178383
2.4631748 3.5837243 1.86408 3.413664 2.4258468 2.9186447 2.3261514 3.79375
3.7221522 2.4005039 3.1426067 3.2407758 2.787822 2.1033874 1.6497335 5.370407
4.0261197 2.726372 2.491127 2.94279 3.0975509 4.0996785 3.5804453 3.8108802
2.7982998 2.7986655 2.1103625 2.3585324 2.254523 3.3461554 1.989158 1.8710401
3.727298 2.0878408
00000000: 22cd 1b40 1332 5e40 a585 0b40 e44b 8740
00000010: 376c 8b40 0d5f 7c40 af61 1040 d1cf 0540
00000020: 487b 1140 664f 2f40 5bf3 4040 d9cb e83f
00000030: 0a2a 1840 6ada 2240 6fde dc3f 50b5 a540
00000040: a8a4 1d40 bd5b 6540 2c9a ee3f 7979 5a40
00000050: 1341 1b40 13cb 3a40 aadf 1440 cdcc 7240
00000060: be37 6e40 dba1 1940 7820 4940 df68 4f40
00000070: ad6b 3240 e69d 0640 782a d33f 60da ab40
00000080: f9d5 8040 e17c 2e40 a06e 1f40 ac56 3c40
00000090: 463e 4640 9130 8340 0426 6540 76e5 7340
000000a0: 5817 3340 561d 3340 2e10 0740 32f2 1640
000000b0: 1b4a 1040 6927 5640 bb9c fe3f 3e7e ef3f
000000c0: 0d8c 6e40 2f9f 0540

exp_avg f4 [1, 1, 50]
-3.854209e-06 1.9350517e-05 2.4649513e-05 2.3967408e-05 2.4990622e-05 1.9479077e-05 -4.8275666e-05 1.1942902e-06
5.4492695e-05 -7.459222e-06 -1.9521674e-05 -6.39133e-06 2.7893411e-05 -2.8291925e-05 -2.7103702e-05 1.572297e-05
-2.8768334e-06 1.8005985e-05 8.359355e-07 3.1441792e-05 2.3674284e-05 3.9066927e-05 3.221228e-05 -2.428376e-05
1.2705158e-05 2.857016e-05 -1.3531907e-05 -2.9445711e-05 2.2069979e-05 5.035035e-06 -2.0304808e-05 -4.201419e-06
-1.6061103e-05 3.6986114e-06 -3.4642137e-05 -1.994796e-05 6.064018e-06 4.729407e-07 -2.7186854e-05 9.256294e-06
-9.882824e-06 3.962088e-05 3.1478914e-06 1.8977378e-05 -2.3687551e-05 1.2193829e-05 -2.7295086e-05 1.3753027e-05
-4.2812308e-06 1.1780947e-05
00000000: 6753 81b6 eb52 a237 6dc6 ce37 9e0d c937
00000010: f4a2 d137 0067 a337 9a7b 4ab8 804b a035
00000020: 168f 6438 3b4a fab6 7ac2 a3b7 1b75 d6b6
00000030: a5fc e937 7254 edb7 c25c e3b7 d2e4 8337
00000040: 9f0f 41b6 8f0b 9737 0d65 6035 5ee0 0338
00000050: 2398 c637 cbdb 2338 ac1b 0738 fab4 cbb7
00000060: 3d28 5537 f4a9 ef37 1907 63b7 2f02 f7b7
00000070: eb22 b937 9ff2 a836 3e54 aab7 eaf9 8cb6
00000080: f5ba 86b7 a935 7836 b64c 11b8 eb55 a7b7
00000090: 8579 cb36 7ae8 fd34 530f e4b7 7b4b 1b37
000000a0: 68ce 25b7 992e 2638 5d40 5336 9c31 9f37
000000b0: a1b4 c6b7 1994 4c37 c0f7 e4b7 cdbc 6637
000000c0: 7ea7 8fb6 c8a6 4537

exp_avg_sq f4 [1, 1, 50]
1.547706e-07 1.3131788e-07 8.0085346e-07 3.3419641e-07 1.06673994e-07 7.9023476e-07 4.019958e-07 2.1302411e-07
4.610175e-07 4.6342458e-07 7.479834e-08 3.6877046e-07 1.03172e-07 1.5142068e-07 4.1246932e-07 6.0412833e-07
4.7125056e-07 1.1809553e-06 1.5583177e-07 1.12253666e-07 2.5424924e-07 1.7649425e-07 2.3137011e-07 9.208924e-08
2.3409967e-07 1.3459601e-07 9.4326815e-08 1.8075286e-07 3.5846125e-07 5.6400996e-08 5.659134e-07 1.5389477e-07
1.76971e-07 2.3179786e-07 3.668909e-07 1.12082255e-07 4.1279247e-07 1.5588101e-07 1.3410847e-06 4.0153088e-07
2.3653652e-07 1.1462474e-06 5.218691e-07 1.0190184e-06 1.4963844e-07 8.420194e-08 4.3893724e-07 1.2988708e-07
4.9717414e-07 4.538107e-08
00000000: 052f 2634 6200 0d34 3bfa 5635 9b6b b334
00000010: a614 e533 8520 5435 e2d1 d734 9fbb 6434
00000020: c381 f734 97cc f834 d3a0 a033 6dfb c534
00000030: 688f dd33 3396 2234 5a71 dd34 622b 2235
00000040: 2f00 fd34 5181 9e35 b652 2734 1b10 f133
00000050: c07f 8834 5f82 3d34 886e 7834 98c2 c533
00000060: d45c 7b34 7885 1034 b790 ca33 f814 4234
00000070: 8a72 c034 8d3d 7233 46e9 1735 463e 2534
00000080: 6b05 3e34 1ce4 7834 1af9 c434 dfb1 f033
00000090: c49d dd34 3f60 2734 52ff b335 fc91 d734
000000a0: aafa 7d34 c3d8 9935 9216 0c35 35c5 8835
000000b0: 4dac 2034 82d2 b433 13a7 eb34 1777 0b34
000000c0: 8c75 0535 04e9 4233

exp_avg f4 [1, 1, 50]
1.2115191e-06 -4.261741e-07 3.209452e-06 -1.5743291e-06 -7.588673e-07 3.5510823e-07 3.123717e-06 3.2567618e-07
-2.186963e-06 2.641085e-06 2.482891e-06 -5.5567387e-08 -2.344464e-06 5.913692e-07 1.3443475e-06 2.2081813e-06
3.600645e-06 8.0734594e-07 3.5089613e-06 -1.0664021e-06 2.4348499e-06 2.6102894e-06 -3.3881079e-06 -1.7829998e-06
-7.031418e-07 -1.0226321e-06 -1.0625935e-06 1.9702427e-06 -7.1198866e-07 -2.668626e-06 -1.3557092e-06 -1.156492e-06
-3.27123e-06 3.1816812e-06 -2.2665233e-06 3.5751918e-07 -9.884207e-08 -9.654018e-07 -1.2968729e-06 1.4365893e-06
2.2761105e-06 -1.1913205e-06 -2.939101e-06 2.360409e-06 7.1813423e-07 1.8190015e-06 -2.2621582e-06 1.3004314e-06
1.569914e-06 -2.3219736e-06
00000000: 7b9b a235 eccc e4b4 f761 5736 894d d3b5
00000010: f7b4 4bb5 b4a5 be34 0da1 5136 98d8 ae34
00000020: bdc3 12b6 7f3d 3136 be9f 2636 fda8 6eb3
00000030: 9655 1db6 95be 1e35 6e6f b435 4430 1436
00000040: 9ca2 7136 64b8 5835 7f7b 6b36 4c21 8fb5
00000050: 6766 2336 6e2c 2f36 405f 63b6 684f efb5
00000060: 89bf 3cb5 5f41 89b5 6f9e 8eb5 8338 0436
00000070: 7d1f 3fb5 a516 33b6 d0f5 b5b5 c338 9bb5
00000080: 4e87 5bb6 de84 5536 931a 18b6 10f1 bf34
00000090: 0143 d4b3 f492 81b5 3710 aeb5 d5d0 c035
000000a0: 48bf 1836 76e5 9fb5 5f3d 45b6 8567 1e36
000000b0: cfc5 4035 6a24 f435 95cf 17b6 7c8a ae35
000000c0: d6b5 d235 34d3 1bb6

exp_avg_sq f4 [1, 1, 50]
1.5763202e-07 4.4982556e-08 8.6449876e-07 1.4276526e-07 3.1472922e-08 5.898996e-07 3.2090617e-07 1.7966302e-07
4.473718e-07 3.671184e-07 5.303533e-09 2.7844447e-07 1.2757431e-08 5.859425e-08 2.0741358e-07 6.007903e-07
4.9535396e-07 1.1676743e-06 1.0938314e-07 4.9976716e-08 1.5878182e-07 9.452741e-08 1.1569775e-07 2.2580229e-09
2.0685644e-07 5.2619935e-08 1.7121712e-08 1.0422438e-07 2.4726057e-07 4.9214135e-09 5.221142e-07 7.439989e-08
1.6980823e-07 8.5828276e-08 2.1502953e-07 1.0304359e-08 2.798607e-07 6.281723e-08 1.3118841e-06 4.0502968e-07
4.173427e-08 1.1138951e-06 5.215487e-07 9.061234e-07 6.917167e-11 2.103891e-08 2.5130277e-07 5.3036003e-10
4.908072e-07 1.6380413e-09
00000000: 8f41 2934 d832 4133 e70f 6835 044b 1934
00000010: d82c 0733 9859 1e35 0249 ac34 65e9 4034
00000020: 502e f034 5e18 c534 5f3a b631 1e7d 9534
00000030: c62b 5b32 0fa9 7b33 69b5 5e34 ff45 2135
00000040: 77f8 0435 fcb8 9c35 04e6 ea33 fba5 5633
00000050: 9d7d 2a34 fefe ca33 8375 f833 8f2b 1b31
00000060: 441c 5e34 3b00 6233 0b13 9332 f5d1 df33
00000070: 3cbf 8434 3619 a931 6a27 0c35 c6c5 9f33
00000080: 8854 3634 9850 b833 dee2 6634 0d07 3132
00000090: c33f 9634 23e6 8633 ff13 b035 db72 d934
000000a0: 513f 3333 2581 9535 8e00 0c35 533c 7335
000000b0: 301c 982e 0db9 b432 caea 8634 c5c8 1130
000000c0: 04c0 0335 7421 e130
