src/checkpoints/kitti_only_backup/checkpoint_epoch_20.pth (torch, 131295 bytes, 60 tensors)

gnn.convs.0.att_src f4 [1, 1, 50]
0.040585045 -0.41706583 -0.068443894 -0.34614155 0.14805655 -0.30445302 0.15492864 0.052842792
-0.28744453 -0.103481315 -0.2551255 0.016512653 -0.13522553 0.115219824 0.08470058 0.17499134
0.14446743 0.10758943 0.31323406 0.22411466 -0.2594403 0.08019532 -0.27735585 0.11521263
0.16909185 0.20453289 -0.143804 0.01601947 0.09433307 -0.11723874 -0.2910309 -0.255551
-0.063192 0.036152814 0.07284103 -0.14715606 -0.1261119 -0.15392406 -0.47834638 -0.2509753
0.10466169 0.30428895 -0.34258965 -0.17696409 0.23911783 0.16307932 0.11999794 0.41230705
-0.10231559 -0.13620831
00000000: 813c 263d a789 d5be 502c 8cbd 7739 b1be
00000010: 239c 173e 44e1 9bbe 9da5 1e3e af71 583d
00000020: ee2b 93be 03ee d3bd cf9f 82be 8b45 873c
00000030: 9078 0abe 5ff8 eb3d 7f77 ad3d ee30 333e
00000040: 45ef 133e d957 dc3d 3760 a03e 507e 653e
00000050: 5cd5 84be 723d a43d 9601 8ebe 99f4 eb3d
00000060: 6a26 2d3e 1271 513e 5b41 13be 433b 833c
00000070: b231 c13d dd1a f0bd 0102 95be 95d7 82be
00000080: cf6a 81bd f914 143d ae2d 953d 14b0 16be
00000090: 7a23 01be 459e 1dbe d1e9 f4be d67f 80be
000000a0: de58 d63d c3cb 9b3e e967 afbe 1336 35be
000000b0: 4edb 743e 44fe 263e 7bc1 f53d e919 d33e
000000c0: d68a d1bd 317a 0bbe

gnn.convs.0.att_dst f4 [1, 1, 50]
0.037529446 -0.14858572 0.12158595 0.25870633 -0.10822143 -0.21675965 0.04226798 0.30084398
0.07700445 -0.15025406 -0.23878308 -0.14594847 -0.13816985 0.07146902 0.25367603 -0.16413301
0.32782158 0.30189183 0.051347025 -0.23145832 -0.21105963 0.034065943 0.08270762 0.052133165
0.13577135 0.29684037 0.023455052 0.28134206 0.090583235 0.0626591 0.25011835 0.10792584
0.27312273 0.13809738 0.013428403 -0.16096793 -0.24080358 -0.03874285 0.24019489 -0.05226545
-0.042475376 0.19748525 -0.20828214 0.049154487 0.021781903 -0.077710606 0.103377156 -0.21075259
0.19932441 0.10019821
00000000: 7ab8 193d db26 18be 0e02 f93d 2875 843e
00000010: 32a3 ddbd 3ef6 5dbe 3021 2d3d 3908 9a3e
00000020: 82b4 9d3d 33dc 19be 8d83 74be 8473 15be
00000030: 667c 0dbe 595e 923d d3e1 813e 7c12 28be
00000040: 3bd8 a73e 9191 9a3e 4251 523d 6903 6dbe
00000050: 0420 58be bb88 0b3d 9d62 a93d 9689 553d
00000060: a507 0b3e 76fb 973e cf24 c03c 110c 903e
00000070: b483 b93d 6a53 803d 830f 803e 3908 dd3d
00000080: bed6 8b3e 6669 0d3e ce02 5c3c c7d4 24be
00000090: 3795 76be d3b0 1ebd a6f5 753e 4c14 56bd
000000a0: a9fa 2dbd 9339 4a3e ea47 55be 3756 493d
000000b0: f66f b23c bd26 9fbd 67b7 d33d 87cf 57be
000000c0: b31b 4c3e b834 cd3d

gnn.convs.0.bias f4 [50]
-0.00039141075 -0.00013529905 -0.0023499953 0.0015407244 0.00023227921 -0.0021231056 -0.00010744891 -0.0024837344
0.0024840704 0.0009819536 -0.0004248525 0.0017853879 8.9409536e-05 -0.002668661 -0.0013606858 -0.00026910478
0.000981437 0.0010433681 0.0026674287 0.00012976023 0.00094454177 -0.0012291676 -0.0021281517 0.0009574137
0.0004914841 -0.0011064052 -0.0030415857 -0.001287463 0.0006215806 -0.00022378865 -0.0008592844 0.0002461163
-7.103687e-05 -0.0008753566 -0.0047418997 0.00034106564 0.00035541845 -0.0007742135 -0.003927069 0.005166053
0.0029712007 -0.0004677023 -0.005231655 0.0004764142 -0.0012096576 0.0004039387 0.00057123567 -0.00043570373
0.0023330864 0.00063342205
00000000: 4336 cdb9 10df 0db9 6102 1abb 22f2 c93a
00000010: fa8f 7339 cd23 0bbb 3256 e1b8 26c6 22bb
00000020: c9cb 223b e5b4 803a bdbe deb9 ad03 ea3a
00000030: 6181 bb38 b4e4 2ebb 0a59 b2ba a216 8db9
00000040: 90a3 803a a0c1 883a 07d0 2e3b 3f10 0839
00000050: 209b 773a 051c a1ba 7678 0bbb f2fa 7a3a
00000060: f1d6 003a cc04 91ba 5755 47bb 17c0 a8ba
00000070: 91f1 223a cfa8 6ab9 9a41 61ba 2c09 8139
00000080: a1f9 94b8 3078 65ba f061 9bbb 0ed1 b239
00000090: 7557 ba39 97f4 4aba a4ae 80bb fe47 a93b
000000a0: 7ab8 423b f135 f5b9 4e6e abbb 3bc7 f939
000000b0: 608d 9eba bcc7 d339 fabe 153a 2a6f e4b9
000000c0: b2e6 183b 3c0c 263a

gnn.convs.0.lin.weight f4 [50, 50]
-0.17808416 0.14589484 -0.07648741 -0.14921749 0.1659449 0.024465347 -0.027620198 0.22123843
0.3333045 -0.045078855 0.15455684 0.076200396 0.11210535 -0.16850597 0.21154128 0.15794715
0.14874709 -0.12155148 -0.14576699 0.14615673 0.117513 0.07875036 0.2832715 -0.003357646
-0.12261211 0.2564738 0.08774715 -0.054388255 0.19373842 0.25222856 0.27590093 -0.01467263
0.18427601 -0.026522517 -0.06650442 0.13328657 -0.03059421 -0.10160438 0.21583718 -0.024610255
0.067726925 0.04287255 0.22659755 -0.0019708169 -0.14145225 0.12090757 0.25203213 0.16519876
-0.051517215 0.33750683 -0.06255338 0.1314732 0.11314001 0.2782246 0.034058258 -0.29221687
0.07398812 0.23130627 -0.14312197 -0.20819649 -0.17896944 -0.036929548 0.0019520521 0.15382059
-0.2226409 0.018670145 0.03332332 0.09294254 0.030221771 0.09838077 -0.16291289 0.17594959
-0.18767725 -0.23866746 0.23415932 -0.17418769 0.12585162 0.07668202 0.077065215 0.24046825
-0.073255576 0.04907197 -0.0026464043 -0.15376244 0.2704697 -0.023561936 0.0431031 0.20285389
-0.22147991 0.068857774 -0.13223717 0.20671539 0.06189323 -0.16356249 0.15700532 0.044479735
-0.20159884 -0.12750894 -0.23602422 0.16551134 0.19723447 0.13871548 0.03614848 0.14415674
-0.07861351 0.05269084 0.21388099 -0.07999994 -0.100640185 -0.049646027 -0.017558526 -0.018598473
0.14258486 0.05659173 0.060824323 -0.01844415 0.07636061 0.1924789 -0.008905386 0.26869646
-0.18882643 0.0037785366 -0.22962022 -0.07221097 -0.030375559 -0.0070137493 -0.039215673 -0.023249805
0.16156888 0.11515602 -0.20473365 0.19547892 -0.007953947 0.1946087 0.08962569 -0.044997126
-0.045261025 -0.15281211 0.02568532 -0.099288374 0.04073593 0.16529004 -0.17949884 0.14593917
0.19440748 0.16079727 -0.0031795935 0.09844508 0.02701883 -0.17938519 0.10045748 -0.040308226
0.12812199 0.16680999 0.100205325 0.14180033 0.22345811 -0.13599956 0.11931559 -0.09663436
-0.10916066 0.07828872 -0.22412974 0.17564696 -0.14702103 -0.106414564 -0.10165388 -0.019138655
-0.10474689 0.052533798 -0.11361704 -0.11109881 0.29885522 -0.1634629 -0.12879822 0.20193022
0.20758551 -5.5994453e-05 -0.07984494 0.11965365 -0.17075521 0.09945382 0.13415311 0.1023683
0.2148515 0.18962479 0.05426279 0.07601289 0.08664065 -0.10165103 -0.21507452 0.08856435
0.15607968 0.10443857 -0.07878918 0.09586721 -0.049727 -0.14338502 0.035921335 0.21180607
0.11286047 -0.061200175 -0.064713165 -0.19664183 0.232597 -0.14001167 0.0788606 0.13372858
-0.112101555 -0.10710976 -0.23710772 -0.075300425 0.0057559093 -0.12715565 0.037160207 -0.060872905
0.0006944394 0.17794615 -0.12758423 0.059430204 0.08841633 -0.07953365 -0.14459006 -0.019933758
0.06866987 -0.13012083 -0.20674384 0.12070069 0.16746658 0.21775945 0.2010331 0.0030043032
-0.040327724 0.22223179 0.22644064 -0.10691325 -0.067157224 0.14014171 0.12063547 0.19150472
-0.15917066 -0.1704233 0.105279356 -0.17019598 -0.12335049 0.06709268 -0.17354159 -0.20418343
-0.19725376 0.14153352 -0.18704882 -0.05598533 0.12682053 -0.1474913 -0.046847712 0.038072415
00000000: b25b 36be 7565 153e 6ea5 9cbd 78cc 18be
00000010: 76ed 293e 8d6b c83c c143 e2bc 548c 623e
00000020: e3a6 aa3e 9ba4 38bd 2644 1e3e f40e 9c3d
00000030: 7d97 e53d d48c 2cbe 479e 583e e6bc 213e
00000040: 2851 183e fbef f8bd f143 15be 1caa 153e
00000050: a8aa f03d de47 a13d f608 913e f40b 5cbb
00000060: 0f1c fbbd 8950 833e c7b4 b33d 38c6 5ebd
00000070: 5d63 463e 1a24 813e e342 8d3e 7865 70bc
00000080: dab2 3c3e c045 d9bc 7833 88bd 467c 083e
00000090: b5a0 fabc f515 d0bd 6c04 5d3e 729b c9bc
000000a0: 6ab4 8a3d 219b 2f3d 3009 683e d228 01bb
000000b0: dcd8 10be 639e f73d 5b0a 813e dd29 293e
000000c0: b703 53bd b2cd ac3e fd1b 80bd e9a0 063e
000000d0: f3b5 e73d 7473 8e3e ac80 0b3d 739d 95be
000000e0: 1587 973d 8ddb 6c3e 918e 12be 7631 55be
000000f0: c443 37be 7043 17bd 00dc ff3a 2583 1d3e
00000100: fafb 63be 22f2 983c 097e 083d a958 be3d
00000110: a693 f73c db7b c93d a3d2 26be 212c 343e
00000120: 772e 40be 3e65 74be 76c7 6f3e 425e 32be
00000130: 3fdf 003e 770b 9d3d 5ed4 9d3d 4f3d 763e
00000140: 0507 96bd b1ff 483d 4c6f 2dbb e773 1dbe
00000150: 017b 8a3e f604 c1bc e08c 303d eeb8 4f3e
00000160: a1cb 62be 4e05 8d3d 2e69 07be 33ad 533e
00000170: c183 7d3d ed7c 27be 01c6 203e 6230 363d
00000180: ed6f 4ebe b491 02be 55b0 71be ce7b 293e
00000190: d5f7 493e 6e0b 0e3e 6e10 143d d39d 133e
000001a0: 1f00 a1bd 5ad2 573d 9e03 5b3e 02d7 a3bd
000001b0: 711c cebd a259 4bbd e6d6 8fbc d35b 98bc
000001c0: c401 123e bbcc 673d ed22 793d 3018 97bc
000001d0: f462 9c3d 3019 453e e5e7 11bc 9592 893e
000001e0: b75b 41be 53a1 773b 9021 6bbe 58e3 93bd
000001f0: 2ad6 f8bc 98d3 e5bb 9da0 20bd 6076 bebc
00000200: 5072 253e ebd6 eb3d b3a5 51be a02b 483e
00000210: 4651 02bc 8147 473e ac8d b73d e84e 38bd
00000220: a063 39bd c77a 1cbe 056a d23c b457 cbbd
00000230: b8da 263d cb41 293e 8bce 37be 1471 153e
00000240: c112 473e 0aa8 243e ba60 50bb 939d c93d
00000250: 9856 dd3c c0b0 37be a7bc cd3d 3d1a 25bd
00000260: 6932 033e 3dd0 2a3e 7338 cd3d 1b34 113e
00000270: 34d2 643e 7843 0bbe bb5b f43d 3ce8 c5bd
00000280: a08f dfbd d655 a03d 4482 65be ccdc 333e
00000290: ae8c 16be e1ef d9bd e92f d0bd abc8 9cbc
000002a0: 8a85 d6bd ae2d 573d 0db0 e8bd c687 e3bd
000002b0: 8d03 993e d262 27be aee3 03be ccc6 4e3e
000002c0: 4c91 543e 96db 6ab8 be85 a3bd f90c f53d
000002d0: 74da 2ebe 72ae cb3d 6f5f 093e 79a6 d13d
000002e0: 0802 5c3e 002d 423e a942 5e3d a5ac 9b3d
000002f0: a770 b13d 6a2e d0bd 7f3c 5cbe 3a61 b53d
00000300: 5ad3 1f3e e4e3 d53d 395c a1bd 0756 c43d
00000310: 8aae 4bbd 86d3 12be 4022 133d b1e3 583e
00000320: 6423 e73d 09ad 7abd 5688 84bd 7a5c 49be
00000330: e82d 6e3e 385f 0fbe ab81 a13d 25f0 083e
00000340: 8095 e5bd 5d5c dbbd 5ecc 72be 1c37 9abd
00000350: 119c bc3b 1735 02be 4d35 183d de55 79bd
00000360: 0a0b 363a 8437 363e 71a5 02be 166d 733d
00000370: 9f13 b53d 8ae2 a2bd 6b0f 14be 1f4c a3bc
00000380: caa2 8c3d 653e 05be a8b4 53be ec31 f73d
00000390: 5c7c 2b3e 55fc 5e3e 9fdb 4d3e d8e3 443b
000003a0: af2e 25bd bb90 633e 0ee0 673e 56f5 dabd
000003b0: ba89 89bd 4f81 0f3e bb0f f73d d019 443e
000003c0: a2fd 22be 7283 2ebe b49c d73d db47 2ebe
000003d0: 2f9f fcbd e367 893d e3b4 31be 7615 51be
000003e0: e4fc 49be 2aee 103e ba89 3fbe e050 65bd
000003f0: 3edd 013e f607 17be 63e3 3fbd d2f1 1b3d

gnn.convs.1.att_src f4 [1, 1, 50]
0.24385439 0.15715696 -0.21405168 -0.30795226 -0.35084242 -0.014942516 -0.016399814 -0.31097063
0.008744351 0.15736356 -0.045990817 -0.1861426 0.21337214 -0.06605451 -0.1886375 -0.13088197
-0.10778585 -0.10142579 -0.12979724 -0.028698338 -0.12284819 0.15560353 0.31308436 0.24743846
-0.14881645 -0.32727268 -0.20353672 -0.1953265 -0.047270235 -0.16850445 -0.023508027 -0.05145591
0.048995856 0.13702363 0.24545175 0.29648697 0.074997105 0.07463455 -0.17672503 -0.016039405
0.0261498 0.29444268 -0.03053379 -0.31612986 0.36959156 0.32129848 -0.29301804 0.1832403
0.36639103 0.37498793
00000000: f7b4 793e c1ed 203e 5d30 5bbe ebab 9dbe
00000010: 9ea1 b3be 74d1 74bc e758 86bc 8b37 9fbe
00000020: 7744 0f3c ea23 213e de60 3cbd 2a9c 3ebe
00000030: 3a7e 5a3e 9647 87bd 302a 41be ec05 06be
00000040: d4be dcbd 53b8 cfbd 91e9 04be c718 ebbc
00000050: d597 fbbd 8856 1f3e 984c a03e 8260 7d3e
00000060: 5763 18be 4990 a7be ee6b 50be ac03 48be
00000070: 6f9e 41bd 6e8c 2cbe e893 c0bc 6fc3 52bd
00000080: e1af 483d ec4f 0c3e b457 7b3e 24cd 973e
00000090: 1598 993d 00da 983d 68f7 34be 1265 83bc
000000a0: 1b38 d63c 31c1 963e 0022 fabc c6db a1be
000000b0: 1b3b bd3e 3c81 a43e 7606 96be 58a3 3b3e
000000c0: 9b97 bb3e 6bfe bf3e

gnn.convs.1.att_dst f4 [1, 1, 50]
-0.18346 -0.015039638 -0.21541375 -0.20082608 0.016743952 -0.28007716 0.07247767 -0.017536348
0.28384236 -0.198048 0.09816489 0.18373697 -0.31735057 -0.075020745 0.10050105 0.21773177
0.31139916 0.2904733 0.23260412 0.014720691 0.30235732 0.32937032 0.18946119 -0.23360996
0.30364367 0.24751125 0.4107851 0.12919492 -0.021601055 -0.03461718 0.18012172 0.005797913
0.31658587 -0.0853404 0.40385383 -0.20260541 -0.31005746 0.3708042 0.12621136 -0.25758985
0.3400003 0.250631 -0.12522638 0.13810518 0.22292112 -0.29594842 0.080822624 -0.33355242
-0.024827572 -0.03136338
00000000: f0dc 3bbe d068 76bc 6c95 5cbe 5aa5 4dbe
00000010: 9d2a 893c 4666 8fbe 2c6f 943d 63a8 8fbc
00000020: c953 913e 18cd 4abe ad0a c93d 8b25 3c3e
00000030: c67b a2be 7aa4 99bd 7fd3 cd3d 14f5 5e3e
00000040: b66f 9f3e ebb8 943e c62f 6e3e 0e2f 713c
00000050: 94ce 9a3e 3aa3 a83e 1d02 423e 7337 6fbe
00000060: 2f77 9b3e 9773 7d3e 6d52 d23e ac4b 043e
00000070: b2f4 b0bc beca 0dbd d471 383e 6bfc bd3b
00000080: 8b17 a23e f3c6 aebd eec5 ce3e cb77 4fbe
00000090: dabf 9ebe 0cda bd3e 8d3d 013e d1e2 83be
000000a0: 8514 ae3e b552 803e 583b 00be 726b 0d3e
000000b0: 6f45 643e 8d86 97be 5586 a53d 62c7 aabe
000000c0: 3163 cbbc e376 00bd

gnn.convs.1.bias f4 [50]
-5.4300122e-05 -0.00017923334 -7.463318e-05 -0.0002311653 -6.3018306e-05 5.648645e-06 0.00011356394 -7.418282e-05
-5.7481066e-05 -6.014288e-05 6.618125e-05 -3.0778592e-05 -1.9175406e-05 -0.00022915637 -7.6818484e-05 0.00023439356
0.000100758596 -6.6758585e-05 -4.0736897e-05 -1.3422389e-05 -6.9873386e-05 0.00010891515 -3.9143688e-05 -7.7096425e-05
4.307486e-05 4.902425e-05 8.769483e-05 0.00011570411 0.00014463793 -4.0537005e-05 3.7131245e-05 -5.769074e-05
0.0001691187 0.00045987798 -1.9937976e-05 -6.612303e-06 -8.8039626e-05 -0.00011733402 0.00016621976 2.960824e-05
-1.0689643e-05 0.0001049183 -0.0001215713 0.00014184692 -0.00010900805 -6.635579e-05 8.28936e-05 -0.0002665394
0.0002960773 6.499483e-05
00000000: 50c0 63b8 95f0 3bb9 6284 9cb8 f664 72b9
00000010: b228 84b8 7e89 bd36 2d29 ee38 9992 9bb8
00000020: d317 71b8 ed41 7cb8 caca 8a38 4318 01b8
00000030: dfda a0b7 b249 70b9 9c19 a1b8 8bc7 7539
00000040: 5c4e d338 be00 8cb8 e9dc 2ab8 b930 61b7
00000050: fd88 92b8 6069 e438 372e 24b8 d4ae a1b8
00000060: 47ab 3438 639f 4d38 cee8 b738 2ca6 f238
00000070: f3a9 1739 4706 2ab8 5fbd 1b38 f6f8 71b8
00000080: 7555 3139 c71b f139 7a40 a7b7 40df ddb6
00000090: eaa1 b8b8 3911 f6b8 474b 2e39 365f f837
000000a0: ab57 33b7 9507 dc38 18f4 feb8 bebc 1439
000000b0: 409b e4b8 7e28 8bb8 2ad7 ad38 50be 8bb9
000000c0: d33a 9b39 d54d 8838

gnn.convs.1.lin.weight f4 [50, 50]
-0.22399959 -0.2837026 0.21597685 0.02883756 0.087161 -0.0013537112 -0.18255728 0.17752151
0.20446464 -0.012681787 0.15038826 -0.030201131 0.1355218 -0.23712693 -0.19428238 -0.2543204
0.28108028 0.17983592 -0.09160233 -0.15954313 -0.25030038 0.0053690546 0.21750641 -0.062415663
0.094911754 0.013902419 -0.006157824 0.0810988 0.19245636 0.16171822 -0.28457323 0.1048543
0.044823963 -0.05276347 -0.21580352 0.028457565 -0.058610097 0.119063154 -0.18516602 -0.16934356
-0.25448337 0.2209559 -0.09913007 -0.1743167 0.096311696 0.18019813 -0.08643262 0.011816339
0.046115987 -0.17344846 0.12226016 0.22248906 0.25637364 -0.034316476 0.09888474 -0.087228894
-0.06391951 0.041747417 0.20976153 0.00930906 0.15432477 0.06917306 -0.10228146 -0.08670609
-0.07647672 0.015118308 0.03856747 -0.20194367 0.12676977 0.13690689 0.119746044 -0.21472834
-0.016605834 0.12637435 0.13781208 0.08128941 -0.14560519 -0.14589764 0.09286943 0.16163798
-0.29050252 -0.12640296 -0.23678184 0.052827984 0.15497552 -0.2644559 -0.097821064 0.0025904598
-0.17188893 0.11221319 0.107526526 0.017140836 -0.151088 -0.098419525 -0.13019863 -0.164376
0.13629332 0.054336905 0.268015 -0.10709936 0.19403736 -0.24647932 0.10210704 0.18440731
-0.12699005 0.15000106 0.10910666 -0.13954721 -0.060430165 -0.022683142 0.089551084 0.12536424
0.266033 0.09915862 -0.2415122 -0.11896918 -0.049672335 -0.06062345 -0.06447357 -0.15433776
-0.06656636 0.22250704 -0.20859545 -0.1179014 -0.14471509 0.2365552 -0.19164674 -0.20122862
0.067928545 -0.18121566 -0.08151832 0.21388234 -0.083363995 -0.02380567 0.18077227 -0.0022020903
-0.26514858 0.12358565 -0.08451172 0.121951595 -0.021084623 -0.19124646 0.04101339 -0.21643977
0.10290051 0.22071184 0.1727052 0.1863157 0.17719775 -0.03702145 -0.15241472 0.10689684
0.09964216 -0.011456398 0.0543579 0.15983365 -0.20954803 0.046809442 -0.2796578 -0.0027907141
0.05631721 -0.16173987 0.14678633 -0.10053689 -0.106260836 -0.19335452 0.14446098 -0.06905615
-0.14478134 0.089989595 0.0013257536 0.04730066 -0.19048017 -0.22183833 -0.21722598 -0.089302525
0.049796756 -0.2305409 0.028439369 0.03265738 0.23968267 0.12975861 0.17780027 -0.09784061
-0.014744013 -0.011044824 0.13626347 0.10043664 0.13644196 -0.09686857 0.10668975 0.026016919
-0.14957802 0.09023854 0.21417786 -0.107795864 -0.25273114 -0.16856623 -0.23759422 0.15198295
-0.28960365 -0.11904296 0.13647555 0.14864658 -0.10336377 0.17065638 0.0808542 -0.05937534
0.21754655 0.20724952 -0.06626699 -0.17379905 -0.071272396 0.037498683 -0.11300166 -0.07763378
0.014450028 -0.04850111 0.0343918 -0.14351548 0.030281533 0.14814521 -0.19446737 0.13328414
-0.21109219 -0.16858633 0.1325287 0.07153563 -0.18105653 -0.17880498 -0.08599323 -0.018854419
0.020352945 0.20223628 -0.1817308 0.029169757 -0.21356119 0.19169426 -0.23982236 -0.058335636
0.17326163 0.13274392 0.12781568 -0.21502915 0.09217 0.14281599 0.09494721 -0.05419867
0.21287237 -0.20861135 0.04300941 -0.18399382 -0.13123266 0.06614373 -0.09805277 0.2303711
00000000: 2660 65be 7841 91be 0929 5d3e bf3c ec3c
00000010: 7781 b23d 036f b1ba 4cf0 3abe 33c8 353e
00000020: 2e5f 513e 45c7 4fbc 61ff 193e 5d68 f7bc
00000030: 3ac6 0a3e 67d1 72be f6f1 46be 4936 82be
00000040: c1e9 8f3e e826 383e 019a bbbd 465f 23be
00000050: 5f27 80be e5ee af3b 00ba 5e3e 91a7 7fbd
00000060: 1861 c23d f9c6 633c 92c7 c9bb 2117 a63d
00000070: 4813 453e 7699 253e 95b3 91be dabd d63d
00000080: 5599 373d 821e 58bd 99fb 5cbe d71f e93c
00000090: 2411 70bd 62d7 f33d 299c 3dbe 6668 2dbe
000000a0: a54b 82be 4342 623e b504 cbbd 1480 32be
000000b0: 113f c53d dc85 383e 9603 b1bd 5199 413c
000000c0: 1ee4 3c3d 799c 31be 8963 fa3d 2cd4 633e
000000d0: 6843 833e 6f8f 0cbd 1584 ca3d 10a5 b2bd
000000e0: 3be8 82bd 57ff 2a3d bacb 563e 0785 183c
000000f0: 5007 1e3e 9baa 8d3d f178 d1bd f692 b1bd
00000100: d49f 9cbd c8b2 773c ecf8 1d3d 52ca 4ebe
00000110: efcf 013e 5231 0c3e 6a3d f53d bfe1 5bbe
00000120: f508 88bc 4768 013e 9c1e 0d3e 107b a63d
00000130: 8719 15be 3166 15be 5432 be3d 6d84 253e
00000140: bfbc 94be c76f 01be f076 72be 2862 583d
00000150: e7b1 1e3e c466 87be 6956 c8bd b4c4 293b
00000160: a703 30be 07d0 e53d de36 dc3d f06a 8c3c
00000170: d0b6 1abe 2d90 c9bd ca52 05be 2f52 28be
00000180: 7a90 0b3e 6090 5e3d 4339 893e e956 dbbd
00000190: bbb1 463e 1365 7cbe 7f1d d13d 45d5 3c3e
000001a0: ae09 02be e199 193e 5073 df3d 77e5 0ebe
000001b0: 9f85 77bd ffd1 b9bc 8f66 b73d 7c5f 003e
000001c0: 7a35 883e ad13 cb3d f94e 77be 1da6 f3bd
000001d0: 3875 4bbd 4b50 78bd b80a 84bd b80a 1ebe
000001e0: f253 88bd e3d8 633e 0c9a 55be 4a76 f1bd
000001f0: 3130 14be 873b 723e 0b3f 44be e00e 4ebe
00000200: 1f1e 8b3d 9990 39be 14f3 a6bd f903 5b3e
00000210: beba aabd 1c04 c3bc 5e1c 393e f250 10bb
00000220: 8ec1 87be 791a fd3d 7b14 adbd c2c1 f93d
00000230: a9b9 acbc 1dd6 43be a8fd 273d 63a2 5dbe
00000240: 81bd d23d 4902 623e a2d9 303e 8bc9 3e3e
00000250: 5473 353e cea3 17bd 9b12 1cbe bbec da3d
00000260: 3011 cc3d 9eb3 3bbc 64a6 5e3d 6fab 233e
00000270: c293 56be 42bb 3f3d 4f2f 8fbe 6ae4 36bb
00000280: e0ac 663d 239f 25be 284f 163e 49e6 cdbd
00000290: 489f d9bd bafe 45be 94ed 133e 506d 8dbd
000002a0: 8f41 14be 774c b83d e9c4 ad3a 56be 413d
000002b0: 3c0d 43be 9629 63be 7d70 5ebe 3ee4 b6bd
000002c0: aff7 4b3d ea12 6cbe aef9 e83c bfc3 053d
000002d0: 606f 753e 71df 043e 4611 363e a860 c8bd
000002e0: df90 71bc 59f5 34bc a788 0b3e bab1 cd3d
000002f0: 71b7 0b3e 0763 c6bd 2880 da3d 6f21 d53c
00000300: fb2a 19be fcce b83d 7151 5b3e 14c4 dcbd
00000310: fa65 81be a09c 2cbe e64b 73be 6ba1 1b3e
00000320: ee46 94be cccc f3bd 3fc0 0b3e cf36 183e
00000330: 62b0 d3bd 8cc0 2e3e e396 a53d 8e33 73bd
00000340: 86c4 5e3e 3839 543e fdb6 87bd 61f8 31be
00000350: 43f7 91bd 3898 193d 6a6d e7bd 76fe 9ebd
00000360: cfbf 6c3c 1aa9 46bd 6bde 0c3d b9f5 12be
00000370: fa10 f83c 61b3 173e 7422 47be a37b 083e
00000380: 8d28 58be e5a1 2cbe 9bb5 073e 4681 923d
00000390: e266 39be a718 37be 381d b0bd 9574 9abc
000003a0: 38bb a63c 0717 4f3e a417 3abe 6af5 ee3c
000003b0: c9af 5abe 804b 443e fe93 75be 59f1 6ebd
000003c0: 7f6b 313e 06ee 073e 1de2 023e 9a30 5cbe
000003d0: a0c3 bc3d 5b3e 123e af73 c23d 6dff 5dbd
000003e0: 37fb 593e 379e 55be a32a 303d e068 3cbe
000003f0: db61 06be 5d76 873d e4cf c8bd 67e6 6b3e

gnn.convs.2.att_src f4 [1, 1, 50]
-0.23887421 -0.04762628 0.07314263 -0.07111623 0.12870325 0.3086231 0.04455615 -0.0143130645
-0.29933614 -0.06518192 -0.32181934 -0.1051806 0.25685358 -0.32823202 0.09406014 -0.023187282
-0.20134063 -0.006063859 -0.18355948 -0.17637037 -0.3419804 0.11441919 0.24580686 -0.37541702
-0.27335083 0.35128176 0.10205574 0.13362375 0.33858553 0.3068447 0.16236216 -0.2432532
0.281015 0.014196635 -0.3336986 -0.22304909 -0.175734 -0.05099542 -0.033693608 0.17619927
-0.06854679 -0.2091751 0.062474083 -0.28287274 -0.18741289 0.2644185 0.21269315 -0.035924133
0.099736586 -0.025108812
00000000: 719b 74be c613 43bd cecb 953d 63a5 91bd
00000010: c9ca 033e d903 9e3e 8280 363d 5881 6abc
00000020: 9642 99be 197e 85bd 81c5 a4be ed68 d7bd
00000030: 5082 833e 070e a8be 9aa2 c03d 41f3 bdbc
00000040: 3d2c 4ebe 56b3 c6bb 04f7 3bbe 6f9a 34be
00000050: 0e18 afbe 9c54 ea3d cbb4 7b3e a936 c0be
00000060: a4f4 8bbe 34db b33e 9a02 d13d aad4 083e
00000070: 155b ad3e c01a 9d3e 4442 263e 5e17 79be
00000080: 33e1 8f3e 0199 683c 8bda aabe fb66 64be
00000090: 9df3 33be 93e0 50bd 4f02 0abd 956d 343e
000000a0: 4262 8cbd ff31 56be d3e4 7f3d b2d4 90be
000000b0: 2ae9 3fbe dd61 873e 3ccc 593e 2f25 13bd
000000c0: b242 cc3d ffb0 cdbc

gnn.convs.2.att_dst f4 [1, 1, 50]
0.20033717 0.22412428 0.33991474 0.03877854 -0.20862193 -0.04610885 0.07187246 0.011126935
0.2105551 0.106792524 0.10323047 -0.16049491 -0.16458288 0.062017504 0.24647571 0.29512948
-0.2304854 -0.31409332 -0.3346124 0.30382136 -0.16719432 -0.0072981995 -0.123790726 0.19889922
0.24932103 0.28680336 0.06875954 0.28396395 0.2818589 -0.21609676 -0.16021606 -0.20260325
0.31481153 -0.20022334 0.078553036 -0.032478884 0.037981264 -0.34683323 0.091749504 -0.113840885
0.22150393 -0.00031428793 0.061075505 0.11038727 0.01429989 -0.066470616 0.287937 0.20319068
0.12921925 0.32449913
00000000: 3025 4d3e d680 653e 4e09 ae3e 3fd6 1e3d
00000010: fda0 55be a2dc 3cbd de31 933d bf4d 363c
00000020: c29b 573e 0ab6 da3d 7f6a d33d c758 24be
00000030: 6a88 28be 1106 7e3d 2164 7c3e 361b 973e
00000040: 5d04 6cbe d7d0 a0be 5152 abbe 798e 9b3e
00000050: fd34 2bbe bc25 efbb fe85 fdbd 3dac 4b3e
00000060: 034e 7f3e e4d7 923e cdd1 8c3d b963 913e
00000070: cf4f 903e 7848 5dbe ae0f 24be 3a77 4fbe
00000080: fa2e a13e 5907 4dbe 6ae0 a03d 9408 05bd
00000090: 3e92 1b3d 2094 b1be 2ae7 bb3d 6925 e9bd
000000a0: edd1 623e 03c7 a4b9 4f2a 7a3d b912 e23d
000000b0: 164a 6a3c bf21 88bd 7a6c 933e 3811 503e
000000c0: 0d52 043e c024 a63e

gnn.convs.2.bias f4 [50]
3.292196e-05 -4.1250227e-05 3.2054344e-05 3.66193e-05 -2.8547882e-05 -2.2253751e-05 -1.4450143e-05 6.514295e-05
-4.62073e-05 -1.0378843e-06 -3.0170999e-05 -2.4522236e-05 4.3523818e-05 -5.5799934e-05 -2.5991574e-06 -5.6358127e-05
-7.789925e-06 -5.582349e-06 3.7656362e-05 5.949104e-05 1.7592853e-05 -5.7163397e-05 6.2717236e-06 -3.6606652e-05
1.62862e-05 2.5963533e-05 -2.5646834e-05 -3.927092e-05 2.7688737e-05 7.466548e-05 -7.389341e-05 -1.1188404e-05
-5.8396137e-05 4.5390305e-05 -1.929093e-05 1.22351685e-05 -2.8843211e-05 5.0808707e-05 5.030993e-05 4.685145e-05
7.766414e-07 -6.359047e-06 -0.00010281722 6.7982335e-05 -3.5527894e-06 -3.0037581e-05 6.445452e-06 0.00012889026
-0.0001293191 -6.1898672e-06
00000000: af15 0a38 1804 2db8 1772 0638 ad97 1938
00000010: 1c7a efb7 91ad bab7 e46e 72b7 5b9d 8838
00000020: b6ce 41b8 6f4d 8bb5 ba17 fdb7 1ab5 cdb7
00000030: 588d 3638 b90a 6ab8 2f6d 2eb6 1462 6cb8
00000040: 79b1 02b7 0350 bbb6 36f1 1d38 0586 7938
00000050: 5d94 9337 bbc2 6fb8 b271 d236 188a 19b8
00000060: 599e 8837 43cc d937 2824 d7b7 d4b6 24b8
00000070: 1c45 e837 b995 9c38 39f7 9ab8 d4b5 3bb7
00000080: 60ee 74b8 7861 3e38 f5d2 a1b7 a645 4d37
00000090: 53f4 f1b7 6f1b 5538 e003 5338 5d82 4438
000000a0: 647a 5035 cc5f d5b6 939f d7b8 bd91 8e38
000000b0: 756c 6eb6 37f9 fbb7 0346 d836 b726 0739
000000c0: d599 07b9 8eb2 cfb6

gnn.convs.2.lin.weight f4 [50, 50]
0.13769679 -0.17531809 -0.16705817 0.0610775 -0.16787183 0.32107624 -0.1034287 0.09315088
0.05085964 -0.0072739967 -0.05593769 0.021690072 -0.010543422 -0.114387654 -0.17131412 -0.22759621
0.14372845 -0.002951366 0.24420647 -0.06718582 0.16904913 0.10467465 -0.13128047 -0.057184972
0.2717866 -0.19026457 0.33630216 -0.21717669 0.035010215 -0.0894218 -0.022761123 0.13664068
-0.11399917 0.22096558 -0.04950802 -0.05093633 0.13838914 -0.03841979 0.19191577 0.14159958
0.14527982 0.25323552 0.22895242 0.15554857 -0.094012186 -0.038597446 0.032031372 -0.056949772
-0.06958233 -0.0049780807 0.098558426 -0.085957415 -0.13006945 0.042058993 0.2231965 0.1263627
0.033646546 -0.006099894 -0.19426684 -0.15716961 0.27880144 -0.05922055 -0.07681523 0.06061901
0.1777865 -0.04701171 0.011205571 -0.15016846 0.1953422 -0.1369417 0.30521682 0.03968454
-0.031289965 0.21046214 0.06713699 0.17480908 0.24313593 -0.051213194 -0.16674618 -0.013424944
0.049038637 -0.124319404 -0.06721045 -0.033815652 0.0949107 0.0765894 0.0370557 -0.14616519
0.13190602 0.17142676 -0.020612907 0.12155143 0.10993979 0.08572635 0.07374207 -0.15364972
-0.041221306 -0.17930347 0.1322973 0.10375726 -0.19548817 0.026998559 0.08359383 -0.2017001
0.12076119 0.2614682 0.0755904 0.1740089 0.053112734 -0.108622596 0.07535831 0.12748939
0.006444902 0.26232997 0.1513398 0.09042426 -0.057598054 -0.063249215 0.21665806 -0.14532177
-0.02801652 0.047939718 0.05450534 -0.08654835 0.0796148 -0.25064656 0.02440034 -0.05309636
-0.042000484 -0.059057858 0.029295195 -0.05446578 0.068139076 0.183618 0.14821659 -0.043922376
-0.12054893 0.0777894 0.2036163 -0.12042932 -0.17632179 0.26028192 -0.1701872 0.20583469
-0.016203107 -0.20419349 -0.042251386 -0.11062427 -0.016736975 0.07425079 0.11963475 -0.030733861
0.0035379485 0.015232938 -0.036927737 0.26154816 0.033753496 0.004499212 0.028006013 -0.15698883
0.13496152 0.1719068 -0.08677644 0.06622632 -0.1356142 -0.07912616 -0.11626725 -0.09923706
0.04505944 -0.08725861 0.25295743 0.16273655 0.08992969 -0.103500314 0.19246393 -0.121286534
-0.20203015 -0.036392327 -0.114582084 -0.025340661 0.11783781 0.23989834 -0.038027752 0.10060468
0.12199143 -0.045579594 0.12530926 0.09151109 -0.05660458 0.09544272 -0.023024295 0.23937665
0.04382211 -0.11517071 -0.116644815 -0.09745741 0.10169453 0.024988206 -0.084555894 0.15366523
-0.1676331 -0.05811415 -0.030979624 -0.18801314 -0.10828952 0.30749914 0.13777119 0.21217382
-0.20001811 -0.19396351 0.09010459 -0.12373005 -0.18389043 0.30926687 0.021229029 -0.0040500225
0.104236364 -0.027806114 -0.0021007003 -0.039815873 -0.050348137 0.20374703 0.15528543 -0.073717125
-0.07845187 0.028182829 0.12920201 0.01679208 -0.045730762 -0.020650474 -0.12653185 0.29834756
-0.15339226 0.32479963 0.104777776 -0.07788882 0.15586987 0.1655946 0.17489329 0.12681304
-0.061334036 -0.05071263 -0.104139 0.16310628 -0.0016283208 -0.039143134 0.052497696 0.05987583
0.061492853 0.01520463 -0.14845952 0.076035865 0.1527984 0.0077580498 0.18117426 -0.25403643
00000000: 6300 0d3e 9686 33be 4c11 2bbe 672c 7a3d
00000010: 98e6 2bbe 1b64 a43e 6dd2 d3bd e3c5 be3d
00000020: 3352 503d b55a eebb eb1e 65bd 61af b13c
00000030: 51be 2cbc 1344 eabd f86c 2fbe fb0e 69be
00000040: 8d2d 133e b46b 41bb 4311 7a3e b898 89bd
00000050: 371b 2d3e aa5f d63d 636e 06be ca3a 6abd
00000060: 9d27 8b3e b7d4 42be cc2f ac3e 9163 5ebe
00000070: df66 0f3d c722 b7bd 8975 babc 89eb 0b3e
00000080: 6678 e9bd cd44 623e ecc8 4abd 9da2 50bd
00000090: e2b5 0d3e 125e 1dbd 9185 443e 7bff 103e
000000a0: 3cc4 143e 16a8 813e 8172 6a3e 2048 1f3e
000000b0: 7689 c0bd 5b18 1ebd 5433 033d 2a44 69bd
000000c0: 2e81 8ebd 2b1f a3bb 00d9 c93d 710a b0bd
000000d0: ed30 05be 0d46 2c3d a08d 643e 3965 013e
000000e0: f6d0 093d 9fe1 c7bb e3ed 46be 12f1 20be
000000f0: 10bf 8e3e 3f91 72bd 4e51 9dbd a44b 783d
00000100: aa0d 363e 5a8f 40bd 9297 373c c3c5 19be
00000110: c907 483e 723a 0cbe 6145 9c3e 428c 223d
00000120: e829 00bd 6383 573e 1e7f 893d 2701 333e
00000130: a0f8 783e edc4 51bd 83bf 2abe 4cf4 5bbc
00000140: bddc 483d 2c9b febd a2a5 89bd 4882 0abd
00000150: 8b60 c23d e7da 9c3d b8c7 173d 54ac 15be
00000160: 5f12 073e 7f8a 2f3e 66dc a8bc f5ef f83d
00000170: 1d28 e13d 4c91 af3d 1506 973d 5a56 1dbe
00000180: acd7 28bd 549b 37be f278 073e b07e d43d
00000190: 0d2e 48be 152c dd3c 3e33 ab3d 798a 4ebe
000001a0: a551 f73d 29df 853e 24cf 9a3d 642f 323e
000001b0: bd8c 593d 8675 debd 7555 9a3d 948c 023e
000001c0: c22f d33b 1d50 863e d2f8 1a3e 5b30 b93d
000001d0: f0eb 6bbd ce88 81bd 9cdb 5d3e 3bcf 14be
000001e0: e782 e5bc 705c 443d fe40 5f3d 4340 b1bd
000001f0: 160d a33d bf54 80be 39e3 c73c 927b 59bd
00000200: b308 2cbd a7e6 71bd 7afc ef3c 8217 5fbd
00000210: 808c 8b3d 5b06 3c3e 17c6 173e f3e7 33bd
00000220: 5be2 f6bd 0d50 9f3d cb80 503e a6a3 f6bd
00000230: b38d 34be ac43 853e 8e45 2ebe 54c6 523e
00000240: 61bc 84bc 1918 51be ca0f 2dbd fa8e e2bd
00000250: fb1b 89bc cc10 983d 1003 f53d 94c5 fbbc
00000260: eddc 673b 9393 793c 8a41 17bd a4e9 853e
00000270: 1b41 0a3d 206e 933b de6c e53c aec1 20be
00000280: 5a33 0a3e 5608 303e d9b7 b1bd aaa1 873d
00000290: 73de 0abe e50c a2bd 861d eebd cd3c cbbd
000002a0: 3f90 383d a4b4 b2bd a383 813e 69a4 263e
000002b0: 0f2d b83d f9f7 d3bd 4415 453e 1365 f8bd
000002c0: fee0 4ebe 1f10 15bd 03aa eabd 3897 cfbc
000002d0: f354 f13d e9a7 753e fdc2 1bbd d409 ce3d
000002e0: a5d6 f93d abb1 3abd 1251 003e 2b6a bb3d
000002f0: 34da 67bd 7977 c33d 729d bcbc 271f 753e
00000300: d07e 333d 9fde ebbd 7ae3 eebd c097 c7bd
00000310: 3945 d03d 11b4 cc3c a42b adbd 6b5a 1d3e
00000320: 03a8 2bbe 1a09 6ebd fbc8 fdbc 8486 40be
00000330: e5c6 ddbd 8770 9d3e e413 0d3e 1844 593e
00000340: 8cd1 4cbe 5f9e 46be c188 b83d 2e66 fdbd
00000350: c64d 3cbe 3a58 9e3e 80e8 ad3c 0db6 84bb
00000360: e079 d53d a6c9 e3bc e7ab 09bb f815 23bd
00000370: d939 4ebd 10a3 503e 2503 1f3e 01f9 96bd
00000380: 60ab a0bd addf e63c 884d 043e 8b8f 893c
00000390: 2e50 3bbd 2f2b a9bc 9191 01be 03c1 983e
000003a0: dc12 1dbe 234c a63e bb95 d63d 2c84 9fbd
000003b0: 5a9c 1f3e a191 293e 3a17 333e 47db 013e
000003c0: 6639 7bbd 0cb8 4fbd d446 d5bd 5505 273e
000003d0: 616d d5ba 8d54 20bd d307 573d 5c40 753d
000003e0: eedf 7b3d d71c 793c c605 18be b1b8 9b3d
000003f0: 2f77 1c3e 3d37 fe3b bf85 393e 1011 82be

gnn.batch_norms.0.weight f4 [50]
1.0664656 1.037673 0.98019063 0.9368988 0.92404085 0.97616243 1.1397042 0.9155714
0.99061346 0.9971656 0.9161105 0.9645233 0.99733573 0.9014134 1.0003732 0.9681902
0.9924959 0.96359867 0.89566165 0.94332534 0.9063616 1.0952494 0.96119475 0.97679114
0.84514827 0.93482864 1.0010113 0.98240376 1.032426 0.94013995 1.0395305 0.85553277
0.9726559 0.83971965 0.95061696 0.93371844 0.9362733 0.9595283 1.0074887 0.95211875
0.9334083 0.86116046 0.98593783 0.8866988 0.9475183 1.0012609 0.9037602 0.9160968
0.9764381 0.94955266
00000000: f281 883f 78d2 843f c6ed 7a3f 9ad8 6f3f
00000010: f18d 6c3f c8e5 793f d4e1 913f e362 6a3f
00000020: d898 7d3f 3f46 7f3f 3886 6a3f 00eb 763f
00000030: 6551 7f3f 07c3 663f 3b0c 803f 50db 773f
00000040: 3614 7e3f 67ae 763f 154a 653f c57d 713f
00000050: 5007 683f 2231 8c3f dc10 763f fc0e 7a3f
00000060: a35b 583f ee50 6f3f 2321 803f d07e 7b3f
00000070: 8926 843f 03ad 703f 560f 853f 3204 5b3f
00000080: faff 783f def7 563f a25b 733f 2c08 6f3f
00000090: 9baf 6f3f a6a3 753f 64f5 803f 0ebe 733f
000000a0: d9f3 6e3f 0375 5c3f 6c66 7c3f b1fe 623f
000000b0: 8f90 723f 5129 803f d45c 673f 5285 6a3f
000000c0: d9f7 793f e215 733f

gnn.batch_norms.0.bias f4 [50]
-0.16609801 0.06135711 -0.025139786 -0.054844733 -0.026460385 -0.2882979 -0.29613748 -0.027027695
-0.007847492 0.034688223 -0.079664476 -0.03283502 -0.10899968 -0.3469845 -0.112916864 -0.05885606
-0.045775406 0.019567985 -0.11364663 -0.062259473 -0.02983337 -0.3744844 -0.053906552 -0.03852403
-0.0970688 -0.011438006 -0.34106648 0.009891467 -0.018287312 -0.17787534 -0.15305012 -0.124503925
-0.16961129 -0.038466837 -0.32581246 -0.06661516 -0.05711998 -0.00284559 -0.26684764 0.0032217754
-0.079091296 -0.13250838 -0.22048002 -0.12342877 -0.065200105 -0.0011468191 -0.015081892 -0.032131437
0.024287054 -0.035079177
00000000: 9915 2abe 9851 7b3d f4f1 cdbc dfa4 60bd
00000010: 73c3 d8bc c89b 93be 559f 97be 2f69 ddbc
00000020: c492 00bc 3d15 0e3d 2127 a3bd 047e 06bd
00000030: 393b dfbd f4a7 b1be f540 e7bd 0d13 71bd
00000040: fe7e 3bbd 0a4d a03c 90bf e8bd ca03 7fbd
00000050: 1d65 f4bc 6bbc bfbe 1ecd 5cbd 60cb 1dbd
00000060: 02cc c6bd 7966 3bbc 44a0 aebe d20f 223c
00000070: 46cf 95bc f424 36be 2cb9 1cbe eafb febd
00000080: 95ae 2dbe 678f 1dbd e4d0 a6be 876d 88bd
00000090: a4f6 69bd 147d 3abb 41a0 88be 6c24 533b
000000a0: 9efa a1bd 47b0 07be 84c5 61be 39c8 fcbd
000000b0: a287 85bd dd50 96ba 0a1a 77bc 419c 03bd
000000c0: a5f5 c63c 2faf 0fbd

gnn.batch_norms.0.running_mean f4 [50]
0.014694845 -0.0064573674 0.06740494 0.04987493 0.01627047 -0.030186657 -0.06250597 0.029824814
0.061617587 0.065929875 -0.008633736 -0.03895576 -0.04355319 -0.0051802327 0.0053753424 -0.00796553
0.017185029 0.0797621 0.026544586 0.06873867 -0.00074196723 -0.03911753 0.0010800434 -0.009466614
0.05436376 0.053668886 -0.04570689 0.06362787 -0.056219865 -0.0017381305 -0.06775271 0.032168098
-0.053902395 0.04460048 -0.010611181 -0.03481071 -0.024173861 -0.015774105 -0.0015973621 0.02959057
0.034280155 0.08474778 -0.03520794 0.04522202 -0.017203286 -0.02507914 0.073128894 -0.022625165
0.048636783 0.061928015
00000000: a6c2 703c 5398 d3bb 9a0b 8a3d a849 4c3d
00000010: a649 853c 024a f7bc 2103 80bd 2b53 f43c
00000020: b962 7c3d 3e06 873d 8374 0dbc 1390 1fbd
00000030: d464 32bd f1be a9bb a423 b03b db81 02bc
00000040: 9ec7 8c3c 505a a33d 0874 d93c dcc6 8c3d
00000050: 9480 42ba b439 20bd 3e90 8d3a db19 1bbc
00000060: 89ac 5e3d e8d3 5b3d 2637 3bbd 544f 823d
00000070: cd46 66bd fbd1 e3ba efc1 8abd b2c2 033d
00000080: c2c8 5cbd feae 363d 85da 2dbc ad95 0ebd
00000090: 4308 c6bc b238 81bc 945e d1ba ec67 f23c
000000a0: 5969 0c3d 3e90 ad3d 3336 10bd ba3a 393d
000000b0: e8ed 8cbc c572 cdbc 9ac4 953d 6958 b9bc
000000c0: 5d37 473d 3ba8 7d3d

gnn.batch_norms.0.running_var f4 [50]
6.309048e-05 1.8310897e-05 0.00013375796 6.130769e-05 2.2903732e-05 5.9496684e-05 0.00014361685 5.558781e-05
0.00011202557 0.00012572214 6.91445e-06 6.86746e-05 6.0365073e-05 3.0257375e-05 1.8492881e-05 1.0169416e-05
9.462851e-06 0.00017258481 3.889804e-05 0.00014550243 4.632363e-06 6.538658e-05 8.251978e-06 1.6390984e-05
7.986741e-05 8.600138e-05 7.895912e-05 0.00012677499 7.488976e-05 6.0288344e-06 0.00014581803 3.181783e-05
0.000114354734 0.00012262876 1.0741001e-05 3.1290096e-05 2.8970107e-05 7.2115668e-06 3.8842634e-05 2.008855e-05
3.5781544e-05 0.00019054234 3.8745762e-05 6.59572e-05 1.693215e-05 2.2529624e-05 0.00013034118 2.6057718e-05
6.6616594e-05 9.6013384e-05
00000000: 724f 8438 5a9a 9937 6141 0c39 5192 8038
00000010: 6421 c037 148c 7938 db97 1639 f526 6938
00000020: 45ef ea38 48d4 0339 ac02 e836 6505 9038
00000030: 8130 7d38 38d1 fd37 2921 9b37 4f9d 2a37
00000040: a3c2 1e37 e2f7 3439 7426 2338 0392 1839
00000050: b26f 9b36 2720 8938 fa71 0a37 5f7f 8937
00000060: 7d7e a738 a45b b438 db96 a538 e7ee 0439
00000070: 220e 9d38 4b4b ca36 bbe6 1839 2374 0538
00000080: bbd1 ef38 e895 0039 3f34 3437 7c3d 0338
00000090: d504 f337 e3fa f136 f6ea 2238 d583 a837
000000a0: 2414 1638 52cc 4739 f282 2238 8152 8a38
000000b0: 8409 8e37 00fe bc37 32ac 0839 8696 da37
000000c0: 83b4 8b38 cb5a c938

gnn.batch_norms.1.weight f4 [50]
0.93817675 0.9759521 1.0090641 0.9345058 0.92690444 1.2994376 0.93860584 1.0003906
0.982307 0.97491807 1.183405 0.91714877 0.91836435 1.3987842 0.9618333 0.90198046
0.93642664 0.99393076 1.0883043 0.96370935 1.2596818 0.9838279 0.9390225 1.0700969
1.416748 0.91913664 1.2685724 0.93445325 0.9858581 0.969906 0.8977986 1.2994888
0.93377894 1.4497877 1.1858218 0.9612116 0.93545777 1.024797 1.2719781 0.9964003
0.9658708 1.2214319 0.898516 0.8740913 0.9089242 0.9107767 0.97023696 0.96535724
0.94178224 1.0037718
00000000: 5a2c 703f ffd7 793f 0329 813f c63b 6f3f
00000010: 9c49 6d3f f953 a63f 7948 703f cd0c 803f
00000020: 7978 7b3f 3b94 793f d179 973f 43ca 6a3f
00000030: ed19 6b3f 5c0b b33f b53a 763f 31e8 663f
00000040: a8b9 6f3f 3f72 7e3f 8e4d 8b3f a8b5 763f
00000050: 413d a13f 25dc 7b3f c763 703f eff8 883f
00000060: 0058 b53f 8a4c 6b3f 9560 a23f 5438 6f3f
00000070: 3261 7c3f c24b 783f 21d6 653f a655 a63f
00000080: 230c 6f3f a592 b93f 02c9 973f f711 763f
00000090: 297a 6f3f 8c2c 833f 2ed0 a23f 1714 7f3f
000000a0: 4f43 773f e157 9c3f 2505 663f 73c4 5f3f
000000b0: 42af 683f a928 693f 7361 783f a721 773f
000000c0: a418 713f 987b 803f

gnn.batch_norms.1.bias f4 [50]
-0.020803928 -0.0041380636 0.0069335573 -0.06723404 -0.08174432 -0.33864123 -0.0038647987 0.018042132
-0.061642215 0.0022466762 -0.18136406 -0.08661939 -0.043855146 -0.3853605 -0.03113585 -0.07864249
-0.091405965 -0.050652016 -0.20672102 -0.026010731 -0.24347714 -0.04060925 -0.06326019 -0.21484424
-0.32987183 -0.05889944 -0.2181336 -0.0988686 0.04976228 -0.17203064 -0.079534225 -0.3519603
-0.03729318 -0.4350473 -0.27375063 -0.05317967 -0.02888067 -0.05843148 -0.29240397 0.03599823
-0.02698965 -0.34652153 -0.08341755 -0.1130514 -0.06845826 -0.04467187 -0.021227011 -0.03440817
-0.042546656 -0.08698316
00000000: 006d aabc 9898 87bb e532 e33b 00b2 89bd
00000010: 9169 a7bd 6262 adbe 9048 7dbb 18cd 933c
00000020: 8c7c 7cbd f93c 133b 80b7 39be 8265 b1bd
00000030: 74a1 33bd f94d c5be 9c10 ffbc 500f a1bd
00000040: 0d33 bbbd 7d78 4fbd adae 53be 7514 d5bc
00000050: 1252 79be e355 26bd 8f8e 81bd 2100 5cbe
00000060: f6e4 a8be 8a40 71bd 6a5e 5fbe 9f7b cabd
00000070: 88d3 4b3d cd28 30be d7e2 a2bd 2434 b4be
00000080: bcc0 18bd 85be debe 0b29 8cbe edd2 59bd
00000090: 2897 ecbc d955 6fbd f9b5 95be e172 133d
000000a0: 6619 ddbc 456b b1be d2d6 aabd 7e87 e7bd
000000b0: d833 8cbd daf9 36bd 45e4 adbc 95ef 0cbd
000000c0: 6745 2ebd 3a24 b2bd

gnn.batch_norms.1.running_mean f4 [50]
-0.07061342 0.5141741 -0.1803393 -0.56886095 -0.06687516 0.37756386 0.06803917 -0.7377328
-0.9772973 0.1804749 0.4545415 -0.46202472 0.6345242 0.32999608 -0.1169621 -0.5391169
-0.036312755 -0.14263289 0.5297025 -0.25351295 0.46620724 -0.7113112 0.013694129 0.0949205
0.33906665 -0.4439528 0.7731668 0.53563315 0.59080344 0.28300974 0.22007799 0.29682902
-0.24223605 0.6321238 0.6835711 -0.47333667 -0.20734586 0.6148987 0.35595307 -0.49775326
-0.5989513 0.5935649 -0.12494878 -0.6604668 0.16848743 0.8914885 -0.14679089 0.59804326
-0.36748758 0.2580876
00000000: c59d 90bd eaa0 033f deaa 38be dfa0 11bf
00000010: d8f5 88bd 0d50 c13e 1f58 8b3d 0fdc 3cbf
00000020: 2830 7abf 6ace 383e aab9 e83e 818e ecbe
00000030: 2e70 223f 3ff5 a83e d389 efbd 9103 0abf
00000040: afbc 14bd 5b0e 12be 959a 073f 73cc 81be
00000050: b7b2 ee3e 7e18 36bf 575d 603c ae65 c23d
00000060: 259a ad3e c84d e3be 42ee 453f 411f 093f
00000070: e53e 173f a7e6 903e 205c 613e f9f9 973e
00000080: ba0c 78be ded2 213f 84fe 2e3f 2f59 f2be
00000090: 7952 54be 006a 1d3f 7b3f b63e 84d9 febe
000000a0: df54 19bf dff3 173f 25e5 ffbd 5a14 29bf
000000b0: f887 2c3e 9738 643f 5a50 16be 5d19 193f
000000c0: 5527 bcbe 0f24 843e

gnn.batch_norms.1.running_var f4 [50]
0.40139565 0.3634445 0.12804092 0.15030262 0.25835997 0.20255736 0.2166558 0.31087047
0.38020784 0.45683265 0.23813656 0.17193277 0.1954189 0.2159632 0.21837224 0.13301471
0.12232267 0.11503737 0.3837386 0.15878597 0.19719565 0.25678357 0.20103826 0.14288563
0.281632 0.32089442 0.35561702 0.37913123 0.18385276 0.14545244 0.074122466 0.3225624
0.11272457 0.2993383 0.45089597 0.29396453 0.09192764 0.6464161 0.2438275 0.24640267
0.2432277 0.31652847 0.104789995 0.19292057 0.15627581 0.53509647 0.30012316 0.14918458
0.09529364 0.21501258
00000000: bb83 cd3e 6615 ba3e 291d 033e eee8 193e
00000010: c247 843e 326b 4f3e 05db 5d3e 6a2a 9f3e
00000020: 9aaa c23e f8e5 e93e 12da 733e 250f 303e
00000030: e41b 483e 7525 5d3e f99c 5f3e 0235 083e
00000040: 4f84 fa3d b698 eb3d 6379 c43e ca98 223e
00000050: a8ed 493e 2379 833e f9dc 4d3e 9c50 123e
00000060: 1232 903e 464c a43e 6f13 b63e 7d1d c23e
00000070: e643 3c3e 7cf1 143e 85cd 973d e626 a53e
00000080: 24dc e63d df42 993e d6db e63e 8582 963e
00000090: 8f44 bc3d 877b 253f ebad 793e fb50 7c3e
000000a0: af10 793e 0510 a23e 239c d63d f88c 453e
000000b0: c406 203e 15fc 083f bea9 993e d8c3 183e
000000c0: 5029 c33d 422c 5c3e

gnn.batch_norms.2.weight f4 [50]
0.7345631 0.76073045 0.7803064 0.7771345 0.70376617 0.6813437 0.8038367 0.76946306
0.76365364 0.7816995 0.8007239 0.76903564 0.78042126 0.6358498 0.75267845 0.76516724
0.7592345 0.66078556 0.7683634 0.819681 0.7000472 0.6822995 0.78335917 0.8194796
0.7526933 0.7365092 0.8071012 0.7314327 0.75561947 0.7215489 0.7454013 0.57224745
0.69421196 0.7922503 0.7541532 0.70669925 0.7003543 0.73824745 0.7212922 0.68142927
0.7448393 0.70854187 0.74866986 0.7914526 0.7502784 0.7193041 0.75835365 0.77608234
0.66669077 0.6944871
00000000: 540c 3c3f 3bbf 423f 29c2 473f 49f2 463f
00000010: 052a 343f 8a6c 2e3f 3ec8 4d3f 88fb 443f
00000020: ce7e 433f 751d 483f 3efc 4c3f 85df 443f
00000030: b0c9 473f 0dc7 223f 89af 403f 00e2 433f
00000040: 315d 423f 3e29 293f 77b3 443f 9dd6 513f
00000050: 4b36 333f 2eab 2e3f 3a8a 483f 6ac9 513f
00000060: 82b0 403f de8b 3c3f 2f9e 4e3f 2c3f 3b3f
00000070: 4770 413f 6eb7 383f 9fd2 3e3f cf7e 123f
00000080: e0b7 313f ead0 4a3f 2f10 413f 3eea 343f
00000090: 6b4a 333f c9fd 3c3f 9ba6 383f 2672 2e3f
000000a0: caad 3e3f 0063 353f d4a8 3f3f a39c 4a3f
000000b0: 3f12 403f 5024 383f 7723 423f 55ad 463f
000000c0: 3fac 2a3f e8c9 313f

gnn.batch_norms.2.bias f4 [50]
8.62613e-05 0.00011056056 -2.6124591e-05 -0.00010908061 -9.239335e-05 3.444818e-05 -0.00011634625 -4.6897876e-05
8.882135e-05 0.00010549715 5.4584634e-05 7.404756e-05 -5.5574816e-05 0.00021065558 -8.6122236e-05 7.992389e-05
2.278342e-05 -6.859439e-05 8.091509e-06 -6.244037e-05 1.0141881e-05 6.938618e-05 -6.283018e-08 8.5036045e-05
-3.963675e-05 6.846845e-05 9.430894e-05 -0.00027383026 1.959734e-05 -0.00013426038 -2.9637455e-05 6.0470604e-05
9.440428e-05 2.7702348e-05 1.0556341e-05 4.7098132e-05 5.9093443e-05 -3.834044e-05 7.809289e-05 -6.36553e-05
-5.6069788e-05 -4.3406537e-05 0.00013578693 5.51666e-05 -4.8219437e-05 2.5365121e-05 5.5596545e-05 -4.344417e-05
-7.463551e-05 3.5587444e-05
00000000: 2fe7 b438 c0dc e738 2226 dbb7 35c2 e4b8
00000010: 4dc3 c1b8 747c 1038 ebfe f3b8 36b4 44b8
00000020: 9945 ba38 5a3e dd38 cef1 6438 fb49 9b38
00000030: 0119 69b8 6de3 5c39 869c b4b8 d09c a738
00000040: 061f bf37 55da 8fb8 c4c0 0737 6bf2 82b8
00000050: 0c27 2a37 6c83 9138 42ed 86b3 6155 b238
00000060: a33f 26b8 b896 8f38 bac7 c538 e090 8fb9
00000070: f864 a437 3fc8 0cb9 f39d f8b7 d1a1 7d38
00000080: e9fa c538 5762 e837 241b 3137 3c8b 4538
00000090: 1adb 7738 bccf 20b8 cdc5 a338 ae7e 85b8
000000a0: 7a2c 6bb8 6a0f 36b8 0762 0e39 b062 6738
000000b0: 3a3f 4ab8 2fc7 d437 5630 6938 d337 36b8
000000c0: a285 9cb8 ba43 1538

gnn.batch_norms.2.running_mean f4 [50]
0.53681237 0.5398663 0.30479482 0.47120482 0.533178 -0.4104276 -0.49185777 -0.42559648
0.42125258 0.42094144 -0.4901984 0.55776155 0.5267805 0.9998077 -0.5279956 -0.6783046
-0.1209317 0.521916 0.4487821 0.5952807 -0.24050687 0.23360792 0.47825262 -0.09206134
-0.67555565 0.18039764 0.29674482 -0.6897964 -0.021141043 -0.66966134 0.2071456 0.75782454
0.11485778 -0.20978415 -0.418726 0.49292135 -0.20369382 0.73677623 0.3000119 0.53801143
0.36121804 0.58510405 0.4595974 0.7069484 0.45306066 0.47436532 0.57269454 0.56669706
-0.499636 -0.56455326
00000000: 896c 093f ae34 0a3f 110e 9c3e c241 f13e
00000010: 5a7e 083f 9123 d2be c8d4 fbbe c8e7 d9be
00000020: 6bae d73e a385 d73e 49fb fabe 76c9 0e3f
00000030: 16db 063f 66f3 7f3f b82a 07bf 5fa5 2dbf
00000040: 0aab f7bd 499c 053f c4c6 e53e 5164 183f
00000050: 6f47 76be ea36 6f3e 87dd f43e a88a bcbd
00000060: 37f1 2cbf 29ba 383e f0ee 973e 7f96 30bf
00000070: fb2f adbc ed6e 2bbf fa1d 543e ca00 423f
00000080: 8e3a eb3d a8d1 56be 4163 d6be 3060 fc3e
00000090: 1d95 50be 5e9d 3c3f 299b 993e 1ebb 093f
000000a0: 92f1 b83e 61c9 153f 5a50 eb3e 92fa 343f
000000b0: 91f7 e73e 03e0 f23e 1c9c 123f 0f13 113f
000000c0: 4ad0 ffbe 9086 10bf

gnn.batch_norms.2.running_var f4 [50]
6.404442 5.2682366 5.4247503 4.525243 6.0006514 4.248642 6.17282 5.8464613
4.325925 5.836107 5.959049 3.9669309 5.826953 7.3607073 5.9317794 7.673511
7.2027287 5.008002 5.0652533 4.2219515 7.6079607 6.9120846 7.980858 7.0220118
9.568544 4.9903126 5.537946 4.455549 7.5522633 4.2773004 5.5758915 5.221696
4.54658 5.249897 6.95743 4.311731 6.681663 6.2687335 6.2154427 7.3910313
4.9020414 5.3005776 5.709448 4.631617 4.785874 5.046457 5.370396 7.104565
5.8664017 6.590197
00000000: 30f1 cc40 6595 a840 8e97 ad40 cace 9040
00000010: 5605 c040 e0f4 8740 be87 c540 3616 bb40
00000020: fa6d 8a40 63c1 ba40 88b0 be40 32e2 7d40
00000030: 6676 ba40 ea8a eb40 23d1 bd40 678d f540
00000040: c17c e640 8d41 a040 8e16 a240 3a1a 8740
00000050: 6a74 f340 cc2f dd40 3063 ff40 52b4 e040
00000060: c218 1941 a4b0 9f40 db36 b140 db93 8e40
00000070: 24ac f140 a5df 8840 b46d b240 2218 a740
00000080: 957d 9140 28ff a740 44a3 de40 b3f9 8940
00000090: 2fd0 d540 7799 c840 e8e4 c640 5483 ec40
000000a0: 86dd 9c40 559e a940 ccb3 b640 3536 9440
000000b0: e125 9940 937c a140 49da ab40 9958 e340
000000c0: 90b9 bb40 e5e2 d240

exp_avg f4 [1, 1, 50]
0.00028360315 -4.2099262e-05 -0.00022361733 -9.904661e-05 -2.1904432e-05 2.2416356e-05 0.00025111315 -0.0001515208
2.9865841e-05 4.7439724e-05 -8.0340724e-05 0.00029742395 4.480797e-05 2.0191615e-05 0.00019536995 0.00010546944
2.298981e-05 -5.0959854e-05 -5.7207788e-05 -0.00016591804 4.8407877e-05 0.00012413967 -0.000112027956 -0.0001127142
-5.9719863e-05 -4.6324894e-05 0.00017687421 -9.602203e-05 -6.894908e-05 5.2252148e-05 0.00022300838 -0.00013613774
9.256347e-05 -4.3309272e-05 -2.1756312e-06 -9.760099e-05 9.492534e-05 0.00011420929 0.00020076134 -6.223312e-05
-2.9759634e-05 -7.602234e-05 0.00016576014 9.901818e-05 2.4017152e-05 -8.129536e-07 -5.8505433e-05 -6.544837e-05
-9.747453e-05 -8.747523e-05
00000000: 92b0 9439 bd93 30b8 d27a 6ab9 3eb7 cfb8
00000010: 69bf b7b7 c20a bc37 d6a7 8339 8ee1 1eb9
00000020: 6888 fa37 04fa 4638 997c a8b8 91ef 9b39
00000030: 31f0 3b38 2a61 a937 39dc 4c39 792f dd38
00000040: 3eda c037 babd 55b8 65f2 6fb8 49fa 2db9
00000050: 9009 4b38 7d2b 0239 8df0 eab8 fa60 ecb8
00000060: b77b 7ab8 fa4c 42b8 4f77 3939 6f5f c9b8
00000070: c198 90b8 5129 5b38 5bd7 6939 32c0 0eb9
00000080: a21e c238 faa6 35b8 0f01 12b6 22af ccb8
00000090: a712 c738 a583 ef38 7683 5239 2783 82b8
000000a0: 54a4 f9b7 2f6e 9fb8 e6cf 2d39 fba7 cf38
000000b0: 7178 c937 bf39 5ab5 bb63 75b8 5341 89b8
000000c0: 3d6b ccb8 e872 b7b8

exp_avg_sq f4 [1, 1, 50]
2.9623055e-07 1.03303144e-07 8.946746e-07 1.8647998e-07 6.534174e-08 5.176106e-07 1.2591728e-06 2.9815482e-07
8.45045e-07 8.495601e-07 3.7906805e-08 2.7762331e-07 2.211456e-07 4.960994e-07 2.1965161e-07 4.2559822e-08
4.3227764e-08 6.009264e-07 3.8958393e-07 6.466204e-07 7.563677e-08 5.203297e-07 8.294373e-08 1.3893622e-07
4.8363825e-07 2.190717e-07 4.6920778e-07 4.533286e-07 3.054131e-07 8.9877986e-08 6.9066743e-07 1.5082924e-07
3.529683e-07 4.674172e-07 1.6847751e-07 1.9881064e-07 9.402338e-08 1.0611294e-07 6.323735e-07 7.935812e-08
1.2880817e-07 9.75751e-07 4.632767e-07 3.930419e-07 9.884167e-08 1.0938791e-07 6.188122e-07 1.01653306e-07
8.1330384e-08 4.3381914e-07
00000000: 9e09 9f34 81d7 dd33 9229 7035 3a3b 4834
00000010: 0052 8c33 eef1 0a35 d900 a935 1612 a034
00000020: 0dd7 6235 530d 6435 f9ce 2233 420c 9534
00000030: 0a74 6d34 b12b 0535 60d9 6b34 05cb 3633
00000040: 6ea9 3933 594f 2135 0228 d134 6a93 2d35
00000050: c16d a233 c9ac 0b35 cc1e b233 7f2e 1534
00000060: 5ed3 0135 f839 6b34 6de7 fb34 0261 f334
00000070: a8f7 a334 f202 c133 4e66 3935 a0f3 2134
00000080: 987f bd34 55f1 fa34 bfe6 3434 a778 5534
00000090: e6e9 c933 35e0 e333 60c0 2935 966b aa33
000000a0: 854e 0a34 8df6 8235 44b8 f834 4403 d334
000000b0: c842 d433 a4e8 ea33 731c 2635 7f4c da33
000000c0: daa7 ae33 a6e7 e834

exp_avg f4 [1, 1, 50]
3.7562165e-07 -1.486511e-06 1.2160474e-06 2.5874983e-06 -1.0829463e-06 -2.1678613e-06 4.2267493e-07 3.0088243e-06
7.701298e-07 -1.5025144e-06 -2.3903099e-06 -1.4597323e-06 -1.3819706e-06 7.149292e-07 2.5373197e-06 -1.64256e-06
3.2801747e-06 3.0192698e-06 5.134832e-07 -2.3146672e-06 -2.1111632e-06 3.406855e-07 8.272622e-07 5.220282e-07
1.3579614e-06 2.9689454e-06 2.3455462e-07 2.8137363e-06 9.0574537e-07 6.272654e-07 2.5013087e-06 1.0794383e-06
2.7314725e-06 1.3811311e-06 1.3434916e-07 -1.6099609e-06 -2.4103306e-06 -3.8762968e-07 2.4029787e-06 -5.227346e-07
-4.2478794e-07 1.9751117e-06 -2.0830819e-06 4.916194e-07 2.1790048e-07 -7.7734774e-07 1.0340655e-06 -2.1081462e-06
1.9938495e-06 1.002168e-06
00000000: 0ca9 c934 2184 c7b5 1237 a335 e2a4 2d36
00000010: c059 91b5 937b 11b6 00ec e234 35eb 4936
00000020: ebba 4e35 00aa c9b5 3669 20b6 05ec c3b5
00000030: 267c b9b5 8fe9 3f35 d246 2a36 ef75 dcb5
00000040: f920 5c36 a99e 4a36 4cd6 0935 ae55 1bb6
00000050: 82ad 0db6 75e7 b634 0711 5e35 8121 0c35
00000060: 3343 b635 183e 4736 e2d9 7b34 9fd3 3c36
00000070: 5922 7335 5a61 2835 28dc 2736 38e1 9035
00000080: 574e 3736 4e5f b935 9e41 1034 d615 d8b5
00000090: 2ac1 21b6 6b1b d0b4 dc42 2136 0c52 0cb5
000000a0: 690e e4b4 298c 0436 13cb 0bb6 d4f7 0335
000000b0: 07f8 6934 eeaa 50b5 38ca 8a35 ad79 0db6
000000c0: 13ce 0536 3b82 8635

exp_avg_sq f4 [1, 1, 50]
5.1307858e-08 1.120329e-08 7.064307e-07 1.5387603e-07 6.4796053e-09 1.1408471e-07 7.686943e-07 1.7158881e-07
6.6822895e-07 5.246844e-07 2.4100537e-09 1.4212853e-07 1.5806135e-07 1.7644095e-07 7.935688e-08 4.287327e-09
7.4014106e-09 5.40028e-07 2.4180335e-07 5.1689943e-07 3.602495e-08 2.0107532e-07 4.0536428e-08 1.0992721e-09
3.661646e-07 9.2132396e-08 3.2497192e-07 3.6542716e-07 2.8394894e-07 2.303559e-09 4.3141884e-07 1.0699768e-07
2.3244515e-07 1.2015309e-07 3.6094164e-08 1.730781e-07 3.1565586e-09 2.6458038e-08 1.7980861e-08 4.1630287e-08
5.8626014e-08 8.045369e-07 2.2524348e-07 3.0280987e-07 7.263011e-09 4.694134e-08 2.885144e-07 4.708401e-08
3.2553434e-08 3.6957383e-07
00000000: 965d 5c33 9778 4032 8ca1 3d35 1f39 2534
00000010: 36a3 de31 bcfe f433 4558 4e35 f93d 3834
00000020: 5860 3335 0ad8 0c35 1d9e 2531 fe9b 1834
00000030: 93b7 2934 b873 3d34 e86a aa33 ba4f 9331
00000040: 7f4f fe31 71f6 1035 33d1 8134 0fc1 0a35
00000050: dab9 1a33 2ae7 5734 461a 2e33 3315 9730
00000060: 4895 c434 52da c533 cd77 ae34 ed2f c434
00000070: a571 9834 a34c 1e31 c19d e734 99c6 e533
00000080: 0996 7934 6e03 0134 f405 1b33 59d7 3934
00000090: c4ea 5831 d745 e332 5574 9a32 fccc 3233
000000a0: fccb 7b33 5bf7 5735 75da 7134 df91 a234
000000b0: 1f8e f931 8d9c 4933 1ee5 9a34 6b39 4a33
000000c0: e1d0 0b33 d769 c634
