src/checkpoints/kitti_only_backup/final_model.pth (torch, 127991 bytes, 60 tensors)

gnn.convs.0.att_src f4 [1, 1, 50]
0	0x3e74635a	0.23866025
1	0x3e299d4f	0.16563915
2	0x3e0c084b	0.13675039
3	0x3d32527c	0.043535694
4	0xbb09cf9f	-0.0021028293
5	0xbe5f8056	-0.218263
6	0xbe703815	-0.23458894
7	0x3d17cf34	0.03706284
8	0xbe393d09	-0.1808969
9	0x3e3623e2	0.17787126
10	0x3e276d1e	0.16350219
11	0xbe0f4222	-0.13990071
12	0x3db8c26e	0.090214595
13	0x3e85a7fc	0.26104724
14	0xbe8d337f	-0.2757835
15	0xbe0d81d1	-0.13819052
16	0xbe8deee0	-0.2772131
17	0x3e46aca5	0.19401796
18	0xbe4b41a9	-0.19849266
19	0xbeaa99ba	-0.3332041
20	0x3e2343ba	0.15943804
21	0xba92aff5	-0.0011191355
22	0xbe9692d8	-0.29408908
23	0xbe1ccbf1	-0.15312172
24	0xbd0e2e49	-0.03471211
25	0xbeacc5db	-0.33744702
26	0xbe141f8f	-0.14465164
27	0xbe3cf8b7	-0.18454252
28	0xbe1c5b8c	-0.15269297
29	0xbe3a2c8d	-0.18181057
30	0xbda95f85	-0.08270172
31	0x3d74822c	0.059694454
32	0xbd8fdd88	-0.070246756
33	0x3cf2d316	0.02964167
34	0xbe1f2a2e	-0.15543434
35	0x3ea05cfb	0.31320938
36	0xbe2ba64c	-0.16762656
37	0xbea5db9c	-0.3239411
38	0x3cf66fc6	0.030082595
39	0x3b6bfb38	0.0036007892
40	0x3d467098	0.04844722
41	0xbd632be9	-0.055461798
42	0x3e936257	0.28785965
43	0xbd9ad334	-0.07559815
44	0x3c97cfb2	0.018531654
45	0xbe30736e	-0.17231533
46	0x3d038384	0.032107845
47	0x3dfefd40	0.12450647
48	0xbdffcaab	-0.12489828
49	0xbe0071e1	-0.12543441

gnn.convs.0.att_dst f4 [1, 1, 50]
0	0x3e162932	0.14664152
1	0xbd5c510b	-0.053788226
2	0x3e960e8c	0.29307973
3	0xbe32f6d7	-0.17476974
4	0xbd8f3a31	-0.06993521
5	0x3c320510	0.010865465
6	0x3e8f9453	0.2804285
7	0x3c93d3c9	0.018045323
8	0xbe3f73bd	-0.18696494
9	0x3e71ce23	0.23613791
10	0x3e774a72	0.24149492
11	0x3c34e3ad	0.01104061
12	0xbe666ada	-0.22501698
13	0x3d818b5d	0.063254096
14	0x3ddbebaf	0.107383125
15	0x3e484dcd	0.19560929
16	0x3ea8e760	0.32989025
17	0x3d1d6ec8	0.038435727
18	0x3eaa0aea	0.33211452
19	0xbdb854c4	-0.09000543
20	0x3e830f8d	0.25597802
21	0x3e7acbb4	0.24491769
22	0xbea4e33e	-0.32204622
23	0xbe3269f3	-0.17423229
24	0xbdadc894	-0.08485523
25	0xbde134dd	-0.10996411
26	0xbdcd9eb2	-0.10040034
27	0x3e58dd03	0.2117806
28	0xbdc8c182	-0.09802534
29	0xbe8d2d0f	-0.2757344
30	0xbe2cdba6	-0.16880664
31	0xbdff7bd6	-0.12474792
32	0xbeae5c45	-0.3405477
33	0x3ea6750a	0.3251117
34	0xbe610ad8	-0.21976793
35	0x3d2c2947	0.042031553
36	0x3ad57395	0.0016285056
37	0xbdb3a12e	-0.08770977
38	0xbe300bd1	-0.17192008
39	0x3e26b8fb	0.16281502
40	0x3e592a5f	0.2120757
41	0xbe1bbe8c	-0.15209407
42	0xbea67e5a	-0.32518274
43	0x3e492d0b	0.19646089
44	0x3d86841a	0.06568165
45	0x3e4b1302	0.1983147
46	0xbe810491	-0.25198796
47	0x3df83dc9	0.121211596
48	0x3e062e2a	0.13103548
49	0xbe6a9fef	-0.22912572

gnn.convs.0.bias f4 [50]
0	0xbc5641ce	-0.0130772125
1	0xbbc7ee40	-0.0061013997
2	0x3bd47c72	0.0064845616
3	0x39ad774c	0.00033086014
4	0x3bce884e	0.00630287
5	0xbb70adf5	-0.003672478
6	0x3a794384	0.0009508657
7	0xbab45f9c	-0.0013761404
8	0xbbbbd3c1	-0.00573203
9	0x3a743507	0.0009315763
10	0xbd34ec70	-0.044170797
11	0xbb911eb2	-0.004428708
12	0xbb184fe7	-0.0023240985
13	0xbbb69ed2	-0.005573132
14	0xba06ef45	-0.0005147348
15	0xb93b65e9	-0.00017871674
16	0xbb57a3da	-0.003290406
17	0xbb1e3683	-0.0024141378
18	0x39942b1c	0.0002826088
19	0xbbbc04d5	-0.0057378807
20	0xbc43e176	-0.01195561
21	0xba044894	-0.00050462154
22	0x38eae23a	0.000112001275
23	0x3b5feb99	0.0034167527
24	0x3a5a8b32	0.0008336782
25	0xbb4c5f1a	-0.0031184615
26	0xb89c78a6	-7.461132e-05
27	0xbb427e77	-0.002967743
28	0xbb02b546	-0.0019944473
29	0xbb56d3db	-0.0032780084
30	0xbba51178	-0.005037483
31	0xbc13cfa5	-0.009021674
32	0xbb1c5ca6	-0.0023858934
33	0xbb1acb03	-0.002361954
34	0xbb1cbafd	-0.0023915165
35	0xbafc4727	-0.0019247279
36	0xbc04baca	-0.008101175
37	0xbbc4b22e	-0.006002686
38	0x3b55ad04	0.0032604346
39	0x3a373716	0.00069891044
40	0x3b88dcc4	0.004176708
41	0x3bd00d6a	0.0063492553
42	0x3a0fca94	0.00054852036
43	0xbac28240	-0.0014839843
44	0xbbb51691	-0.0055263718
45	0xbb2a478c	-0.0025982587
46	0xbb07f61f	-0.0020746065
47	0xbc28602e	-0.010276837
48	0x3bf292a1	0.0074027334
49	0xbca7ebdb	-0.020498207

gnn.convs.0.lin.weight f4 [50, 50]
0	0xbe4e2ae5	-0.2013355
1	0xbd058346	-0.032595895
2	0xbde7e1dc	-0.11322376
3	0xbdefff03	-0.117185615
4	0xbd568e79	-0.052381966
5	0xbe2d2c5a	-0.1691145
6	0x3e24ac24	0.16081291
7	0xbe4a3965	-0.19748457
8	0x3e2407ec	0.16018647
9	0xbe055b8c	-0.13023204
10	0xbd4255ff	-0.047445294
11	0xbd1e4aec	-0.03864567
12	0x3c065e0a	0.008201132
13	0xbdbb612a	-0.09149392
14	0xbd160bdb	-0.0366324
15	0x3e0ba000	0.13635254
16	0x3e1f1a44	0.15537363
17	0x3d1da863	0.038490664
18	0xbddb2d1e	-0.10701965
19	0xbe37db37	-0.17954718
20	0x3d2392e6	0.039935015
21	0xbde7185b	-0.11283942
22	0xbca4fa4f	-0.020138888
23	0xbe33b8f4	-0.17551023
24	0xbe129a22	-0.1431661
25	0xbde67293	-0.11252322
26	0x3d9e856a	0.077402905
27	0xbe0e2a54	-0.13883334
28	0x3db8576f	0.09001052
29	0x3e299d16	0.1656383
30	0x3e6988fe	0.22806165
31	0x3d8c3b0c	0.068472
32	0xbe061ee7	-0.13097726
33	0x3e3016ab	0.17196147
34	0x3d12e175	0.035859544
35	0xbe240b80	-0.16020012
36	0x3d3d002e	0.04614275
37	0x3d871e2c	0.06597552
38	0x3e50c13c	0.20386213
39	0x3e828861	0.25494674
40	0xbdc9b5ce	-0.098491296
41	0x3dddaf0e	0.10824405
42	0x3d912933	0.07087936
43	0xbdeb8930	-0.11500776
44	0xbdc6cd3d	-0.09707115
45	0x3e022069	0.12707676
46	0xbdb2666c	-0.08710942
47	0x3e7dc204	0.24781042
48	0xbe1e7da6	-0.15477619
49	0x3e7f896d	0.24954768
50	0x3dcdb870	0.10044944
51	0xbd532608	-0.05154994
52	0x3e3bf630	0.18355632
53	0x3cdb09ca	0.026738066
54	0x3e72d758	0.2371496
55	0x3e5e4430	0.21705699
56	0xbe29a46a	-0.16566625
57	0xbce4ea85	-0.027943859
58	0x3aa2f17a	0.0012431585
59	0x3e37a2b7	0.17933165
60	0xbe49d355	-0.19709523
61	0x3bafae53	0.0053613572
62	0xbd87968a	-0.0662051
63	0xbe00609c	-0.12536854
64	0xbdfd7dfc	-0.12377545
65	0xbe30d223	-0.17267661
66	0x3e310ee3	0.17290835
67	0xbba25416	-0.0049538715
68	0x3d9179c3	0.07103302
69	0xbe3c04af	-0.18361162
70	0x3e2f44e3	0.17116122
71	0x3e1a5501	0.15071489
72	0xbe3b62be	-0.18299386
73	0x3e019743	0.12655358
74	0xbcf39dc0	-0.029738307
75	0x3e6f2257	0.23352943
76	0xbda07f71	-0.078368075
77	0xbd93db1a	-0.07219525
78	0xbe6019c8	-0.21884835
79	0xbe83392b	-0.25629553
80	0xbcf5be2d	-0.02999791
81	0xbe169816	-0.14706454
82	0xbd570fbd	-0.052505244
83	0x3c9cef33	0.019157028
84	0x3de9f2d1	0.11423267
85	0x3b57f8fc	0.0032954803
86	0x3e2bde28	0.16783965
87	0xbe30ef14	-0.17278701
88	0x3da1b75d	0.07896302
89	0xbe422628	-0.18959868
90	0xbcac282a	-0.021015245
91	0xbe0592c5	-0.1304427
92	0x3daf4624	0.085583
93	0x3d73a29f	0.05948126
94	0xbc850bfe	-0.01624107
95	0xbe598436	-0.2124184
96	0x3e0ddc81	0.13853647
97	0x3e2babe8	0.16764796
98	0xbd2b2c9a	-0.041790582
99	0xbe02afab	-0.12762325
100	0x3e428fee	0.19000217
101	0xbd19de83	-0.03756572
102	0x3daa3def	0.08312594
103	0x3dc2c08c	0.09509382
104	0x3e968b3d	0.29403105
105	0xbda74ddc	-0.08169147
106	0xbcd39f73	-0.025832867
107	0xbe14d266	-0.14533386
108	0xbe5cc409	-0.21559156
109	0xbddcd5fa	-0.10783
110	0x3da94cfa	0.08266635
111	0x3e3e579a	0.18588105
112	0xbdbd19ab	-0.092334114
113	0xbe72c78c	-0.23708934
114	0xbe6c1ffa	-0.23059073
115	0x3dbd6c77	0.09249204
116	0xbe460829	-0.1933905
117	0x3dc60b52	0.09670128
118	0x3e41c10f	0.18921302
119	0x3db86d3c	0.0900521
120	0x3bd9911d	0.0066396133
121	0x3e0b6d1c	0.1361584
122	0xbe66eebb	-0.22552006
123	0x3e2de999	0.16983642
124	0xbe81c97b	-0.2534903
125	0xbdd3132e	-0.103063926
126	0x3e3a0cb7	0.18168913
127	0xbe2c77a2	-0.16842511
128	0xbd0b6616	-0.034032904
129	0x3d035a1a	0.03206835
130	0x3db08d17	0.08620661
131	0x3e0811d4	0.13288051
132	0xbd0df38a	-0.034656085
133	0xbe6f4670	-0.23366714
134	0x3dd0f4cd	0.10202942
135	0x3e3aa2c2	0.1822615
136	0x3e1f38bc	0.15548986
137	0x3e0a767b	0.13521759
138	0x3d691474	0.05690427
139	0xbc19700c	-0.009365093
140	0x3dc795e3	0.097453855
141	0xbd982ee9	-0.074308224
142	0x3db67d29	0.08910591
143	0xbd257d11	-0.040402476
144	0x3d47756e	0.048695974
145	0xbe5d2d69	-0.21599354
146	0xbe7e6e68	-0.24846804
147	0x3d93275d	0.07185242
148	0xbd0a6228	-0.033785015
149	0x3cc90cb8	0.024542198
150	0x3e0ef5a2	0.13960889
151	0x3e158be4	0.14604145
152	0xbde0fd6c	-0.109858364
153	0xbe367074	-0.17816335
154	0xbd3d9620	-0.04628575
155	0x3da68953	0.08131661
156	0x3e62b72e	0.2214019
157	0x3dfe5750	0.12418997
158	0x3e73511d	0.23761411
159	0x3de8068c	0.11329374
160	0xbc1d3e3a	-0.0095973555
161	0x3d922bc3	0.07137253
162	0x3df22121	0.11822725
163	0xbdcfc6a2	-0.10145308
164	0x3e2a0fa3	0.16607527
165	0x3d8bdeb7	0.06829589
166	0x3ca8e90e	0.020618942
167	0xbe30af6a	-0.17254415
168	0xbd188f0f	-0.037245806
169	0x3e47378f	0.19454788
170	0x3e6553f7	0.22395311
171	0x3c87fabd	0.016599054
172	0x3e10a869	0.14126743
173	0x3d74d254	0.059770897
174	0x3d801607	0.062542014
175	0x3dbc6d2c	0.092005104
176	0x3c8947fb	0.016757956
177	0x3e5b8e27	0.21440946
178	0xbe4783b5	-0.19483836
179	0xbde03210	-0.10947049
180	0x3d342279	0.04397819
181	0x3d2a91e0	0.041643023
182	0x3d5fb936	0.05461999
183	0x3e3e64b7	0.18593107
184	0xbe04ccce	-0.12968752
185	0x3dec537e	0.11539362
186	0xbe0a6fc2	-0.13519195
187	0x3dfe911b	0.124300204
188	0x3e1423cf	0.14466785
189	0xbe450b3b	-0.19242565
190	0x3b85e290	0.0040858462
191	0xbe0831c2	-0.13300231
192	0xbe4ddbe2	-0.2010341
193	0xbe547547	-0.20747863
194	0x3d5642a3	0.052309643
195	0xbe166242	-0.1468592
196	0xbe16a7e8	-0.14712489
197	0xbe54bc22	-0.20774892
198	0xbd8bd707	-0.068281226
199	0xbcf7dd79	-0.030256974
200	0xbdc2cd9e	-0.095118746
201	0x3dbb2c8c	0.09139356
202	0x3e194fa7	0.14971791
203	0x3dc11c1b	0.09429189
204	0x3e0ea19f	0.13928841
205	0x3e6e985a	0.23300305
206	0x3e08bb95	0.13352807
207	0xbe8024e4	-0.25028145
208	0x3e138479	0.14406003
209	0x3cddfb33	0.02709732
210	0xbd791115	-0.060807306
211	0x3e4b3ccd	0.19847412
212	0x3d124653	0.035711598
213	0xbe541b24	-0.20713478
214	0x3d580061	0.052734736
215	0xbcbdd518	-0.0231729
216	0xbe3f8147	-0.18701659
217	0x3e505f59	0.20348872
218	0x3c7ded02	0.015498402
219	0xbda2abe0	-0.07942939
220	0xbe071ae1	-0.13193847
221	0xbd4c7241	-0.04991365
222	0x3db4aab7	0.08821624
223	0x3d0ba5f3	0.03409381
224	0x3d9fb9ac	0.07799086
225	0xbe777867	-0.24167024
226	0xbd7afacc	-0.061274335
227	0x3e4cc390	0.19996476
228	0xbe3fa91e	-0.18716857
229	0x3e051943	0.12997918
230	0x3e2d91c7	0.16950141
231	0xbe59fa64	-0.21286923
232	0x3d9357ed	0.07194505
233	0x3d4525e6	0.048131846
234	0xbdeae438	-0.114693105
235	0xbd4412ff	-0.04786968
236	0xbe056253	-0.13025789
237	0x3e5b2c86	0.21403703
238	0xbe405a23	-0.18784384
239	0xbe5d2e79	-0.21599759
240	0xbe3fefa8	-0.18743765
241	0xbe0263a4	-0.12733322
242	0x3e1024c6	0.14076528
243	0xbba7c112	-0.0051194513
244	0x3e3a61b2	0.1820133
245	0xbe25160b	-0.1612169
246	0x3dd85d4b	0.10564669
247	0xbe646ea0	-0.22307825
248	0xbd821cc8	-0.06353146
249	0xbd2f5c68	-0.042812735
250	0x3dbfebac	0.09371123
251	0x3e3f01a8	0.18652976
252	0x3e48260d	0.19545765
253	0xbde82361	-0.11334873
254	0x3e720064	0.23632962
255	0x3d9b2181	0.0757475

gnn.convs.1.att_src f4 [1, 1, 50]
0	0x3e55d3f9	0.20881642
1	0x3e4e299c	0.2013306
2	0xbe89c60a	-0.26908904
3	0x3e84dcc0	0.2594967
4	0x3eb6e05d	0.3571805
5	0xbe0b0ebd	-0.13579841
6	0xbe987dfc	-0.29783618
7	0x3d7a5f66	0.061126135
8	0x3e1da7c5	0.1539603
9	0xbe79f433	-0.24409561
10	0xbe2218c7	-0.15829764
11	0xbe6c6682	-0.23085979
12	0x3ca70c4e	0.02039161
13	0x3d7b1180	0.061295986
14	0xbd37b491	-0.044849936
15	0xbe78a197	-0.24280392
16	0xbd8c51a7	-0.068515114
17	0xbdede58a	-0.11616047
18	0xbe81196a	-0.25214702
19	0xbea03e57	-0.31297562
20	0x3e3ff7f3	0.18746929
21	0xbe97530e	-0.29555553
22	0xbe387959	-0.1801504
23	0xbdcaedf0	-0.09908664
24	0xbe6dc26c	-0.23218697
25	0xbe8511bc	-0.25990093
26	0xbcd9d791	-0.026592048
27	0xbe33fd71	-0.17577149
28	0xbe76a89d	-0.24087758
29	0x3e198b64	0.1499458
30	0x3c1583bc	0.009125646
31	0xbe08ebf6	-0.13371262
32	0xbe2d86e5	-0.1694599
33	0x3e4980de	0.19678065
34	0x3ea47b6a	0.32125407
35	0x3e7e0531	0.24806668
36	0x3e66e830	0.2254951
37	0xbcef072a	-0.02917822
38	0xbd063adc	-0.032770976
39	0xbe13de7e	-0.14440343
40	0xbda0c137	-0.07849353
41	0x3d114d64	0.035474196
42	0x3e197d9f	0.14989327
43	0x3e8dfd05	0.277321
44	0x3d06fa24	0.032953396
45	0xbeab324f	-0.3343682
46	0xbea3f34a	-0.32021552
47	0x3db49fe9	0.08819563
48	0x3e388fb2	0.18023565
49	0xbe6505f9	-0.2236556

gnn.convs.1.att_dst f4 [1, 1, 50]
0	0x3c4dcf95	0.012561698
1	0x3c59dbb7	0.013297013
2	0x3d647f7c	0.05578564
3	0x3daeb421	0.085304506
4	0xbe44ff61	-0.19238044
5	0xbd49be45	-0.04925372
6	0x3e5199c3	0.20468812
7	0xbea88cbb	-0.3291987
8	0x3e132480	0.14369392
9	0xbcb40b6b	-0.0219781
10	0x3cc5d6e9	0.024150329
11	0x3eb2a7c1	0.3489361
12	0xbd8bbad3	-0.06822743
13	0x3e6932c8	0.22773278
14	0x3e9e44bc	0.30911815
15	0xbe5bb762	-0.21456674
16	0x3dbd3c6a	0.09240039
17	0x3d96863e	0.073498234
18	0xbc1402a1	-0.00903383
19	0x3e9e9b6b	0.3097795
20	0x3eaae779	0.33379725
21	0x3e7d065d	0.24709459
22	0xbdfa72d7	-0.12228935
23	0xbe6435ff	-0.22286223
24	0xbe4ec2fb	-0.20191567
25	0xbe93c4c7	-0.28861067
26	0x3e877306	0.26454943
27	0xbd940f6b	-0.07229503
28	0x3d5f515d	0.054520953
29	0xbe23164e	-0.15926477
30	0x3e5de6a5	0.21670015
31	0x3e3636da	0.17794362
32	0xbcb80746	-0.022464406
33	0xbe7e46a8	-0.2483164
34	0xbb7b9338	-0.003838731
35	0xbe25a850	-0.16177487
36	0x3e4f327e	0.20234105
37	0x3da0672d	0.07832179
38	0x3da94b13	0.082662724
39	0xbe8069a5	-0.250806
40	0xbd0c4a80	-0.034250736
41	0xbe92f655	-0.2870356
42	0xbad7c8f7	-0.001646309
43	0x3e0e9442	0.13923743
44	0x3e241d1f	0.16026734
45	0xbe88c302	-0.2671128
46	0x3e2e93b0	0.17048526
47	0xbe5e3b28	-0.21702254
48	0x3df470d9	0.119355865
49	0x3e9ac121	0.3022547

gnn.convs.1.bias f4 [50]
0	0x387ec533	6.0741975e-05
1	0x37d28778	2.5097033e-05
2	0x3922d41f	0.00015528545
3	0xb8b647cb	-8.691809e-05
4	0x390ef463	0.00013633216
5	0xb71854b7	-9.07963e-06
6	0x38b6ab72	8.7103705e-05
7	0x39483be9	0.00019095805
8	0xb8e3afa0	-0.00010856916
9	0xb9157b9f	-0.000142558
10	0xba096e53	-0.0005242575
11	0xb8f6d3ea	-0.00011769666
12	0xb7074cfd	-8.064552e-06
13	0xb9722a87	-0.00023094761
14	0xb92b8f47	-0.00016361206
15	0xb97dee5d	-0.00024216757
16	0x39829369	0.0002490536
17	0xb9018ee1	-0.00012355625
18	0x39173f20	0.00014423998
19	0xb9306aa0	-0.00016824389
20	0x38cd56ba	9.791316e-05
21	0xb98d64d2	-0.00026968733
22	0xb7a7061e	-1.99108e-05
23	0xb92b4468	-0.00016333314
24	0xb89dcde6	-7.524695e-05
25	0xb9f75702	-0.00047176337
26	0x37a75e79	1.9951944e-05
27	0x37ca1d8d	2.4094037e-05
28	0x3790a015	1.7240682e-05
29	0xb83ee41e	-4.551198e-05
30	0x393628f6	0.00017372132
31	0xb984e806	-0.00025349873
32	0xb8ce10ac	-9.825951e-05
33	0x3997bb2c	0.00028940418
34	0xb8b639c8	-8.689199e-05
35	0xb8eff679	-0.00011442317
36	0xb75d9fe5	-1.3209855e-05
37	0xb8ad6e8d	-8.2698745e-05
38	0x3740dca2	1.1495462e-05
39	0x390948fe	0.0001309253
40	0x39da8083	0.0004167595
41	0x3908970f	0.00013026244
42	0x39c5523c	0.00037636037
43	0x395d4ddc	0.00021105207
44	0xb95ff956	-0.00021359822
45	0x38dfc289	0.000106697036
46	0x3951637b	0.00019968853
47	0xb8d5ff1a	-0.00010204148
48	0x379acfff	1.8455086e-05
49	0x39a00f5f	0.0003052903

gnn.convs.1.lin.weight f4 [50, 50]
0	0xbdfb92ea	-0.12283881
1	0x3e179b00	0.14805222
2	0xbe0fa14b	-0.14026372
3	0xbe4dea68	-0.2010895
4	0xbe384486	-0.1799489
5	0xbe1f4626	-0.15554103
6	0xbc1dc5ee	-0.00962971
7	0x3bedc8bb	0.007256595
8	0xbe4228e8	-0.18960917
9	0xbd8bce14	-0.06826416
10	0x3cc5902c	0.024116598
11	0xbe1f5937	-0.15561377
12	0xbe668f56	-0.22515616
13	0xbdcbed09	-0.0995732
14	0xbdc29bfa	-0.095024064
15	0x3da39712	0.07987799
16	0x3dc70fd8	0.09719819
17	0x3e1e7d0b	0.15477388
18	0xbc400e9b	-0.011722232
19	0xbe7b439d	-0.24537511
20	0x3d8a4bfa	0.06752773
21	0xbde1ec2f	-0.110313766
22	0xbe1249dd	-0.14285989
23	0x3df6809f	0.12036251
24	0x3db81eb8	0.08990234
25	0x3cf1e094	0.029526033
26	0xbe61f1bc	-0.2206487
27	0xbe3974fd	-0.18111034
28	0x3dafc3b9	0.08582253
29	0xbdb63ee5	-0.08898715
30	0xbe44e497	-0.19227825
31	0x3c946133	0.018112754
32	0xbdeb8642	-0.11500217
33	0x3cb34567	0.02188368
34	0xbe82621d	-0.2546548
35	0x3e2c0cc0	0.16801739
36	0xbd684aba	-0.05671189
37	0xbd2bf3e6	-0.041980647
38	0xbd81a412	-0.06330122
39	0xbe7b65de	-0.24550578
40	0xbd8f887c	-0.07008454
41	0x3e81d036	0.25354165
42	0x3c03ed96	0.00805225
43	0xbcccdb0c	-0.025006793
44	0xbe162393	-0.14662008
45	0xbe5fc718	-0.21853292
46	0xbe1d5d2c	-0.15367573
47	0xbd8cf37f	-0.06882381
48	0x3deb5da3	0.11492469
49	0xbdae8311	-0.08521093
50	0xbbbfbe07	-0.0058515104
51	0xbe125c23	-0.1429296
52	0x3cf6ae02	0.03011227
53	0xbe4cacc0	-0.19987774
54	0x3d03ff2b	0.03222577
55	0x3e6a4a10	0.22879815
56	0xbd743b4f	-0.059626874
57	0xbe672a59	-0.22574748
58	0xbe292a6b	-0.16520087
59	0xbd2c570e	-0.04207521
60	0x3e3868bf	0.18008707
61	0x3d9d3aab	0.07677206
62	0xbe353936	-0.17697605
63	0x3df52626	0.11970167
64	0xbcc9c28f	-0.024628906
65	0xbe881848	-0.26581025
66	0xbdbf39d0	-0.09337199
67	0xbb05911a	-0.0020380677
68	0x3e729e88	0.23693287
69	0xbcbe4021	-0.023223938
70	0x3d425f90	0.047454417
71	0xbcfecffb	-0.031105032
72	0x3e0eb1fd	0.13935085
73	0x3e0d9dcc	0.13829726
74	0x3e12e001	0.14343263
75	0x3c69b7b1	0.014264987
76	0x3e1637f4	0.14669782
77	0xbe5a542c	-0.21321172
78	0x3bf87738	0.0075825714
79	0x39a61fd1	0.00031685692
80	0x3bf9e23d	0.0076258467
81	0x3e59a161	0.21252967
82	0x3e18dff8	0.14929187
83	0xbe62394f	-0.22092174
84	0x3dddef5d	0.108366705
85	0xbd58e35b	-0.052951198
86	0xbe52f454	-0.20601016
87	0xbdd95034	-0.10611001
88	0xbdda024f	-0.106449716
89	0xbe381fb7	-0.17980848
90	0xbdfcd2e6	-0.12344913
91	0x3dcbcb96	0.0995094
92	0x3e18ae0c	0.14910144
93	0x3d107f92	0.03527791
94	0xbd4014e7	-0.046894934
95	0xbb70406f	-0.00366595
96	0xbcd73ced	-0.026274169
97	0x3e4bcc9f	0.19902276
98	0xbe5c3e3f	-0.2150812
99	0xbcf1ef20	-0.029532969
100	0x3e1591d7	0.14606415
101	0xbe0edc75	-0.13951285
102	0x3e27c6b6	0.16384396
103	0x3e8d0252	0.27540833
104	0xbc26b060	-0.010173887
105	0x3c6a9bcc	0.014319371
106	0xbe20cead	-0.1570384
107	0x3d768425	0.060184617
108	0xbe03d588	-0.12874424
109	0x3b666d67	0.0035160424
110	0x3e688b10	0.22709298
111	0x3c887851	0.016658934
112	0xbd1ce0ed	-0.038300443
113	0x3def86ad	0.11695609
114	0x3e84139c	0.2579621
115	0x3cfcf470	0.030878276
116	0xbde00351	-0.109381326
117	0xbe0944fb	-0.1340522
118	0x3de6549f	0.11246609
119	0x3e818758	0.25298572
120	0x3e17d2bc	0.14826483
121	0x3e28527b	0.16437714
122	0xbda4f258	-0.08054036
123	0x3e2988dc	0.16556114
124	0x3d8064b2	0.06269206
125	0xbdc3ffa7	-0.09570246
126	0x3e1b07de	0.1513972
127	0xbe396e25	-0.18108423
128	0xbda5250f	-0.08063709
129	0xbdca92f7	-0.098913126
130	0xbdda60d3	-0.10662999
131	0xbe34abab	-0.17643611
132	0xbdba58ef	-0.09098994
133	0x3ea6c838	0.3257463
134	0xbe10b4e0	-0.14131498
135	0xbce7cd52	-0.028296147
136	0x3de0502d	0.10952792
137	0xbd4984a1	-0.04919875
138	0x3e7aa697	0.24477611
139	0x3e235bba	0.1595296
140	0x3e4ecd79	0.20195569
141	0xbcc297d0	-0.02375403
142	0xbe25eb88	-0.1620313
143	0x3d8aa438	0.067696035
144	0x3d7be0ba	0.061493613
145	0xbd7af704	-0.06127073
146	0x3db7a6f5	0.089673914
147	0x3c785bc3	0.015158596
148	0xbe32a5f7	-0.17446123
149	0x3cc1ed86	0.02367283
150	0x3d94faff	0.07274436
151	0x3e10346a	0.14082494
152	0xbe5c98bd	-0.2154264
153	0xbe6e125c	-0.23249191
154	0x3e482397	0.19544826
155	0xbda9ce1e	-0.08291267
156	0xbd132000	-0.03591919
157	0xbe11961f	-0.14217423
158	0xbe66e34c	-0.22547644
159	0xbd09d130	-0.033646762
160	0xbdf366a1	-0.11884809
161	0xbd223c67	-0.039608385
162	0x3dbd7670	0.09251106
163	0xbdab5809	-0.08366401
164	0x3e0fd556	0.14046225
165	0xbe58f59f	-0.21187447
166	0xbe1073aa	-0.14106622
167	0x3e06dcb7	0.13170134
168	0x3e0c2982	0.13687709
169	0x3e1530ba	0.14569369
170	0x3d8ddfa8	0.06927425
171	0xbdeb447b	-0.11487671
172	0xbd26573b	-0.040610533
173	0xbe064b37	-0.1311463
174	0x3d07378b	0.033011954
175	0x3e05df7b	0.13073532
176	0xbe3ec310	-0.18629098
177	0x3dd537e9	0.10411055
178	0xbe636cb9	-0.22209443
179	0x3cf84a68	0.030308917
180	0x3e4126e7	0.18862496
181	0xbdb534db	-0.08847972
182	0xbe3a5d56	-0.18199667
183	0x3dbe2da3	0.09286048
184	0x3d160de9	0.03663436
185	0xbe712be6	-0.23551902
186	0x3e35a1bf	0.17737482
187	0xbe52df1d	-0.20592923
188	0xbd994e36	-0.07485621
189	0x3d86b8d8	0.06578225
190	0xbe16f9e1	-0.14743759
191	0x3e470fd8	0.19439638
192	0xbe8149f2	-0.25251728
193	0xbe26fe05	-0.16307838
194	0xbda29be0	-0.07939887
195	0x3e4e1719	0.20125999
196	0xbe55f0c0	-0.2089262
197	0x3da33084	0.07968238
198	0xbe30f719	-0.1728176
199	0x3e695675	0.22786887
200	0xbda65340	-0.081213474
201	0x3e480183	0.19531827
202	0x3dc928bc	0.098222226
203	0x3d56bc95	0.05242594
204	0x3d946c5a	0.07247229
205	0x3e32458b	0.17409341
206	0x3cbf990c	0.023388408
207	0xbe743df8	-0.23851764
208	0xbe704f62	-0.23467782
209	0x3d951461	0.072792776
210	0x3d814099	0.06311149
211	0x3da6138e	0.081091985
212	0x3e50e44b	0.20399587
213	0xbdef3ce2	-0.11681534
214	0xbe44ede6	-0.19231376
215	0xbe6a7846	-0.22897443
216	0x3e4cd831	0.20004345
217	0x3dccaf40	0.09994364
218	0x3df2054c	0.118174165
219	0x3e364dda	0.17803136
220	0xbe8d66a7	-0.2761738
221	0xbe42119d	-0.18952031
222	0xbca12164	-0.019669242
223	0x3da489f9	0.08034129
224	0xbdbb54af	-0.091470115
225	0x3e40dc7d	0.1883411
226	0xbe3a9141	-0.18219472
227	0x3d797a09	0.060907397
228	0xbd087eba	-0.03332398
229	0xbda5f91d	-0.08104155
230	0x3bb20a5d	0.0054333643
231	0xbda51add	-0.080617644
232	0xbe55c791	-0.2087691
233	0x3df41e10	0.119197965
234	0x3d879e8c	0.06622037
235	0x3d8ec464	0.06971052
236	0xbe075ffc	-0.13220209
237	0x3e516f34	0.20452577
238	0xbe38ed36	-0.18059239
239	0xbe4747fc	-0.19461054
240	0x3d70f6c0	0.05882907
241	0x3d1f60a3	0.03891052
242	0x3d55fe99	0.052244756
243	0xbe811c73	-0.25217018
244	0x3e585e4b	0.2112972
245	0xbe6f0b96	-0.23344263
246	0xbd407ecb	-0.04699592
247	0x3d532dd6	0.051557384
248	0xbe0a1506	-0.13484582
249	0xbdebe6ec	-0.11518654
250	0x3e03b463	0.12861781
251	0xbda6f27d	-0.0815172
252	0x3e64d468	0.22346652
253	0x3cc4aafc	0.024007313
254	0x3e298dc8	0.16557992
255	0x3da52855	0.08064333

gnn.convs.2.att_src f4 [1, 1, 50]
0	0x3dcabd9d	0.09899447
1	0xbd33ed1f	-0.04392731
2	0xbe493f41	-0.19653036
3	0x3e061a86	0.13096055
4	0xbe74be44	-0.23900706
5	0x3d1fbe33	0.038999747
6	0x3ebc2ae7	0.36751482
7	0x3e1fa15e	0.155889
8	0xbea9acfd	-0.33139792
9	0xbe58f5f9	-0.21187581
10	0x3ddc7ad8	0.10765618
11	0x3d2af043	0.041733038
12	0xbea09fbd	-0.3137187
13	0x3e19cd04	0.15019614
14	0x3d60faae	0.054926567
15	0xbe5f34a8	-0.2179743
16	0x3c9b796b	0.018978795
17	0x3e7f246a	0.24916235
18	0xbd8198ba	-0.063279584
19	0xbc56c70d	-0.013108981
20	0xbe1c0c18	-0.15238988
21	0x3dc5631b	0.096380435
22	0x3d321c8f	0.043484267
23	0x3e9120b9	0.28345278
24	0xbe1af44e	-0.15132257
25	0x3e804c01	0.25057986
26	0xbeae6e9a	-0.34068757
27	0x3e7508ea	0.23929182
28	0x3e6a19e6	0.22861442
29	0xbe957cea	-0.29196864
30	0x3e94b92a	0.2904752
31	0x3d8220aa	0.063538864
32	0xbea45550	-0.32096338
33	0xbe05fed1	-0.13085486
34	0x3db527d9	0.08845491
35	0x3e54cc53	0.20781069
36	0xbe5fdca5	-0.21861513
37	0x3eb221ee	0.3479151
38	0x3cd5aab8	0.026082382
39	0xbd650ff5	-0.05592342
40	0xbd8c5dd2	-0.06853832
41	0xbbd9b103	-0.006643416
42	0xbe84fed7	-0.25975677
43	0xbe9a2860	-0.3010893
44	0xbd3aad66	-0.045575522
45	0x3e8df3f4	0.27725184
46	0xbea54764	-0.3228103
47	0xbea90274	-0.33009684
48	0x3d8d76f9	0.06907458
49	0x3e8c988c	0.27460134

gnn.convs.2.att_dst f4 [1, 1, 50]
0	0x39ca32a1	0.00038566164
1	0xbe75cc7c	-0.24003786
2	0xbd04982f	-0.032371696
3	0xbe27f4c7	-0.16401969
4	0x3e4ebe21	0.20189716
5	0x3e843476	0.25821275
6	0xbe0f4187	-0.1398984
7	0xbdf6a313	-0.12042823
8	0x3e28540b	0.1643831
9	0xbe06ada7	-0.1315218
10	0x3cf98ef1	0.030463668
11	0xbe74694e	-0.23868296
12	0x3ea13944	0.31489003
13	0xbe73730b	-0.23774354
14	0xbc340796	-0.010988137
15	0xbea67149	-0.32508305
16	0xbe92a724	-0.28643143
17	0xbe76a700	-0.24087143
18	0x3e9d90f0	0.3077464
19	0x3e13c047	0.14428817
20	0x3d6d3cfb	0.057919484
21	0xbd9c1306	-0.07620816
22	0x3e68fa32	0.22751692
23	0xbcc5b837	-0.024135692
24	0xbd8d3970	-0.06895721
25	0x3d497288	0.04918149
26	0x3de6aea4	0.11263779
27	0xbea823cc	-0.3283981
28	0xbdedd7c8	-0.11613423
29	0xbe05322d	-0.13007422
30	0x3e0fd370	0.14045501
31	0xbe34aa6d	-0.17643137
32	0xbe88ec37	-0.26742718
33	0x3e14ef76	0.14544472
34	0x3e9cf526	0.30655783
35	0x3ea67fa1	0.32519248
36	0x3e8ee036	0.27905434
37	0x3ddc38f0	0.107530475
38	0xbea8354b	-0.3285316
39	0xbe18d041	-0.14923193
40	0xbd3a731f	-0.045519944
41	0x3e84e5e3	0.2595664
42	0x3d50e800	0.051002502
43	0xbe934a89	-0.28767803
44	0xbe87379c	-0.26409614
45	0xbe8077e4	-0.2509147
46	0x3c6d7ab9	0.014494591
47	0xbdfd9d67	-0.12383538
48	0x3dd3b9db	0.103381835
49	0xbe8cc617	-0.2749488

gnn.convs.2.bias f4 [50]
0	0xb7121c59	-8.708878e-06
1	0x385ae8c8	5.2192045e-05
2	0x37fcad07	3.0121313e-05
3	0xb8a24853	-7.7382334e-05
4	0xb8a1a97f	-7.708649e-05
5	0x38e9034a	0.000111109184
6	0x38fc69ab	0.000120359786
7	0x39332649	0.00017085033
8	0x3855de90	5.0990435e-05
9	0x383aebe6	4.4565553e-05
10	0xb89eca77	-7.571739e-05
11	0xb8c2894e	-9.276216e-05
12	0xb93005bf	-0.00016786809
13	0x37e3cd0f	2.7155997e-05
14	0x38eab842	0.0001119231
15	0x38325d40	4.2525353e-05
16	0x37f22841	2.8867393e-05
17	0x3828ecbb	4.0274794e-05
18	0x38f8cb02	0.00011863375
19	0x3934623f	0.00017202737
20	0xb7020671	-7.750104e-06
21	0x38d39725	0.00010089417
22	0xb7408b99	-1.1476594e-05
23	0xb8e01545	-0.00010685114
24	0xb84ff7ca	-4.9583417e-05
25	0xb78dbe47	-1.6897115e-05
26	0xb8d2f008	-0.000100582896
27	0x38b2252c	8.494625e-05
28	0xb91d73ee	-0.00015015874
29	0xb8b5dc85	-8.6718275e-05
30	0xb8c20e96	-9.253358e-05
31	0x3929e7b8	0.00016203418
32	0x38d54b53	0.00010170662
33	0xb80a79e1	-3.3015272e-05
34	0x38c3f403	9.343775e-05
35	0xb9299551	-0.0001617272
36	0xb9308ccb	-0.00016837117
37	0x38a8c120	8.0468366e-05
38	0x384ae05b	4.83695e-05
39	0x37d7bc04	2.5717549e-05
40	0xb81800ae	-3.6240257e-05
41	0xb86343c4	-5.418413e-05
42	0x380dbbb7	3.3791843e-05
43	0xb9900a29	-0.0002747339
44	0x3842b911	4.642556e-05
45	0xb914b78d	-0.00014182758
46	0xb8299fbc	-4.0441504e-05
47	0x379bc4ed	1.856914e-05
48	0xb7e14718	-2.6855196e-05
49	0xb8f1c68d	-0.000115287585

gnn.convs.2.lin.weight f4 [50, 50]
0	0xbe3e875e	-0.18606326
1	0x3c1c9ce2	0.009558888
2	0x3d777d9e	0.060422532
3	0xbd1cbbe0	-0.03826511
4	0x3c927ef7	0.017882807
5	0xbd777ee5	-0.06042375
6	0x3dd3a483	0.103341125
7	0x3bf0a50b	0.0073438934
8	0xbe7e9d43	-0.24864678
9	0x3e313b97	0.17307888
10	0x3d99fdd3	0.07519116
11	0x3d37a16f	0.04483169
12	0xbe481f21	-0.19543125
13	0xbe2581b4	-0.16162759
14	0xbbe69c9f	-0.0070377137
15	0xbda0decd	-0.07854996
16	0xbde7cf36	-0.11318819
17	0x3e11df29	0.14245285
18	0xbe12f544	-0.14351374
19	0x3daf0eac	0.0854772
20	0xbe0f9247	-0.14020644
21	0xbe2852b8	-0.16437805
22	0xbd6fe38e	-0.058566622
23	0xbe2f0d6d	-0.17094965
24	0xbda46bd0	-0.08028376
25	0xbd534d47	-0.05158737
26	0x3d686491	0.056736533
27	0x3d9e2155	0.07721201
28	0xbe13130b	-0.14362733
29	0x3e48d023	0.19610648
30	0x3dd6be06	0.10485463
31	0xbdf027e0	-0.117263556
32	0x3e4781bb	0.19483082
33	0xbc3ce2d1	-0.011528687
34	0xbe145f9d	-0.14489599
35	0x3b2076ca	0.0024484866
36	0x3e11cb02	0.14237598
37	0x3e2103fc	0.15724176
38	0x3e537428	0.20649779
39	0xbdc780bf	-0.09741353
40	0xbddce7de	-0.10786413
41	0xbd811d31	-0.06304396
42	0x3e16a3d3	0.14710931
43	0xbc21fded	-0.009887201
44	0xbe0ce41c	-0.13758892
45	0x3e1d6805	0.15371712
46	0xbe431822	-0.19052175
47	0xbe7ec4b1	-0.2487972
48	0x3cb34fd5	0.021888653
49	0xbea09e20	-0.3137064
50	0x3e0c34fc	0.13692087
51	0x3c543078	0.012951009
52	0xbd3c2ca8	-0.045941025
53	0x3da59d5a	0.08086653
54	0xbe035d3b	-0.12828533
55	0x3df7d6fe	0.121015534
56	0xbe10739f	-0.14106606
57	0xbe37907b	-0.17926209
58	0x3e1e8d0f	0.15483497
59	0xbe282684	-0.16420943
60	0x3e99fc90	0.30075502
61	0x3e18774f	0.14889263
62	0xbdca5a49	-0.09880502
63	0xbe0db3ef	-0.1383817
64	0x3da84048	0.08215386
65	0xbdae781b	-0.08519002
66	0x3de94d33	0.11391678
67	0x3c49fa9d	0.012327817
68	0x3e6b3c7a	0.22972289
69	0x3dcab08b	0.09896954
70	0x3d837796	0.064192936
71	0xbd6d2011	-0.05789191
72	0x3e6858c9	0.22690119
73	0x3e601eef	0.218868
74	0xbd42eac7	-0.047587182
75	0xbb606657	-0.0034240687
76	0xbe232d1d	-0.15935178
77	0xb533a697	-6.6925116e-07
78	0xbe55802e	-0.20849678
79	0x3e4c2780	0.19936943
80	0x3d29eb29	0.04148403
81	0x3bd9af24	0.006643193
82	0xbe6f75aa	-0.23384729
83	0xbd25cf23	-0.040480744
84	0x3e90bbd2	0.28268296
85	0xbdb1264d	-0.086498834
86	0x3d07d857	0.033165302
87	0xbe241fb9	-0.16027726
88	0x3da230c8	0.079194605
89	0xbdbbfc85	-0.09179024
90	0x3da6953d	0.08133934
91	0x3eaa5737	0.33269665
92	0xbdbafaf4	-0.09129897
93	0xbd4e5d49	-0.050381932
94	0x3d7f2ed5	0.062300522
95	0xbe00dec1	-0.12584974
96	0xbe05a0c7	-0.13049613
97	0x3db034a6	0.08603792
98	0x3d9d902d	0.07693515
99	0x3e9ce5ba	0.30644017
100	0xbdc78644	-0.09742406
101	0xbe252404	-0.1612702
102	0x3d1d8e9c	0.03846608
103	0x3e517129	0.20453323
104	0x3e38b8f5	0.18039306
105	0xbe6bc828	-0.23025572
106	0xbcbaa6c1	-0.022784593
107	0x3e0b0cbe	0.1357908
108	0xbe888e42	-0.26671034
109	0x3dd8830c	0.1057187
110	0xbead6b65	-0.33870998
111	0x3d2f2950	0.042764008
112	0xbe284300	-0.16431808
113	0xbe074b2c	-0.1321227
114	0x3d36e9d3	0.044656586
115	0xbd180a98	-0.037119478
116	0xbe43126d	-0.19049998
117	0xbd148a11	-0.036264483
118	0xbdf1dfb4	-0.11810246
119	0x3cf99bdb	0.030469825
120	0xbe1f97ac	-0.15585202
121	0x3dcedfce	0.10101281
122	0x3e4f8d49	0.2026874
123	0xbdb3d3c6	-0.08780627
124	0xbdb6df9c	-0.08929369
125	0xbd471381	-0.048602585
126	0x3d230aba	0.03980515
127	0x3e2da9e4	0.1695934
128	0xbdd26d17	-0.102747135
129	0x3e5bb712	0.21456555
130	0x3d736408	0.05942157
131	0x3df89759	0.12138242
132	0x3e42aa29	0.19010223
133	0x3d5bde28	0.05367866
134	0x3de3e289	0.111271925
135	0x3e20aaac	0.15690106
136	0x3e27d62e	0.16390297
137	0xbe1e5868	-0.15463412
138	0x3e124155	0.14282735
139	0xbe067652	-0.13131073
140	0xbc11ffe8	-0.00891111
141	0x3db94109	0.090456076
142	0x3db4d6a3	0.08830001
143	0xbe4f640b	-0.20253007
144	0xbd325b2e	-0.043543987
145	0x3d48d1c4	0.049028173
146	0xbd22a77c	-0.039710507
147	0xbe6ba7a3	-0.23013167
148	0x3d348166	0.044068716
149	0xbe457f86	-0.19286928
150	0xbdd3447f	-0.10315799
151	0x3d7b4c3d	0.061352003
152	0xbe82d66d	-0.2555422
153	0xbd08b5a1	-0.03337634
154	0xbd93ab10	-0.07210362
155	0xbe8d218b	-0.27564654
156	0x3d6e96d3	0.058249306
157	0x3dce7387	0.10080629
158	0xbc8475c6	-0.01616944
159	0x3e810f6d	0.2520708
160	0xbea0b9fe	-0.313919
161	0x3d32c4ef	0.04364484
162	0xbe8a3180	-0.2699089
163	0x3db461be	0.08807705
164	0xbe107aa9	-0.14109291
165	0x3dafd8fe	0.0858631
166	0x3dc1597a	0.094408944
167	0x3dc47dfc	0.09594342
168	0xbe39d293	-0.18146734
169	0x3da3523b	0.079746686
170	0x3e2bbcea	0.16771284
171	0x3dc55a3f	0.09636354
172	0xbe0d6da6	-0.13811359
173	0x3d8de704	0.06928828
174	0xbe79c9a6	-0.24393329
175	0x3dba0929	0.090837784
176	0xbd95d602	-0.073162094
177	0x3d0f8825	0.035041947
178	0xbd6e0b4c	-0.058116242
179	0x3d80fc57	0.0629813
180	0x3dd8bffe	0.105834946
181	0x3e0addf0	0.13561225
182	0xbe31d9c4	-0.17368227
183	0x3dabc48d	0.083870985
184	0x3d476600	0.04868126
185	0xbd66332c	-0.056201145
186	0xbe6f7908	-0.23386014
187	0x3dfdd4d0	0.123941064
188	0x3e441e0c	0.19152087
189	0x3db8e39e	0.090277895
190	0x3e264595	0.16237481
191	0xbd53fadd	-0.051752914
192	0x3e7ad6b7	0.2449597
193	0xbe3d6c4a	-0.1849834
194	0xbda009f8	-0.078144014
195	0xbe30f498	-0.17280805
196	0xbe275fec	-0.16345185
197	0xbe54fc04	-0.20799261
198	0x3dbf8054	0.093506485
199	0xbe80297b	-0.25031647
200	0x3e2d764e	0.16939661
201	0x3ddf7850	0.1091162
202	0x3e970890	0.2949872
203	0x3c63ce01	0.013904096
204	0xbe825db5	-0.25462118
205	0xbe4f9a87	-0.20273791
206	0xbe09682d	-0.13418646
207	0xbe1a13c0	-0.15046597
208	0x3e90fb2c	0.2831663
209	0x3e3ccfc2	0.18438628
210	0x3d53e64e	0.051733308
211	0xbc5f9cce	-0.013648225
212	0xbdcd8f78	-0.1003713
213	0x3e01400a	0.12622085
214	0xbe374633	-0.17897873
215	0xbda414cd	-0.0801178
216	0x3e0a5109	0.13507475
217	0xbe04da73	-0.12973957
218	0xbd48eadc	-0.049052104
219	0x3d0eb99e	0.034844987
220	0xbdb69b8f	-0.08916389
221	0xbe62d68d	-0.22152157
222	0x3da9687d	0.08271883
223	0x3d96d039	0.07363934
224	0x3e0e1879	0.13876523
225	0x3dbce5d3	0.09223523
226	0x3e453b15	0.1926082
227	0xbe273385	-0.16328247
228	0xbe089408	-0.1333772
229	0xbcb46025	-0.022018502
230	0x3d17b521	0.037037972
231	0x3e0775eb	0.13228576
232	0x3dc0eb16	0.09419839
233	0xbe22451f	-0.1584668
234	0x3e5d1052	0.21588257
235	0xbcc98b28	-0.024602488
236	0x3e88410f	0.26612136
237	0xbe1137da	-0.14181462
238	0x3de8163f	0.11332368
239	0x3e234be9	0.15946926
240	0x3d75a893	0.059975218
241	0x3c88f51e	0.016718443
242	0xbe32ad46	-0.17448911
243	0x3da30873	0.07960596
244	0xbdc42050	-0.095764756
245	0xbd8cee0f	-0.068813436
246	0x3cdadf6a	0.02671786
247	0x3e6fd5fc	0.23421472
248	0x3e6a4cb4	0.22880822
249	0x3c485a27	0.012228525
250	0x3d9991df	0.07498526
251	0x3dd8568a	0.10563381
252	0x3ddea3cc	0.108710855
253	0x3dd93952	0.10606636
254	0xbe110de8	-0.14165461
255	0xbccaa487	-0.024736656

gnn.batch_norms.0.weight f4 [50]
0	0x3f85648a	1.0421307
1	0x3f71783c	0.9432409
2	0x3f771498	0.965158
3	0x3f767667	0.9627442
4	0x3f7c4d8d	0.98555833
5	0x3f74a420	0.95562935
6	0x3f7ce319	0.98784024
7	0x3f70b7b0	0.94030285
8	0x3f869ae6	1.0516021
9	0x3f76ab34	0.96354985
10	0x3f839c9d	1.028217
11	0x3f82f6f3	1.0231613
12	0x3f7cb66e	0.98715866
13	0x3f81da1e	1.0144689
14	0x3f81d693	1.0143608
15	0x3f738d29	0.9513727
16	0x3f7c4465	0.9854186
17	0x3f71e8f8	0.9449611
18	0x3f715db0	0.9428358
19	0x3f85adf6	1.0443714
20	0x3f75acb5	0.95966655
21	0x3f7aa047	0.97900814
22	0x3f7690a5	0.9631446
23	0x3f814951	1.0100499
24	0x3f767451	0.96271235
25	0x3f6cb595	0.9246457
26	0x3f7a72bb	0.97831315
27	0x3f78d465	0.9719909
28	0x3f75a60f	0.9595651
29	0x3f6baaec	0.9205768
30	0x3f7298ac	0.9476421
31	0x3f6c6542	0.9234201
32	0x3f79e870	0.97620296
33	0x3f857149	1.0425197
34	0x3f704cec	0.93867373
35	0x3f75fe54	0.960912
36	0x3f8994ae	1.0748498
37	0x3f716014	0.9428723
38	0x3f7546ca	0.9581114
39	0x3f7c3342	0.98515713
40	0x3f77a309	0.96733147
41	0x3f7a24e6	0.9771255
42	0x3f6f8d20	0.93574715
43	0x3f7c34c4	0.98518014
44	0x3f738899	0.95130306
45	0x3f7fd69f	0.9993686
46	0x3f7329f2	0.9498588
47	0x3f868473	1.050917
48	0x3f794c28	0.9738183
49	0x3f78c716	0.9717878

gnn.batch_norms.0.bias f4 [50]
0	0xbe0567fc	-0.13027948
1	0xbcab2ec4	-0.020896323
2	0xbd1ad9af	-0.037805256
3	0x3b75bc13	0.0037496134
4	0xbc98655e	-0.018603023
5	0xbccbfb94	-0.024900235
6	0x3d268621	0.04065526
7	0xbd423a71	-0.047419015
8	0xbd9fdad0	-0.07805407
9	0xbd383071	-0.044968072
10	0xbe381854	-0.1797803
11	0xbde363dd	-0.11103032
12	0xbd9a5464	-0.075356275
13	0xbda93b58	-0.08263272
14	0x3d9e525a	0.07730551
15	0xbd7bf351	-0.06151134
16	0x3d04bf82	0.0324092
17	0xbca9437b	-0.02066206
18	0xbc74e0e9	-0.014946201
19	0xbe37a21c	-0.17932934
20	0xbd8e4aa5	-0.06947831
21	0xbc1e515e	-0.009662954
22	0xbcfb0e22	-0.030646387
23	0xbd3ca8da	-0.046059467
24	0x3d0f2d16	0.034955107
25	0xbc73978f	-0.014867677
26	0xbc9e168c	-0.01929786
27	0xbca45a09	-0.020062463
28	0xbd65eedd	-0.056136
29	0xbd08e32f	-0.033419784
30	0xbcd3f90b	-0.025875589
31	0xbd86d943	-0.06584408
32	0xbc4808d2	-0.012209134
33	0xbe8ae376	-0.27126664
34	0xbd2ed1c2	-0.04268051
35	0xbc4e1844	-0.012579028
36	0xbe83f985	-0.25776306
37	0xbcb2da47	-0.021832598
38	0xbd36c5c0	-0.044622183
39	0x3c9df98b	0.01928403
40	0x3cc7a883	0.024372345
41	0x3d21c043	0.039489996
42	0xbcdb6391	-0.026780875
43	0xbd1a7c06	-0.037715934
44	0xbcadc0d1	-0.021210106
45	0xbb300b5b	-0.0026862237
46	0xbd53bd7e	-0.051694386
47	0xbe1e28ee	-0.15445301
48	0xbc2c7c3b	-0.010527666
49	0xbe1aac4f	-0.15104793

gnn.batch_norms.0.running_mean f4 [50]
0	0xbd9d7a9f	-0.07689404
1	0x3cb37471	0.02190611
2	0x3d8d2343	0.06891491
3	0x3d659cf2	0.056057878
4	0xbc2c94cc	-0.010533523
5	0x3d964d00	0.07338905
6	0x3d8908fe	0.06691168
7	0x3cf56010	0.029953033
8	0xbd92e3bd	-0.07172344
9	0x3d791c8b	0.060818236
10	0xbd3d46dd	-0.04621016
11	0xbd253923	-0.040337693
12	0xbbdd5963	-0.0067550405
13	0xbc47e021	-0.012199433
14	0x3d8b21a2	0.06793524
15	0x3d31018f	0.043214377
16	0x3d92b3c1	0.071631916
17	0x3dd0bf4d	0.10192738
18	0x3d29d76a	0.0414652
19	0xbd239d30	-0.039944828
20	0xbd1a60cf	-0.03768998
21	0x3d00e1a6	0.031465195
22	0xbcd62b2a	-0.02614363
23	0x3bce21c7	0.0062906477
24	0x3d30fae4	0.043208018
25	0x3cf49e27	0.02986057
26	0xbc0f568d	-0.008748663
27	0xbd5f236e	-0.054477148
28	0x3d8b657c	0.06806466
29	0x3cbd7ae7	0.023129893
30	0x3d82ffea	0.06396468
31	0x3c5aa3ee	0.013344748
32	0x3d043e6f	0.032286104
33	0xbcc98fcd	-0.024604702
34	0xbcafb391	-0.021447929
35	0xbcf851c3	-0.030312425
36	0xbd268f2b	-0.04066388
37	0xbcb0f756	-0.021602314
38	0x3ddc3b82	0.10753538
39	0xbd58d7d3	-0.0529402
40	0x3d0d0f26	0.034438275
41	0x3de3de47	0.111263804
42	0x3d96837d	0.07349298
43	0x3daaefbe	0.083465084
44	0xbcab5b05	-0.020917425
45	0xbd1f42ce	-0.03888207
46	0x3d8c3f29	0.06847984
47	0x3af5ee9f	0.0018763131
48	0x3d8dccc2	0.0692382
49	0xbc8f7616	-0.017512362

gnn.batch_norms.0.running_var f4 [50]
0	0x3910689f	0.00013771885
1	0x382e4fef	4.1559277e-05
2	0x390669de	0.00012818674
3	0x38c997d1	9.612705e-05
4	0x3816b6f2	3.5933168e-05
5	0x39172d0e	0.00014417266
6	0x3917d60a	0.00014480218
7	0x3898c625	7.284832e-05
8	0x39215bbe	0.00015388333
9	0x38e5b0d7	0.0001095251
10	0x373a0418	1.1087417e-05
11	0x3873c79a	5.8121608e-05
12	0x37e754c7	2.7576823e-05
13	0x384da1a9	4.9026366e-05
14	0x392ecfee	0.00016671393
15	0x38f5df82	0.00011724142
16	0x390c6550	0.00013389182
17	0x39921274	0.0002786104
18	0x387a355a	5.9654332e-05
19	0x3858233f	5.153124e-05
20	0x38715326	5.7536316e-05
21	0x38a3b6fe	7.8065306e-05
22	0x37e76f4e	2.7589176e-05
23	0x37f1dbcf	2.8831795e-05
24	0x38b71b1f	8.731172e-05
25	0x380ac96a	3.3089345e-05
26	0x3718b04a	9.1009515e-06
27	0x389b4604	7.4040174e-05
28	0x39260521	0.00015832904
29	0x381eeab2	3.7888713e-05
30	0x39207513	0.00015302403
31	0x37d22976	2.5053258e-05
32	0x3809847d	3.2786735e-05
33	0x38073a84	3.2241005e-05
34	0x3839ba5d	4.4281e-05
35	0x3814e346	3.5497615e-05
36	0x389bddbc	7.432277e-05
37	0x37468e66	1.1834874e-05
38	0x399b23db	0.00029590618
39	0x38c15a24	9.219747e-05
40	0x38a0e0ec	7.6712895e-05
41	0x398a3f18	0.0002636842
42	0x39559746	0.00020369617
43	0x39781bfe	0.00023661551
44	0x37932f83	1.754589e-05
45	0x38721d33	5.772449e-05
46	0x391f2510	0.00015177228
47	0x38394f0d	4.418106e-05
48	0x38ff7a93	0.00012182179
49	0x370b3d23	8.29928e-06

gnn.batch_norms.1.weight f4 [50]
0	0x3f7db9ab	0.9911143
1	0x3f7d8ef0	0.9904623
2	0x3f93ce62	1.1547358
3	0x3f75c57b	0.96004456
4	0x3f70559d	0.93880635
5	0x3f824693	1.0177788
6	0x3f8731b3	1.0562042
7	0x3f73fcf4	0.9530785
8	0x3f98fba8	1.1951799
9	0x3f7fc79f	0.9991397
10	0x3fa18a16	1.2620265
11	0x3f8069e3	1.0032314
12	0x3f9fb196	1.247607
13	0x3f70b070	0.9401922
14	0x3f7b4a8e	0.98160636
15	0x3f70ffef	0.94140524
16	0x3f7a2d3e	0.97725284
17	0x3f6fa8d8	0.9361701
18	0x3f7e1ef4	0.9926598
19	0x3f7045ad	0.93856317
20	0x3f713d7b	0.94234437
21	0x3f742bb2	0.95379174
22	0x3f704927	0.9386162
23	0x3f7255a7	0.94661945
24	0x3f908a87	1.1292275
25	0x3f780b8b	0.96892613
26	0x3f6c2181	0.9223862
27	0x3f89186d	1.0710579
28	0x3f773e65	0.9657958
29	0x3f7c3dc3	0.9853174
30	0x3f7d53c9	0.9895597
31	0x3f9af304	1.2105412
32	0x3f7dd910	0.99159336
33	0x3f7600ff	0.9609527
34	0x3f8911d3	1.0708565
35	0x3f80a917	1.0051602
36	0x3f836958	1.0266523
37	0x3f827cb8	1.0194311
38	0x3f6db3c4	0.92852426
39	0x3f72303c	0.9460485
40	0x3f778431	0.96686083
41	0x3f78ce4f	0.971898
42	0x3f849925	1.0359236
43	0x3f7246da	0.9463936
44	0x3f7caf97	0.9870543
45	0x3f73f1f6	0.9529108
46	0x3f82f514	1.0231042
47	0x3f9467cd	1.1594177
48	0x3f93b111	1.1538411
49	0x3f9a6eed	1.2065102

gnn.batch_norms.1.bias f4 [50]
0	0x3cd77627	0.026301457
1	0xbc4ecf0a	-0.012622604
2	0xbe40aa5e	-0.1881499
3	0xbd65b2b2	-0.05607862
4	0xbd656012	-0.055999823
5	0xbdc7e0c1	-0.09759665
6	0x3bb565bb	0.005535809
7	0xbca30f23	-0.019904679
8	0xbe7ec1ed	-0.24878664
9	0xbcb92d2a	-0.022604544
10	0xbe75deb3	-0.24010734
11	0x3cf813ac	0.030282818
12	0xbe7dc33b	-0.24781506
13	0xbd39c4ad	-0.04535358
14	0xbc22ef63	-0.00994477
15	0xbd5a6d99	-0.053327177
16	0xbdd6a843	-0.10481312
17	0xbd22773d	-0.039664496
18	0x3ba151e0	0.0049230903
19	0xbd06c5a3	-0.032903325
20	0xbd26942a	-0.040668644
21	0xbd43ecfb	-0.047833424
22	0x3c0def8b	0.0086630685
23	0xbdab6c80	-0.08370304
24	0xbe8440e8	-0.2583077
25	0xbbb0ae9f	-0.00539191
26	0xbcfc7fab	-0.030822596
27	0x3d834696	0.064099476
28	0xbd369c8d	-0.044582892
29	0xbd066e5e	-0.032820098
30	0xba80729b	-0.000979978
31	0xbe70a5da	-0.23500767
32	0xbc3f6b72	-0.011683332
33	0xbd313e0f	-0.043272074
34	0xbdf92ba6	-0.121665284
35	0x3c36d49b	0.0111590875
36	0xbdd6aa7f	-0.10481738
37	0x3d01a793	0.03165395
38	0xbd78f0e6	-0.060776614
39	0x3c3c0240	0.011475146
40	0xbcd72d5c	-0.026266746
41	0x3a7ec81d	0.000971915
42	0x3c245fc7	0.010032601
43	0xbcb887fe	-0.022525784
44	0x3af92b2e	0.0019010061
45	0xbcb5617e	-0.022141214
46	0xbb960eda	-0.004579407
47	0xbe4d2e5e	-0.20037219
48	0xbe58d256	-0.21173987
49	0xbe32673c	-0.17422193

gnn.batch_norms.1.running_mean f4 [50]
0	0xbf1a760d	-0.6033638
1	0xbc6d683c	-0.014490183
2	0x3ebc3379	0.3675802
3	0xbf359ef4	-0.7094567
4	0xbe679891	-0.22616793
5	0x3e98372f	0.29729602
6	0xbe03569e	-0.1282601
7	0xbfaa91ef	-1.3325785
8	0x3e967f61	0.29394057
9	0xbf4f5249	-0.8098493
10	0x3efdd231	0.49574426
11	0x3e3101f5	0.17285903
12	0x3ed58763	0.41704854
13	0xbe5d8ab0	-0.21634936
14	0xbeab5496	-0.3346297
15	0x3e57272d	0.21011038
16	0x3dc3ff86	0.095702216
17	0x3ec1fa6f	0.37886378
18	0xbe5a3e46	-0.21312818
19	0x3e84e596	0.2595641
20	0x3f821f95	1.0165888
21	0x3f133f0a	0.57518065
22	0xbdca61be	-0.09881924
23	0xbef9d3b7	-0.48794338
24	0x3ed2370b	0.4105762
25	0xbf192a65	-0.59830314
26	0x3e4f51ab	0.20245998
27	0xbec3401d	-0.38134852
28	0xbf7ca82f	-0.9869413
29	0xbea532f9	-0.32265452
30	0xbf29144e	-0.6604661
31	0x3ebe1267	0.37123415
32	0xbea64125	-0.32471576
33	0x3e816518	0.2527244
34	0x3ec7a2c3	0.38991365
35	0x3f8bce4c	1.0922332
36	0x3f32eee5	0.69895774
37	0xbea3c0cd	-0.31983033
38	0x3e3bb187	0.1832944
39	0xbc911685	-0.017710933
40	0xbf221cb3	-0.6332504
41	0xbec0e691	-0.37675908
42	0xbf2589e7	-0.6466355
43	0x3ea6f479	0.32608393
44	0xbe97c417	-0.29641792
45	0xbe8dac3c	-0.27670467
46	0xbf519f20	-0.8188343
47	0x3ea1b12b	0.3158048
48	0x3f15d429	0.58526856
49	0x3e9ab31a	0.3021477

gnn.batch_norms.1.running_var f4 [50]
0	0x3e6b6870	0.22989058
1	0x3e48326c	0.19550484
2	0x3e566c79	0.20939817
3	0x3f025029	0.50903565
4	0x3dfde908	0.12397963
5	0x3e026e71	0.12737443
6	0x3e0674cd	0.13130493
7	0x3f2a2481	0.6646195
8	0x3e58508e	0.21124479
9	0x3e827fd1	0.2548814
10	0x3e4d6008	0.20056164
11	0x3e36534e	0.17805216
12	0x3e5f5e71	0.2181337
13	0x3e05fef6	0.13085541
14	0x3e353962	0.17697671
15	0x3e0ae3c9	0.13563456
16	0x3e4519b8	0.19248092
17	0x3f038273	0.51370925
18	0x3dfd18b5	0.12358228
19	0x3e58e076	0.21179375
20	0x3f00e009	0.5034185
21	0x3e7008fe	0.2344093
22	0x3f133b5e	0.5751246
23	0x3e6dd205	0.23224647
24	0x3e6800f3	0.22656612
25	0x3e05db20	0.13071871
26	0x3e1df369	0.15424885
27	0x3e61256b	0.2198693
28	0x3ec36d21	0.38169196
29	0x3e60c90a	0.2195169
30	0x3e62024f	0.22071193
31	0x3e4aa6c3	0.19790177
32	0x3e501450	0.20320249
33	0x3e24129e	0.16022727
34	0x3e380a52	0.17972687
35	0x3ef41f4f	0.47680137
36	0x3e99ccb8	0.30039
37	0x3e598813	0.21243314
38	0x3e7106bc	0.23537725
39	0x3eeb3360	0.45937634
40	0x3e7992d8	0.24372423
41	0x3f912240	1.1338577
42	0x3eb05021	0.34436134
43	0x3e8058b4	0.25067675
44	0x3deed88e	0.11662398
45	0x3eac4274	0.3364445
46	0x3e782567	0.24233018
47	0x3e844f51	0.25841764
48	0x3eac314b	0.33631358
49	0x3e44c8ef	0.19217275

gnn.batch_norms.2.weight f4 [50]
0	0x3f4ebb46	0.80754507
1	0x3f49864a	0.78720534
2	0x3f585211	0.84500223
3	0x3f478a6a	0.7794558
4	0x3f4853b6	0.7825273
5	0x3f40ac24	0.75262666
6	0x3f4e0668	0.80478525
7	0x3f57a99a	0.84243166
8	0x3f4a84e0	0.79109
9	0x3f4a6222	0.7905599
10	0x3f471382	0.7776414
11	0x3f4923af	0.78570074
12	0x3f446c2f	0.76727575
13	0x3f49c3b5	0.7881425
14	0x3f4e4823	0.8057882
15	0x3f364e15	0.71212894
16	0x3f543c7b	0.82904786
17	0x3f474ea4	0.7785437
18	0x3f497f7f	0.7871017
19	0x3f4701c7	0.77737087
20	0x3f4bdb4d	0.796315
21	0x3f4d3f31	0.8017455
22	0x3f45c2f4	0.772506
23	0x3f485bfe	0.7826537
24	0x3f51904e	0.81860816
25	0x3f4c9a92	0.79923356
26	0x3f512f3c	0.817127
27	0x3f5653d2	0.8372165
28	0x3f3fd184	0.7492907
29	0x3f43ca3c	0.7648046
30	0x3f4d0c23	0.80096644
31	0x3f50e8ad	0.81605035
32	0x3f52199d	0.8207033
33	0x3f543ebf	0.8290824
34	0x3f4a56fd	0.79038984
35	0x3f479738	0.77965117
36	0x3f513f14	0.81736875
37	0x3f447999	0.76748043
38	0x3f47e0ff	0.7807769
39	0x3f4b0412	0.79303086
40	0x3f4a9920	0.791399
41	0x3f4de95a	0.8043419
42	0x3f490931	0.7852965
43	0x3f392c79	0.72333485
44	0x3f4d62a6	0.8022865
45	0x3f4f3da8	0.80953455
46	0x3f49cbda	0.7882668
47	0x3f347506	0.70491064
48	0x3f56a20f	0.8384103
49	0x3f4614b5	0.77375346

gnn.batch_norms.2.bias f4 [50]
0	0xb85657d2	-5.1103365e-05
1	0xb801632b	-3.0848354e-05
2	0x380c7c63	3.3494445e-05
3	0x388ddced	6.7645546e-05
4	0x3952a618	0.00020089035
5	0xb85a366c	-5.2025935e-05
6	0xb914645d	-0.00014151768
7	0xb86ca135	-5.641692e-05
8	0x37c55d55	2.3527691e-05
9	0xb967eba6	-0.00022117663
10	0x38b27b8e	8.510715e-05
11	0x372132f8	9.608215e-06
12	0xb9299dce	-0.00016175883
13	0xb84723d5	-4.747867e-05
14	0xb9120f66	-0.00013929381
15	0xb8f185f7	-0.000115167284
16	0xb914ead1	-0.00014201856
17	0x38b45c65	8.600279e-05
18	0xb50b75dc	-5.1953043e-07
19	0xb9405b5f	-0.00018344585
20	0xb8a65ce9	-7.932803e-05
21	0xb81125f7	-3.460605e-05
22	0xb8ba5405	-8.884821e-05
23	0x391b5594	0.00014813832
24	0xb89bd353	-7.430338e-05
25	0x3785d2ec	1.5953054e-05
26	0xb7ca4244	-2.4111134e-05
27	0xb989d44d	-0.00026288853
28	0xb880dd85	-6.144777e-05
29	0x39a17112	0.00030792557
30	0x37aa0125	2.0266112e-05
31	0x35febda8	1.8979672e-06
32	0xb7fe2436	-3.0296022e-05
33	0x38ac17bf	8.206022e-05
34	0xb93bc7cf	-0.00017908144
35	0x3937d5fc	0.00017531955
36	0x39b20da0	0.00033960957
37	0xb9055ce5	-0.00012718474
38	0xb8e8e8bb	-0.000111059715
39	0xb8def812	-0.000106319916
40	0xb8293812	-4.034496e-05
41	0x393638c2	0.00017378016
42	0xb8b66662	-8.6975066e-05
43	0x392c0a8e	0.0001640713
44	0xb860196f	-5.342945e-05
45	0xb899fb4e	-7.342418e-05
46	0xb4cdf92f	-3.836553e-07
47	0xb90a5ad3	-0.0001319454
48	0x38cbe657	9.7226985e-05
49	0x3902f4f9	0.00012489026

gnn.batch_norms.2.running_mean f4 [50]
0	0xbf3c0269	-0.7344118
1	0x3f252865	0.6451476
2	0xbe5c7bd8	-0.21531618
3	0xbf0d7738	-0.5526004
4	0x3f13fb10	0.57804966
5	0xbf23d185	-0.63991576
6	0x3dd94dc1	0.106105335
7	0x3e2a763f	0.1664667
8	0xbec9a7eb	-0.39385924
9	0x3dffe71c	0.124952525
10	0x3e96e6c7	0.29472944
11	0xbeae660c	-0.3406223
12	0xbe962b92	-0.29330117
13	0x3ed73bad	0.42037717
14	0x3e38074d	0.17971535
15	0x3f54bc62	0.8309995
16	0x3f0d04c0	0.5508537
17	0x3dfb80fb	0.122804604
18	0xbd70f8a3	-0.05883087
19	0x3e7a90e7	0.24469338
20	0x3e5be5d1	0.21474387
21	0x3f07b2c7	0.5300717
22	0xbf2cf963	-0.67568034
23	0xbf0ae570	-0.54256344
24	0x3f2103dd	0.6289652
25	0xbd5ed2bf	-0.054400202
26	0xbd780121	-0.06054795
27	0xbf0b1181	-0.54323584
28	0x3ecdf184	0.40223324
29	0xbe83e38e	-0.25759548
30	0x3d0d8769	0.034552965
31	0x3ed6733d	0.41884795
32	0x3e8cb523	0.27481946
33	0xbe4f2d48	-0.20232117
34	0x3ee719e2	0.45136935
35	0xbf7ed690	-0.99546146
36	0xbea3041b	-0.3183907
37	0xbfa834b9	-1.314109
38	0x3f60e999	0.8785644
39	0x3d366e99	0.044539068
40	0xbe360a26	-0.17777309
41	0x3e2721dc	0.1632151
42	0xbe94684f	-0.2898583
43	0xb993b91f	-0.0002817595
44	0xbe2be5af	-0.16786836
45	0xbf0af79b	-0.54284066
46	0xbdc34056	-0.095337555
47	0x3f007c13	0.5018932
48	0x3e79cd18	0.24394643
49	0x3c27f075	0.0102502005

gnn.batch_norms.2.running_var f4 [50]
0	0x40286550	2.6311836
1	0x406fc962	3.7466664
2	0x401f3ff6	2.4882789
3	0x40951cd2	4.659768
4	0x4096856f	4.7037883
5	0x4081eba6	4.0600157
6	0x4026e2c1	2.60759
7	0x4014e7df	2.3266523
8	0x40208c9f	2.5085828
9	0x40440b87	3.0632036
10	0x4056c82b	3.3559673
11	0x4001b1c7	2.0264757
12	0x402b71ca	2.6788201
13	0x4033cf82	2.8095403
14	0x3ff0a440	1.8800125
15	0x40a9cf67	5.3065677
16	0x402d2d7f	2.7059019
17	0x4074d216	3.8253226
18	0x40070356	2.1095786
19	0x406a817a	3.6641526
20	0x40283cd0	2.6287117
21	0x404a73b2	3.1633115
22	0x4021ac8d	2.5261567
23	0x40825dac	4.0739346
24	0x407e61f8	3.9747295
25	0x402ee88d	2.7329438
26	0x405f0642	3.484757
27	0x406266f1	3.537533
28	0x4047e183	3.1231391
29	0x4019d47c	2.403594
30	0x3feffd25	1.8749129
31	0x40ba0fbf	5.814422
32	0x408e6f6a	4.4511003
33	0x404040cb	3.0039546
34	0x40336871	2.8032496
35	0x40496b18	3.1471615
36	0x405a32d3	3.409352
37	0x40896eb2	4.2947626
38	0x407767b9	3.8657057
39	0x4085fe67	4.187305
40	0x404981dc	3.148551
41	0x4047e3eb	3.123286
42	0x40147d25	2.3201382
43	0x4029315b	2.6436374
44	0x40250b64	2.5788202
45	0x4064642e	3.5686145
46	0x40113b7f	2.2692564
47	0x40004d07	2.0047014
48	0x40826717	4.075084
49	0x4019c291	2.4025004

exp_avg f4 [1, 1, 50]
0	0x37b287a0	2.1282409e-05
1	0x3762fee3	1.3529995e-05
2	0xb72421e8	-9.783056e-06
3	0xb78cc926	-1.6782968e-05
4	0x37f714c1	2.9454359e-05
5	0x358a78cb	1.0316957e-06
6	0xb817a702	-3.6156744e-05
7	0xb8156c0a	-3.5624988e-05
8	0x381e52b6	3.7747166e-05
9	0xb7354adc	-1.080587e-05
10	0x363f24ea	2.8482705e-06
11	0x377b5522	1.4980587e-05
12	0x36f2d8c0	7.237395e-06
13	0x3803fb57	3.1466912e-05
14	0xb7b4d813	-2.155829e-05
15	0xb7a3bb4a	-1.9518327e-05
16	0xb810cd94	-3.4523735e-05
17	0xb740a7c4	-1.1483153e-05
18	0xb7d10b73	-2.4920073e-05
19	0x37caa38f	2.415644e-05
20	0x3773e625	1.4537513e-05
21	0xb783344b	-1.5640768e-05
22	0xb705fb36	-7.985907e-06
23	0x37cbbadc	2.4286499e-05
24	0xb814db98	-3.5490462e-05
25	0x37904973	1.720034e-05
26	0xb5d096dc	-1.5541113e-06
27	0xb587039a	-1.0059332e-06
28	0xb7f6b88e	-2.9411425e-05
29	0xb79d5084	-1.8753351e-05
30	0x354389cd	7.284369e-07
31	0x3726cf2b	9.942606e-06
32	0xb758b64e	-1.2917049e-05
33	0x37d3b532	2.5237536e-05
34	0x36b4ae21	5.3846893e-06
35	0xb6a29119	-4.844868e-06
36	0x38005644	3.059792e-05
37	0xb76eae93	-1.4226552e-05
38	0xb7baa6ed	-2.2250659e-05
39	0x373795c8	1.0942524e-05
40	0xb7534949	-1.2593643e-05
41	0xb79e8bde	-1.8900198e-05
42	0xb829ea7f	-4.051113e-05
43	0xb7fd4f1e	-3.0196792e-05
44	0xb79fc2fc	-1.9045074e-05
45	0x35c6116f	1.4757223e-06
46	0xb7671fe9	-1.3776103e-05
47	0x3826fed2	3.9814804e-05
48	0xb7aaefd6	-2.0377262e-05
49	0xb527ad66	-6.2464676e-07

exp_avg_sq f4 [1, 1, 50]
0	0x34095c08	1.27926e-07
1	0x33e7d2b0	1.07950996e-07
2	0x352f2662	6.5248435e-07
3	0x3494d916	2.77251e-07
4	0x33bd3ecd	8.812422e-08
5	0x352ce4db	6.440802e-07
6	0x34b1bd1c	3.3106414e-07
7	0x343d4d63	1.763015e-07
8	0x34cb624c	3.7883217e-07
9	0x34cc63f1	3.8070678e-07
10	0x3384ed5b	6.189904e-08
11	0x34a1f650	3.0167803e-07
12	0x33b58d2f	8.4541504e-08
13	0x34076f60	1.2613373e-07
14	0x34b73c35	3.4130213e-07
15	0x350519b7	4.958378e-07
16	0x34cfae0a	3.8683385e-07
17	0x3581250b	9.62203e-07
18	0x34095413	1.2789705e-07
19	0x33ca4d24	9.42039e-08
20	0x345effbc	2.0768397e-07
21	0x341adc8c	1.4422602e-07
22	0x344b8e78	1.8957678e-07
23	0x33a49a48	7.664909e-08
24	0x344fcaf8	1.9352217e-07
25	0x33ec3786	1.0999706e-07
26	0x33a620cf	7.735945e-08
27	0x341ef727	1.480481e-07
28	0x349e796a	2.9518134e-07
29	0x3349e9b0	4.7011497e-08
30	0x34f79454	4.6115258e-07
31	0x3406b9d3	1.2547325e-07
32	0x341b7458	1.4477826e-07
33	0x34513413	1.9483586e-07
34	0x34a113dc	3.0003036e-07
35	0x33c5bee1	9.208248e-08
36	0x34b818cb	3.429071e-07
37	0x34088e4f	1.2717759e-07
38	0x35932fcd	1.0966265e-06
39	0x34afebdb	3.2767898e-07
40	0x345505b5	1.9839247e-07
41	0x357b3801	9.3586283e-07
42	0x34e6f521	4.3019193e-07
43	0x3560dfb7	8.377205e-07
44	0x34043895	1.2314042e-07
45	0x3393a095	6.8744306e-08
46	0x34c07c1f	3.5853097e-07
47	0x33e96ec3	1.08700554e-07
48	0x34da3ef5	4.0651472e-07
49	0x331fbdbf	3.7192645e-08
