src/checkpoints_v2/best_model.pth (torch, 136039 bytes, 78 tensors)

gnn.convs.0.att_src f4 [1, 1, 50]
0	0x3d391612	0.045187064
1	0xbca0e943	-0.019642478
2	0x3d689e59	0.056791637
3	0xbc5570ab	-0.01302735
4	0x3c23308c	0.009960305
5	0xbd138746	-0.03601768
6	0xbde3edcb	-0.1112934
7	0xbc43d6f2	-0.011953102
8	0x3d546732	0.051856227
9	0xbdb111cc	-0.086459726
10	0x3d96e144	0.07367185
11	0xbcf31397	-0.029672427
12	0x3d78ccd0	0.0607422
13	0xbbd14910	-0.0063868836
14	0xbbd51dd3	-0.0065037995
15	0x3d3a6d24	0.04551424
16	0xbe32637a	-0.1742076
17	0xbc585684	-0.013204221
18	0xbd3671d4	-0.04454215
19	0x3db93709	0.090437
20	0x3db0ec94	0.08638874
21	0xbdc9940a	-0.09842689
22	0xbbab9793	-0.005236575
23	0xbe0a9e6e	-0.13536999
24	0xbd1aa99d	-0.037759412
25	0xbd503242	-0.05082918
26	0xbd42aaf0	-0.0475263
27	0x3b528c26	0.0032126992
28	0xbdb1ad7c	-0.08675668
29	0x3ca32f8a	0.01992013
30	0xbcb80af4	-0.02246616
31	0xbc8f2b94	-0.017476834
32	0x3e0026f3	0.12514858
33	0x3e13ea43	0.14444833
34	0x3bee3149	0.007269059
35	0x3e194331	0.14967038
36	0xbd3e5881	-0.046471123
37	0xbb8aa6b7	-0.0042312997
38	0x3db55787	0.08854585
39	0x3db4c1d2	0.08826031
40	0xbda568d1	-0.08076633
41	0xbcc7fb10	-0.024411708
42	0xbd14d58b	-0.036336463
43	0x3dc408b0	0.095719695
44	0x3c451167	0.012028075
45	0xbd61c7d7	-0.055122223
46	0xbde1ebee	-0.11031328
47	0xbd3ab2ba	-0.045580603
48	0x3dc442d2	0.095830575
49	0x3aee262e	0.0018169337

gnn.convs.0.att_dst f4 [1, 1, 50]
0	0xbacdf3d6	-0.0015712928
1	0x3b80a415	0.00392581
2	0xbae7ceaf	-0.0017685498
3	0xb8fa0770	-0.00011922314
4	0xbb87787d	-0.0041342364
5	0xbb5d7fa7	-0.003379801
6	0xba0e2fc0	-0.00054239854
7	0xbb017934	-0.001975608
8	0x3b1d9d5d	0.0024050095
9	0xbaaa48e1	-0.001299169
10	0xbc274420	-0.010209113
11	0xbb531a16	-0.0032211593
12	0x3a3ace11	0.0007126043
13	0xbb51a89e	-0.0031991373
14	0xbb4ed7c1	-0.0031561705
15	0xbb8c7fdc	-0.004287703
16	0xbc27aa21	-0.010233433
17	0x3ba2800a	0.004959111
18	0x3befd0bd	0.0073185847
19	0xbbe6a7f9	-0.007039067
20	0x3acd3e46	0.0015658818
21	0xbba38e31	-0.004991316
22	0x3b0edba9	0.0021798408
23	0xbbb5077b	-0.0055245734
24	0xbb79b42f	-0.0038101783
25	0xbb4a30a0	-0.0030851737
26	0xbb7aea17	-0.00382865
27	0xbaf048ae	-0.0018332207
28	0xbc35ea1c	-0.011103179
29	0xbbb25fbb	-0.005443541
30	0xb9adcaea	-0.00033148314
31	0xbbcd7086	-0.0062695174
32	0xbbdd5c71	-0.0067554046
33	0xbbc22329	-0.0059246016
34	0xbb6b41cf	-0.003589738
35	0xbb839fde	-0.0040168604
36	0x3c0065c0	0.007836759
37	0x3ce28a1f	0.027653752
38	0xbb86bf8d	-0.00411219
39	0xbb7c78fe	-0.0038524265
40	0xbb4e587f	-0.0031485853
41	0xbb5c636a	-0.0033628591
42	0xbb26caea	-0.0025450536
43	0xbb7649e1	-0.0037580656
44	0xbbec2c59	-0.007207435
45	0xbb1bdda6	-0.0023783236
46	0x3b35c68c	0.0027736751
47	0x3b720828	0.003693113
48	0xbb865534	-0.0040995125
49	0xbba3b6af	-0.004996143

gnn.convs.0.att_edge f4 [1, 1, 50]
0	0x3ef3eb94	0.4764067
1	0xbf1cfe57	-0.6132559
2	0x3ecc697a	0.39924222
3	0x3ebff408	0.3749087
4	0x3ea5ee26	0.32408255
5	0x3e92f18e	0.28699917
6	0x3ecc7ab3	0.39937362
7	0x3f0e1417	0.55499405
8	0x3ec0f270	0.37684965
9	0x3ed41c7c	0.41427982
10	0x3e382942	0.17984489
11	0x3e930f6d	0.28722706
12	0xbeed630b	-0.46364626
13	0xbec3c2d6	-0.38234586
14	0x3eaf1814	0.34198058
15	0xbe8b4064	-0.27197564
16	0x3da459e4	0.08024958
17	0xbedd4a69	-0.43220833
18	0x3f149902	0.5804597
19	0x3e30564d	0.17220421
20	0x3e8c5be1	0.27413848
21	0xbe641041	-0.22271825
22	0x3ec87f1e	0.39159483
23	0x3eac288c	0.33624685
24	0x3ecab687	0.39592382
25	0x3e32bd1f	0.17454956
26	0x3ee28297	0.44240257
27	0x3eb0f06f	0.34558436
28	0x3eaead42	0.3411656
29	0xbe84f0f4	-0.25965083
30	0xbe904e61	-0.28184798
31	0xbe858ac0	-0.2608242
32	0x3eb0eca1	0.34555534
33	0x3ee4808d	0.44629326
34	0xbe8790bc	-0.2647761
35	0xbeb4402d	-0.35205212
36	0x3e91c058	0.2846706
37	0x3edff942	0.43744856
38	0xbe8aa662	-0.27080065
39	0xbee3863f	-0.4443836
40	0xbdb464e3	-0.08808305
41	0x3e341d65	0.17589338
42	0xbe86cff9	-0.26330546
43	0x3eb24379	0.34817103
44	0xbecdb6b3	-0.4017845
45	0xbe6c831b	-0.23096888
46	0xbe48d320	-0.19611788
47	0xbecca02f	-0.3996596
48	0xbec26206	-0.3796541
49	0xbef6e505	-0.48221603

gnn.convs.0.bias f4 [50]
0	0x3b2cfcae	0.0026395726
1	0x3bb98858	0.0056620054
2	0xbb7a7ce3	-0.003822141
3	0xbb008717	-0.001961177
4	0x3637b4b8	2.7374317e-06
5	0xbac95d79	-0.001536294
6	0xb9ba138f	-0.00035491257
7	0xb8429166	-4.6388617e-05
8	0x3aeaf55c	0.0017925906
9	0xba5ba203	-0.00083783286
10	0x3ade5151	0.001696149
11	0x395f994c	0.00021324045
12	0x3adf242b	0.0017024329
13	0xbb42d617	-0.0029729658
14	0x3b140ac6	0.002258943
15	0xba48bb1b	-0.00076572754
16	0x3b2e8070	0.0026626848
17	0x3ab6617d	0.0013914552
18	0xb99ac2fb	-0.0002951844
19	0x3aeac11c	0.0017910334
20	0x3b075386	0.002064915
21	0x3afd404e	0.0019321532
22	0x3a5dbcc6	0.00084586104
23	0x381ef76d	3.790057e-05
24	0xba17f3bb	-0.00057965115
25	0xb9ab00dc	-0.00032616302
26	0x3b5773bd	0.0032875382
27	0x3a68cb5e	0.0008880402
28	0xba820a40	-0.0009921268
29	0x3b8bc21c	0.004265083
30	0xbaa5f3cf	-0.0012661162
31	0xba32b11d	-0.0006816553
32	0x3b5ac8f6	0.0033383942
33	0x3a70ab04	0.0009180757
34	0x3a9cb431	0.0011955557
35	0xbaeb60b3	-0.0017957896
36	0xb86bebd6	-5.6248005e-05
37	0xbae8be7d	-0.0017756965
38	0xbadd4013	-0.0016880058
39	0x3bb46c47	0.0055060717
40	0x3acaa95d	0.0015461851
41	0x399883db	0.0002908994
42	0xbb3ca397	-0.002878403
43	0xbad58822	-0.0016291181
44	0xbb8f67a9	-0.004376371
45	0x3949fa9c	0.00019262213
46	0xbaa09858	-0.0012252433
47	0x3b2f2335	0.0026723866
48	0xbad77757	-0.0016438764
49	0xbb10abf7	-0.0022075155

gnn.convs.0.lin.weight f4 [50, 50]
0	0x3bc4e862	0.0060091475
1	0xbdf50d23	-0.11965396
2	0x3e0988ff	0.13431166
3	0xbc7aaee1	-0.015300483
4	0x3d1cd784	0.03829147
5	0xbe4e7259	-0.20160808
6	0x3e40b6ae	0.18819687
7	0xbf0a86a4	-0.54111695
8	0x3e251079	0.16119565
9	0xbdb5b959	-0.08873243
10	0xbe6e0ecb	-0.2324783
11	0xbd8ba4f3	-0.06818571
12	0xbd3fc270	-0.04681629
13	0x3e9193c7	0.28433058
14	0xbcae8fe5	-0.021308849
15	0x3de93b7a	0.113882974
16	0x3d5c50fa	0.053788163
17	0x3db53952	0.088488236
18	0xbe42ab2f	-0.19010614
19	0x3ea52e5f	0.3226194
20	0xbdf00cdd	-0.117212035
21	0x3ea30776	0.3184163
22	0x3daf5898	0.0856182
23	0xbe113555	-0.14180501
24	0xbd9ffee9	-0.07812292
25	0xbdc214d4	-0.09476629
26	0x3e8de162	0.27711016
27	0xbe257f7b	-0.16161911
28	0xbe443e45	-0.19164379
29	0x3e756037	0.23962484
30	0x3e5757cc	0.21029586
31	0x3d87c196	0.066287205
32	0x3df77ffb	0.12084957
33	0xbe8536fd	-0.26018515
34	0xbcb8c2d4	-0.022553839
35	0xbd0f66f5	-0.035010297
36	0x3e69bb4a	0.22825351
37	0x3c830026	0.015991282
38	0xbd91b0d0	-0.071138024
39	0xbdf048c4	-0.11732629
40	0x3d9b3b35	0.07579652
41	0x3d42d2d3	0.04756434
42	0xbde84ca7	-0.11342745
43	0x3bdfca8f	0.006829567
44	0xbe4bd7c0	-0.19906521
45	0xbe49edc0	-0.197196
46	0x3e36bc7e	0.17845342
47	0xbe2eaa21	-0.17057087
48	0xbdda7c63	-0.10668256
49	0xbdd7edfb	-0.10543438
50	0x3be52118	0.0069924705
51	0x3cfa5b25	0.03056104
52	0x3c534a39	0.012896114
53	0x3d9357ce	0.07194482
54	0x3da125c3	0.078685306
55	0x3dbae7a4	0.09126213
56	0xbe4058f6	-0.18783936
57	0xbe703290	-0.23456788
58	0x3c578e02	0.013156416
59	0xbea82772	-0.32842594
60	0xbe41297d	-0.18863483
61	0xbe53fb90	-0.20701432
62	0xbe3d9cc8	-0.18516839
63	0x3e8b46e3	0.2720252
64	0xbdb45c0e	-0.088066205
65	0xbc858236	-0.016297441
66	0x3e6c825c	0.23096603
67	0xbe48aca7	-0.19597112
68	0x3dbba9e1	0.09163261
69	0x3edc818f	0.43067595
70	0x3d0661e7	0.03280821
71	0x3eba00a2	0.36328608
72	0xbdb55a4a	-0.08855112
73	0x3cf87f8f	0.030334262
74	0x3eb3e975	0.3513905
75	0xbc73c53f	-0.01487857
76	0xbe273ae5	-0.1633106
77	0x3b1ce3b1	0.0023939426
78	0x3e21e471	0.158098
79	0x3e8fc496	0.2807967
80	0xbdfd2862	-0.12361218
81	0xbcffc17e	-0.031220194
82	0x3d3122c6	0.043246053
83	0x3ce65f49	0.028121607
84	0xbd67bdbc	-0.05657743
85	0x3ec4569f	0.38347337
86	0xbb1c2718	-0.0023827013
87	0x3e8c3b19	0.27388838
88	0xbe2721b3	-0.16321449
89	0xbe4ef364	-0.20210034
90	0x3deef361	0.116675146
91	0xbdb6a038	-0.08917278
92	0xba2b9afc	-0.0006546227
93	0xbe3f7108	-0.18695462
94	0xbdbb22f5	-0.09137527
95	0xbd95444f	-0.072884195
96	0xbe46816e	-0.19385311
97	0xbeacf6ef	-0.33782145
98	0xbd8609a0	-0.065448046
99	0xbdf56d93	-0.1198379
100	0x3c95ece9	0.018301444
101	0xbe7783ed	-0.2417142
102	0xbe1a4dd4	-0.15068752
103	0x3e8689c3	0.2627698
104	0xbc539125	-0.012913023
105	0xbe9c38b7	-0.3051202
106	0x3e901dea	0.28147823
107	0xbe6b67b0	-0.22988772
108	0x3dc46b3a	0.09590764
109	0xbe80dd82	-0.25168997
110	0xbdfeac2c	-0.12435183
111	0xbdac0f91	-0.084014066
112	0x3db31a01	0.08745194
113	0xbe2be23e	-0.16785523
114	0xbe1dcfbd	-0.15411277
115	0x3e054d97	0.1301788
116	0xbe2209e8	-0.15824091
117	0x3d897264	0.067112714
118	0x3e13c3ec	0.14430207
119	0x3e8cfe6c	0.27537858
120	0xbda25c0f	-0.07927715
121	0xbd603375	-0.054736573
122	0x3deba17b	0.11505409
123	0x3ccbbae9	0.0248694
124	0x3c4daab2	0.012552904
125	0x3d78dfdd	0.060760368
126	0x3d3ef6c0	0.046622038
127	0xbdd335d2	-0.10313
128	0xbdc13abb	-0.0943503
129	0xbcebb04a	-0.028770585
130	0xbd5bd62c	-0.053671047
131	0xbed0302a	-0.40661746
132	0xbd158b03	-0.036509525
133	0x3c281c82	0.010260703
134	0xbd6b3cb9	-0.057430957
135	0x3de3802e	0.11108433
136	0x3e0ea258	0.13929117
137	0xbe586cc4	-0.21135241
138	0xbdddf541	-0.10837794
139	0x3e1429ee	0.1446912
140	0x3d233b15	0.039851267
141	0x3e57ad54	0.21062213
142	0x3df6a0b0	0.120423675
143	0x3caa3941	0.020779254
144	0x3e2c733e	0.16840836
145	0xbdc2c23b	-0.09509703
146	0x3cb3ea6f	0.021962373
147	0x3e900e1b	0.28135762
148	0x3dc7c5f7	0.09754556
149	0xbd06d6ef	-0.03291982
150	0x3b650ed2	0.003495146
151	0x3dadf18c	0.08493337
152	0x3e1bba47	0.15207778
153	0xbe6a9e08	-0.22911847
154	0xbe669712	-0.22518566
155	0xbd2e6a2f	-0.042581733
156	0xbe124027	-0.14282285
157	0xbe362e75	-0.1779116
158	0x3e1b2793	0.15151815
159	0x3e82b07d	0.25525275
160	0x3e5cc243	0.2155848
161	0x3b9e3798	0.0048284046
162	0xbdee8ce7	-0.11647969
163	0xbe33c777	-0.17556559
164	0xbe7a9f7a	-0.24474898
165	0x3dced7bf	0.10099744
166	0x3e33bdca	0.17552868
167	0x3e032c94	0.12809974
168	0x3deb7b6d	0.11498151
169	0x3e6c2d40	0.23064137
170	0x3e3e189e	0.18564078
171	0xbd1b1e35	-0.037870605
172	0xbc3c5b35	-0.011496355
173	0xbe599627	-0.21248685
174	0x3e3a777f	0.18209647
175	0xbd441234	-0.047868922
176	0x3da9bf0d	0.08288393
177	0x3c6e3cad	0.014540833
178	0xbdac8eb2	-0.084256545
179	0xbe9d1cf0	-0.3068614
180	0xbe5b6022	-0.2142339
181	0xbe9c0116	-0.30469579
182	0x3e385313	0.1800044
183	0x3e298e69	0.16558231
184	0xbb4875af	-0.0030587723
185	0x3e1b1048	0.1514293
186	0x3dc7bc08	0.09752661
187	0xbe06c875	-0.13162406
188	0x3dc1ee4d	0.094692804
189	0x3e058292	0.1303809
190	0xbd2207e3	-0.039558303
191	0xbd45b07c	-0.04826401
192	0x3e02fac7	0.12790976
193	0x3dc5ff21	0.096678026
194	0x3eabe7e7	0.33575365
195	0xbd916cfe	-0.07100867
196	0x3e5d8fdf	0.21636914
197	0xbe8e08f2	-0.277412
198	0xbab6bac9	-0.0013941164
199	0x3c7f360d	0.015576852
200	0xbd1c1f35	-0.0381157
201	0xbea8a2eb	-0.32936797
202	0xbe1d2212	-0.15345028
203	0x3da71e2d	0.081600524
204	0xbe19e6c2	-0.15029433
205	0x3ea71845	0.32635704
206	0xbb0c94be	-0.0021450962
207	0x3e5b1ac0	0.21396923
208	0xbd7edb8d	-0.0622211
209	0x3dca325f	0.09872889
210	0x3e0225c7	0.12709723
211	0x3d558800	0.052131653
212	0xbdac7f8c	-0.08422765
213	0x3e7d8156	0.24756369
214	0xbc95895c	-0.018253975
215	0xbd949826	-0.072555825
216	0x3d925bf3	0.07146444
217	0x3e0b95f5	0.13631423
218	0x3cbb1669	0.022837834
219	0x3e923301	0.28554538
220	0xbcd26065	-0.02568073
221	0x3dd3c664	0.103405744
222	0x3e96aeda	0.29430276
223	0x3db7d74a	0.0897661
224	0x3e79393f	0.24338244
225	0x3e26459e	0.16237494
226	0x3c1a8a13	0.0094323335
227	0xbdf36cbe	-0.11885975
228	0xbdef2cb6	-0.1167845
229	0xbbc43d08	-0.005988721
230	0x3dbd6706	0.09248166
231	0xbd7c2687	-0.06156018
232	0x3e06b355	0.13154347
233	0x3da353c4	0.079749614
234	0x3d45157d	0.048116196
235	0x3d6d4dec	0.05793564
236	0xbd171b01	-0.036890987
237	0xbe26fd0f	-0.16307472
238	0x3c4f8d04	0.012667898
239	0x3cea2e86	0.028586637
240	0x3d8bfa14	0.06834808
241	0x3d3d1114	0.046158865
242	0x3d03bf73	0.032165002
243	0x3dd326c9	0.10310132
244	0x3d923cd0	0.07140505
245	0xbd0531d0	-0.032518208
246	0x3da6d57f	0.0814619
247	0xbd7a54e2	-0.061116107
248	0xbe12fd65	-0.14354475
249	0xbdaabb40	-0.08336496
250	0x3c9b8596	0.018984597
251	0x3d672436	0.056431018
252	0xbecb226d	-0.39674702
253	0xbeb00a65	-0.3438293
254	0x3dbdec41	0.092735775
255	0x3e152d67	0.14568101

gnn.convs.0.lin_edge.weight f4 [50, 1]
0	0x3ef3e214	0.4763342
1	0xbf1cfce2	-0.6132337
2	0x3ecc73dd	0.39932147
3	0x3ebff69e	0.3749284
4	0x3ea5eef3	0.32408866
5	0x3e92f1e2	0.28700167
6	0x3ecc7731	0.39934686
7	0x3f0e3a60	0.55557823
8	0x3ec0ecf6	0.37680787
9	0x3ed41e7d	0.4142951
10	0x3e38293b	0.17984478
11	0x3e930f8d	0.28722802
12	0xbeed8ae1	-0.4639502
13	0xbec3c943	-0.38239488
14	0x3eaf1962	0.34199053
15	0xbe8b4098	-0.2719772
16	0x3da45a01	0.080249794
17	0xbedd3b4f	-0.4320931
18	0x3f14797d	0.57997876
19	0x3e305659	0.17220439
20	0x3e8c5b97	0.27413628
21	0xbe64102a	-0.22271791
22	0x3ec886df	0.39165398
23	0x3eac2a33	0.33625945
24	0x3ecab5f8	0.39591956
25	0x3e32bd30	0.17454982
26	0x3ee28cbd	0.44248
27	0x3eb0f091	0.34558538
28	0x3eaeabb2	0.34115368
29	0xbe84f0e7	-0.25965044
30	0xbe904eb3	-0.28185043
31	0xbe858b06	-0.2608263
32	0x3eb0ed5f	0.345561
33	0x3ee46a0b	0.44612154
34	0xbe8790bb	-0.26477608
35	0xbeb4420a	-0.35206634
36	0x3e91c012	0.2846685
37	0x3edffb71	0.43746522
38	0xbe8aa681	-0.27080157
39	0xbee3aac5	-0.44466224
40	0xbdb464e5	-0.088083066
41	0x3e341d5d	0.17589326
42	0xbe86d003	-0.26330575
43	0x3eb245dc	0.34818923
44	0xbecdb87c	-0.40179813
45	0xbe6c8339	-0.23096932
46	0xbe48d336	-0.1961182
47	0xbecca703	-0.3997117
48	0xbec261d2	-0.37965256
49	0xbef6c846	-0.48199672

gnn.convs.1.att_src f4 [1, 1, 50]
0	0xbe4869ad	-0.19571562
1	0x3e982c56	0.29721326
2	0xbe8ce046	-0.27514857
3	0xbe8b8ef3	-0.272575
4	0x3e15ea08	0.14640057
5	0x3e832127	0.2561123
6	0xbea99e80	-0.33128738
7	0x3dbf06ce	0.0932747
8	0x3ea468af	0.32111117
9	0xbe0bb268	-0.13642275
10	0xbdb51ea6	-0.08843736
11	0xbe7c61e0	-0.24646711
12	0xbea2dcbd	-0.31809035
13	0xbe8e6422	-0.2781077
14	0x3e6a2a51	0.22867705
15	0xbe613ce4	-0.21995884
16	0x3e62b6ce	0.22140047
17	0x3c32dfa4	0.010917578
18	0xbe34fbe9	-0.17674221
19	0xbcdecde3	-0.027197784
20	0x3e08eb07	0.13370906
21	0xbd9082a2	-0.07056166
22	0x3b86c31f	0.0041126157
23	0x3e9be309	0.30446652
24	0xbdee0e15	-0.1162378
25	0xbe14bb04	-0.14524466
26	0x3cdb1bb4	0.026746608
27	0x3d2fb9ec	0.04290192
28	0x3ea798a2	0.32733637
29	0x3df682d8	0.12036675
30	0xbd9de483	-0.07709601
31	0xbe71ff8c	-0.2363264
32	0xbcb4d561	-0.022074403
33	0x3e1aee7f	0.15130042
34	0xbee8d64a	-0.4547599
35	0x3db7c590	0.08973229
36	0x3e71ef23	0.2362638
37	0x3dcffc5c	0.101555556
38	0xbdce9e96	-0.100888416
39	0xbdffcf45	-0.124907054
40	0xbe8cde18	-0.27513194
41	0xbcf355c2	-0.029703978
42	0xbdc744a4	-0.09729889
43	0x3e0e66a2	0.13906339
44	0xbe8e25bf	-0.27763173
45	0xbe5d2c88	-0.21599019
46	0xbdc0d37e	-0.09415339
47	0x3e1b928a	0.15192619
48	0xbd5b2c86	-0.053509258
49	0xbe1af6d2	-0.15133217

gnn.convs.1.att_dst f4 [1, 1, 50]
0	0xbc8e250a	-0.017351646
1	0xbe3ff8cb	-0.1874725
2	0x3bc149de	0.0058986982
3	0x3d88893c	0.066668004
4	0xbe807e23	-0.25096235
5	0xbeb41c62	-0.35177904
6	0x3c319d8d	0.010840786
7	0xbde4ecec	-0.11178002
8	0x3cad09ef	0.0211229
9	0x3db662d9	0.089055724
10	0xbe710487	-0.23536883
11	0x3e32b2c5	0.17451008
12	0x3db88bc9	0.09011037
13	0xbd70c64d	-0.058782864
14	0x3da1c749	0.07899339
15	0x3e31d30b	0.17365663
16	0xbeadaa31	-0.33918908
17	0xbdbe33f2	-0.092872515
18	0x3db49315	0.08817116
19	0xbcf9471e	-0.03042942
20	0xbe5f0c58	-0.21782053
21	0x3e9f0eda	0.31066018
22	0x3e6ca190	0.23108506
23	0xbf0c4263	-0.547888
24	0x3dba8dea	0.09109099
25	0x3d84fc08	0.06493384
26	0xbce7aa9b	-0.028279593
27	0x3bf4bcc6	0.0074687926
28	0xbe772092	-0.24133518
29	0xbbab84a0	-0.005234316
30	0x3d1ed745	0.038779516
31	0x3dc46aa9	0.09590656
32	0xbe59c4dd	-0.21266504
33	0xbe49384c	-0.19650382
34	0x3e5e7a5a	0.21726361
35	0xbddc206f	-0.10748374
36	0x3da87255	0.08224932
37	0x3ea6fd2f	0.3261504
38	0x3e8b6988	0.2722895
39	0x3eaada5e	0.33369726
40	0x3eaac49c	0.33353126
41	0xbd94a36f	-0.07257735
42	0x3e920098	0.28516078
43	0xbea39aef	-0.31954142
44	0x3dcf8dfc	0.10134503
45	0x3e49dd4e	0.19713327
46	0xbeda3217	-0.4261634
47	0x3d9ac1c4	0.07556489
48	0x3c7a00da	0.015258992
49	0x3df7f29b	0.1210682

gnn.convs.1.att_edge f4 [1, 1, 50]
0	0xbdb3c74f	-0.087782495
1	0x3c3b2901	0.01142335
2	0xbc6c5f7c	-0.014427062
3	0xbcf280fb	-0.029602518
4	0x3da970d1	0.08273471
5	0xbe71c779	-0.23611249
6	0x3e834ea3	0.25645933
7	0xbeb55afc	-0.35420978
8	0x3d8ec867	0.069718175
9	0x3e397485	0.18110855
10	0x3dea5017	0.11441057
11	0xbecafde7	-0.39646837
12	0xbea705dd	-0.3262166
13	0x3e993c85	0.29928985
14	0xbe6598e0	-0.22421598
15	0x3e628ca4	0.22123963
16	0xbea6fce6	-0.3261482
17	0xbe9043d0	-0.28176737
18	0x33c14321	8.9994735e-08
19	0x3e89e44d	0.26931992
20	0x3ebd5626	0.3697979
21	0x2d232478	9.273575e-12
22	0xb5d8660b	-1.6122953e-06
23	0xbe1acd9d	-0.15117498
24	0x3e4f5a90	0.2024939
25	0x3e83cdb9	0.2574289
26	0x3ea69e94	0.3254286
27	0xbd8392e2	-0.064245
28	0x3dba6398	0.09101027
29	0xbeaa0ca5	-0.33212772
30	0x3ecb1c36	0.3966996
31	0x3e8ce86b	0.2752107
32	0xbe53ec4d	-0.2069561
33	0xbeb63463	-0.35586843
34	0xb0560587	-7.78606e-10
35	0xbd8127f6	-0.0630645
36	0xbeb96f08	-0.36217523
37	0xa0ac7c2e	-2.9220109e-19
38	0xbe6ebeac	-0.23314923
39	0x24eece4f	1.0356555e-16
40	0x3d97a2ca	0.074040964
41	0xbd8b57a8	-0.068038285
42	0x3e633c65	0.22191007
43	0xbe80dc78	-0.25168204
44	0xbdd88196	-0.105715916
45	0x3d0ad8ec	0.03389828
46	0xbd43e993	-0.047830176
47	0x30daae37	1.5911102e-09
48	0x3d8025bc	0.06257197
49	0xbe5bfccb	-0.21483152

gnn.convs.1.bias f4 [50]
0	0x384dd291	4.9071914e-05
1	0x3818aaee	3.6398815e-05
2	0x3891b23e	6.947339e-05
3	0x351d38a3	5.8569475e-07
4	0xb7c988a8	-2.4024703e-05
5	0x3694d7e2	4.435876e-06
6	0x389a7ecd	7.366911e-05
7	0x3766fb97	1.3767646e-05
8	0x37eeb2de	2.8455102e-05
9	0xb8136bdb	-3.514798e-05
10	0xb763f4c7	-1.3587246e-05
11	0x392d780f	0.00016543291
12	0x3800e595	3.0731393e-05
13	0x38aedac7	8.337717e-05
14	0x391e693a	0.00015107254
15	0x38b7b81c	8.760413e-05
16	0x3724b1a2	9.81652e-06
17	0xb8471dae	-4.747294e-05
18	0x3712caae	8.749468e-06
19	0xb8353cd0	-4.32104e-05
20	0xb8421650	-4.6273984e-05
21	0x390eba95	0.00013611683
22	0xb68b9272	-4.1595713e-06
23	0x3506cad7	5.021406e-07
24	0x3742291a	1.1572871e-05
25	0xb907aa10	-0.00012937956
26	0x38645c0e	5.444517e-05
27	0xb87d903e	-6.0454237e-05
28	0xb83e1680	-4.5320485e-05
29	0x39037847	0.0001253794
30	0x3916b13a	0.00014371137
31	0xb8b33d42	-8.546795e-05
32	0x37e18762	2.6885133e-05
33	0x370c14f1	8.349526e-06
34	0xb787f881	-1.6208973e-05
35	0x3882d278	6.238086e-05
36	0x386df2e9	5.673143e-05
37	0x37f572b1	2.9259683e-05
38	0xb8b9c664	-8.8584406e-05
39	0xb907aa61	-0.00012938074
40	0xb87942ce	-5.9428443e-05
41	0xb90daa83	-0.00013510328
42	0xb7bd227d	-2.2546616e-05
43	0xb73b99a6	-1.1181843e-05
44	0x38240fe6	3.9115454e-05
45	0x386d51c0	5.658134e-05
46	0xb818b55c	-3.6408528e-05
47	0x3961d34d	0.00021536388
48	0xb7fbff06	-3.0040286e-05
49	0xb78de9be	-1.6917355e-05

gnn.convs.1.lin.weight f4 [50, 50]
0	0xbe6bae8d	-0.23015805
1	0xbdb6fefa	-0.08935352
2	0xbc19ff60	-0.009399265
3	0x3dd197c4	0.10234025
4	0xbdd249c4	-0.10267976
5	0x3e9a8a5c	0.30183685
6	0xbe2234ee	-0.15840504
7	0xbdce0eb9	-0.10061402
8	0xbd4ab299	-0.04948673
9	0x3dc138a4	0.094346315
10	0xbd0d739e	-0.03453409
11	0xbe8fc6cc	-0.28081357
12	0x3d76f0c6	0.060288213
13	0xbec78196	-0.38966054
14	0x3ccea13d	0.025223369
15	0x3d19dd6d	0.037564684
16	0x3d525fd1	0.05136091
17	0xbe45abb3	-0.1930378
18	0x3d92a023	0.0715945
19	0xbbbb6090	-0.0057182983
20	0xbdcbfa80	-0.099598885
21	0x3e9b43e2	0.30325228
22	0xbdb4a88f	-0.088212125
23	0xbda65bda	-0.08122988
24	0x3d6fde0e	0.058561377
25	0xbe6b035b	-0.22950499
26	0xbd8ca7e7	-0.06867962
27	0xbe86f3d6	-0.26357907
28	0x3b794df7	0.0038040855
29	0xbd5b53db	-0.053546768
30	0xbd9589de	-0.07301687
31	0xbe0fd6b9	-0.14046754
32	0x3e36562a	0.17806306
33	0x3e38aece	0.18035433
34	0xbd731ed7	-0.059355583
35	0x3e31ae9b	0.17351763
36	0x3d24e7dd	0.040260185
37	0xbda08314	-0.07837501
38	0xbd20baec	-0.039240763
39	0xbe0059bd	-0.12534232
40	0x3d2921ef	0.041292127
41	0x3da5d3c2	0.0809703
42	0x3e1ca94e	0.1529896
43	0x3de1b743	0.110212825
44	0xbee53264	-0.44765007
45	0x3d2dee30	0.04246348
46	0xbdd252ac	-0.10269675
47	0xbe82b647	-0.25529692
48	0x3d8b14cf	0.06791078
49	0xbe3343e4	-0.17506367
50	0xbe80b70a	-0.25139648
51	0x3dd8a7fe	0.10578917
52	0x3d9969a9	0.07490856
53	0xbe2b72e0	-0.1674304
54	0x3d9851ab	0.07437452
55	0xbb359fe1	-0.0027713703
56	0xbe285b6b	-0.16441123
57	0x3d42643d	0.047458876
58	0x3d0b3a4d	0.033991147
59	0xbdecf6f4	-0.1157054
60	0xbef3b10d	-0.47596017
61	0x3dd6769c	0.10471842
62	0xbc2e53cf	-0.010640099
63	0xbda9f2f1	-0.082982905
64	0x3e3b8397	0.18311916
65	0xbd2d86db	-0.042364936
66	0xbe8e5730	-0.27800894
67	0x3d2b224e	0.041780762
68	0xbe928c60	-0.28622723
69	0x3daf2c43	0.08553364
70	0x3d9ebf5f	0.07751345
71	0xbddf551c	-0.10904905
72	0x3d408a6e	0.047007017
73	0xbe17b896	-0.14816508
74	0x3d6e1671	0.05812687
75	0xbeabd872	-0.33563572
76	0xbc26e50b	-0.010186444
77	0xbe35f038	-0.17767417
78	0xbe85436f	-0.2602801
79	0x3cbcf88a	0.023067731
80	0xbeb35d2b	-0.3503202
81	0xbcd3ec9c	-0.02586966
82	0x3c24664a	0.010034153
83	0x3c83487d	0.016025776
84	0xbdbdc7c0	-0.09266615
85	0x3dc9cd95	0.09853665
86	0xbdea691a	-0.11445828
87	0xbde7342d	-0.112892486
88	0x3e0be360	0.13660955
89	0xbc974047	-0.018463267
90	0xbed37686	-0.41301364
91	0xbe0eb2bc	-0.13935369
92	0xbdd6e7d2	-0.10493435
93	0xbd563780	-0.052299023
94	0xbeeb15c8	-0.45915055
95	0xbd790d65	-0.06080379
96	0xbe847792	-0.25872475
97	0x3e46fdf5	0.19432814
98	0xbdac510e	-0.084138975
99	0xbdf79f33	-0.12090912
100	0x3d47c774	0.048774198
101	0xbe8ad666	-0.27116698
102	0x3cf0fa35	0.029416183
103	0xbea1f111	-0.31629232
104	0xbd875ccd	-0.06609497
105	0xbe2e3389	-0.17011847
106	0xbd92beeb	-0.07165321
107	0x3daec82b	0.08534273
108	0xbe642d95	-0.22283013
109	0x3db52e88	0.08846766
110	0x3e6d7409	0.23188795
111	0x3dba5f49	0.091002055
112	0x3e163da6	0.14671955
113	0xbca7cede	-0.020484384
114	0xbdb25beb	-0.08708938
115	0xbddd3231	-0.10800589
116	0xbdb7b860	-0.089707136
117	0xbe3d53d9	-0.18489017
118	0x3c307c48	0.010771818
119	0x3e35c6b5	0.17751582
120	0xbd3b99f5	-0.04580112
121	0x3dd9829b	0.10620614
122	0xbe02fed6	-0.12792525
123	0x3d339173	0.043839883
124	0xbe29ce51	-0.1658261
125	0x3d7e097c	0.062020764
126	0xbb97a11e	-0.004627361
127	0xbdea607c	-0.11444184
128	0x3e223062	0.15838769
129	0xbd6679fa	-0.05626867
130	0xbddfbdf3	-0.10924902
131	0xbd941f7c	-0.07232568
132	0xbe92b523	-0.2865382
133	0xbde8fd07	-0.11376386
134	0xbe1a88e3	-0.1509128
135	0xbe1e1c43	-0.15440468
136	0xbd6a4f17	-0.057204332
137	0xbcfd91fc	-0.0309534
138	0x3e312a86	0.17301378
139	0x3e65bd86	0.22435579
140	0xbe37883a	-0.1792306
141	0xbdab1a46	-0.08354621
142	0xbe10296d	-0.14078303
143	0xbea752d9	-0.32680395
144	0x3e2a87a6	0.16653308
145	0xbde9f19c	-0.114230365
146	0xbe3383c2	-0.1753073
147	0x3dcfd7e7	0.10148602
148	0x3e34beff	0.17650984
149	0x3e1927c4	0.14956576
150	0xbdc2dc6f	-0.095147006
151	0x3d409a94	0.047022417
152	0xbe0b3d77	-0.13597666
153	0xbdfe0237	-0.12402766
154	0x3e89601a	0.26831132
155	0x3cc04db2	0.023474548
156	0xbbf62b5b	-0.0075124926
157	0x3e26b01f	0.16278122
158	0x3dc9962f	0.09843098
159	0xbd96c33d	-0.073614575
160	0x3ae63863	0.0017564412
161	0x3d84fe0d	0.06493769
162	0xbeaff0dc	-0.3436345
163	0xbef94978	-0.48688865
164	0x3d5b049f	0.053471204
165	0xbe0712e3	-0.13190798
166	0x3d4b339b	0.04960976
167	0xbe6e131f	-0.23249482
168	0xbe89a4a5	-0.26883426
169	0x3da3d4b2	0.07999553
170	0x3d877791	0.06614602
171	0x3dd63dd9	0.10461015
172	0xbe2c7eff	-0.1684532
173	0x3d031702	0.032004364
174	0x3dca5207	0.09878927
175	0xbdcc901e	-0.09988426
176	0xbe12121d	-0.14264722
177	0xbefcc23a	-0.49366933
178	0x3e1dc9f2	0.15409067
179	0x3d7b2223	0.061311852
180	0xbe8d83df	-0.27639672
181	0xbe40a2e5	-0.1881214
182	0xbe0cab82	-0.137373
183	0xbe040f0a	-0.12896362
184	0xbe112610	-0.14174676
185	0xbc268538	-0.010163598
186	0xb9688cf8	-0.00022177759
187	0x3e3fca09	0.18729414
188	0xbe085b5e	-0.13316104
189	0xbe721ccd	-0.23643799
190	0x3d98b83e	0.074570164
191	0xbcc2a112	-0.023758445
192	0xbdf4f72d	-0.119612075
193	0xbd817adc	-0.06322262
194	0x3dc634b0	0.09678018
195	0xbd7347ee	-0.05939477
196	0x3bfd7bf3	0.007735723
197	0xbe0be7d6	-0.13662657
198	0x3d7cd0b1	0.06172246
199	0xbeab9460	-0.3351164
200	0x3e099585	0.13435943
201	0xbcbcc4f1	-0.023043128
202	0x3e090ee9	0.13384594
203	0x3d0c4fc0	0.034255743
204	0x3e3f296e	0.18668148
205	0xbe145843	-0.14486794
206	0xbe8051a7	-0.25062296
207	0xbe166029	-0.1468512
208	0x3cb8e7ca	0.022571463
209	0x3d503d71	0.050839845
210	0x3d56ccd9	0.05244145
211	0xbda9f39b	-0.08298417
212	0xbd520319	-0.051272485
213	0xbdb0a4ff	-0.086252205
214	0x3d8cb946	0.068712756
215	0x3eb36072	0.3503452
216	0xbe7b13a8	-0.24519217
217	0x3de32761	0.11091495
218	0x3e17ebd8	0.14836061
219	0xbcbf6caa	-0.023367245
220	0xbe7288b8	-0.23684967
221	0xbd37cc7e	-0.044872753
222	0xbe625220	-0.2210164
223	0x3ac1d69a	0.0014788688
224	0xbea2f06a	-0.31824046
225	0xbe64bbc0	-0.22337246
226	0x3e281de8	0.16417658
227	0xbdb943ec	-0.09046158
228	0xbea88575	-0.3291432
229	0xbe9dd723	-0.308282
230	0xbaaf9e02	-0.001339853
231	0xbbd9d573	-0.0066477596
232	0xbdf1312a	-0.117769554
233	0x3d9596f6	0.07304184
234	0xbe0659bd	-0.1312017
235	0x3e004064	0.12524563
236	0x3d795dae	0.060880356
237	0xbadcd403	-0.0016847852
238	0xbd229bf0	-0.039699495
239	0xbbb9c2bc	-0.005668966
240	0xbe625868	-0.22104037
241	0xbd2bc67b	-0.041937333
242	0xbca520e1	-0.02015728
243	0xbe0f312d	-0.13983603
244	0x3de03878	0.109482706
245	0xbd9b6abb	-0.075887166
246	0xbe527b0f	-0.20554756
247	0x3e207d7b	0.15672867
248	0xbe3fe2a6	-0.18738803
249	0x3e58af7c	0.21160692
250	0xbd3787f6	-0.044807397
251	0x3d8aa433	0.067696
252	0x3da3ea96	0.08003728
253	0x3e217fc4	0.15771395
254	0x3d9ca10f	0.07647907
255	0xbd38b73d	-0.045096625

gnn.convs.1.lin_edge.weight f4 [50, 1]
0	0xbdb3c74e	-0.08778249
1	0x3c3b290c	0.011423361
2	0xbc6c5f99	-0.014427089
3	0xbcf28134	-0.029602624
4	0x3da970cd	0.08273468
5	0xbe71c823	-0.23611502
6	0x3e834a8d	0.25642815
7	0xbeb54b2f	-0.35408923
8	0x3d8ec874	0.06971827
9	0x3e39747b	0.1811084
10	0x3dea5009	0.11441047
11	0xbecb18a7	-0.39667246
12	0xbea70fdd	-0.3262929
13	0x3e9932bb	0.29921517
14	0xbe65973c	-0.22420973
15	0x3e628b38	0.2212342
16	0xbea6f5c2	-0.32609373
17	0xbe904862	-0.28180224
18	0x33c14292	8.999372e-08
19	0x3e89e61d	0.26933375
20	0x3ebd86c5	0.37016883
21	0x2d232490	9.273596e-12
22	0xb5d866ba	-1.6123151e-06
23	0xbe1acda8	-0.15117514
24	0x3e4f5a18	0.20249212
25	0x3e83ce63	0.25743398
26	0x3ea69391	0.3253446
27	0xbd8392aa	-0.06424458
28	0x3dba63a7	0.091010384
29	0xbea9fe4b	-0.33201823
30	0x3ecb4e52	0.3970819
31	0x3e8ce607	0.27519247
32	0xbe53ec08	-0.20695508
33	0xbeb65e75	-0.3561894
34	0xb0560590	-7.786065e-10
35	0xbd8127f4	-0.063064486
36	0xbeb9a519	-0.36258772
37	0xa0ac7c2e	-2.9220109e-19
38	0xbe6ebf25	-0.23315103
39	0x24eece7c	1.03565845e-16
40	0x3d97a2e5	0.074041165
41	0xbd8b57a6	-0.06803827
42	0x3e633cb6	0.22191128
43	0xbe80deb3	-0.25169906
44	0xbdd881a7	-0.10571604
45	0x3d0ad8f2	0.0338983
46	0xbd43e99d	-0.047830213
47	0x30daae6a	1.5911159e-09
48	0x3d8025ba	0.06257196
49	0xbe5bfbdb	-0.21482794

gnn.convs.2.att_src f4 [1, 1, 50]
0	0x3e797c79	0.24363889
1	0xbbf87f4a	-0.0075835334
2	0xbdc783ed	-0.0974196
3	0x3e7a5b3a	0.24448863
4	0x3d15e20f	0.03659254
5	0xbdc7eb66	-0.097616956
6	0x3dfba049	0.12286431
7	0xbc89f0e9	-0.016838508
8	0xbeab26d0	-0.3342805
9	0xbbb75829	-0.0055952263
10	0xbccbc5c2	-0.024874572
11	0xbe57058c	-0.2099821
12	0xbe3e64d6	-0.18593153
13	0x3cf241e6	0.029572438
14	0x3e1dd99f	0.15415047
15	0xbcec8b1d	-0.028874928
16	0xbe497c59	-0.19676341
17	0xbe619111	-0.22027995
18	0x3e707055	0.23480351
19	0x3e13fe36	0.14452443
20	0xbd5c86be	-0.053839438
21	0xbe411877	-0.18856989
22	0xbe78070c	-0.24221438
23	0xbe499a7f	-0.19687842
24	0xbc488bcc	-0.012240361
25	0xbe16aa02	-0.1471329
26	0xbdfd2d02	-0.123621
27	0x3e99992f	0.29999682
28	0x3d201814	0.039085463
29	0xbe8f4efa	-0.27989942
30	0xbe3dfa43	-0.18552499
31	0xbd0c372e	-0.03423231
32	0x3ccc0f6b	0.024909696
33	0xbe5db05e	-0.2164931
34	0xbe05eb05	-0.13077934
35	0x3e6282a1	0.22120143
36	0xbdfc1186	-0.1230803
37	0x3e242223	0.16028647
38	0x3e0d2bc3	0.13786225
39	0xbd48fe72	-0.049070783
40	0xbdfcae5d	-0.12337945
41	0x3e707e3f	0.23485659
42	0x3e567b55	0.20945485
43	0x3e1b46f9	0.15163793
44	0x3cf4233c	0.029801957
45	0x3ea7d9af	0.32783267
46	0xbdcf2974	-0.101153284
47	0xbdd98373	-0.10620775
48	0x3e28c087	0.16479693
49	0xbe728901	-0.23685075

gnn.convs.2.att_dst f4 [1, 1, 50]
0	0xbcd0ab6f	-0.02547237
1	0x3d9c2419	0.076240726
2	0xbddcf226	-0.10788374
3	0x3c329925	0.01090077
4	0xbc29dc14	-0.010367412
5	0x3d3ac9f5	0.045602757
6	0xbe583c69	-0.21116795
7	0x3df96196	0.12176816
8	0xbadf47ca	-0.0017034945
9	0xbd10e435	-0.035373885
10	0xbdebd192	-0.11514582
11	0x3d1a0a78	0.03760764
12	0x3d810fd5	0.06301848
13	0xbe18e3e8	-0.1493069
14	0xbdfac466	-0.12244491
15	0xbcbd5af4	-0.023114659
16	0x3d420044	0.047363535
17	0x3d0bffbc	0.034179434
18	0xbe6f16a9	-0.23348488
19	0xbe349478	-0.17634761
20	0x3e0e60c5	0.13904102
21	0x3d5574c4	0.05211331
22	0x3e8675d1	0.26261762
23	0x3c93918a	0.018013734
24	0x3d9b4ea8	0.07583362
25	0xbe0641d7	-0.13111053
26	0xbe1a34db	-0.15059225
27	0xbd928920	-0.07155061
28	0xbd5b81e5	-0.053590674
29	0xbe306574	-0.17226201
30	0x3d58f6b0	0.052969635
31	0xbd1b22e4	-0.03787507
32	0xbe0d246b	-0.13783424
33	0x3dc6c090	0.09704697
34	0xbd508ed6	-0.05091747
35	0x3e66cbf0	0.22538733
36	0xbd6a78e9	-0.057244215
37	0x3e03e449	0.12880053
38	0xbd6f9929	-0.058495674
39	0x3e23d962	0.16000894
40	0x3d8ccc8f	0.06874954
41	0xbc81f57e	-0.01586413
42	0xbe5a8655	-0.21340306
43	0x3c3c7e65	0.011504744
44	0xbd730834	-0.059333995
45	0xbdf39234	-0.118931204
46	0x3df886d9	0.12135095
47	0xbe119a95	-0.14219125
48	0xbd5d2693	-0.053991865
49	0x3e420c63	0.18950038

gnn.convs.2.att_edge f4 [1, 1, 50]
0	0xaba912ed	-1.2013425e-12
1	0x21978566	1.0267468e-18
2	0x948aedec	-1.4028283e-26
3	0x84903312	-3.3901138e-36
4	0xaa3861a0	-1.6376353e-13
5	0xa503181b	-1.1370606e-16
6	0x27e8786e	6.4523506e-15
7	0x9987f2bc	-1.4056712e-23
8	0x87f79170	-3.724991e-34
9	0x8b14c4b8	-2.8651758e-32
10	0xa12ca520	-5.849441e-19
11	0x2f023949	1.1843783e-10
12	0xb996444c	-0.00028661115
13	0x0212a315	1.0773188e-37
14	0x2d37376a	1.041465e-11
15	0xa21a85ab	-2.0941655e-18
16	0x079bf608	2.3466412e-34
17	0x089e6195	9.5322205e-34
18	0x2a0dc1b0	1.2590515e-13
19	0x13121a83	1.8440862e-27
20	0x078a4639	2.0805205e-34
21	0x9fb6c237	-7.74013e-20
22	0x2320227a	8.680918e-18
23	0x94a56616	-1.6701008e-26
24	0x1292082c	9.21591e-28
25	0x23ad883c	1.8814395e-17
26	0x18bb15a9	4.836024e-24
27	0x990a592f	-7.152443e-24
28	0xada89045	-1.9163457e-11
29	0x98d00548	-5.3772073e-24
30	0xace95a99	-6.6323167e-12
31	0x8cb3e6ee	-2.7718303e-31
32	0x063331b7	3.3702683e-35
33	0xb186e017	-3.9253893e-09
34	0x2f689dcc	2.1156338e-10
35	0x8f2a0a3f	-8.3836204e-30
36	0xa21e7dc8	-2.147958e-18
37	0x89237d8c	-1.9679443e-33
38	0x34214ba8	1.5021817e-07
39	0x8511eaad	-6.8609704e-36
40	0x82b4fcad	-2.6593652e-37
41	0x97e4cbeb	-1.4785631e-24
42	0x2e5e3da2	5.0531697e-11
43	0x8aedd5d5	-2.2902705e-32
44	0x968bece7	-2.2606168e-25
45	0x29d26f85	9.345219e-14
46	0x1f30e1a6	3.7456102e-20
47	0x2d54cc69	1.2096193e-11
48	0x99d23e4d	-2.1738654e-23
49	0x2b9c9332	1.1125322e-12

gnn.convs.2.bias f4 [50]
0	0x38864192	6.401831e-05
1	0x38686f06	5.541651e-05
2	0xb568bfba	-8.6705734e-07
3	0x35e31d78	1.6921394e-06
4	0xb76e09dc	-1.4188201e-05
5	0xb697aff0	-4.5206325e-06
6	0xb84c4eef	-4.8710903e-05
7	0xb77df8e2	-1.5137923e-05
8	0xb6230493	-2.4291555e-06
9	0xb602445b	-1.9411298e-06
10	0x38678346	5.519695e-05
11	0xb750a86c	-1.243698e-05
12	0xb5800203	-9.537329e-07
13	0xb4a68cf3	-3.1022464e-07
14	0xb7173496	-9.012545e-06
15	0xb39030cc	-6.7143986e-08
16	0x38f8d83c	0.00011865838
17	0xb52d4c79	-6.4558805e-07
18	0xb68e9ca5	-4.2501656e-06
19	0x37ef26b4	2.8509043e-05
20	0xb78447ec	-1.5769117e-05
21	0x2fc48351	3.5745498e-10
22	0xb3408f60	-4.4833882e-08
23	0xb12b83c6	-2.495868e-09
24	0x3436a10a	1.7008657e-07
25	0xb506a102	-5.015319e-07
26	0xb81d16e9	-3.7453054e-05
27	0xb2cb1464	-2.3641583e-08
28	0x34893bbd	2.5561704e-07
29	0xb1cd1b10	-5.969362e-09
30	0x3117b8e3	2.2078488e-09
31	0x3776c3e1	1.4708349e-05
32	0xb600f30f	-1.9214965e-06
33	0xb3402489	-4.4736712e-08
34	0xb6188dac	-2.273223e-06
35	0x3680fedd	3.8443673e-06
36	0x349e2bdb	2.9461702e-07
37	0x349dd4ce	2.9398365e-07
38	0x3394eb1e	6.9345546e-08
39	0x345776e1	2.0066683e-07
40	0xb7817899	-1.5434156e-05
41	0x345e93e0	2.0729158e-07
42	0x3495549c	2.7814974e-07
43	0xb78c3d1a	-1.6717753e-05
44	0x3593c65c	1.1010084e-06
45	0x34d6df25	4.0022965e-07
46	0x3535b0f8	6.768528e-07
47	0xb8039f37	-3.1381114e-05
48	0xb3fd00d9	-1.1781385e-07
49	0x352b7b43	6.3881834e-07

gnn.convs.2.lin.weight f4 [50, 50]
0	0x3dac5c56	0.08416049
1	0xbc9145a0	-0.017733395
2	0xbe1b22ab	-0.15149944
3	0x3df8161e	0.121135935
4	0xbdda74a5	-0.106667794
5	0x3d8a2cad	0.067468025
6	0x3d9a7dd5	0.07543532
7	0x3e08ca37	0.13358389
8	0xbe5aab30	-0.21354365
9	0xbced9995	-0.029003898
10	0xbc9d8035	-0.019226173
11	0xbe814758	-0.25249743
12	0x3e41ac7f	0.18913458
13	0xbe0535c0	-0.13008785
14	0x3dc87c13	0.0978929
15	0x3e9105b5	0.28324667
16	0xbd4f8d5e	-0.050671928
17	0xbda7e021	-0.08197046
18	0x3e3a101f	0.18170212
19	0xbde3752c	-0.11106333
20	0x3c1ac8c9	0.009447285
21	0xbc2c556b	-0.010518412
22	0x3ed00cb4	0.40634692
23	0x3e08189a	0.13290635
24	0xbde617fe	-0.11235045
25	0xbdb59e7e	-0.088681206
26	0xbdce5bf5	-0.10076133
27	0x3e4838a0	0.1955285
28	0x3dabbdd3	0.083858155
29	0x3e1bdc57	0.15220772
30	0xbe1e7494	-0.15474159
31	0x3dcfd6fc	0.10148427
32	0xbe11daf8	-0.14243686
33	0x3e1ceadc	0.15323967
34	0xbeb429b7	-0.35188076
35	0xbeb34c62	-0.35019213
36	0xbef2b3ec	-0.47402894
37	0xbc4b2e4b	-0.012401174
38	0x3cc5443e	0.024080392
39	0xbe10244b	-0.14076345
40	0xbd50ea3f	-0.051004644
41	0xbca5398e	-0.020169046
42	0xbdd034d5	-0.10166327
43	0xbde24932	-0.11049117
44	0xbe2f4529	-0.17116226
45	0x3d97ea0a	0.07417686
46	0x3e032394	0.1280654
47	0xbd6f82cc	-0.058474347
48	0x3c450732	0.012025641
49	0x3e6222a2	0.22083524
50	0x3a6c5388	0.00090151327
51	0xbd4b255b	-0.04959617
52	0x3e937097	0.28796837
53	0x3e0dddde	0.13854167
54	0x3e08c287	0.13355456
55	0x3b81893e	0.003953128
56	0x3b7b48ce	0.0038342956
57	0xbe28bd0d	-0.16478367
58	0xbda821c5	-0.08209566
59	0x3d34195d	0.0439695
60	0x3d0fc953	0.035104107
61	0xbcacaf4c	-0.021079682
62	0x3835fe86	4.3390806e-05
63	0x3ec19584	0.37809384
64	0xbde48997	-0.11159056
65	0xbb76bfa7	-0.0037650855
66	0x3d9c556c	0.076334804
67	0x3d49aed9	0.049239013
68	0x3e3c4aba	0.18387881
69	0xbcf832f5	-0.030297736
70	0xbd915635	-0.07096521
71	0x3e0893e9	0.13337673
72	0x3d428fdc	0.047500476
73	0xbd896703	-0.06709101
74	0xbd20c234	-0.039247707
75	0xbe6874e1	-0.22700836
76	0x3c9cfc87	0.019163383
77	0xbe196b9a	-0.14982453
78	0xbe5b5cab	-0.21422069
79	0x3d108c3a	0.03528998
80	0xbd8f6540	-0.07001734
81	0xbdf88f0f	-0.12136661
82	0x3e692422	0.2276769
83	0xbd9fb481	-0.077981
84	0x3d0525d8	0.032506794
85	0xbe00da93	-0.1258338
86	0x3c36b284	0.01115096
87	0xbc0e66e3	-0.008691522
88	0x3e2d00ce	0.16894838
89	0x3d46c077	0.048523393
90	0x3d9a99a7	0.07548838
91	0x3be806c6	0.0070808856
92	0x3d2d0bdb	0.042247634
93	0x3e11070f	0.14162849
94	0x3dec4edb	0.11538478
95	0xbe0a4794	-0.13503867
96	0xbdb1c7df	-0.086807005
97	0xbca4ce50	-0.020117909
98	0xbe3e0270	-0.18555617
99	0xbe876adf	-0.26448724
100	0xbcfb64b8	-0.030687675
101	0xbdc038b5	-0.09385816
102	0xbd364c69	-0.044506464
103	0xbe3989e2	-0.18119004
104	0xbd801896	-0.062546894
105	0x3e62f8b6	0.22165188
106	0x3d5a5226	0.053301
107	0xbca9a888	-0.020710245
108	0x3cac2de8	0.021017984
109	0x3d7702c4	0.060305372
110	0x3d5c2c7b	0.053753357
111	0x3e77b992	0.24191883
112	0xbe341fc1	-0.17590238
113	0xbd67f6a7	-0.05663171
114	0xbe09e4e4	-0.13466221
115	0xbd90ea43	-0.07075932
116	0xbe16e6d3	-0.1473649
117	0xbe6f66a5	-0.23379
118	0xbe00d953	-0.12582903
119	0x3e80c21d	0.25148097
120	0xbdb1969d	-0.08671305
121	0xbe0ead10	-0.13933206
122	0xbe03a561	-0.12856056
123	0x3e81d0b1	0.2535453
124	0xbd2ca7fc	-0.04215239
125	0x3e4d60e6	0.20056495
126	0xbe4b508a	-0.19854942
127	0xbdb3f8ae	-0.08787666
128	0x3eae0b9a	0.33993226
129	0x3d8345f5	0.064098276
130	0x3db27b76	0.087149546
131	0xbdbb97a1	-0.0915978
132	0xbe643723	-0.22286658
133	0x3d2ddb84	0.042445675
134	0x3dbd6bbb	0.092490636
135	0xbe573f49	-0.21020235
136	0x3ca92252	0.020646248
137	0x3e03dd50	0.12877393
138	0xbe158f21	-0.1460538
139	0xbb87686f	-0.0041323225
140	0x3d3e554a	0.046468057
141	0xbd639e33	-0.055570792
142	0x3ea8e827	0.32989618
143	0xbca099ec	-0.019604646
144	0xbe7ade4f	-0.24498866
145	0x3ddf1edd	0.108945586
146	0x3de5b641	0.11216403
147	0x3e2b24f8	0.16713321
148	0x3db439c3	0.0880008
149	0x3d993ef8	0.074827135
150	0xbd77d389	-0.06050447
151	0x3b7fcde9	0.0039032644
152	0x3c690614	0.014222641
153	0xbe58d5ad	-0.21175261
154	0xbd9973d9	-0.07492799
155	0x3d84decb	0.06487807
156	0xbd75df22	-0.06002725
157	0xbdd7b037	-0.10531657
158	0xbdd8bfea	-0.1058348
159	0xbc014a57	-0.007891259
160	0xbc3b15a9	-0.011418738
161	0xbc04cac0	-0.00810498
162	0xbe2373b7	-0.1596211
163	0xbdbb3c4e	-0.091423616
164	0x3d3ab4e3	0.045582663
165	0x3c48c73a	0.012254531
166	0x3a9b9e03	0.0011872653
167	0x3e1d5942	0.1536608
168	0x3d6621f6	0.05618473
169	0xbd240ebb	-0.04005311
170	0x3d69f800	0.057121277
171	0xbd8f8c13	-0.07009139
172	0xbd918073	-0.07104578
173	0x3d609a62	0.05483473
174	0xbe1c7f0c	-0.1528284
175	0xbd8ade49	-0.06780679
176	0xbe34ebbd	-0.17668052
177	0xbbd2e9e4	-0.0064365733
178	0x3e01bbb6	0.12669262
179	0x3d88cb3c	0.06679389
180	0x3e170d5a	0.14751187
181	0x3df05812	0.11735548
182	0xbe28bf85	-0.16479309
183	0xbd8468eb	-0.06465324
184	0xbda803dc	-0.08203861
185	0xbe2403ae	-0.16017029
186	0x3d005aa6	0.03133645
187	0xbdce6c5c	-0.10079262
188	0xbdb39045	-0.087677516
189	0x3c40a9af	0.011759206
190	0x3dd4fe48	0.10400063
191	0x3d662715	0.056189615
192	0x3d81f02f	0.063446395
193	0x3da0f7ed	0.07859788
194	0xbdec1b52	-0.115286484
195	0x3d32c3fd	0.04364394
196	0xbd9a713b	-0.07541128
197	0x3e05e8c6	0.13077077
198	0xbe365d1e	-0.17808959
199	0x3cc19ff9	0.023635851
200	0x3cabf1f3	0.020989394
201	0xbddb5947	-0.10710388
202	0x3e8260fc	0.25464618
203	0x3e679b76	0.22617897
204	0x3d1a5d09	0.03768638
205	0x3e02f0d2	0.12787178
206	0xbe40ab6c	-0.18815392
207	0xbea23f07	-0.3168871
208	0x3c34ca34	0.011034537
209	0xbdd36156	-0.103213
210	0xbdc8f950	-0.098131776
211	0x3e3afbc8	0.1826011
212	0x3e5a41cf	0.21314166
213	0x3d2a6d1a	0.041607954
214	0xbe2d3479	-0.16914548
215	0xbde57c6b	-0.112053715
216	0xbe1a418e	-0.1506407
217	0x3e591e0c	0.21202868
218	0x3e8248fd	0.2544631
219	0x3dad365c	0.08457634
220	0xbe961a69	-0.29317024
221	0x3e25f56c	0.16206902
222	0xbe0a7096	-0.1351951
223	0x3d362ded	0.044477392
224	0x3b46d872	0.0030341414
225	0x3d8fe2ba	0.070256665
226	0xbe8c3751	-0.27385953
227	0x3dd5fc56	0.1044852
228	0x3d9fa481	0.077950485
229	0xbd28227c	-0.041048512
230	0x3e0a426e	0.13501903
231	0xbe4f5ae4	-0.20249516
232	0xbe24bc09	-0.16087355
233	0xbd46ebb8	-0.048564643
234	0x3e8ea36d	0.2785906
235	0x3e80a764	0.2512771
236	0x3d0f1c1a	0.03493891
237	0xbce04db4	-0.027380802
238	0xbd16ba20	-0.036798596
239	0x3e11c4dc	0.14235252
240	0x3dc4938c	0.09598455
241	0xbd0d6999	-0.034524534
242	0xbe0fe00e	-0.14050314
243	0xbe4951be	-0.19660088
244	0xbe7a2b17	-0.244305
245	0x3e02e95d	0.12784334
246	0xbe12cd9a	-0.14336243
247	0xbe2baeb5	-0.16765864
248	0xbd61140b	-0.054950755
249	0x3dba379c	0.09092638
250	0x3c78fef2	0.015197502
251	0x3d7949bc	0.060861334
252	0xbc5c253b	-0.013436611
253	0xbe092315	-0.13392289
254	0xbcb17f11	-0.021667035
255	0xbd7ba954	-0.06144078

gnn.convs.2.lin_edge.weight f4 [50, 1]
0	0xaba912fe	-1.2013444e-12
1	0x21977102	1.0262071e-18
2	0x149950ba	1.5480893e-26
3	0x848f6497	-3.3711516e-36
4	0xaa9a526a	-2.7413082e-13
5	0xa5031218	-1.1368569e-16
6	0x27e876c3	6.4521697e-15
7	0x99891bdd	-1.4176722e-23
8	0x87872513	-2.0334333e-34
9	0x8b14b49a	-2.8639633e-32
10	0xa12c5dc6	-5.8399975e-19
11	0x2f02394f	1.1843791e-10
12	0xb996454f	-0.00028661868
13	0x01f755e8	9.085674e-38
14	0x2d394455	1.0531205e-11
15	0xa21a859e	-2.0941628e-18
16	0x07bb2525	2.8158464e-34
17	0x08a28cf5	9.783159e-34
18	0x2a0db226	1.2585123e-13
19	0x13121bba	1.8441461e-27
20	0x077a3382	1.8823046e-34
21	0x9fb6c0f4	-7.739921e-20
22	0x230aaf99	7.518179e-18
23	0x94564648	-1.08180995e-26
24	0x1291dd55	9.205349e-28
25	0x23ad51e9	1.8791388e-17
26	0x18bb4c41	4.8415364e-24
27	0x990aa7d1	-7.168323e-24
28	0xada89045	-1.9163457e-11
29	0x98d005c4	-5.377256e-24
30	0xace711e0	-6.5673994e-12
31	0x8c8aaa67	-2.1364824e-31
32	0x0632a14d	3.3596584e-35
33	0xb186e063	-3.925423e-09
34	0x2f689e14	2.1156438e-10
35	0x8f2c6b3b	-8.5009066e-30
36	0xa21e742c	-2.1474494e-18
37	0x89234704	-1.9653803e-33
38	0x342166fa	1.5031756e-07
39	0x85166e84	-7.0732646e-36
40	0x82d42d97	-3.1176768e-37
41	0x97e4d067	-1.4786763e-24
42	0x2e63a61b	5.1761356e-11
43	0x8b1cbc8c	-3.0186354e-32
44	0x968b37e5	-2.2491936e-25
45	0x29d26209	9.34288e-14
46	0x1f2f5361	3.712666e-20
47	0x2d55ffd8	1.2164457e-11
48	0x99d25ef7	-2.1751847e-23
49	0x2b9c9391	1.1125425e-12

gnn.batch_norms.0.weight f4 [50]
0	0x3f5b5d1c	0.8568895
1	0x3f370efc	0.7150724
2	0x3f6daf79	0.92845875
3	0x3f4b2df0	0.7936697
4	0x3f1f0d71	0.62129885
5	0x3f536f71	0.8259192
6	0x3f08204e	0.53174293
7	0x3f711edf	0.9418773
8	0x3f76cbd1	0.9640475
9	0x3f3a0ed3	0.7267887
10	0x3f4c85a2	0.7989141
11	0x3f629c9d	0.8852022
12	0x3f42096f	0.75795645
13	0x3f6aa917	0.9166426
14	0x3f851661	1.0397455
15	0x3f4ceac8	0.8004575
16	0x3f202233	0.62552184
17	0x3f5d54ac	0.86457324
18	0x3f4c4d71	0.79805666
19	0x3f0c5e26	0.5483116
20	0x3f7f1296	0.99637735
21	0x3f111870	0.56677914
22	0x3f3e7fb5	0.74413615
23	0x3f21934c	0.6311538
24	0x3f2a0846	0.66418874
25	0x3f572df7	0.8405451
26	0x3f4f1f72	0.80907357
27	0x3f7b7122	0.982195
28	0x3f4fb297	0.8113188
29	0x3f48a8f3	0.78382796
30	0x3f6bfa7f	0.921791
31	0x3f191d10	0.5980997
32	0x3f67ba94	0.9051907
33	0x3f74e315	0.95659
34	0x3f70966f	0.93979543
35	0x3f464763	0.7745268
36	0x3f3f5034	0.74731755
37	0x3f1a40df	0.60255235
38	0x3f48c93c	0.7843206
39	0x3f6b6261	0.9194699
40	0x3f2d8c00	0.6779175
41	0x3f76c89b	0.9639985
42	0x3f39e4ee	0.72614944
43	0x3f3f0253	0.7461292
44	0x3f58c55c	0.84676147
45	0x3f2b29da	0.66860735
46	0x3f51752b	0.8181941
47	0x3f43bd32	0.76460564
48	0x3f16254c	0.5865066
49	0x3f5e6607	0.8687443

gnn.batch_norms.0.bias f4 [50]
0	0x3e6533d0	0.22383046
1	0x3d914c7d	0.07094667
2	0xbda9626c	-0.082707256
3	0x3c9fb1e2	0.019494
4	0xbea1d885	-0.31610504
5	0xbe534467	-0.20631562
6	0xbebd8d50	-0.37021875
7	0x3d8fff2a	0.070310906
8	0xbe0e970b	-0.13924806
9	0xbdcd0da7	-0.100123696
10	0xbe7d2db4	-0.24724466
11	0x3dada6ed	0.08479104
12	0xbda8c1e0	-0.08240104
13	0xbd20186a	-0.039085783
14	0xbe957b38	-0.2919557
15	0xbd5028a9	-0.050820027
16	0xbea21b94	-0.31661665
17	0xbe4a0658	-0.19728982
18	0xbe491352	-0.19636276
19	0xbe86df86	-0.2634241
20	0xbe2800c3	-0.1640654
21	0xbe80a5b4	-0.2512642
22	0xbe2c564b	-0.16829793
23	0xbe397ca2	-0.1811395
24	0xbdabd566	-0.08390312
25	0xbdbfd053	-0.093659066
26	0xbe3493ec	-0.17634553
27	0xbdbe7114	-0.09298912
28	0xbe76ce16	-0.24102053
29	0xbdd083b7	-0.101813726
30	0xbe2bf2fc	-0.1679191
31	0xbe38e5ee	-0.18056461
32	0xbe317e22	-0.17333272
33	0xbe4d2dcf	-0.20037006
34	0xbe90bb9a	-0.2826813
35	0xbe65b0d3	-0.22430734
36	0xbe44f21e	-0.19232985
37	0xbe4f332b	-0.20234363
38	0xbd0a795e	-0.03380715
39	0xbd76808b	-0.060181182
40	0xbdf2364b	-0.11826762
41	0xbe089223	-0.13336997
42	0xbe6304ea	-0.22169843
43	0xbddf364c	-0.10899028
44	0xbe2c43ba	-0.1682271
45	0xbe3c59e8	-0.18393672
46	0xbdde17c7	-0.10844379
47	0x3daa75b0	0.08323228
48	0xbe7e4f05	-0.24834831
49	0xbdc8c7e1	-0.09803749

gnn.batch_norms.0.running_mean f4 [50]
0	0x3acef451	0.0015789365
1	0x3ba9c9b0	0.0051815137
2	0xbb22e682	-0.0024856632
3	0x3a765ee2	0.0009398294
4	0xbc9feef2	-0.019523118
5	0xbb76d334	-0.0037662508
6	0xbbd00729	-0.00634851
7	0xbbae9f39	-0.0053290394
8	0xba0d7255	-0.000539576
9	0xbb15b74c	-0.002284485
10	0xbb040f1f	-0.0020150614
11	0x3977db6e	0.000236375
12	0x3b6b352e	0.0035889852
13	0xbb549e0d	-0.0032442838
14	0x3a158dc5	0.0005705024
15	0xbb12f505	-0.0022423875
16	0xbd4f4805	-0.050605793
17	0x39b1a36b	0.00033881827
18	0xbb5ab126	-0.003336975
19	0xbce1819e	-0.027527627
20	0xbad4bcd7	-0.0016230595
21	0xbc75b96c	-0.014997821
22	0x3b2fa555	0.0026801426
23	0xbca6f44e	-0.020380165
24	0x3b0522f7	0.002031503
25	0xbb50b52f	-0.0031846275
26	0xbacbcea8	-0.0015549259
27	0xba83247c	-0.001000538
28	0xbbe5570c	-0.006998902
29	0x3b4a0706	0.003082694
30	0x38e650bf	0.00010982295
31	0xbc954075	-0.018219212
32	0xbb5c991c	-0.0033660596
33	0xbba7085e	-0.005097433
34	0xbb2272cd	-0.0024787665
35	0x3ab12fd3	0.0013518281
36	0x3a5afd02	0.0008353741
37	0x3dbd460d	0.09241877
38	0xbb4d62fa	-0.0031339512
39	0x3b393f6a	0.0028266557
40	0xbb9285c3	-0.004471512
41	0xbb49db35	-0.0030800824
42	0xbbfb46b1	-0.007668339
43	0xbb9b29d1	-0.0047352095
44	0xbbcd9902	-0.0062743435
45	0xbbb642dd	-0.00556217
46	0xbb4d4d2b	-0.0031326513
47	0x3b2c9d6d	0.002633895
48	0xbc644af1	-0.013933883
49	0xbb6b5614	-0.003590946

gnn.batch_norms.0.running_var f4 [50]
0	0x36c2cada	5.8052656e-06
1	0x36d109e5	6.2298373e-06
2	0x37945394	1.7681894e-05
3	0x373f9d0f	1.1421055e-05
4	0x38798ea1	5.949906e-05
5	0x37bef1f8	2.276244e-05
6	0x3783182a	1.562767e-05
7	0x371c4f94	9.316853e-06
8	0x3773d91f	1.4534481e-05
9	0x375e903c	1.3265813e-05
10	0x3754c6d3	1.2682477e-05
11	0x372ef577	1.042836e-05
12	0x3711f41c	8.69951e-06
13	0x36b0f0d2	5.273244e-06
14	0x371f9a82	9.513113e-06
15	0x381a7d48	3.683314e-05
16	0x39160866	0.00014308243
17	0x3741414a	1.1518898e-05
18	0x37ccabfc	2.4398782e-05
19	0x385d24f4	5.272492e-05
20	0x374a5338	1.2059514e-05
21	0x37fb64fb	2.9968554e-05
22	0x37d9f5bc	2.5982845e-05
23	0x3829009b	4.0293304e-05
24	0x37c450dd	2.3402676e-05
25	0x36ab7964	5.110329e-06
26	0x36c58d35	5.887496e-06
27	0x36d8b23f	6.458052e-06
28	0x378b214d	1.6585598e-05
29	0x3683e0e8	3.9302868e-06
30	0x36603eb7	3.3415106e-06
31	0x381ab649	3.6886227e-05
32	0x37c37b24	2.3303153e-05
33	0x37c92389	2.3977615e-05
34	0x374f8d9b	1.2371132e-05
35	0x37e04f4b	2.6739805e-05
36	0x37748672	1.4574836e-05
37	0x39611afa	0.00021467722
38	0x372d3009	1.0322788e-05
39	0x3772be7e	1.4468676e-05
40	0x378c3fee	1.671907e-05
41	0x36f35430	7.251765e-06
42	0x36d367ae	6.30036e-06
43	0x37781b37	1.4788288e-05
44	0x36dd85ce	6.60189e-06
45	0x375e5e40	1.3254175e-05
46	0x379b9d8b	1.8550802e-05
47	0x379ca1b3	1.8671946e-05
48	0x381b86d9	3.7080466e-05
49	0x36c5f891	5.8999944e-06

gnn.batch_norms.1.weight f4 [50]
0	0x3f8c01fc	1.0938106
1	0x3f882a08	1.0637827
2	0x3f71f317	0.9451155
3	0x3faf14ec	1.367826
4	0x3f52e9cd	0.82388
5	0x3f661e15	0.8988965
6	0x3f98ae15	1.1928126
7	0x3f820cb4	1.0160127
8	0x3f62d7c7	0.886105
9	0x3f8a3a92	1.0799124
10	0x3f6ef897	0.9334807
11	0x3f7a8012	0.9785167
12	0x3f91baa8	1.1385088
13	0x3f93dbab	1.1551412
14	0x3f92cfbd	1.1469647
15	0x3f9c58a6	1.2214553
16	0x3f721149	0.94557625
17	0x3f9736ba	1.1813576
18	0x3f7ffaf7	0.99992317
19	0x3f7a31ce	0.97732246
20	0x3f819545	1.0123678
21	0x3f84968e	1.0358446
22	0x3f6b2677	0.9185557
23	0x3f45240d	0.77008134
24	0x3f665ae2	0.89982426
25	0x3fa06f8c	1.2534041
26	0x3f9b94bd	1.2154766
27	0x3f892370	1.071394
28	0x3f8842b7	1.064536
29	0x3f8d16ed	1.1022621
30	0x3f8ec206	1.1152961
31	0x3f997d64	1.1991391
32	0x3f7c351b	0.9851853
33	0x3f4e64a0	0.8062229
34	0x3f8edd5f	1.1161307
35	0x3f83c8dc	1.0295672
36	0x3f759c09	0.95941216
37	0x3f86c638	1.0529242
38	0x3f92a924	1.1457868
39	0x3f8d7766	1.1052063
40	0x3f864320	1.0489235
41	0x3f6ac91b	0.9171311
42	0x3f887b38	1.0662603
43	0x3f62ebd4	0.88641095
44	0x3f8f45b2	1.1193144
45	0x3f96783e	1.1755445
46	0x3f87571e	1.0573461
47	0x3fa1dbc8	1.2645197
48	0x3f963a47	1.1736535
49	0x3f8d9ec7	1.106408

gnn.batch_norms.1.bias f4 [50]
0	0x3e0a92d0	0.13532567
1	0x3e414284	0.1887303
2	0xbe0637da	-0.13107243
3	0xbde67cdb	-0.11254283
4	0xbdb3afe1	-0.087737806
5	0xbe429bd9	-0.19004764
6	0x3db82a0a	0.08992393
7	0xbd67f18a	-0.056626834
8	0x3e371c5e	0.17881915
9	0x3e16cd05	0.14726646
10	0xbe8ab058	-0.27087665
11	0xbbb5d5c7	-0.005549166
12	0x3d83008c	0.06396589
13	0x3d376a0c	0.04477887
14	0x3c8a50f4	0.016884305
15	0x3d6b322b	0.05742089
16	0x3b9b460d	0.0047385753
17	0xbc80cc8f	-0.015722541
18	0xbe5aed0b	-0.21379487
19	0xbdc3aa40	-0.09553957
20	0xbcaf1c16	-0.021375697
21	0xbd9570d6	-0.07296912
22	0x3e245bde	0.1605067
23	0xbdc4fa9d	-0.09618113
24	0x3e70ec7e	0.23527715
25	0xbc9a4c26	-0.018835139
26	0x3da2a0ce	0.07940827
27	0x3e67e1a9	0.22644676
28	0xbd56a9bc	-0.052407965
29	0x3df5cb51	0.1200167
30	0xbc568475	-0.013093104
31	0x3e68af05	0.22723015
32	0xbdc4fcb4	-0.09618512
33	0xbb7e5e55	-0.003881355
34	0xbbf95ca7	-0.007609922
35	0xbdb625d3	-0.08893933
36	0xbdc0c686	-0.09412865
37	0x3c0e6222	0.008690389
38	0x3c5ef1f0	0.013607487
39	0x3e209d4c	0.15685004
40	0x3e211c63	0.15733485
41	0x3bfab389	0.007650797
42	0x3e22dee5	0.1590534
43	0xbbe986cc	-0.0071266647
44	0xbdc6a54c	-0.096994966
45	0x3e1310e8	0.14361918
46	0xbd8d8242	-0.0690961
47	0xbcd80f12	-0.026374374
48	0xbd2c4c2d	-0.042064834
49	0x3db380a1	0.087647684

gnn.batch_norms.1.running_mean f4 [50]
0	0xbedc3d73	-0.43015632
1	0xbf077e60	-0.5292721
2	0xbeb592a2	-0.35463434
3	0xbf20bc27	-0.627871
4	0xbe57ab54	-0.2106145
5	0xbd7f96a9	-0.06239954
6	0xbf1eb820	-0.619997
7	0xbf1e3eda	-0.61814654
8	0xbeecd18f	-0.4625363
9	0xbecab0e3	-0.3958808
10	0x3ebb43d1	0.36575177
11	0xbef49f48	-0.47777772
12	0xbeffe84d	-0.4998192
13	0xbf16510a	-0.58717406
14	0xbed23f29	-0.41063812
15	0xbf323c84	-0.6962359
16	0xbf130d0a	-0.5744177
17	0xbf095370	-0.5364294
18	0xbe60c0c5	-0.21948536
19	0xbe85b1bd	-0.26112166
20	0xbdce77b4	-0.10081425
21	0xbee661c2	-0.44996458
22	0xbedfe2fb	-0.4372786
23	0xbe817c2e	-0.25290054
24	0xbe6e894e	-0.23294565
25	0xbefc8d1b	-0.49326405
26	0xbf2b7d35	-0.66987926
27	0xbf0a99a4	-0.54140687
28	0xbe0f0e9d	-0.13970418
29	0xbf2491bf	-0.6428489
30	0xbf2b51e8	-0.66921854
31	0xbf3aee0b	-0.73019475
32	0xbebbc99c	-0.36677253
33	0x3e0f51c6	0.13996038
34	0xbf137177	-0.5759501
35	0xbeeead18	-0.46616435
36	0xbec4e4ff	-0.3845596
37	0xbee76cac	-0.45200098
38	0xbef240c7	-0.47315046
39	0xbeb136cf	-0.34612128
40	0xbf1e2102	-0.61769116
41	0xbe568de4	-0.20952564
42	0xbed2e4be	-0.4119014
43	0xbe844d3a	-0.2584017
44	0xbf197812	-0.5994884
45	0xbef038c1	-0.469183
46	0xbf095c38	-0.5365634
47	0xbf19cb24	-0.60075593
48	0xbf0787b0	-0.5294142
49	0xbea56342	-0.3230229
