src/checkpoints_v2/checkpoint_epoch_10.pth (torch, 137660 bytes, 78 tensors)

gnn.convs.0.att_src f4 [1, 1, 50]
000000 5c 65 d2 3c ae ab 8d bd 67 dd b6 3d 8e f3 43 3d
       0.025683098 -0.06917511 0.08928948 0.047839694
000010 83 60 91 3c cb 4c 95 bd f7 62 f8 bd 1d d7 3a 3d
       0.017746216 -0.07290038 -0.12128251 0.045615304
000020 c4 e7 c6 3c e2 69 b5 bd 50 54 17 3e ed 9b 78 bc
       0.024280436 -0.08858086 0.14778256 -0.015173894
000030 50 48 af 3d c3 24 4e bd a1 47 9c bb b1 6f 0a 3d
       0.085587144 -0.050328027 -0.004769281 0.033797923
000040 63 18 f4 bd e7 62 0f bd 08 d8 33 bc e6 2c 96 3d
       -0.11918714 -0.03500643 -0.010976799 0.073327824
000050 74 e3 ad 3d de 85 97 bd a0 9e 4b bd b4 05 e0 bd
       0.08490649 -0.0739858 -0.049711823 -0.10938588
000060 39 35 24 bc 2d 8d a8 bd 6a d5 da bd e9 66 a0 3b
       -0.010022455 -0.08230052 -0.10685237 0.0048950803
000070 07 58 c5 bc a4 27 8e 3d 2b 1f 9c bd cf 41 a5 3c
       -0.024089826 0.069411546 -0.07623132 0.020172982
000080 21 de 0b 3e 5d c2 30 3e 08 f9 a7 ba 8f 76 1c 3e
       0.13658954 0.17261644 -0.0012815306 0.15279602
000090 eb 45 65 bd 0d b4 a5 3b 4e 5d 5e 3d fc 1b 0c 3e
       -0.055974882 0.005056864 0.0542882 0.1368255
0000a0 e1 be 86 bd 6d 20 ec ba cd 5b 54 3d 8a 4b 9d 3d
       -0.06579376 -0.0018015035 0.05184536 0.076804236
0000b0 31 53 ab 3b e8 80 40 bd fd 2f 11 be 2b 9a b3 bd
       0.005228423 -0.046997935 -0.14178462 -0.087696396
0000c0 45 2c ac 3d 24 90 22 3c
       0.08406881 0.009922061

gnn.convs.0.att_dst f4 [1, 1, 50]
000000 ca 29 1a 39 5b 1c 9a 3b 19 f7 84 bb ca de 57 bb
       0.00014702152 0.0047030873 -0.0040577766 -0.003293919
000010 98 d5 33 bc a5 05 6f 3a 6d 26 f9 ba 7c 41 c0 ba
       -0.010976218 0.00091179676 -0.0019008644 -0.0014667953
000020 26 86 a4 bb 4a 34 de 3a 9f 71 47 bb 70 de a5 3a
       -0.0050208746 0.0016952839 -0.0030432714 0.0012654793
000030 22 d1 84 bb 23 47 03 3b 65 03 63 3a 3f 84 c9 bb
       -0.004053251 0.0020031414 0.00086598686 -0.006149798
000040 5b 85 45 bc 0c 8b bc 3b e3 18 ba 3a 67 3b 15 bb
       -0.01205572 0.0057538804 0.0014198091 -0.0022771002
000050 2e 7f b2 bb 1b 60 b7 bb 9a de 42 bb 27 43 bc bb
       -0.00544729 -0.0055961735 -0.0029734732 -0.00574531
000060 ea 8e bd b6 84 48 83 3a c2 a9 86 bb 61 fa 3b 39
       -5.6492763e-06 0.0010016118 -0.004109592 0.00017926983
000070 be ef 10 3b e3 92 07 3a f2 91 8c ba 25 d8 f2 bb
       0.0022115554 0.0005171729 -0.0010724647 -0.0074110203
000080 d9 29 d7 bb f6 43 bd bb 2d bc 5e bb c1 ba 4e bb
       -0.006566268 -0.005775924 -0.0033986673 -0.003154442
000090 b3 3a 3b 3b 54 08 48 3d 03 b9 d6 3a 59 a4 86 bb
       0.0028568923 0.048836067 0.0016382042 -0.0041089472
0000a0 57 75 3b bb 3e 0d 12 3b 15 50 70 bb 24 9e a6 ba
       -0.0028603876 0.0022285725 -0.0036668826 -0.0012711925
0000b0 a0 fc 34 ba 5d 33 75 bb 72 d1 1d 3b ad 48 96 3b
       -0.0006904099 -0.0037414648 0.0024081138 0.0045863003
0000c0 d2 b7 e1 ba 0e c0 3f 3b
       -0.001722092 0.002925876

gnn.convs.0.att_edge f4 [1, 1, 50]
000000 b4 00 f0 3e 72 3f 1b bf d8 2c c8 3e b3 8e bb 3e
       0.46875536 -0.60643685 0.39096713 0.36632308
000010 75 28 a1 3e 19 d1 8d 3e 33 37 c8 3e d4 55 0c 3f
       0.3147618 0.2769859 0.39104614 0.54818463
000020 d9 8b bc 3e c9 ef cf 3e 37 28 2a 3e b7 ef 8d 3e
       0.36825445 0.4061263 0.16616903 0.2772195
000030 a1 83 e9 be 08 6b bf be 5c 77 aa 3e 86 f4 85 be
       -0.45608237 -0.37386346 0.3329419 -0.2616312
000040 d9 20 57 3d 20 2c d9 be c4 c0 12 3f d4 e0 21 3e
       0.05252156 -0.42416477 0.57325387 0.15808421
000050 b9 15 87 3e 0a 02 58 be b1 35 c4 3e 3c 7d a7 3e
       0.2638376 -0.21094528 0.38322213 0.32712734
000060 d5 6f c6 3e 3c 6c 24 3e 20 7d de 3e 38 56 ac 3e
       0.38757196 0.16056913 0.43454838 0.3365953
000070 cb 09 aa 3e 84 f9 7e be 7f 1f 8b be 92 1a 80 be
       0.33210596 -0.2489987 -0.27172467 -0.25020272
000080 a7 52 ac 3e bb 6e e0 3e 71 2d 82 be 41 b3 af be
       0.3365681 0.4383448 -0.25425294 -0.34316447
000090 72 99 8c 3e a1 e9 db 3e 1f 56 85 be 1b 90 df be
       0.2746082 0.42951682 -0.26042268 -0.4366463
0000a0 5c f0 80 bd 76 e1 25 3e e7 67 81 be 8c af ad 3e
       -0.06295845 0.16199288 -0.25274584 0.33922994
0000b0 50 79 c9 be 74 be 60 be 20 aa 3b be 55 62 c8 be
       -0.39350367 -0.21947652 -0.18326616 -0.3913752
0000c0 88 02 be be 2a f6 f2 be
       -0.37111306 -0.47453433

gnn.convs.0.bias f4 [50]
000000 b6 29 8b b7 47 bd 37 bb e9 20 a6 3b 58 68 da b8
       -1.6589514e-05 -0.0028036402 0.005069841 -0.000104144856
000010 16 2f c1 3a ea 41 d5 ba 92 92 d2 bb eb 17 5b 3a
       0.0014738764 -0.0016270254 -0.006426164 0.0008357751
000020 9f d2 0e bb 2d 52 93 39 c3 38 9b ba f6 da 08 3a
       -0.002179302 0.0002809925 -0.0011842478 0.0005220616
000030 ab b6 7c 3a 4c c6 08 bb ab 35 5e 3a 79 96 e7 39
       0.0009640257 -0.0020870147 0.0008476625 0.00044171864
000040 8c 19 7b 3a f0 02 00 3b a7 2d 47 b7 b6 e0 dd 39
       0.0009578697 0.0019533 -1.1871954e-05 0.00042319827
000050 be 7d a4 b9 98 d9 0d 3b d7 24 0e bb 49 7c 19 3a
       -0.00031374203 0.0021644589 -0.0021689439 0.0005855007
000060 83 b9 e2 ba 03 f9 c4 3b 27 81 e1 ba f2 9f 14 bb
       -0.0017297718 0.00601113 -0.0017204628 -0.0022678343
000070 83 5a 8f ba 29 ab 0b bb 6c a0 bc ba 74 56 27 b9
       -0.0010937009 -0.0021311736 -0.0014391071 -0.00015958567
000080 1f fa cf 3a 1c 29 40 3a fa ba 5c bb a9 3a e1 39
       0.0015867389 0.00073303445 -0.0033680783 0.0004295905
000090 c7 2d d7 3a 2a f3 c5 ba 21 fd a9 3b a6 d3 88 3a
       0.0016416841 -0.0015102376 0.005187646 0.0010439053
0000a0 9f e8 8b bb 8d c8 d3 3a 3e 36 92 bb 27 8d 86 3a
       -0.004269674 0.0016157791 -0.0044620326 0.0010265455
0000b0 05 0a 88 bb ab 0c f8 3a 6d 73 17 bb fe c4 b2 3a
       -0.004151585 0.0018924674 -0.002310957 0.001363903
0000c0 c6 e3 21 ba 51 03 11 bb
       -0.00061756035 -0.002212722

gnn.convs.0.lin.weight f4 [50, 50]
000000 bb 18 97 b9 e7 54 b1 bd 4b 2b ef 3d 86 a6 9c bd
       -0.0002881939 -0.08658772 0.11678179 -0.07648949
000010 70 ac 86 3d 61 ec 2c be 2e 80 77 3e b6 13 39 bf
       0.065758586 -0.16887046 0.2416999 -0.722957
000020 64 c5 30 3e 58 5e fc bc 4a 16 2e be c9 f9 d6 3c
       0.17262799 -0.030806705 -0.1700069 0.026242154
000030 9a 12 c7 bd 8f 19 78 3e 61 b4 86 bd 23 4d e9 3d
       -0.09720345 0.242285 -0.06577373 0.11391666
000040 60 8e bf 3c 23 ad 96 3d 56 16 06 be 48 80 a1 3e
       0.02338332 0.07357242 -0.13094458 0.31543183
000050 f2 24 64 be 9e 68 d8 3e c0 d0 09 3e 23 79 04 be
       -0.22279719 0.42267317 0.13458538 -0.12936835
000060 00 83 15 be 83 ad 2c bd 61 22 7c 3e b7 ec a2 be
       -0.14600754 -0.04215766 0.2462249 -0.31821224
000070 4f 28 32 be cb b0 b0 3e 16 90 b6 3e be 8e 5c 3e
       -0.17398189 0.34509882 0.35656804 0.21538827
000080 5f 49 0c 3e ee 1e 40 be 11 66 a4 3b 70 85 14 3e
       0.13699864 -0.18761799 0.00501705 0.14504027
000090 ae ec b5 3e 91 e2 e8 b9 33 dd d8 bd f2 01 18 be
       0.35532135 -0.00044419293 -0.105890654 -0.14844492
0000a0 17 6a f2 bc ce 8b 0e 3d 5d b4 4e be 2a 77 ac bb
       -0.029591603 0.034801297 -0.2018599 -0.005263229
0000b0 48 e0 3a be 12 95 3a be 1d 9f 0b 3e 7a ef 61 be
       -0.18249619 -0.18220928 0.13634916 -0.2206401
0000c0 7a 98 fb bd 41 05 2c be 44 26 28 3c 72 ce 02 3d
       -0.12284942 -0.16798879 0.0102630295 0.031935163
0000d0 12 13 78 3c 3b 47 96 3d c3 31 c5 3d 93 1b ed 3d
       0.0151412655 0.07337805 0.09628632 0.11577525
0000e0 29 00 4a be be 99 8f be 53 c5 b3 3d 82 49 bd be
       -0.19726624 -0.28046983 0.08777871 -0.36970145
0000f0 41 24 9d be ea 97 b8 be 8c e4 85 be 87 6d b6 3e
       -0.30691722 -0.360534 -0.2615093 0.35630438
000100 3f 41 25 bc 83 8e 27 bd 06 1e 7b 3e 47 91 4a be
       -0.010086357 -0.040907394 0.24523172 -0.19781981
000110 9e c2 ab 3d 45 a0 01 3f d1 ee b3 3d f6 90 fb 3e
       0.0838673 0.50635177 0.08785785 0.49134034
000120 50 bc e8 bc d1 a4 0b 3e 0d 2f 9e 3e 73 02 e5 3c
       -0.028410107 0.13637091 0.30895272 0.02795527
000130 0a d0 4c be a1 e0 5b be 37 8e d7 3d 84 9d 92 3e
       -0.20001236 -0.21472408 0.10525172 0.286358
000140 56 eb 90 3c 8f a8 d0 3c a6 d5 00 bb 40 d4 92 bd
       0.017690342 0.025471 -0.0019658594 -0.0716939
000150 3e 93 e1 bd d0 f2 9a 3e c1 91 3d bd 51 7c 52 3e
       -0.11014412 0.30263376 -0.04628158 0.20555235
000160 23 d8 91 bd de 44 3f be 6e 66 45 3e 77 e1 7c 3c
       -0.07121303 -0.18678614 0.19277355 0.015434614
000170 66 f9 0e bd 1e 90 5b be 77 23 97 bd d6 88 ff bd
       -0.034905814 -0.21441695 -0.07379811 -0.12477271
000180 f7 39 59 be e4 11 9d be 69 69 2e be df cb 88 bd
       -0.21213518 -0.30677712 -0.17032398 -0.0667951
000190 02 d0 d9 3c b6 a2 a6 be 16 01 31 be 75 2e 9f 3e
       0.026588444 -0.32546014 -0.1728557 0.3109013
0001a0 11 df f6 bc b3 4c ab be de b3 aa 3e 04 19 a2 be
       -0.030135663 -0.33456954 0.33340353 -0.3165971
0001b0 ee 90 f8 3d a6 d1 2e be 44 99 fa bd d9 91 8e bd
       0.12137018 -0.17072162 -0.12236264 -0.06961412
0001c0 74 6a b1 3d fa 2c 66 be f2 46 4a bd b4 f2 37 3e
       0.086628824 -0.22478095 -0.049384065 0.17963678
0001d0 bd 2d 06 be cf f4 f7 3d 47 aa ef 3d 77 7c c9 3e
       -0.13103385 0.121072404 0.117024 0.39352772
0001e0 ab 96 e3 bd 59 a3 8e bb 4b 51 42 3e 9a 27 ed bd
       -0.11112722 -0.0043529687 0.18976323 -0.11579819
0001f0 22 f9 51 3d 8d 9b 4f 3e ff db 83 3d e4 ef 1c be
       0.051262982 0.20274182 0.06438445 -0.15325886
000200 8d a1 fa bd ea b2 81 be 62 73 d8 bd 9a df e4 be
       -0.122378446 -0.25331813 -0.105688825 -0.44701844
000210 df f3 87 bd b1 40 28 bc b2 32 a7 bc 62 3c 3b 3e
       -0.066383116 -0.01026933 -0.020409916 0.18284753
000220 db 90 18 3e 1e d5 80 be 0b 6c 31 be cb f8 0c 3e
       0.14899008 -0.25162596 -0.17326371 0.13766782
000230 56 cf 45 3d 5e 8f 5d 3e a7 c5 a3 3d 80 c2 a5 3d
       0.048293434 0.21636721 0.079966836 0.080937386
000240 d2 b2 2a 3e 06 04 8a bd 0f b0 89 bd ee 9d 0e 3e
       0.16669777 -0.06739049 -0.06723034 0.13927433
000250 34 3c b6 bb 64 d4 ea bd ee 07 42 bb ce da a7 3d
       -0.005561376 -0.114662915 -0.0029606777 0.081960306
000260 ea 5b 27 3e 23 e4 57 be a8 48 5d be 2c 60 85 bd
       0.16343656 -0.21083121 -0.21609747 -0.06512484
000270 2a 52 85 be b2 b7 0b be d9 6d 58 3e a4 9b c1 3e
       -0.2603925 -0.13644293 0.21135654 0.37814057
000280 76 fa 94 3e 00 64 19 3d 4c b9 43 be a1 42 ef bd
       0.29097337 0.037448883 -0.19113654 -0.1168263
000290 b3 28 7a be 6c ff c0 3c 08 00 08 3e d7 1f 45 3c
       -0.24429588 0.023559295 0.13281262 0.012031517
0002a0 08 85 24 bc 39 32 ba 3e ab 62 18 3e a6 21 e6 39
       -0.010041483 0.36366442 0.14881389 0.0004389409
0002b0 d6 89 c2 3d 36 b0 5c be 1b 77 5e 3e a6 b7 d3 bd
       0.09498946 -0.21551594 0.21725123 -0.103377625
0002c0 75 1f d4 3d 19 82 84 3d 59 ee 1e be d7 d0 83 be
       0.103575625 0.06470127 -0.1552061 -0.2574527
0002d0 d6 dc 17 be 6b 13 de be b6 d3 0c 3e 51 81 ee 3d
       -0.14830336 -0.4337419 0.13752636 0.11645759
0002e0 b2 0a 87 bd 92 1d 60 3d 17 7f 1d 3e 2c fa ab bd
       -0.06593837 0.0547157 0.15380512 -0.08397326
0002f0 3e 80 0e 3e b2 8e 1e bc ab 3a 9c bd c2 9e c4 bd
       0.13916108 -0.009677576 -0.076283775 -0.09600593
000300 a7 15 3c 3e 1a 17 79 3e d5 f3 02 3f d5 47 b1 3d
       0.18367635 0.24325219 0.5115331 0.08656279
000310 e5 e4 81 3e 3d 4b 93 be 24 3a 07 be b9 7e cd b9
       0.25369945 -0.2876834 -0.13205773 -0.00039195063
000320 67 1e b4 bc 51 91 8e be 58 12 9c bd e0 f0 4c 3d
       -0.021987153 -0.27845243 -0.07620686 0.050034404
000330 77 5a e5 bc 2f 42 ca 3e f7 7b db bc c4 c4 77 3d
       -0.027997239 0.3950362 -0.02679251 0.060490385
000340 d8 24 a6 bd e2 dd 9f 3d a3 25 02 3d b6 7d 6b 3d
       -0.08112496 0.07805993 0.031774174 0.057492934
000350 66 ce 17 bd 59 32 e1 3d 9c ed 5a be 51 7e 8a be
       -0.03706207 0.10995931 -0.21379703 -0.27049497
000360 56 c1 2c 3e 5e fe 5a bd c3 0e b7 3d 04 c6 c3 3e
       0.16870627 -0.05346524 0.089383624 0.3823701
000370 99 cf a7 3d 2e 1e 89 3e 36 0e d9 3e b8 97 8c 3e
       0.08193893 0.26780838 0.42393655 0.27459502
000380 69 94 99 3e 95 c6 d7 3e fc 84 1e bd 17 12 f7 3d
       0.2999604 0.42143694 -0.038701043 0.12063997
000390 c5 6f e4 bd 36 be ba bc 99 3c 0f 3e 88 5c 9c bc
       -0.11154131 -0.022795778 0.1398796 -0.019087091
0003a0 34 e1 7d bc d9 aa 77 3e 53 88 93 3d 5e 7c 61 3d
       -0.015495587 0.24186267 0.07203736 0.055050246
0003b0 3f 15 e7 3b 99 3b d6 bd 2c 2a 44 be 70 63 b1 bc
       0.0070520933 -0.10460586 -0.19156712 -0.02165386
0003c0 14 dd 97 bc 4a a0 5a be d5 ed 0d be 6f 28 4c 3d
       -0.018538035 -0.21350208 -0.13860257 0.049843248
0003d0 a2 36 09 3e 4e dc 44 3c c4 ac ab 3d 0d a4 c0 3c
       0.13399747 0.012015415 0.08382562 0.023515726
0003e0 5a bb 23 be 49 58 4c be 7e c0 de 3c fc 55 5e 3d
       -0.15989438 -0.19955553 0.027191397 0.05428122
0003f0 5a 78 d3 be 41 71 d6 be f7 77 a5 3d 29 3e 2c 3e
       -0.41302758 -0.4188328 0.08079522 0.16820587

gnn.convs.0.lin_edge.weight f4 [50, 1]
000000 c5 00 f0 3e 71 3f 1b bf de 2c c8 3e ae 8e bb 3e
       0.46875587 -0.6064368 0.3909673 0.36632293
000010 80 28 a1 3e 12 d1 8d 3e 3a 37 c8 3e f2 55 0c 3f
       0.31476212 0.2769857 0.39104635 0.5481864
000020 d0 8b bc 3e c7 ef cf 3e 52 28 2a 3e a5 ef 8d 3e
       0.36825418 0.40612623 0.16616943 0.27721897
000030 aa 83 e9 be 13 6b bf be 65 77 aa 3e 9b f4 85 be
       -0.45608264 -0.3738638 0.33294216 -0.26163182
000040 e5 20 57 3d 21 2c d9 be ac c0 12 3f e2 e0 21 3e
       0.052521605 -0.4241648 0.57325244 0.15808442
000050 ba 15 87 3e 11 02 58 be b5 35 c4 3e 29 7d a7 3e
       0.26383764 -0.21094538 0.38322225 0.32712677
000060 d1 6f c6 3e 33 6c 24 3e 33 7d de 3e 3e 56 ac 3e
       0.38757184 0.160569 0.43454894 0.33659548
000070 c2 09 aa 3e 88 f9 7e be 80 1f 8b be 94 1a 80 be
       0.3321057 -0.24899876 -0.2717247 -0.25020278
000080 af 52 ac 3e b1 6e e0 3e 7f 2d 82 be 4b b3 af be
       0.33656833 0.4383445 -0.25425336 -0.34316477
000090 76 99 8c 3e a5 e9 db 3e 22 56 85 be 27 90 df be
       0.2746083 0.42951694 -0.26042277 -0.43664667
0000a0 73 f0 80 bd 8b e1 25 3e ed 67 81 be 8d af ad 3e
       -0.06295862 0.16199319 -0.25274602 0.33922997
0000b0 4e 79 c9 be 78 be 60 be 2f aa 3b be 50 62 c8 be
       -0.3935036 -0.21947658 -0.18326639 -0.39137506
0000c0 8b 02 be be 25 f6 f2 be
       -0.37111315 -0.47453418

gnn.convs.1.att_src f4 [1, 1, 50]
000000 83 89 57 be 03 c0 6c 3e e1 9d 39 be 82 50 3c be
       -0.2104855 0.23120122 -0.18126632 -0.18390086
000010 d8 0b 8b 3d 80 b9 05 3e d8 3d 68 be ad 94 9d 3d
       0.067893684 0.13059044 -0.22679842 0.07694373
000020 b9 ed 91 3e 64 9f 0a be 5c 4d 3f bc eb 07 44 be
       0.2850168 -0.13537365 -0.011676159 -0.19143645
000030 84 ad 87 be b6 f0 73 be a9 b1 9e 3e fd af bb be
       -0.2649957 -0.23822293 0.3099492 -0.36657706
000040 22 74 67 3e 3a be 1e 3e 40 23 78 3d dd d5 8c 3d
       0.22602895 0.15502253 0.060580492 0.06876729
000050 8e 1d 46 3e 1e d8 b3 bd 70 53 f5 bd 9e d0 55 3e
       0.19347212 -0.087814555 -0.11978805 0.20880362
000060 99 02 49 be f1 39 83 3b 40 fb 99 bc 1c 38 3d 3e
       -0.19629897 0.00400471 -0.018796563 0.18478435
000070 1e 55 d8 3e 5d 0e a2 3d 6b 16 79 be 55 42 2a be
       0.4225244 0.07912896 -0.24324958 -0.16626866
000080 b2 21 14 bd f3 2a 23 3e 7a 90 ba be 2a 30 73 3d
       -0.036164947 0.15934353 -0.36438352 0.059372105
000090 45 4d 95 3e 65 4e df bc 2b 14 eb 3c cb 3e df bd
       0.29160514 -0.027259061 0.02869614 -0.10900649
0000a0 73 48 a6 be 2d 08 0e bd 38 ba ec ba c0 d8 ca 3e
       -0.3247715 -0.034675766 -0.0018060869 0.39618492
0000b0 07 72 48 be 03 dc e4 bd 20 ab 44 bd 41 75 cf bc
       -0.19574748 -0.111747764 -0.04801476 -0.025324466
0000c0 73 ee 1d bd 51 33 96 bd
       -0.03855748 -0.073340066

gnn.convs.1.att_dst f4 [1, 1, 50]
000000 8c c5 78 bc 50 00 65 be ba 08 50 3d 32 cc c3 3d
       -0.015183818 -0.223634 0.050789572 0.095604315
000010 60 8f ec bd e9 47 a9 be cf 01 25 3e be ab 1c be
       -0.11550784 -0.33062676 0.16113971 -0.1529989
000020 73 f2 1b be b0 d1 58 3e 9b 6f a7 bd 2a 68 4a 3e
       -0.15229206 0.2117374 -0.08175584 0.19766298
000030 40 3f 02 3e 0d 0a 0b bd f5 11 6d 3d 27 b0 75 3e
       0.1271944 -0.033945132 0.057878453 0.23992978
000040 cc 29 93 be 26 3c b6 bd c8 3f dd 3d 7b 30 b1 3d
       -0.28742826 -0.08898191 0.10803181 0.08651825
000050 64 8d 6c be 01 39 97 3e 84 5d 3f 3e c1 1a 05 bf
       -0.23100811 0.29535678 0.18688017 -0.5199395
000060 e3 e7 aa bd b3 48 4f 3d e1 82 57 bb de 7a e9 bc
       -0.0834501 0.05060644 -0.0032884406 -0.02850097
000070 91 4f 91 be 32 60 03 3d b6 1c 89 3c 53 af 7d 3d
       -0.28381017 0.03207416 0.016737323 0.06193478
000080 44 33 19 be 32 ed 3d be d9 49 67 3e f3 21 1d bd
       -0.14960963 -0.18547514 0.22586764 -0.038362455
000090 91 d2 19 be 33 ed 48 3e 93 89 9a 3e 5f 40 c3 3e
       -0.15021731 0.19621734 0.30183086 0.3813505
0000a0 55 a6 96 3e fc fc b8 3b 7d 50 37 3e 92 84 66 be
       0.29423776 0.0056453925 0.17901798 -0.22511509
0000b0 5f ae 3d 3d d8 35 31 3e 6e 3c fa be 99 b0 55 3d
       0.04630887 0.17305696 -0.4887423 0.05217037
0000c0 67 01 9f bd 24 a0 50 3d
       -0.07763939 0.050933972

gnn.convs.1.att_edge f4 [1, 1, 50]
000000 f1 05 7d be d0 bd ce bd df a1 3d b3 d0 c9 3a be
       -0.24709298 -0.100947976 -4.4152213e-08 -0.18241048
000010 50 f1 77 3e 8d 14 ca be 9d 75 d4 3e df 30 03 bf
       0.24213147 -0.39468804 0.41495982 -0.51246446
000020 00 a5 6a 3e 7f 02 ae 3e d3 18 8c 3e 51 08 0e bf
       0.22914505 0.3398628 0.2736269 -0.5548144
000030 fd 1f f8 be 99 53 ea 3e 25 01 c4 be 12 7c c2 3e
       -0.48461905 0.45766905 -0.38282123 0.37985283
000040 84 0e f8 be 70 67 e1 be d7 d3 21 ad 3f 0a db 3e
       -0.48448575 -0.4402423 -9.198828e-12 0.42781255
000050 d1 3c 07 3f ef 56 79 be cc 45 50 be bb bf 9e be
       0.52827173 -0.24349569 -0.20339125 -0.31005654
000060 58 eb b8 3e 0f f7 d4 3e af ae f7 3e 54 16 65 be
       0.36117053 0.4159474 0.4837546 -0.22371799
000070 ab 26 80 3e e2 18 fb be 25 1d 0e 3f 50 0a de 3e
       0.250295 -0.49042422 0.5551322 0.43367243
000080 4e 32 bb be a3 ab 03 bf 14 66 76 3e 8a df 63 be
       -0.36561817 -0.5143377 0.24062377 -0.22253242
000090 37 4b 05 bf 56 72 4f be 07 91 c8 be b6 b3 2f be
       -0.52067894 -0.2025846 -0.39173147 -0.17158398
0000a0 c1 0a 6f 3e 0e ef 68 be 2b d4 c2 3e 63 08 d2 be
       0.23343946 -0.22747442 0.38052496 -0.41022024
0000b0 2c 9e 87 be 28 c2 45 3e e6 5a 54 be 30 92 53 3e
       -0.26487863 0.19312346 -0.207378 0.20661235
0000c0 f7 5e 63 3e fd 36 bf be
       0.22204195 -0.3734664

gnn.convs.1.bias f4 [50]
000000 b7 52 0e 39 23 c9 22 39 a7 ac bb b8 cb 98 ab 38
       0.00013572989 0.00015524453 -8.949014e-05 8.182375e-05
000010 97 f6 bb 37 30 f4 ec 37 2c 85 79 b8 6f 17 07 b8
       2.2406964e-05 2.8247101e-05 -5.9490252e-05 -3.2208332e-05
000020 b9 51 4d b8 50 c2 67 38 20 36 87 38 61 fa 70 b8
       -4.895192e-05 5.525566e-05 6.447383e-05 -5.7453643e-05
000030 f9 e3 f0 37 4e b7 81 b8 ac 4b cf b8 ca 38 d9 b7
       2.8716388e-05 -6.1853425e-05 -9.884624e-05 -2.589486e-05
000040 ec 4e 60 38 4c 8f 6e b8 c3 63 91 38 30 7e 86 38
       5.3479263e-05 -5.6877077e-05 6.932721e-05 6.413122e-05
000050 42 5b 94 38 fc b1 ff b8 2b fc 79 b6 b3 17 3e b8
       7.074188e-05 -0.000121925 -3.7250672e-06 -4.53216e-05
000060 8d 7f e7 37 c4 e5 cc 38 4c af 94 b8 95 f7 5e 39
       2.7596741e-05 9.770275e-05 -7.0898415e-05 0.00021263801
000070 e2 21 70 b8 d2 27 20 b9 b5 51 67 38 06 a5 b9 38
       -5.7252015e-05 -0.00015273623 5.5150787e-05 8.8522254e-05
000080 aa ad 26 b9 b5 28 27 b8 c9 ec ae b8 f9 d8 09 b8
       -0.00015895689 -3.9853814e-05 -8.341071e-05 -3.2865417e-05
000090 0d 05 24 39 19 98 17 b8 73 5d 4b b8 16 49 03 38
       0.0001564214 -3.6142857e-05 -4.8486003e-05 3.13009e-05
0000a0 ce 82 f6 38 77 ef e6 38 fe 6b d3 37 e3 f2 95 b8
       0.00011754558 0.000110118584 2.5203448e-05 -7.150115e-05
0000b0 1f 4b 02 39 8e 29 60 39 a2 b1 00 b9 0a 14 6a 38
       0.00012425751 0.00021377785 -0.00012273205 5.580861e-05
0000c0 3b 19 82 b8 c2 08 83 38
       -6.2035826e-05 6.248198e-05

gnn.convs.1.lin.weight f4 [50, 50]
000000 44 44 5d be 23 85 a3 3c 95 2d fb bc 6b 10 c1 3c
       -0.21608073 0.019960945 -0.030661384 0.023567399
000010 1d 5b c8 3c 7d 31 98 3e 38 20 9d 3d ad 3d ba bd
       0.024457509 0.29725257 0.07672161 -0.09093795
000020 a1 9c e1 bd 2f b7 72 3d 6d 02 aa bd 31 ce 76 be
       -0.11016203 0.05925673 -0.08301244 -0.24102093
000030 84 10 b6 3d be f7 f6 be 3b d9 60 3c c7 92 1e 3d
       0.08889869 -0.48235887 0.013723667 0.038714197
000040 67 a6 d2 3d ad 25 4e be 60 94 c3 3d 21 15 f8 bd
       0.10285645 -0.2013156 0.09549785 -0.12113405
000050 64 bc b9 bd 61 55 96 3e 8c 58 b6 bd d3 0d 0c be
       -0.09069136 0.29362014 -0.08903608 -0.13677149
000060 d5 c6 d2 3c ea d2 8d be 5b a9 2a 3c f3 2e 54 be
       0.025729576 -0.27699977 0.010416354 -0.20721035
000070 f6 2f e6 3c 75 c9 18 bd b1 17 6e be a1 73 37 be
       0.028099041 -0.0373015 -0.23251225 -0.17915203
000080 b6 82 4a 3e e2 ce f9 3d a2 a7 44 be 20 1c 9c 3e
       0.19776425 0.12197663 -0.19204572 0.30490208
000090 17 f2 12 3e 58 49 b5 bd 97 90 ae bc 19 67 c1 bd
       0.14350162 -0.0885188 -0.02130918 -0.094434924
0000a0 20 10 ac 3d e6 b7 49 3d 0f 3e bc 3d 25 cb aa bc
       0.08401513 0.049247645 0.09191524 -0.02084882
0000b0 a1 0d 01 bf 8f 66 3f 3c c7 b8 19 bd 8b b4 8f be
       -0.5041142 0.011682167 -0.037529733 -0.2806743
0000c0 b3 64 4f 3e a8 c7 52 be 7b 72 93 be 55 b4 19 bc
       0.20253257 -0.20583975 -0.2879828 -0.009381373
0000d0 c5 b1 54 bd fc 9a 24 bd 7f d0 52 3d c1 16 db bb
       -0.051927347 -0.040186867 0.05146837 -0.006686062
0000e0 aa b9 50 be a2 37 0d bd 96 65 c2 bd c9 69 22 be
       -0.20383325 -0.034476884 -0.09492032 -0.15860666
0000f0 56 31 07 bf dc 24 03 3e 0b d9 80 bd ad 15 c0 bc
       -0.52809656 0.1280703 -0.06291398 -0.023447836
000100 6d 3e ad 3d 18 a5 1c bd 86 50 00 be d6 04 8e 3d
       0.084591724 -0.038243383 -0.12530717 0.06934516
000110 f7 11 5e be f9 21 f9 3d 61 16 12 3c fa e8 34 be
       -0.2168654 0.12164683 0.008916468 -0.17666999
000120 cf df 79 3d 1e 2a 95 bd bf 4b a6 bd 9f bd e1 be
       0.061004456 -0.07283424 -0.08119916 -0.44089982
000130 c6 a5 08 3e a3 de 48 be 22 19 49 be 53 fd c6 3d
       0.13344488 -0.19616179 -0.19638494 0.097162865
000140 19 97 e7 be 95 67 0a bd 01 2c c1 3d 6c c5 8a 3c
       -0.45232466 -0.03379019 0.09432221 0.016939841
000150 bb 0d 9f bd bf 24 55 3d 69 24 9e bd 90 04 c1 bd
       -0.07766291 0.052036997 -0.077217884 -0.09424698
000160 89 5d 36 3e 92 7d e9 bc 9d 78 1c bf 81 38 27 bd
       0.17809118 -0.02850226 -0.6112154 -0.04082537
000170 49 27 54 be 64 e6 cf ba bc fa d6 be 23 2d 1b be
       -0.20718111 -0.0015861508 -0.4198817 -0.15153937
000180 4d 3b d6 bd 49 09 dc 3d a2 56 c8 bd 55 a6 ef bc
       -0.104605295 0.107439585 -0.09782149 -0.029254118
000190 a2 e0 c9 3d 23 17 ab be 42 41 bc bb 70 24 9a be
       0.098572984 -0.3341609 -0.005745084 -0.30105925
0001a0 82 f1 af bc 10 97 67 be 95 fc 0e be 99 fb 10 3e
       -0.021477465 -0.2261622 -0.1396354 0.14158477
0001b0 aa f1 7a be 6f 91 12 bc 5e 27 14 3e 8d 0e a3 bc
       -0.2450625 -0.008945807 0.14468142 -0.0199044
0001c0 79 d8 1c 3e a7 fa 2d bc bc b3 68 bd 25 4f 12 bd
       0.15316953 -0.010618842 -0.056812033 -0.03572001
0001d0 2b 2b a5 bd 13 8b 17 be 2d 9d 1a 3d e1 27 34 3e
       -0.08064874 -0.14799146 0.03774755 0.17593338
0001e0 ca da 84 bd 9b f7 45 3d 11 f4 74 be 0d 10 3f 3d
       -0.06487043 0.048331838 -0.23921229 0.046646167
0001f0 9c 3a 97 be 8e e4 4d bd 74 14 f6 3c 19 e4 ee bc
       -0.29536903 -0.050266795 0.03003905 -0.0291615
000200 19 5d 92 3d ee 7f 41 bd 10 19 9b bd 1c e2 50 be
       0.07146663 -0.047241144 -0.0757314 -0.20398754
000210 8d 4d da be e4 c1 c6 bd 3a 36 fd 3c 95 c1 b4 bd
       -0.42637292 -0.097049505 0.030909646 -0.08825985
000220 4f 67 87 bd 94 47 9a bd a0 71 71 3e de 6a 62 3e
       -0.066115014 -0.07533184 0.23578501 0.22111079
000230 e7 97 e3 bc 7a 67 37 be f2 89 77 bc 7b 90 c1 be
       -0.027782394 -0.17910567 -0.015108572 -0.37805542
000240 e8 4a 84 3e 8e 88 01 3e 60 af 20 be 59 6b e6 3d
       0.258384 0.12649748 -0.156919 0.11250944
000250 9d 3a ae 3d 34 e2 f0 3d 79 5e 02 be 43 ae 62 bb
       0.08507273 0.11761895 -0.12731351 -0.0034588731
000260 bd a2 01 be fc d1 2e be 22 7b a7 3e 5b 89 57 3d
       -0.12659736 -0.1707229 0.3271113 0.052621227
000270 b6 2d 9d 3d b8 ed 9c 3d ec ad 58 3d 08 61 3b bd
       0.07674734 0.07662529 0.05290024 -0.045746833
000280 21 73 ff bc d2 02 9b 3d 89 68 89 be f9 21 fa be
       -0.031182827 0.07568897 -0.26837566 -0.48854044
000290 a0 5a 68 3d 06 9b 61 bd 99 76 c2 3d fd 8a 92 bd
       0.05672705 -0.055079482 0.09495277 -0.07155416
0002a0 5e b0 71 be 11 da 5d 3e 2f cd 4c 3d 93 61 b0 3d
       -0.23602435 0.21665217 0.050000366 0.08612361
0002b0 85 8c b3 bd b9 2b 93 bd 95 0f ee 3c 80 4c 4d be
       -0.08767036 -0.07186074 0.029060164 -0.20048714
0002c0 ec 0e 4f be 62 a4 f8 be fb 03 3f 3d 25 71 f6 3d
       -0.20220536 -0.48562914 0.046634655 0.12033299
0002d0 29 92 e3 be 35 eb d5 bc 97 36 36 be 69 ed c2 bd
       -0.4444745 -0.026113132 -0.17794262 -0.09517939
0002e0 a3 9c 4e be 28 3b fa bd 4e d9 d5 bd 04 27 e5 3d
       -0.2017694 -0.122183144 -0.10441838 0.11189082
0002f0 f7 73 1c be 5d 9b 71 be ef b0 96 3d 32 7b a2 bd
       -0.15278612 -0.23594423 0.07357966 -0.07933654
000300 97 4d a6 3a c0 16 e9 bd e3 fd 1a 3e 60 a8 f7 bd
       0.0012687918 -0.11381292 0.15135913 -0.12092662
000310 8e 13 8c bd 95 ed ec bd 5e 62 99 3d 13 2a 0b bf
       -0.06839667 -0.11568753 0.07489465 -0.54361075
000320 91 5c 1d 3d e7 bd d1 bd b1 c0 31 3e e2 e7 2e bd
       0.038418356 -0.10241299 0.17358662 -0.04270161
000330 2a a7 cc 3d 28 f1 c0 bd 55 15 1b be 05 23 00 be
       0.099928215 -0.09420997 -0.15144856 -0.12513359
000340 34 49 90 3d ea 18 e5 3d a0 87 bc 3d cb 9c 9f bc
       0.070452124 0.111863926 0.09205556 -0.019483944
000350 f9 b6 b7 bd 28 9b d8 bc 77 f1 ef 3d a6 0b 8f 3e
       -0.08970446 -0.026441172 0.11715978 0.27938575
000360 be b3 51 be a1 08 f3 3d e8 f5 4b 3e 12 9f b2 bd
       -0.20478722 0.1186688 0.19918025 -0.087217465
000370 d8 cc b2 be 88 60 3f bd e4 35 86 be 1c 5e a3 bc
       -0.34921908 -0.04672292 -0.2621299 -0.019942336
000380 1e a2 8f be 3f cb 99 be 9a b6 0b 3e 22 02 33 3c
       -0.28053373 -0.30037877 0.13643876 0.0109258015
000390 c1 5b eb be 24 bd 81 be d8 57 02 3d fb a5 ed bb
       -0.4596844 -0.25339615 0.031822056 -0.0072524524
0003a0 2c 3e 9f bd ff b7 e2 bc 03 f0 58 be 5e 50 db 3d
       -0.0777553 -0.027675627 -0.21185307 0.10708688
0003b0 ea 5d ee bd 80 0d a1 bd 11 2a 95 3d 11 4e 7e bc
       -0.116390064 -0.07863903 0.07283414 -0.015521542
0003c0 7a 41 ab be 59 29 00 be d7 06 5f 3d d3 fa c2 bc
       -0.33448392 -0.12515773 0.054449882 -0.023801243
0003d0 25 44 f0 3d 54 15 e3 bd 0f f9 1d be 59 ce 2a 3e
       0.117317475 -0.110880524 -0.1542704 0.16680278
0003e0 69 c9 be be de 67 58 3d 1c 74 0e bc 53 c2 1e 3d
       -0.3726304 0.05283343 -0.008694675 0.03875954
0003f0 b9 53 d4 bc a7 3e af 3d 17 0e 47 bc 8d c2 84 bd
       -0.025918828 0.08556872 -0.012149355 -0.0648242

gnn.convs.1.lin_edge.weight f4 [50, 1]
000000 03 06 7d be f6 bd ce bd cf 69 3d b3 e7 c9 3a be
       -0.24709325 -0.10094826 -4.4101224e-08 -0.18241082
000010 75 f1 77 3e 90 14 ca be b6 75 d4 3e e9 30 03 bf
       0.24213202 -0.39468813 0.41496056 -0.51246506
000020 0c a5 6a 3e 83 02 ae 3e e7 18 8c 3e 64 08 0e bf
       0.22914523 0.3398629 0.2736275 -0.55481553
000030 19 20 f8 be aa 53 ea 3e 2b 01 c4 be 29 7c c2 3e
       -0.4846199 0.45766956 -0.3828214 0.37985352
000040 a6 0e f8 be 6f 67 e1 be f4 7f 21 ad 49 0a db 3e
       -0.48448676 -0.44024226 -9.180202e-12 0.42781284
000050 de 3c 07 3f 0e 57 79 be d8 45 50 be c6 bf 9e be
       0.5282725 -0.24349615 -0.20339143 -0.31005687
000060 66 eb b8 3e 21 f7 d4 3e ce ae f7 3e 5e 16 65 be
       0.36117095 0.41594794 0.48375553 -0.22371814
000070 af 26 80 3e ef 18 fb be 45 1d 0e 3f 59 0a de 3e
       0.25029513 -0.4904246 0.5551341 0.4336727
000080 51 32 bb be b6 ab 03 bf 1d 66 76 3e 8b df 63 be
       -0.36561826 -0.51433885 0.2406239 -0.22253244
000090 42 4b 05 bf 6c 72 4f be 13 91 c8 be ce b3 2f be
       -0.5206796 -0.20258492 -0.39173183 -0.17158434
0000a0 e1 0a 6f 3e 0b ef 68 be 47 d4 c2 3e 78 08 d2 be
       0.23343994 -0.22747438 0.3805258 -0.41022086
0000b0 32 9e 87 be 3e c2 45 3e f0 5a 54 be 37 92 53 3e
       -0.2648788 0.19312379 -0.20737815 0.20661245
0000c0 12 5f 63 3e 0b 37 bf be
       0.22204235 -0.37346682

gnn.convs.2.att_src f4 [1, 1, 50]
000000 e2 98 27 3e 0c f8 8b 3c 4e 32 93 bb 1b 98 46 3e
       0.16366914 0.017086051 -0.004492081 0.19393961
000010 f0 ba df bb f8 72 53 3c 60 9b 47 3e a9 10 45 3b
       -0.0068277046 0.012905829 0.19492865 0.0030069745
000020 54 62 a9 be 28 89 26 3c c9 05 94 bc 3a c0 5c be
       -0.3308283 0.010164537 -0.018069165 -0.21557704
000030 38 ef 2b 3c b4 21 42 bc 4d d6 c8 3b fc 0e 18 3c
       0.010494046 -0.011848856 0.0061290623 0.009280916
000040 78 2d 57 be 8e 5d a7 bd 19 23 32 3e 4c 63 b1 3d
       -0.21013439 -0.08172141 0.17396201 0.086615175
000050 f1 bd 5e bd e8 9a b2 bd 06 43 40 be b5 06 ed bc
       -0.05438036 -0.08720952 -0.18775567 -0.028933862
000060 30 61 2e bd 07 3a ac bd 85 6a c8 bd 49 9e a2 3e
       -0.042573154 -0.08409505 -0.09785942 0.31761387
000070 b7 4e 8f 3b 4b 53 ae be 21 06 b2 bd 3f a6 89 bd
       0.004373397 -0.34047922 -0.08692575 -0.06721162
000080 44 c0 b2 3b 30 38 4d be ce 1b d8 bd 02 a4 03 3e
       0.0054550488 -0.20040965 -0.10552178 0.12855533
000090 c0 65 66 bc c7 4b eb 3d 09 cd 90 3c 80 09 ec bc
       -0.014062345 0.11489063 0.017675893 -0.028813124
0000a0 82 83 66 3b d7 a5 29 3e 33 0d 47 3e 9f 25 55 3e
       0.00351736 0.16567169 0.19438629 0.20815133
0000b0 ac 2a 54 3d 0a aa aa 3e 93 12 96 bd ed 0a 34 bd
       0.051798508 0.33332855 -0.073277615 -0.043955732
0000c0 07 99 03 3c 7a 30 2c be
       0.00803209 -0.16815367

gnn.convs.2.att_dst f4 [1, 1, 50]
000000 93 66 64 3d dc 6d 44 3e 56 2e c9 bd d9 a5 f1 bb
       0.055761885 0.19182533 -0.09823291 -0.007374507
000010 83 10 d2 3d 4f 46 68 3d 14 d3 04 be f4 aa 42 3d
       0.102570556 0.056707677 -0.12971145 0.047526315
000020 cd 38 c6 bc 7e 0a b5 3c a8 81 56 bd 30 50 ba 3d
       -0.024197007 0.02209973 -0.052369744 0.09097326
000030 25 fb bb 3d 69 52 b0 bd 1a 00 06 bd 95 0a 2e 3c
       0.091787614 -0.086094685 -0.03271494 0.01062264
000040 ef f4 0d 3e 77 7a 02 3d 39 da 3a be 51 df 48 be
       0.13862966 0.031855073 -0.18247308 -0.19616438
000050 fb 30 a4 3d e2 d9 b1 3d 0b 0e 3c 3e 0c ef 0b bc
       0.08017155 0.08684136 0.18364732 -0.00854088
000060 51 c6 11 3d 4b 79 1f be 88 4c c2 bd ad bf 8c bd
       0.03558952 -0.15573613 -0.094872534 -0.06872497
000070 b1 89 a4 bd 18 c4 41 be f4 20 c6 3d fc 6b 11 3c
       -0.08034075 -0.1892246 0.09674254 0.008875843
000080 0a e9 cf bd 6f 2e 18 3e 16 1a b6 bd 5b 53 1f 3e
       -0.101518705 0.14861463 -0.08891694 0.15559141
000090 5c 56 61 bc a4 cb 43 3d d2 1e a1 bd 49 0c 6d 3d
       -0.0137535 0.04780163 -0.07867207 0.057873044
0000a0 84 85 04 bd 3f 48 8a bd c3 b4 5e be ba 78 be bd
       -0.032353893 -0.06752061 -0.21748643 -0.093003705
0000b0 6d 59 8d 3d d5 64 17 be 5b fd f6 3d 1b 76 1d 3d
       0.06901822 -0.14784558 0.120600425 0.038442712
0000c0 d8 5c 86 bd 38 b7 24 3e
       -0.06560677 0.16085517

gnn.convs.2.att_edge f4 [1, 1, 50]
000000 6a 4f 97 35 8a cd 44 27 12 a9 24 83 0f 07 37 03
       1.1273489e-06 2.7311887e-15 -4.838935e-37 5.378697e-37
000010 de a0 c6 1c c6 a6 76 20 92 75 ea b0 43 b2 cc a2
       1.3144124e-21 2.0892191e-19 -1.7059156e-09 -5.5483053e-18
000020 1b af 02 00 7d da b1 20 d9 b1 0e 91 06 30 fd b1
       2.46487e-40 3.012955e-19 -1.1256628e-28 -7.3687287e-09
000030 93 37 7b 2d 0b 7b 40 33 c3 fc 0b b6 8d 11 e0 02
       1.4280038e-11 4.481539e-08 -2.085974e-06 3.2923915e-37
000040 13 43 14 84 0e 8c 9d 1d a9 2a 13 03 26 72 9f 03
       -1.7428115e-36 4.1702367e-21 4.324839e-37 9.371387e-37
000050 06 16 36 02 8b 31 bc 34 7c 13 55 19 90 43 00 02
       1.3377569e-37 3.5053776e-07 1.1015777e-23 9.423344e-38
000060 e5 e2 28 8b ee 8a fb 8c 4d 78 53 2d 86 c5 00 1c
       -3.252632e-32 -3.8756289e-31 1.20206735e-11 4.260694e-22
000070 fd c9 99 30 53 38 cd 32 d5 d4 04 a2 86 e1 a3 39
       1.1189624e-09 2.3890754e-08 -1.8002008e-18 0.0003125781
000080 6c 84 a8 a4 cd b9 12 24 bc 53 11 82 fd f1 03 80
       -7.308272e-17 3.1816083e-17 -1.0676948e-37 -3.62316e-40
000090 e8 d2 59 35 3a d9 69 81 c6 d3 05 36 46 ff 3f ad
       8.114571e-07 -4.2951194e-38 1.9941813e-06 -1.0913775e-11
0000a0 2f f2 10 26 7c d6 a2 32 6a 10 01 b0 83 9c c1 9d
       5.0288256e-16 1.8956818e-08 -4.695325e-10 -5.1248504e-21
0000b0 f0 15 1c ba 39 f3 d5 32 32 b2 22 31 4b 32 13 16
       -0.00059541967 2.4907068e-08 2.3675395e-09 1.1890435e-25
0000c0 4e 49 be b3 d3 6e 6b af
       -8.8608985e-08 -2.1412498e-10

gnn.convs.2.bias f4 [50]
000000 09 47 3b 38 b9 8d 2d 38 ac c3 91 37 b8 a0 6d b6
       4.465043e-05 4.1378404e-05 1.7376464e-05 -3.5409303e-06
000010 3f 6d aa 38 55 bf 82 b6 5d 2c 82 37 4e 73 40 b7
       8.12658e-05 -3.896576e-06 1.5517866e-05 -1.1470938e-05
000020 c7 94 01 b5 54 ef cc 32 40 ca c2 37 f9 85 aa 38
       -4.8272744e-07 2.385756e-08 2.3220782e-05 8.131186e-05
000030 f1 2a 41 35 7b 19 11 b6 de b7 a4 b6 ef e3 d9 b6
       7.196059e-07 -2.1621515e-06 -4.908986e-06 -6.493639e-06
000040 34 a0 7f b8 7e 5d 58 35 80 40 34 b6 a9 71 53 38
       -6.094594e-05 8.060232e-07 -2.6859634e-06 5.0412174e-05
000050 48 69 cd b7 09 32 9d b4 3b 57 0f b4 c3 fd 5c b5
       -2.448693e-05 -2.9279934e-07 -1.3349647e-07 -8.232566e-07
000060 62 46 16 38 36 4c a0 34 b0 8f 99 b8 db 89 42 32
       3.5828336e-05 2.9857773e-07 -7.3223724e-05 1.1323631e-08
000070 73 98 80 b5 39 87 99 32 20 69 a1 b4 5a cd 46 b8
       -9.581112e-07 1.7873036e-08 -3.0065075e-07 -4.7398127e-05
000080 71 11 b4 36 cf 79 06 b5 a4 0b 97 b7 54 7c 79 36
       5.3664485e-06 -5.0096145e-07 -1.8006023e-05 3.717626e-06
000090 5c 39 2e b5 bc 6f 09 34 e0 66 0f b4 01 33 09 34
       -6.490352e-07 1.2799768e-07 -1.3355339e-07 1.2777674e-07
0000a0 90 7c e4 37 c9 33 b0 34 52 77 1a 34 c7 03 84 b6
       2.7237722e-05 3.2820233e-07 1.4385776e-07 -3.9343463e-06
0000b0 bd 3f 9f b5 c7 68 a6 34 f3 38 33 b7 33 b9 37 b8
       -1.1864973e-06 3.0996145e-07 -1.0682491e-05 -4.380308e-05
0000c0 a2 b4 ae 35 cb 7b f9 33
       1.3016581e-06 1.1617484e-07

gnn.convs.2.lin.weight f4 [50, 50]
000000 1a 55 21 3e 66 44 f4 bb a0 62 02 be 8e 73 bf 3d
       0.1575512 -0.007454443 -0.12732935 0.09348212
000010 be 03 58 bd 48 34 12 3e 27 5b b9 3d 7f 81 1b 3e
       -0.052737944 0.14277756 0.09050589 0.15186118
000020 b7 d0 74 be a2 5c 15 3c ac f7 7f bd 52 c6 76 be
       -0.23907743 0.009116324 -0.062492058 -0.2409909
000030 95 3c 6f 3e 8a 20 d2 bd 7f 6d e9 3d 3b ca a2 3e
       0.23362954 -0.102601126 0.11397838 0.31794915
000040 e1 f6 4e 3d aa 9a 19 be e7 38 87 3e af 19 84 be
       0.05052841 -0.15000406 0.264106 -0.25800845
000050 a9 76 20 3d 2f a4 38 3c 51 fc 10 3f d9 16 87 3e
       0.039175663 0.011269613 0.56635004 0.2638462
000060 e9 c7 72 be 3d 4f 04 3d c5 b9 0a be d7 84 9e 3d
       -0.23709072 0.03230213 -0.13547428 0.07740181
000070 ab 62 bb bd 59 0e 1f 3e ad 42 89 bd 66 aa 30 3d
       -0.09149679 0.15532817 -0.067021705 0.043131255
000080 c4 87 9f bd 40 bc 29 3e 4a d6 b8 be 97 e3 ad be
       -0.07789567 0.16575718 -0.3610099 -0.339627
000090 34 5e f4 be 33 fe 96 3d 25 73 aa bc 0f 83 1d be
       -0.4772812 0.073727034 -0.020806858 -0.15382026
0000a0 03 f9 73 bd 3c 47 a5 bc a0 5d f0 bd a3 d1 7e bd
       -0.059563648 -0.020175569 -0.117366076 -0.062211644
0000b0 df 9c 59 bd c9 e0 ed bb c0 e6 f3 3d ef 15 bd bd
       -0.05312812 -0.0072594625 0.119092464 -0.09232699
0000c0 1b 5d 84 bd 00 e5 43 3e 84 42 27 3d 0f 90 7d 3c
       -0.06463071 0.19130325 0.04083492 0.015476241
0000d0 39 25 9a 3e fc 28 49 3c 5a 07 0f 3e 5e 33 3b be
       0.30106524 0.012277838 0.13967648 -0.18281314
0000e0 82 bf 14 3e 26 64 9d bd 6d a4 56 bd 1a 85 ff 3d
       0.1452618 -0.076851174 -0.052402902 0.12476559
0000f0 ad 09 71 3d d5 f4 9f bd 96 31 36 bd d0 66 d2 3e
       0.05884712 -0.0781037 -0.044480883 0.41094065
000100 3a 41 5c bd aa 1e e6 ba 1c fd 53 3e 2c 86 cf 3d
       -0.053773142 -0.0017556746 0.20702022 0.10133013
000110 b6 09 8e 3e 69 ed 96 3d 18 cf 02 be 09 e6 8d 3e
       0.27741784 0.07369501 -0.12774312 0.27714565
000120 fa 86 4d bd ac 8f 59 bd cf df 08 bd 4a 02 35 be
       -0.05017755 -0.05311553 -0.033416566 -0.17676654
000130 c9 4f e0 bc 34 0a 1f be 88 91 29 be 6b 1c 53 bd
       -0.027381795 -0.15531236 -0.16559422 -0.051540773
000140 e3 35 17 be 15 dd 2b be 00 fb 40 3e b1 ab bd bd
       -0.1476665 -0.16783555 0.18845749 -0.09261263
000150 65 45 8f bd 97 78 c7 bd 05 8f ed bc 56 0b 32 be
       -0.06995658 -0.097397976 -0.028998861 -0.17387137
000160 85 d9 7b 3e a0 e9 90 bc a0 61 f0 bc 4a 71 14 3e
       0.24594696 -0.017689526 -0.029343426 0.14496341
000170 4e 46 c2 3d 5e e7 bc 3b 3e 5b d1 3d 7e a1 02 be
       0.09486066 0.005764886 0.10222481 -0.12756917
000180 81 c7 9d bc a9 0a 0a bd 77 24 3e be ed 67 85 be
       -0.01926017 -0.033701573 -0.18568598 -0.26055852
000190 34 ff a6 bd cd bd a6 bd 09 1d d2 bd 46 0c 39 be
       -0.08154145 -0.081416704 -0.10259444 -0.18071088
0001a0 64 66 ec 3d db 16 99 3e 1f b7 ff b9 40 9d 76 bc
       0.11542967 0.2990025 -0.00048773826 -0.01505214
0001b0 62 e0 12 bd 3e 7c 9d 3d 4c d8 a2 3c c5 2c 83 3e
       -0.03585852 0.07689713 0.019878529 0.25620094
0001c0 a0 ab 35 be 41 94 64 bd c6 f0 67 be c4 29 f0 bc
       -0.17741251 -0.05580545 -0.22650442 -0.02931679
0001d0 16 a8 28 be 76 d9 8b be c0 13 2c be b3 ef a1 3e
       -0.1647037 -0.27314347 -0.16804409 0.31628188
0001e0 14 a8 c3 3b 8f e6 86 bd bd 51 26 bd 99 27 63 3e
       0.005970964 -0.06586944 -0.040605295 0.22183074
0001f0 89 72 a9 bd 23 61 7b 3e 24 c5 71 be 54 3d 85 bc
       -0.08273799 0.24548773 -0.2361036 -0.016264595
000200 ae d6 7a 3e 95 72 78 3d db 1e 1d bd 74 38 b0 bd
       0.24495956 0.06065615 -0.038359504 -0.086045176
000210 9b 02 b1 be e1 fe 57 bc 95 49 1d 3e 51 0a 6b be
       -0.345723 -0.013183326 0.153601 -0.22953154
000220 66 b0 fe bb f7 00 11 3e 01 a5 21 be 35 52 c4 3d
       -0.007772493 0.14160524 -0.157856 0.09585992
000230 bf 87 cb bc d2 a4 d9 bd ee 57 b4 3e 8a 3e dc 3c
       -0.024845002 -0.1062714 0.35223335 0.02688529
000240 2b 49 4f be 5b 48 b6 3c ef d5 88 3d eb d1 17 3e
       -0.20242755 0.022251299 0.066814296 0.14826171
000250 c0 d6 2b 3e 09 b9 9d 3d ed f8 84 bd e6 69 b7 bc
       0.1678114 0.07701308 -0.06492791 -0.022389363
000260 04 84 c0 3d 0f bd 1f be 3e 03 d4 3d e7 2b 29 3d
       0.0940018 -0.15599464 0.10352181 0.041301634
000270 93 a7 53 bd b3 7b d8 bd 93 06 f9 bc 7e 26 89 bd
       -0.051673483 -0.10570469 -0.030398643 -0.06696795
000280 8a 70 18 bd 1e 2c 2b bd 2d af 82 be c6 7a 71 3d
       -0.0372167 -0.04179012 -0.25524274 0.058954976
000290 97 33 93 3b d8 bd 8a bd 53 6d 17 bb a8 94 f5 3c
       0.004492234 -0.06774491 -0.0023105934 0.029978111
0002a0 3d 79 59 3d 5a 2c e4 3b dc 10 1f 3d 18 6e ab bd
       0.053094137 0.006963295 0.038834438 -0.08370608
0002b0 6d dc 2d bd bd 5f c7 3d 8a 1c 69 bd 55 b0 62 bd
       -0.042446543 0.097350575 -0.056911983 -0.055343945
0002c0 13 31 c8 bc da 19 83 bc c1 3b b3 3d e0 3e 92 bc
       -0.024437463 -0.016003538 0.087516315 -0.017852247
0002d0 e8 0f c5 3b ed 73 f8 3c 24 27 7e bd ba 83 d0 bc
       0.006013859 0.030328715 -0.062049046 -0.025453437
0002e0 cb f0 be bd 52 69 cd bd 0b 2f b1 bd 24 1e a9 3c
       -0.09323271 -0.10029854 -0.08651551 0.020644255
0002f0 a6 9a c9 bc 96 4f 1c 3d b5 99 9b 3d 52 70 32 3d
       -0.024609875 0.038161837 0.07597677 0.04356415
000300 14 97 0a 3e c0 b9 c8 3d 01 85 ea bd d5 f7 19 bc
       0.13534194 0.09801054 -0.1145115 -0.009397467
000310 b5 b4 46 bc b2 8e f7 3d 99 33 e3 bd 0c 88 4f 3d
       -0.012128045 0.12087764 -0.11093826 0.050666854
000320 32 f8 64 3c b8 36 ee bd f6 4d 2e 3e 3b e5 44 3e
       0.01397519 -0.116315305 0.17021927 0.1922807
000330 1d 5e 00 3d 64 df 89 3e 4a 6e 8e be 65 86 ae be
       0.031339753 0.26928246 -0.2781852 -0.3408691
000340 bd 49 17 bd ae 79 d7 bd cf f3 db bd 6e 1e 0b 3e
       -0.036935557 -0.105212554 -0.10739862 0.13585827
000350 88 90 82 3e 1d 7a 87 3d be 39 3f bd 99 d3 e7 bd
       0.25500894 0.06615088 -0.046685927 -0.11319656
000360 6a ac 87 bd 5d b9 a2 3e f6 02 1f 3e 32 7a 8a 3c
       -0.06624682 0.31782046 0.15528473 0.01690397
000370 5b 1a 35 be 1a fb 73 3e d6 82 4d bd 50 99 ad 3d
       -0.17685835 0.23826256 -0.050173603 0.08476508
000380 41 d0 1a bd 1f 0a e1 3d bb e2 9e be c4 e6 37 3e
       -0.037796263 0.109882586 -0.31032357 0.17959124
000390 8b 3b 89 3d 5f 24 45 bd 8d 64 35 3e 86 b3 3a be
       0.0670081 -0.04813039 0.17714138 -0.18232545
0003a0 25 35 1d be fa 6c 15 bd 27 be cb 3e b7 46 e4 3e
       -0.15352304 -0.03648088 0.39793512 0.445852
0003b0 a5 c3 85 3c 0f e2 12 3c cc 96 99 bd ff 9a f5 3d
       0.016328642 0.008965029 -0.07499465 0.11992454
0003c0 3e c7 b5 bd 7c 22 2c bd b4 b0 23 be e2 13 5a be
       -0.08875893 -0.042025074 -0.15985376 -0.21296647
0003d0 a5 36 9c be 31 81 5b 3e ea 33 b1 bd e5 86 db bd
       -0.3051044 0.21436001 -0.0865248 -0.107190885
0003e0 51 95 10 be 50 9c ef 3d d8 0e be bd f0 2f 16 3c
       -0.1411946 0.11699736 -0.09280175 0.009166703
0003f0 5a 38 3f 3d 85 b7 e9 bd 6f ff a9 3d b5 4b 92 3c
       0.0466846 -0.11411957 0.08300673 0.017858366

gnn.convs.2.lin_edge.weight f4 [50, 1]
000000 0a 54 35 b4 39 98 83 28 e2 48 29 83 4a 01 37 03
       -1.6887512e-07 1.4609938e-14 -4.97483e-37 5.3780346e-37
000010 e5 78 c8 1c 51 a6 76 20 37 89 6b b0 dd 30 d3 a2
       1.326614e-21 2.089204e-19 -8.5687496e-10 -5.72434e-18
000020 08 87 00 00 7c e5 91 a0 08 51 60 11 61 29 fd b1
       4.844e-41 -2.4715815e-19 1.7695454e-28 -7.3679733e-09
000030 30 2e 22 2d 8f 58 41 b3 ed fd 0b b6 39 ed 01 03
       9.2188895e-12 -4.5016858e-08 -2.0860418e-06 3.818201e-37
000040 0c 2b 15 84 d1 3d 9d 1d b7 a0 15 03 bc b4 a3 03
       -1.7534632e-36 4.162147e-21 4.3971656e-37 9.6217735e-37
000050 f9 ee 30 02 df 07 bc 34 5c 9e ab 1a 70 eb 11 02
       1.299902e-37 3.5023456e-07 7.0979786e-23 1.0720485e-37
000060 bf 1e 26 8b 59 52 fd 8c 34 46 a8 2d 1e b3 00 1c
       -3.1993568e-32 -3.9030383e-31 1.9130565e-11 4.258315e-22
000070 99 7e 92 b0 40 26 cd 32 4d 56 05 a2 e6 e0 a3 39
       -1.0658879e-09 2.3882535e-08 -1.8070548e-18 0.00031257345
000080 0c 7d a8 a4 1e 53 2d 24 33 39 04 82 f4 95 06 00
       -7.3070224e-17 3.7583798e-17 -9.714244e-38 6.04806e-40
000090 19 5e 5b 35 a9 f6 70 81 3e d5 05 36 1c 00 40 ad
       8.172079e-07 -4.4258008e-38 1.9942668e-06 -1.0913961e-11
0000a0 40 10 0d 26 4f 06 a3 32 3f 1b 01 b0 be f8 d5 1d
       4.8941225e-16 1.8978566e-08 -4.6968646e-10 5.6637824e-21
0000b0 1d 17 1c ba 40 86 d3 32 e9 10 20 b1 47 35 13 16
       -0.0005954372 2.4624683e-08 -2.3292677e-09 1.1891377e-25
0000c0 b0 f4 c0 33 98 89 71 af
       8.985205e-08 -2.1967705e-10

gnn.batch_norms.0.weight f4 [50]
000000 55 ff 20 3f b0 98 0d 3f ce 7f 55 3f 7c 16 1d 3f
       0.62889606 0.5531111 0.8339814 0.61362433
000010 ee 9e 0a 3f 56 c8 42 3f bc ab 0b 3f 0a 69 49 3f
       0.5414876 0.7608694 0.5455892 0.786759
000020 fa 50 4b 3f 69 33 27 3f 7b 49 45 3f a2 a0 36 3f
       0.79420435 0.6531282 0.7706525 0.71338856
000030 6b dd 27 3f 5b 08 39 3f 82 c0 5d 3f 32 6f 1b 3f
       0.6557223 0.72278374 0.8662187 0.60716546
000040 b4 57 06 3f 59 54 3d 3f 53 3d 1b 3f eb 96 01 3f
       0.52477574 0.7395683 0.6064045 0.5062091
000050 c4 66 53 3f 7f 44 01 3f 84 d3 22 3f b9 71 0e 3f
       0.8257868 0.5049514 0.63604 0.55642277
000060 c3 c3 1b 3f 3b ca 2d 3f ef 7b 3c 3f 74 2d 4b 3f
       0.60845584 0.67886704 0.7362661 0.7936623
000070 0c 53 41 3f 98 8e 34 3f 19 f5 50 3f 2e ef 0a 3f
       0.75517344 0.7053008 0.8162399 0.5427121
000080 fc 2f 2e 3f 9b 6e 4c 3f 3a 15 49 3f dd 26 2a 3f
       0.6804197 0.7985627 0.78548014 0.6646555
000090 d2 40 30 3f 23 5a 05 3f cb 73 28 3f 98 18 37 3f
       0.6884891 0.5209066 0.65801686 0.715219
0000a0 5d ee 06 3f 90 af 53 3f 88 66 34 3f 29 d6 24 3f
       0.52707464 0.8268976 0.7046895 0.6438928
0000b0 5a cf 35 3f 30 27 0f 3f c9 ed 37 3f e1 ee 0c 3f
       0.7101952 0.5591917 0.71847206 0.55052
0000c0 c4 c7 0d 3f 62 4e 44 3f
       0.55382943 0.766821

gnn.batch_norms.0.bias f4 [50]
000000 d2 ea 93 3d b9 00 83 bd 4f 35 e6 bd 29 f3 b3 bd
       0.07222523 -0.06396622 -0.112406366 -0.087866135
000010 cf 44 b1 be fc 7a 6e be bb cc e8 be 75 45 83 bd
       -0.3462281 -0.23289102 -0.45468697 -0.06409732
000020 39 09 6a be cc 8d 3b be 5f 3f c2 be 1f 58 e5 bc
       -0.2285508 -0.1831581 -0.37938973 -0.027996121
000030 e1 2a 06 be 12 54 e7 bd 85 fa b1 be ff f7 81 bc
       -0.13102295 -0.11295332 -0.34761444 -0.015865324
000040 c9 de 94 be cf 6e 85 be 6d 8c 39 be bb 64 96 be
       -0.29076222 -0.26061103 -0.18119974 -0.29373726
000050 c1 e6 fd bd 52 47 bb be bd df 1a be 39 8e 80 be
       -0.123975284 -0.3657785 -0.15124412 -0.25108507
000060 14 e2 31 be 26 48 05 be f1 80 7a be f5 2b 54 be
       -0.17371398 -0.13015804 -0.2446325 -0.20719893
000070 aa 93 94 be ea 74 51 be 64 a9 7e be 64 c9 3f be
       -0.2901891 -0.20454755 -0.24869305 -0.18729168
000080 0d 66 52 be 70 61 23 be 45 c3 fe be 10 9a 8f be
       -0.20546742 -0.15955138 -0.49758354 -0.28047228
000090 ad d4 aa be ef 96 4f be 03 b8 25 be 62 a9 f4 bd
       -0.33365384 -0.2027242 -0.16183476 -0.1194637
0000a0 1d 2f 04 be 1d c0 45 be 5c 2c b2 be da 44 46 be
       -0.12908597 -0.19311567 -0.3479947 -0.19362202
0000b0 64 88 43 be 34 11 9f be 1d bc 30 be 60 69 0f 3c
       -0.19094998 -0.31067812 -0.1725926 0.008753151
0000c0 51 69 4a be ef a4 1e be
       -0.19766738 -0.15492605

gnn.batch_norms.0.running_mean f4 [50]
000000 53 c7 de ba 46 7a a0 ba fc 2c 64 3b 49 af 1c b8
       -0.0016996659 -0.0012243472 0.0034816852 -3.7356545e-05
000010 e5 84 eb bb ad 41 78 bb 63 cf 95 bc 9e c3 37 ba
       -0.007187473 -0.0037880943 -0.018287366 -0.0007010045
000020 d4 72 19 bb 6e 9f 1c bb 95 77 35 b9 1d 9a 3c bb
       -0.002341439 -0.0023898738 -0.00017306053 -0.0028778382
000030 85 40 83 bb 9d 0c 93 bb 26 f9 86 3b 44 e7 38 b9
       -0.004005494 -0.0044875876 0.0041190563 -0.0001763376
000040 fe e1 8d bc bc 0a f9 37 8e 9d 06 bb 0a f5 95 bb
       -0.017319676 2.9688112e-05 -0.0020540687 -0.00457633
000050 02 9f bb ba 00 4c 43 ba 1b 41 2e bb 8a 70 c3 bb
       -0.0014314356 -0.00074499846 -0.00265891 -0.0059643434
000060 58 12 ca ba 68 a6 8e 3b 3b 43 6e bb d2 a0 a7 b9
       -0.0015416844 0.0043533333 -0.003635599 -0.00031972543
000070 ee 56 1f 3b 41 5b 7b b8 0e ac 8c bb a6 a3 92 bb
       0.0024313289 -5.992805e-05 -0.0042929715 -0.004475075
000080 c8 0b a8 ba 09 0b 9d ba 46 2e f2 bb 4e 1b d6 ba
       -0.0012820894 -0.0011981438 -0.00739077 -0.0016335042
000090 c6 6c 98 ba 95 18 9c 3d cf 47 c1 3b 8e a7 fb 3a
       -0.0011629097 0.07621876 0.005898453 0.0019199715
0000a0 74 c3 f0 bb cf 17 5b bb 09 ab ed bb d0 02 16 bb
       -0.0073475186 -0.003343094 -0.007253055 -0.002288986
0000b0 8e 13 1c ba 14 e8 ed ba 6d 58 14 bb 65 6b 20 ba
       -0.00059538416 -0.001815083 -0.0022635714 -0.00061195187
0000c0 2c ee 07 bb ae c4 44 38
       -0.0020741327 4.6913214e-05

gnn.batch_norms.0.running_var f4 [50]
000000 b0 d4 ba 36 51 3b 21 37 70 e3 ec 37 2b 2e 57 37
       5.567992e-06 9.6101585e-06 2.8239301e-05 1.2825748e-05
000010 a2 bf 0f 38 1d 0f 06 38 61 f8 c0 37 96 37 19 37
       3.427233e-05 3.1962165e-05 2.3003844e-05 9.132453e-06
000020 8c b1 af 37 20 28 b3 37 2c b1 68 37 22 cc 5e 37
       2.0944302e-05 2.1357147e-05 1.3869529e-05 1.32797595e-05
000030 a3 38 ee 36 14 d2 e1 36 5b 52 4a 37 28 61 22 38
       7.099546e-06 6.729979e-06 1.2059313e-05 3.8714294e-05
000040 25 76 01 38 7d a8 3c 37 9a b6 99 37 56 c5 7c 37
       3.0866027e-05 1.1244902e-05 1.8324052e-05 1.5066316e-05
000050 aa d4 88 37 ff da b1 37 86 84 8c 37 8d 81 94 37
       1.6311493e-05 2.1202022e-05 1.6751012e-05 1.7703302e-05
000060 71 47 7c 37 9f bb d2 36 d2 8b b3 36 5c 62 34 37
       1.5037004e-05 6.2803297e-06 5.350893e-06 1.0751737e-05
000070 52 95 d9 37 10 28 c7 36 b6 fb 97 36 3d c0 d0 37
       2.5937949e-05 5.935326e-06 4.5294537e-06 2.488505e-05
000080 9c 4b d3 37 7b de cf 37 06 09 a2 37 e9 00 02 38
       2.5188368e-05 2.4779923e-05 1.9316107e-05 3.0995263e-05
000090 98 93 86 37 78 61 17 39 c6 6e 06 37 a0 3a 9a 37
       1.6042773e-05 0.00014436792 8.012814e-06 1.838553e-05
0000a0 a2 32 2d 37 a2 89 23 37 53 66 08 37 b8 75 5a 37
       1.0323392e-05 9.747602e-06 8.130056e-06 1.3021221e-05
0000b0 2b 32 2d 37 91 b7 5b 37 c1 b6 94 37 4a af a3 37
       1.0323284e-05 1.3096157e-05 1.7728076e-05 1.951274e-05
0000c0 cb c6 cb 37 3e 70 02 37
       2.4292056e-05 7.774737e-06

gnn.batch_norms.1.weight f4 [50]
000000 6c a6 88 3f 04 b1 96 3f c9 8e 72 3f 65 76 ae 3f
       1.0675788 1.1772771 0.9474912 1.3629881
000010 30 31 63 3f 4d 92 56 3f 9d 32 9c 3f 6d 38 86 3f
       0.8874693 0.8381699 1.2202946 1.048597
000020 8b 4e 78 3f d9 0c 92 3f 5c fb 6a 3f ef b1 84 3f
       0.9699485 1.1410171 0.91789794 1.0366801
000030 a4 4e 95 3f 65 60 95 3f 83 d8 92 3f f4 e3 9c 3f
       1.1664624 1.1670042 1.1472324 1.2257066
000040 53 5a 7d 3f e5 fb 94 3f ba 47 86 3f c0 30 84 3f
       0.9896595 1.1639372 1.0490639 1.0327377
000050 6a ac 82 3f 2a 48 82 3f 17 68 82 3f 8d 11 5a 3f
       1.0208867 1.0178273 1.0188016 0.8518303
000060 2e 6c 6a 3f cb 0d ab 3f bd 9c 97 3f 40 bd 8e 3f
       0.9157132 1.3363584 1.1844708 1.1151505
000070 3a 3f 86 3f 70 73 88 3f 12 81 8c 3f 9c cc 89 3f
       1.0488045 1.0660229 1.0976889 1.0765567
000080 08 a7 86 3f ce 42 41 3f 72 a3 8e 3f 64 ed 82 3f
       1.0519724 0.7549256 1.114363 1.0228696
000090 74 f9 73 3f e1 96 86 3f 31 9e 97 3f d5 b1 83 3f
       0.9530251 1.0514795 1.1845151 1.0288645
0000a0 fb 44 8c 3f c7 63 66 3f 35 97 8b 3f af f9 53 3f
       1.0958551 0.89996 1.090552 0.8280286
0000b0 66 d8 9a 3f 73 6d a5 3f 30 33 76 3f 07 89 98 3f
       1.209729 1.2924026 0.96171856 1.1916817
0000c0 80 2c 8e 3f 5d 90 8e 3f
       1.110733 1.1137806
