src/checkpoints_v2/final_model.pth (torch, 137364 bytes, 78 tensors)

gnn.convs.0.att_src f4 [1, 1, 50]
000000 c9 5e b9 3c 13 b5 0f 3c 9a 37 aa 3d b0 aa 42 3d
       0.022628205 0.008771199 0.083113864 0.04752606
000010 8d d0 47 3d 1a 4f bb bd a6 12 71 bd 17 a6 a9 3d
       0.048782874 -0.09145947 -0.058855675 0.08283632
000020 6a 3a 4d 3c c1 63 bb bd 39 88 aa 3d d9 c1 99 bd
       0.012526134 -0.09149886 0.08326764 -0.07507677
000030 48 0d eb 3d 76 70 89 bc db d2 c1 bb c7 d3 a1 3b
       0.114771426 -0.016777258 -0.0059150285 0.004938576
000040 fc 27 66 bd 89 18 93 bd 3b 92 de bc 10 66 5b 3d
       -0.056190476 -0.07182414 -0.027169337 0.05356413
000050 99 72 14 3e 89 ee a9 bc 57 fe f5 bc cb d2 c7 bd
       0.1449684 -0.020743625 -0.030028505 -0.097570024
000060 38 82 42 bd d3 2b a8 bd b2 ee 81 bd 5e c1 5f 3d
       -0.047487468 -0.08211484 -0.06344356 0.05462777
000070 2b 24 a4 bd 80 86 5b 3d 87 05 8b bd 7c 72 78 bc
       -0.08014711 0.053595066 -0.06788164 -0.015164014
000080 9a 4f d0 3d c8 9d d2 3d cb 1a 06 bc 93 52 b4 3d
       0.10171433 0.10284001 -0.008185099 0.08804812
000090 97 66 07 bc 0b 8c 5a bd f2 20 71 3c 25 88 b5 3d
       -0.008264205 -0.05335621 0.014717327 0.08863858
0000a0 e8 8f 54 bd 87 e1 02 bc 7f da 28 3d 60 4f 9d 3d
       -0.051895052 -0.00798834 0.041224 0.07681155
0000b0 1e 92 4c 3b 45 9a 38 3d 6a 45 34 bd 77 98 f0 bd
       0.0031215022 0.045068998 -0.04401151 -0.1174783
0000c0 67 dc b9 3d 20 18 de bc
       0.090752415 -0.027111113

gnn.convs.0.att_dst f4 [1, 1, 50]
000000 49 58 e1 3b e9 6c a8 3b 6f b2 da bb c1 89 91 bb
       0.0068769795 0.005139936 -0.006674103 -0.0044414704
000010 83 8d 35 bb 7d d3 04 bb 8d 05 58 bb c7 99 15 3b
       -0.0027702756 -0.0020267658 -0.0032962293 0.0022827254
000020 93 89 a6 b9 06 cb e9 b8 b7 2e 8b 3a f9 bb c7 ba
       -0.00031764488 -0.00011148122 0.001061878 -0.0015238515
000030 00 a2 b0 bb 14 86 26 bc 00 40 a4 3b e5 0f 11 bc
       -0.0053904057 -0.010163803 0.005012512 -0.008853887
000040 f2 fc a8 bb d6 af 0a bc b7 76 5a 3b 17 00 08 bc
       -0.0051571066 -0.008464774 0.003333492 -0.008300803
000050 dd 69 90 ba 97 02 ca ba 1d c0 d3 bb db d5 d0 bb
       -0.0011017878 -0.0015412149 -0.0064621107 -0.00637315
000060 39 97 e5 bb 3d 67 95 bb 96 1e 10 bc d8 99 28 bc
       -0.0070065525 -0.004559426 -0.008796355 -0.010290585
000070 6e 74 c5 bb 03 39 86 3a 5f e5 42 3b c0 87 19 bb
       -0.0060258424 0.001024038 0.0029738767 -0.002342686
000080 f3 88 e1 bb 59 64 16 bb bc 0e c8 bb 7a 60 c6 bb
       -0.0068827807 -0.0022947995 -0.006105272 -0.0060539814
000090 3c b1 ab bb 7a 84 83 bc e0 b0 05 3c 45 fb be 3b
       -0.005239634 -0.01605438 0.008159846 0.0058282935
0000a0 75 ed c9 bb 53 57 c4 3b ff 4b 90 3b 78 14 e0 3b
       -0.0061623403 0.005991855 0.0044035907 0.0068383776
0000b0 92 36 d3 bb c6 69 6c 3b 2c ea 2a bc d2 9f 09 bc
       -0.0064457143 0.0036073788 -0.0104318075 -0.008399921
0000c0 1f ed ca bb 4f f8 0c bc
       -0.006192818 -0.008604123

gnn.convs.0.att_edge f4 [1, 1, 50]
000000 e8 8b d9 3e 2c 36 10 bf 5d 5f b1 3e 27 9d a4 3e
       0.42489552 -0.5633266 0.3464307 0.32151148
000010 62 d6 89 3e 15 3f 6c 3e e1 69 b1 3e 57 3b 01 3f
       0.26921374 0.23070939 0.34651092 0.5048117
000020 77 9d a5 3e 8c 36 b9 3e 58 4f ec 3d ee 7d 6c 3e
       0.323467 0.36174428 0.11538571 0.23094913
000030 b8 02 d3 be 1c 85 a8 be 37 4b 93 3e da 26 5c be
       -0.41213012 -0.32914054 0.28768322 -0.21499196
000040 1e 96 21 bd c5 88 c2 be 1f ae 07 3f 73 6a da 3d
       -0.039449804 -0.37994972 0.5300006 0.10664835
000050 60 77 5e 3e 73 91 26 be 5b 5d ad 3e 25 45 90 3e
       0.21725225 -0.16266422 0.33860287 0.28177753
000060 49 9e af 3e 53 ef df 3d c8 e5 c7 3e 2c 31 95 3e
       0.3430045 0.10934319 0.39042497 0.29139078
000070 fe db 92 3e da de 4e be 50 bc 66 be e3 22 50 be
       0.28683466 -0.20202199 -0.22532773 -0.20325808
000080 86 2d 95 3e 5b db c9 3e 17 66 54 be 65 9a 98 be
       0.29136294 0.39425167 -0.20742069 -0.29805294
000090 e3 c1 69 3e c0 4c c5 3e a5 e1 5a be b7 fa c8 be
       0.22827868 0.38535118 -0.21375139 -0.3925378
0000a0 7f 76 3e 3c f1 15 e3 3d 91 d0 52 be b1 8f 96 3e
       0.011624931 0.11088169 -0.20587374 0.29406503
0000b0 69 af b2 be c7 a5 2f be 1e d3 08 be cc 95 b1 be
       -0.34899452 -0.17153083 -0.13361785 -0.34684598
0000c0 62 18 a7 be ad 86 dc be
       -0.3263579 -0.430715

gnn.convs.0.bias f4 [50]
000000 eb b0 9a bb d0 ee 8b bb 41 5c a5 3a d3 76 21 bb
       -0.0047207973 -0.004270412 0.0012615995 -0.0024637475
000010 bb 7b 1a 3b f6 19 0e bb cf fa 2f ba 91 0c 87 ba
       0.0023572284 -0.0021682954 -0.00067130936 -0.0010303428
000020 50 73 3e 3a 1f 35 3c ba 0c 51 81 ba 67 c7 6f 3a
       0.00072651077 -0.00071795465 -0.0009866073 0.000914684
000030 da a1 2a 3a b7 a8 11 3a 52 14 32 ba c5 d1 6d ba
       0.0006509103 0.00055564515 -0.0006793189 -0.00090720906
000040 e0 8c e0 b9 6c d6 94 ba af c0 bc 3a 55 d4 2d 3a
       -0.0004282957 -0.0011355407 0.0014400686 0.0006631066
000050 fd 2a 17 bb 28 64 8d 38 ec b7 f0 ba d5 7f bb 3a
       -0.0023066394 6.7420595e-05 -0.001836536 0.0014305065
000060 fe a2 47 ba 7f f2 29 bb 74 5b 96 ba b8 8c 7c 39
       -0.0007615535 -0.0025931892 -0.0011471347 0.00024085015
000070 1c 49 bc 3a 82 21 09 bb 2c 4a 2a 3a 31 43 fd ba
       0.001436505 -0.0020924513 0.0006496038 -0.0019322393
000080 bd 3e 1d b9 e7 a0 a3 ba 67 87 46 3a 99 17 fa ba
       -0.00014996059 -0.0012483866 0.0007573277 -0.0019080519
000090 38 7b 40 3a a9 c3 53 bb eb 23 88 39 e3 9f 61 3a
       0.000734258 -0.0032312667 0.00025966702 0.0008606894
0000a0 3f 7a d4 b9 65 df 8b ba dd 08 a8 3b 6f 74 c0 ba
       -0.0004052687 -0.0010671435 0.0051280097 -0.0014683137
0000b0 4a 7d 5e 3b 80 16 67 ba 80 ec e5 3a 11 bc 03 3b
       0.003394919 -0.00088153034 0.0017541796 0.002010111
0000c0 a9 8c 5b ba e8 0f 08 bc
       -0.0008375147 -0.008304574

gnn.convs.0.lin.weight f4 [50, 50]
000000 7c 1c 19 3c 1c 8b af bd 3a 6a e0 3d 51 67 d8 bd
       0.00934517 -0.08571455 0.10957761 -0.10566581
000010 c9 c3 9c 3d af 80 3e be 3b ee 90 3e 0a b4 5b bf
       0.076545306 -0.18603776 0.28306755 -0.8582159
000020 ce e5 55 3e 18 63 2a bd 73 e0 27 be b5 e5 ad 3d
       0.20888445 -0.04159841 -0.16394214 0.08491079
000030 05 87 65 bd 11 c7 3c 3e c2 08 38 bd 7c 65 02 3e
       -0.056036968 0.18435313 -0.044930227 0.12734026
000040 f1 f2 de 39 44 f5 2e 3d 67 d9 93 bd 14 22 b3 3e
       0.00042524145 0.042714372 -0.072192006 0.34986937
000050 bd 10 91 be 70 f7 d8 3e 38 f4 ed 3d ce 5b d6 bd
       -0.28333083 0.4237628 0.11618847 -0.10466729
000060 39 20 28 be 20 12 aa 3c 55 f4 51 3e ad d9 d2 be
       -0.16418542 0.020760596 0.20503362 -0.41181698
000070 5a a7 06 be 44 e0 d4 3e 58 8c ba 3e 28 dd 85 3e
       -0.13149777 0.4157735 0.364352 0.2614529
000080 0a f6 da 3d 4b 2f 5b be ec 94 58 3b 1b 81 87 3e
       0.106914595 -0.2140476 0.0033047749 0.26465687
000090 7e 7e e6 3e 90 c5 ce 3c 96 40 0f be 56 ab 14 be
       0.4501838 0.02524069 -0.13989481 -0.14518484
0000a0 41 7f 8c bd f7 87 ea 3c 70 67 84 be 9e 42 be 3b
       -0.06860209 0.028629286 -0.25860167 0.005806281
0000b0 ff 4c 3e be b8 c3 42 be 5a ff 1a 3d ee 44 8b be
       -0.18584059 -0.19019973 0.03784118 -0.27201027
0000c0 39 b0 e6 bd c2 2b 2e be 8d 62 de 3a 3f 2c 84 3c
       -0.112640806 -0.1700888 0.0016966626 0.01613438
0000d0 b4 d5 43 3d 78 aa 9d 3d 7d 3b 97 3d 74 05 41 3e
       0.047811225 0.0769853 0.07384393 0.18849736
0000e0 ba 82 8d be 7f d2 91 be e1 3e ed 3c dc 7d cc be
       -0.276388 -0.28480908 0.028960647 -0.39939773
0000f0 49 d7 9d be c5 cb d0 be eb 5d 74 be e5 e4 bd 3e
       -0.30828312 -0.40780464 -0.23863952 0.37088695
000100 08 f7 0b 3d 49 82 1c be 82 ec 59 3e 68 72 57 be
       0.034171134 -0.15284075 0.21281627 -0.21039736
000110 7a 8f c9 3d fa 8b 08 3f 14 9f 0b 3e d7 f0 0f 3f
       0.09841819 0.5333859 0.13634902 0.5622687
000120 ab 0d 61 3d 80 e0 a0 3e 49 32 9b 3e 12 c2 c9 3d
       0.054944675 0.3142128 0.30311802 0.09851469
000130 0d 65 7b be 40 68 8b be d2 f2 b0 3d bf 09 a6 3e
       -0.24550267 -0.27227974 0.08640064 0.3242931
000140 bf 14 f2 3d bd 4a a4 3d c0 81 ca bb fc a2 bd bd
       0.11820363 0.08022068 -0.006180018 -0.092596024
000150 47 04 61 bd d1 de 91 3e 49 c0 c0 bd ac 9f 0c 3e
       -0.05493572 0.28490308 -0.094116755 0.13732785
000160 ba 76 8b bc 68 d2 43 be 04 7a e0 3d 6f 51 2c 3d
       -0.017024387 -0.19123232 0.10960773 0.04206985
000170 99 b2 6d bc 23 a1 7b be 40 10 37 bd 2f 68 71 be
       -0.014507913 -0.24573188 -0.04469323 -0.23574899
000180 6a 73 83 be e6 34 9a be 04 f9 4b be 92 11 22 3d
       -0.2567399 -0.30118483 -0.1991921 0.039567538
000190 a7 59 ac 3c 0e f6 b0 be 34 f5 34 be f8 1a a4 3e
       0.021038843 -0.34562725 -0.17671663 0.32051826
0001a0 33 ad 50 3b 0d 05 d5 be 9b 86 b5 3e 4b 77 b4 be
       0.0031841516 -0.41605416 0.35454258 -0.35247263
0001b0 e6 f5 d5 3d c3 31 16 be d3 2e 22 be 66 77 0d bd
       0.10447292 -0.1466742 -0.15838175 -0.034537695
0001c0 57 6d ee 3d 5f 89 91 be b7 5d 8b bd 5a 90 54 3e
       0.11641949 -0.28425118 -0.06804984 0.20758191
0001d0 60 d3 16 be b1 5a 01 3e 88 9b db 3d 15 c9 f7 3e
       -0.1472907 0.12632252 0.107230246 0.483956
0001e0 e5 2b 2f be 91 5b 4a 3d c4 7c 6d 3e 2a 05 03 be
       -0.17106588 0.04940373 0.23192126 -0.12794939
0001f0 ad e1 dd 3d 3f e9 57 3e 1c 14 fb 3c bd 6a 84 be
       0.1083406 0.2108507 0.030649237 -0.25862685
000200 fd cc fe bd 28 f7 d1 be 5a 5f e4 bd 56 33 e8 be
       -0.12441442 -0.41008878 -0.11150999 -0.45351666
000210 4b 6f f5 bd 5b 51 5c 3c c2 bf 15 bc 47 9e 3f 3e
       -0.11984118 0.013447131 -0.009139957 0.18712722
000220 9d 3a 46 3e 74 99 55 be 5b 93 1a be 29 59 15 3e
       0.19358297 -0.20859319 -0.15095274 0.14584793
000230 c8 c2 80 3d 69 2d 81 3e 28 7c c6 3d eb 82 11 3e
       0.062871516 0.25229958 0.0969165 0.14210097
000240 cb 08 57 3e f8 b5 23 bd 8b f0 cd bd dd 99 7a 3d
       0.20999448 -0.03996846 -0.100556456 0.06118189
000250 09 96 93 3c dd 3e 65 bd 28 f9 cd bb 76 a8 a6 3d
       0.018015878 -0.055968154 -0.0062858053 0.081376
000260 01 40 2a 3e 78 49 49 be dc d6 49 be c8 73 cb bd
       0.16625978 -0.19656932 -0.19710869 -0.09934193
000270 bb 83 a9 be c2 c5 e0 bd f0 61 53 3e 06 63 eb 3e
       -0.33108315 -0.10975219 0.20642829 0.45973986
000280 52 46 bc 3e 50 d8 ce 3d 6d bf 8e be 3a 87 21 be
       0.367724 0.10099852 -0.2788042 -0.15774241
000290 e5 97 5f be e2 93 16 bd 3a a3 80 3d bd 12 9e bd
       -0.21835287 -0.036762126 0.06281133 -0.07718418
0002a0 11 58 11 be 67 72 d2 3e e7 4a f1 3d 98 e5 29 bd
       -0.14193751 0.41102907 0.117818646 -0.041478723
0002b0 19 19 21 3e e1 ac 80 be ae 4b 47 3e b0 15 06 be
       0.1573223 -0.25131896 0.19462463 -0.1309421
0002c0 06 49 a5 3d 55 ed a3 3d 28 43 90 be d2 23 69 be
       0.08070569 0.08004252 -0.28176236 -0.2276757
0002d0 10 2d 8d bd b8 1d d9 be 14 77 5a 3d 61 13 d8 3d
       -0.068933606 -0.42405486 0.053336218 0.10550571
0002e0 ae c4 c2 bc 38 6c aa 3c 42 52 13 3e c9 92 b0 bd
       -0.023775425 0.020803556 0.14386848 -0.08621747
0002f0 c7 21 3b 3e 91 c8 1e bc 53 4b 57 bd 90 db d8 bd
       0.18274604 -0.009691373 -0.05256207 -0.10588753
000300 d4 78 86 3e 37 a3 9d 3e dc b8 22 3f b3 90 66 3e
       0.2626406 0.30788586 0.63563323 0.22516136
000310 ce c1 91 3e 90 4f 7d be 6b 2d 32 be c5 e9 49 3c
       0.28468174 -0.24737382 -0.17400138 0.012323801
000320 4e 45 a9 bc f5 37 84 be 3b 7c 86 bd 7e b6 29 3c
       -0.02066293 -0.25823942 -0.06566664 0.010358451
000330 c4 5e 9b bc 04 36 c7 3e c3 99 02 3c 94 0e ab bd
       -0.018966086 0.38908398 0.00797123 -0.0835239
000340 74 d2 1a bd e5 ae 0b 3e 88 db d1 bc 20 c1 d6 3d
       -0.03779836 0.13640936 -0.025617376 0.104860544
000350 90 c2 9f bd 9c 15 ad 3d d5 57 68 be 4d e6 a2 be
       -0.07800782 0.08451387 -0.22689755 -0.3181633
000360 b5 a5 78 3e 1c 0b 3c 3c 52 b4 80 3e b9 67 b6 3e
       0.24281962 0.011477258 0.25137573 0.3562601
000370 ab ca 85 3d 9c 7a a0 3e 45 dd 77 3e ac 4f ae 3e
       0.065327965 0.31343544 0.24205501 0.3404516
000380 cc 54 8d 3e 49 13 d8 3e 2f ae 1c bd d1 c9 92 3e
       0.27603757 0.42202213 -0.038252052 0.286696
000390 9a 25 34 be 06 54 d2 bd 3b 7c 03 3e cf 67 2c 3c
       -0.17592469 -0.102699324 0.12840359 0.010522797
0003a0 d7 3e 89 bd b8 1b 53 3e b6 0c 09 3b 8f b2 4a 3d
       -0.06701439 0.20616043 0.0020912117 0.049486693
0003b0 53 0b b8 bc 80 bb fe 3b 40 86 73 be 90 95 7b 3d
       -0.022466337 0.0077738166 -0.23781681 0.06142193
0003c0 60 4a fc bb 5a 8d bf be 57 8f 17 be 3c 87 90 3b
       -0.007699296 -0.3741253 -0.14800774 0.0044106524
0003d0 c2 97 41 3e f4 33 99 3d 5f a7 cd 3d 53 d2 d8 3d
       0.18905547 0.074806124 0.10041689 0.10586991
0003e0 36 10 e7 bd 7c c8 82 be 83 ba 82 3c 44 e1 c8 3d
       -0.11282389 -0.25543582 0.015958076 0.09808591
0003f0 eb 85 dc be 17 22 d6 be a9 52 e5 3d 02 0f 0d 3e
       -0.4307092 -0.41822883 0.11197407 0.13775256

gnn.convs.0.lin_edge.weight f4 [50, 1]
000000 e0 8b d9 3e 25 36 10 bf 5a 5f b1 3e 2a 9d a4 3e
       0.4248953 -0.5633262 0.3464306 0.32151157
000010 65 d6 89 3e 0e 3f 6c 3e db 69 b1 3e 4c 3b 01 3f
       0.26921383 0.23070928 0.34651074 0.50481105
000020 74 9d a5 3e 8d 36 b9 3e 64 4f ec 3d f3 7d 6c 3e
       0.3234669 0.3617443 0.1153858 0.23094921
000030 bc 02 d3 be 23 85 a8 be 34 4b 93 3e e8 26 5c be
       -0.41213024 -0.32914075 0.28768313 -0.21499217
000040 23 96 21 bd b7 88 c2 be 24 ae 07 3f 7e 6a da 3d
       -0.039449822 -0.3799493 0.5300009 0.10664843
000050 56 77 5e 3e 7b 91 26 be 56 5d ad 3e 2d 45 90 3e
       0.2172521 -0.16266434 0.33860272 0.28177777
000060 4d 9e af 3e 5a ef df 3d ce e5 c7 3e 31 31 95 3e
       0.3430046 0.109343246 0.39042515 0.29139093
000070 01 dc 92 3e e3 de 4e be 69 bc 66 be f2 22 50 be
       0.28683475 -0.20202212 -0.2253281 -0.2032583
000080 95 2d 95 3e 62 db c9 3e 13 66 54 be 6c 9a 98 be
       0.2913634 0.39425188 -0.20742063 -0.29805315
000090 ec c1 69 3e c5 4c c5 3e b8 e1 5a be ad fa c8 be
       0.22827882 0.38535133 -0.21375167 -0.3925375
0000a0 80 76 3e 3c f7 15 e3 3d 96 d0 52 be ae 8f 96 3e
       0.011624932 0.11088174 -0.20587382 0.29406494
0000b0 6c af b2 be cf a5 2f be 15 d3 08 be c2 95 b1 be
       -0.3489946 -0.17153095 -0.13361771 -0.3468457
0000c0 60 18 a7 be b0 86 dc be
       -0.32635784 -0.43071508

gnn.convs.1.att_src f4 [1, 1, 50]
000000 ca a9 8b be 5f 85 52 3e 8c bb 92 bd 7f 83 f5 bd
       -0.27277976 0.2055869 -0.07164678 -0.119879715
000010 b1 50 6c bd a1 98 94 3d 13 d4 06 be 6b 7c e9 3c
       -0.05769414 0.07255674 -0.13166837 0.02850171
000020 38 24 88 3e 32 a4 38 be 7e 58 41 bc 50 58 46 be
       0.26590133 -0.18031386 -0.011800883 -0.19369626
000030 a1 cd 6c be 3b bf 4c be 32 cb 8a 3e 1a 12 bc be
       -0.23125316 -0.19994824 0.2710815 -0.3673256
000040 9f e0 9f 3d 74 3c 2d 3e d2 0d 91 3d 14 90 d5 3d
       0.07806515 0.16917592 0.07082714 0.10427871
000050 fe 50 34 3e 23 c3 cd bd 99 08 23 be b2 8c 0c 3e
       0.17609021 -0.10046985 -0.15921248 0.13725546
000060 90 4c 07 be 7f 02 41 3d 6a 32 43 bd f7 dd 98 3e
       -0.132128 0.04712152 -0.0476555 0.29856846
000070 42 72 9a 3e 63 e5 10 3e 73 47 85 be a7 af 0e be
       0.30165297 0.14150004 -0.26031074 -0.13934194
000080 1e 0e 25 3c ff 7e 3a 3e d2 7b 95 be 40 57 4c bd
       0.010074167 0.18212508 -0.2919603 -0.049887896
000090 01 a3 91 3e f0 78 b1 3c 07 47 1c 3b ab 2f c1 bd
       0.28444675 0.021664113 0.0023846047 -0.0943292
0000a0 bb 45 a2 be 0c 87 01 be bd 2c 38 bd 31 9f ad 3e
       -0.31693825 -0.12649173 -0.04496454 0.33910516
0000b0 22 ea b0 bd cc 6a f2 bd 6d c0 2f 3d f6 11 9c bd
       -0.08638407 -0.11836776 0.04290812 -0.07620613
0000c0 c1 19 6a bd 5e 6f b3 bd
       -0.057153467 -0.08761476

gnn.convs.1.att_dst f4 [1, 1, 50]
000000 83 4f bd ba 1a 22 1b be 9d 48 ec 3c 09 d0 36 3d
       -0.0014443252 -0.15149727 0.028843218 0.04463199
000010 fb a8 36 bd 7e 59 69 be 90 3f 07 3e 4f be b0 bd
       -0.044594746 -0.22788045 0.13207841 -0.086300485
000020 9c 2f 82 be 3a 8d f1 3d 23 9d 44 bd 09 23 4b 3e
       -0.25426948 0.11794515 -0.04800142 0.19837584
000030 56 76 5a 3e 64 c8 e2 3c c3 d9 ff 3b 49 9b 31 3e
       0.21334204 0.027683444 0.0078079416 0.17344393
000040 40 99 93 be 5e 33 1f bc f2 3b 98 3c be 4a fb 3d
       -0.28827858 -0.009716837 0.018583272 0.12270115
000050 58 ee d0 bd 0d 81 77 3e aa 48 b8 3d 4c 12 ac be
       -0.102017105 0.24170323 0.089982346 -0.3360771
000060 20 d4 b0 3c 3a c6 98 3d d8 53 44 bd 9f b6 d4 bd
       0.021585524 0.07459684 -0.047931522 -0.10386395
000070 8d a3 a1 be ce 43 ff 3d 62 91 ca 3d 8f 10 ac 3d
       -0.31570092 0.124641046 0.09891011 0.08401596
000080 7a dc 93 bd 7f 28 5e bd 10 61 69 3e 85 ea 0d be
       -0.07219787 -0.05423784 0.22790933 -0.13858993
000090 14 87 65 be 07 03 25 3e 32 34 80 3e 8a 12 94 3e
       -0.2241481 0.16114436 0.25039822 0.28920394
0000a0 aa c5 50 3e c6 57 85 3b 8c 36 22 3e 21 ac 25 be
       0.20387903 0.0040693013 0.1584112 -0.16178943
0000b0 f8 c2 0a bd 16 df 3b 3e 90 af 6f be ff 93 db 3d
       -0.033877343 0.1834682 -0.23406816 0.107215874
0000c0 6d af 24 3c 55 b2 cb bc
       0.01005159 -0.024865309

gnn.convs.1.att_edge f4 [1, 1, 50]
000000 71 19 ac be 09 76 40 be 87 b1 18 bd e7 a7 8a be
       -0.3361316 -0.18795027 -0.03727868 -0.27081224
000010 54 8a a9 3e 73 19 f8 be 78 42 01 3f b2 4c 1a bf
       0.33113348 -0.48456916 0.5049205 -0.6027328
000020 f8 d4 a2 3e fd e6 db 3e 30 ca b9 3e 97 2a 25 bf
       0.31803107 0.42949668 0.3628707 -0.6451811
000030 a7 26 13 bf f0 3a 0c 3f 2c ff f1 be e9 78 f0 3e
       -0.57480854 0.5477743 -0.47264993 0.46967247
000040 c6 1d 13 bf 4f c1 07 bf d1 d9 06 be a5 8f 04 3f
       -0.57467306 -0.5302934 -0.13169028 0.51781684
000050 0b 5b 1e 3f 87 3e aa be 6d 84 95 be 27 8f cc be
       0.6185767 -0.3325083 -0.29202595 -0.39952967
000060 53 dd e6 3e 76 83 01 3f bd ed 12 3f 3c 07 a0 be
       0.45090732 0.5059122 0.5739401 -0.3125552
000070 85 c0 ad 3e c7 a3 14 bf 7e 3f 25 3f 6a 11 06 3f
       0.33935943 -0.58062404 0.64550006 0.5237032
000080 0d 27 e9 be a9 c7 1a bf 99 c2 a8 3e 72 6a 9f be
       -0.45537606 -0.6046091 0.32960966 -0.311359
000090 23 68 1c bf fc 19 95 be 3f 94 f6 be c7 0a 85 be
       -0.610964 -0.29121387 -0.48159978 -0.25984785
0000a0 23 0d a5 3e d5 f7 a1 be 99 d1 f0 3e 80 0a 00 bf
       0.32236585 -0.31634393 0.4703491 -0.5001602
0000b0 ad 46 b5 be 9f 34 90 3e c4 94 97 be 61 2f 97 3e
       -0.35405484 0.28165147 -0.29605687 0.29528335
0000c0 fe 29 9f 3e 31 30 ed be
       0.31086725 -0.4632583

gnn.convs.1.bias f4 [50]
000000 f9 6f 4b b8 64 f9 01 b9 e0 ac 3c b9 78 ec 0c 39
       -4.8503254e-05 -0.00012395304 -0.00017993478 0.00013439532
000010 07 a5 dd 39 c6 de 40 b8 42 02 18 b9 22 26 1d 39
       0.0004227536 -4.598384e-05 -0.0001449669 0.00014986892
000020 c3 c0 ee 38 bb 53 9b 38 fe 99 8a 36 60 0e 7f b9
       0.00011384629 7.406572e-05 4.1306475e-06 -0.0002432405
000030 b9 6e 3b b9 a1 f1 2a 38 2e fe 15 b8 d6 2b 32 b8
       -0.00017874957 4.0756193e-05 -3.576109e-05 -4.2479332e-05
000040 ac 21 2d b6 ab 31 b1 37 ae d5 9c 38 37 08 cb b8
       -2.5798608e-06 2.1123173e-05 7.4784606e-05 -9.6813244e-05
000050 9b 7e 8d b6 80 2f 1a b9 3b e1 7e 39 55 4d 19 38
       -4.2168663e-06 -0.0001470428 0.00024307233 3.6550064e-05
000060 32 44 a6 b6 16 c2 91 b7 4d 2e a2 b7 71 a9 40 38
       -4.9551245e-06 -1.7375725e-05 -1.9333465e-05 4.593417e-05
000070 b9 6a 51 37 8b fb 0e b9 b5 f2 db 37 4a c9 37 39
       1.2482219e-05 -0.00013635882 2.6219854e-05 0.00017527226
000080 dc 14 5f 38 fb a1 1a 39 e5 07 16 b9 cf d3 ba b8
       5.318677e-05 0.00014746927 -0.00014308056 -8.9086236e-05
000090 cb d2 fb 37 6e 8f 3f b9 cc 40 1e 38 9d d4 94 b8
       3.001969e-05 -0.00018268611 3.7730482e-05 -7.096792e-05
0000a0 8c b2 2a b8 81 6f de 36 31 6d 6a 38 85 a5 b6 38
       -4.0697443e-05 6.6290963e-06 5.589164e-05 8.709267e-05
0000b0 f8 31 a7 38 e0 d0 41 b9 ef 93 59 b9 d8 ea 55 b7
       7.972488e-05 -0.00018483726 -0.00020749842 -1.2750468e-05
0000c0 42 35 86 37 f3 95 c8 38
       1.5998845e-05 9.5646734e-05

gnn.convs.1.lin.weight f4 [50, 50]
000000 41 8b 88 be c8 34 53 3d b6 30 ef bc 5a 90 f8 bd
       -0.26668742 0.051564008 -0.029198032 -0.12136908
000010 37 db de 3d 3e eb 81 3e 16 b6 07 3e 02 cb 00 be
       0.10881656 0.25374788 0.13253054 -0.12577441
000020 f2 9b b7 bd 15 db c9 3d 11 98 72 bd 02 d1 86 be
       -0.08965291 0.0985624 -0.059227053 -0.26331335
000030 c8 f5 fc 3d a0 7c 15 bf c6 61 db 3c 8f 2d aa 3d
       0.123515666 -0.5839329 0.02678002 0.08309471
000040 37 71 8b 3c ac 4e 2e be bd 44 b9 3d 3f 86 32 be
       0.017021758 -0.17022198 0.09046314 -0.17434023
000050 24 f5 e2 bd ad 12 96 3e fb b5 04 bd d0 57 1f be
       -0.11081913 0.29311123 -0.032400113 -0.15560842
000060 2f c2 72 3d 7a c5 96 be 28 98 4b bc f4 42 1d be
       0.05926722 -0.29447538 -0.012426414 -0.15357572
000070 4c c8 d2 3d 80 a7 e8 bd 5d a8 b8 be 73 09 9a bd
       0.1029211 -0.11360073 -0.3606595 -0.075213335
000080 dd a5 24 3e 3c 5c 16 3e 17 99 40 be 13 2c ad 3e
       0.16078897 0.14683622 -0.18808399 0.33822688
000090 de c2 33 3e af 9f 26 bd b3 36 4d bd 9c 49 f5 bd
       0.17554805 -0.04067963 -0.050100993 -0.119769305
0000a0 b0 0e 16 3d 1e 10 03 3c 2f f9 a2 3d 31 cd dc bd
       0.0366351 0.007999448 0.07957684 -0.10781325
0000b0 88 5c da be 2d f5 6b bd 99 49 13 bd 33 d0 92 be
       -0.4264872 -0.057606865 -0.03595886 -0.28674468
0000c0 a2 c3 63 3e 37 b8 5b be 2e 09 86 be 18 2a c0 bd
       0.22242597 -0.21456991 -0.2617888 -0.09383029
0000d0 eb 71 57 bd 40 fa 45 bd 60 b8 8e bd 85 42 f9 bc
       -0.052598875 -0.04833436 -0.069687605 -0.030427227
0000e0 95 b6 36 be 63 19 01 bd ab bd 22 be c6 dd f0 bd
       -0.17843087 -0.03151835 -0.15892665 -0.1176105
0000f0 fd 68 09 bf 12 46 0b 3e d0 1b de bd c7 fc 91 bd
       -0.53675824 0.13600948 -0.108451486 -0.071282916
000100 29 eb 5c 3d 5c a4 85 bc d5 06 5d be 92 ed 80 3d
       0.053935204 -0.016313724 -0.21584637 0.06295313
000110 a9 64 ca bd 84 bc 27 3e 78 69 2b bc 5a 79 c3 bd
       -0.09882481 0.16380507 -0.010462157 -0.0954463
000120 d1 05 ef 3c 20 ae 0e 3d 05 a7 3e be 88 6b d0 be
       0.029177578 0.034834027 -0.186184 -0.4070704
000130 a5 92 0b 3e 40 48 40 be e9 3b 2e be ec 58 84 3d
       0.13630159 -0.18777561 -0.17015041 0.06462273
000140 66 ef 18 bf 1e fc 60 bd 14 44 c7 3d d4 3b b0 3d
       -0.59740293 -0.054927938 0.09729782 0.08605161
000150 90 21 c3 bd 6b 96 4a bc 97 b6 b7 bc c4 50 3f bd
       -0.09527886 -0.012364964 -0.022425933 -0.046707883
000160 e7 f8 17 3e bd e4 75 bc 05 b7 29 bf a1 1b 26 bb
       0.14841042 -0.015008149 -0.6629489 -0.0025346058
000170 14 30 40 be eb 36 8c 3a b2 55 c7 be 68 b1 91 be
       -0.1876834 0.0010697519 -0.38932568 -0.28455663
000180 0b 26 7c bd 67 b5 1d 3e 62 a1 60 bd ae 0e 2c bc
       -0.061559718 0.15401231 -0.054841407 -0.010501547
000190 00 97 d6 3d c7 a0 a4 be 43 d5 47 bd a3 06 b8 be
       0.1047802 -0.32153913 -0.048787367 -0.35942563
0001a0 56 5d 51 3d e2 30 7f be e4 2d 38 be 4f 0f ff 3d
       0.051114403 -0.24920991 -0.17986256 0.12454092
0001b0 48 e1 80 be 19 b8 a5 bd 1c 28 b0 3d a3 43 46 bd
       -0.25171876 -0.080917545 0.086014 -0.048404347
0001c0 e8 55 31 3e 55 6e b6 3c c0 9d 21 bc 47 42 23 bd
       0.17317927 0.022269407 -0.009864271 -0.03985813
0001d0 36 c8 d4 bd 8d b8 74 be 8a b2 4b bd b5 04 26 3e
       -0.1038975 -0.23898526 -0.049730815 0.16212733
0001e0 75 3c a9 bd 47 01 d5 bc f3 cf 21 be ca e2 81 3b
       -0.082634844 -0.026001586 -0.15801983 0.003963803
0001f0 1b 99 91 be aa 4e 2e 3c 7b 92 9c 3d 36 cd c0 bd
       -0.28437123 0.010638872 0.076451264 -0.09414141
000200 b9 99 19 3e 85 6d fe bc 04 39 3f be 39 66 81 be
       0.15000047 -0.031058082 -0.18674093 -0.25273302
000210 88 6e f3 be e6 6a c7 bd b0 cd 4d 3d 8d 7d b2 3b
       -0.47545266 -0.09737186 0.050244987 0.0054470957
000220 65 1a 8c bc 99 fa c6 bd d2 67 51 3e 4e f5 53 3e
       -0.01710243 -0.097157665 0.2044976 0.20699045
000230 f1 e7 32 3c 28 17 26 be 8d ed 43 3d 99 2e e4 be
       0.010919557 -0.16219771 0.047833968 -0.445668
000240 1e 65 a3 3e b7 ff 08 3e 4a 77 d7 bd 83 48 8f 3d
       0.31913084 0.13378797 -0.105207995 0.069962524
000250 2e f7 4f 3c b1 c0 fd 3d ac 92 bb bd 22 2c d4 3c
       0.01269321 0.123902686 -0.09158835 0.02589995
000260 49 e1 47 bd 18 9c 56 be 86 2c 8f 3e 93 c5 cd 3d
       -0.048798833 -0.20957983 0.27963656 0.1004745
000270 c6 6b 1a 3e 32 9e 36 3d b4 6c 94 3c 24 13 1f 3d
       0.15080175 0.04458446 0.01811824 0.038836613
000280 f1 32 98 bd 85 89 9e 3d ba 8b 82 be f3 df b6 be
       -0.07431591 0.077410735 -0.25497228 -0.35717735
000290 da 98 cd 3c 7b 0f a3 bd aa 44 5c 3c a4 69 c8 bc
       0.0250973 -0.07961937 0.013444105 -0.024464436
0002a0 a2 e9 47 be 58 bc 4e 3e 63 7d 01 3d 25 7c 06 3d
       -0.19522718 0.20189035 0.03161372 0.032833237
0002b0 42 16 a0 bd 33 28 84 bd 77 7e fd bc ae 20 21 be
       -0.07816745 -0.0645298 -0.030944092 -0.15735123
0002c0 70 76 62 be dc c7 16 bf 8e 3f d5 ba a9 ae ac 3d
       -0.22115493 -0.5889871 -0.0016269551 0.08431751
0002d0 97 04 fd be 28 95 a7 3c eb 31 91 be 9a b4 95 bd
       -0.49417564 0.020456865 -0.28358397 -0.07309838
0002e0 16 eb 2f be 43 88 58 be 2e 53 c7 bd c4 44 df 3d
       -0.17179522 -0.2114573 -0.09732662 0.10901788
0002f0 9c 8d 3f be 57 51 7f be 45 80 1f 3e 48 ea 01 be
       -0.18706363 -0.24933372 0.15576275 -0.12687027
000300 6e 3d ca 3d 8f 42 7c bd b5 a2 35 3e 85 61 4f be
       0.09874998 -0.061586913 0.17737849 -0.20252044
000310 9e 41 c5 bd 43 f0 e5 bd 39 9b 03 bd ef 24 20 bf
       -0.09631656 -0.11227467 -0.032130454 -0.62556356
000320 25 f9 4d bd a2 8d 07 bd 9f 75 40 3e 71 07 a3 bc
       -0.05028643 -0.033094056 0.18794869 -0.01990101
000330 63 b3 89 3d e8 c6 9c bd cf ad 23 be 0b 8b 7f bd
       0.067236684 -0.07655126 -0.15984271 -0.06238846
000340 8b 51 4b 3d f2 29 d5 3d 1a 40 aa 3d 86 f9 d8 bb
       0.049638312 0.10408391 0.08313008 -0.0066215424
000350 7b 3c 7d bd e8 0a 3a 3d 69 fd f1 3d 2c cb b0 3e
       -0.061825257 0.045420557 0.11815912 0.34530008
000360 d6 b2 82 be 8a 1f 8a 3d fb 0f 34 3e 55 cd bb bd
       -0.25527066 0.06744297 0.17584221 -0.09170023
000370 14 50 a2 be 49 b2 a2 bc 7e da 5c be 49 cd a0 bc
       -0.3170172 -0.019860404 -0.21567723 -0.019629138
000380 26 64 9f be c8 e9 ad be cd f9 28 3e 53 42 8d 3d
       -0.31131095 -0.33967423 0.16501541 0.06897416
000390 53 45 0b bf 6b ad 62 be d9 02 bd 3d 06 d4 de 3d
       -0.54402655 -0.22136466 0.09229059 0.10880284
0003a0 61 a8 b7 bd 0e 5a d6 ba 90 80 5b be 8a 99 eb 3d
       -0.089676626 -0.0016353743 -0.21435761 0.115038946
0003b0 62 1c b6 bd 31 7a e6 bd a8 6f bf 3d c3 63 ff 3c
       -0.08892132 -0.11253775 0.093474686 0.0311755
0003c0 3d 2d c8 be 06 bb d4 bd 6b 59 25 3d af 8e 19 3d
       -0.39097014 -0.103872344 0.04036848 0.03748959
0003d0 06 09 ea 3d 77 ea f3 bd d9 60 d7 bd 2f 8e 34 3e
       0.11427502 -0.11909955 -0.10516519 0.17632364
0003e0 2c ed ea be 02 53 61 3d 59 4c 46 3d 01 f9 1d 3e
       -0.45884073 0.055010803 0.048412655 0.15427019
0003f0 2b 95 6e bd c2 c8 a0 3d d4 56 da bc 40 bc 08 bc
       -0.058247726 0.078507915 -0.026652731 -0.008345664

gnn.convs.1.lin_edge.weight f4 [50, 1]
000000 78 19 ac be 1e 76 40 be 94 b1 18 bd f6 a7 8a be
       -0.3361318 -0.18795058 -0.037278727 -0.2708127
000010 58 8a a9 3e 83 19 f8 be 8d 42 01 3f bd 4c 1a bf
       0.3311336 -0.48456964 0.50492173 -0.60273343
000020 03 d5 a2 3e 10 e7 db 3e 33 ca b9 3e a2 2a 25 bf
       0.3180314 0.42949724 0.36287078 -0.6451818
000030 b9 26 13 bf 0d 3b 0c 3f 55 ff f1 be ed 78 f0 3e
       -0.5748096 0.54777604 -0.47265115 0.4696726
000040 dc 1d 13 bf 55 c1 07 bf e5 d9 06 be a3 8f 04 3f
       -0.57467437 -0.53029376 -0.13169058 0.5178167
000050 23 5b 1e 3f a1 3e aa be 73 84 95 be 43 8f cc be
       0.61857814 -0.33250907 -0.29202613 -0.3995305
000060 63 dd e6 3e 86 83 01 3f be ed 12 3f 43 07 a0 be
       0.4509078 0.50591314 0.57394016 -0.3125554
000070 96 c0 ad 3e d9 a3 14 bf 8a 3f 25 3f 70 11 06 3f
       0.33935994 -0.5806251 0.6455008 0.5237036
000080 14 27 e9 be ae c7 1a bf ab c2 a8 3e 7b 6a 9f be
       -0.45537627 -0.6046094 0.3296102 -0.31135926
000090 30 68 1c bf 05 1a 95 be 5d 94 f6 be d4 0a 85 be
       -0.6109648 -0.29121414 -0.48160067 -0.25984824
0000a0 2f 0d a5 3e ef f7 a1 be a1 d1 f0 3e 8d 0a 00 bf
       0.3223662 -0.3163447 0.47034934 -0.500161
0000b0 a8 46 b5 be a9 34 90 3e e1 94 97 be 75 2f 97 3e
       -0.3540547 0.28165177 -0.29605773 0.29528394
0000c0 16 2a 9f 3e 49 30 ed be
       0.31086797 -0.463259

gnn.convs.2.att_src f4 [1, 1, 50]
000000 7d cf 2a 3e 4b 5a 96 bd 53 9c a9 3d 05 cb f2 3d
       0.16680713 -0.07341441 0.082817696 0.11855129
000010 00 d0 04 bd d8 e3 97 bc 4a bf 26 3e 5a 27 9e bb
       -0.032424927 -0.018541262 0.16283908 -0.0048264684
000020 26 16 8a be 65 c2 23 bc 22 87 1d 3d 70 9c 27 be
       -0.26970023 -0.009995078 0.03845895 -0.1636827
000030 a8 73 d0 b9 48 25 cd bc 74 2b 3b bc 91 c0 a4 3c
       -0.00039759022 -0.025042191 -0.011423934 0.020111354
000040 43 da 3b be 63 3a 5e bb ba 85 c9 3d 18 33 48 3d
       -0.18344979 -0.0033909313 0.098399594 0.04887685
000050 3b d1 6f bd f8 27 74 bd c9 fa 47 be b8 a4 82 bc
       -0.058549147 -0.05960843 -0.1952926 -0.015947685
000060 af 2f f1 bc b9 97 02 3c d3 d0 02 3d 8f 75 bd 3e
       -0.029441683 0.007970744 0.03193743 0.37003753
000070 7f e9 b7 bb a0 4c d6 be e2 d8 f7 bb 36 6a 17 bd
       -0.0056125517 -0.41855335 -0.0075636962 -0.036966525
000080 86 4c df bc 14 9c 30 be e7 e4 95 bd ef 45 6f 3d
       -0.027258169 -0.17247039 -0.0731905 0.058416303
000090 0c ca 43 3b b6 06 8a 3b 2b 6e b8 bb 24 ee 05 3c
       0.0029875068 0.004212226 -0.0056283674 0.008174453
0000a0 22 97 a8 3d 82 f5 81 3d f5 62 5b 3e 6d b1 56 3e
       0.08231951 0.06345655 0.21424468 0.2096612
0000b0 91 e4 a9 3b 80 0a b9 3e c0 5b 8b bc 7b 61 94 bd
       0.005184718 0.36140823 -0.017011523 -0.072451554
0000c0 c7 b2 81 bb 81 1e bc bd
       -0.0039580795 -0.09185506

gnn.convs.2.att_dst f4 [1, 1, 50]
000000 28 9b 12 3d d2 5a b7 3d eb 29 4b bb ce 14 9c 3c
       0.0357925 0.089528695 -0.0031000327 0.01905289
000010 79 cd af 3d 37 26 99 bc b0 29 10 be e1 53 cc ba
       0.08584113 -0.01869498 -0.14078403 -0.0015588963
000020 21 a2 aa 3c ec e9 03 3d e1 bf 23 bd 9d 03 24 3e
       0.020829262 0.032205507 -0.03997791 0.16017003
000030 b9 d1 0f 3d 0e bc 90 bd 75 15 e0 3c a1 72 10 bd
       0.035112116 -0.070671186 0.027353982 -0.03526557
000040 c8 c4 24 3e d2 24 fd ba 67 9c 30 be 6d 7c 22 be
       0.16090691 -0.0019313341 -0.17247163 -0.15867777
000050 fa 33 1f 3e 8d b5 c2 3d c9 c7 79 3e a3 4d 98 3c
       0.15547171 0.09507284 0.24392618 0.018591708
000060 94 68 cc 3d 12 92 a2 bd 10 d5 5b bd 84 59 dd bd
       0.09980884 -0.07938017 -0.05366999 -0.108080894
000070 48 b7 b3 3a 0d 55 32 be 13 9e 50 3d e4 ea d0 3d
       0.0013711238 -0.17415257 0.050932 0.10201052
000080 82 26 4a 3c 5f 5a 3f 3e 01 f4 1d 3d fe ac 27 3e
       0.012338283 0.18686818 0.03856278 0.16374585
000090 db e3 b8 3c 42 c0 94 3c cd c0 40 bc e7 ac 96 3c
       0.022569587 0.018158082 -0.011764717 0.018392993
0000a0 c1 71 4d bd 84 b5 90 bd d5 79 79 be 98 6a 03 be
       -0.050157312 -0.07065871 -0.24362881 -0.12833631
0000b0 d7 1b 86 bb 0b 88 47 be b3 a6 98 3d 00 70 35 bc
       -0.0040926742 -0.1948549 0.0745367 -0.011074066
0000c0 fb 9f 93 3b 06 1c c4 3d
       0.004505155 0.095756575

gnn.convs.2.att_edge f4 [1, 1, 50]
000000 84 0b 12 00 80 4f c1 3b 3e d6 8c b7 13 57 21 38
       1.65717e-39 0.0058993697 -1.6789065e-05 3.8466485e-05
000010 5c 99 b3 1c f4 90 b5 a5 f8 11 47 29 37 95 1e b8
       1.1884869e-21 -3.149672e-16 4.4202462e-14 -3.7809103e-05
000020 94 31 4c 89 d0 84 02 ad 46 ac 18 39 18 f2 84 37
       -2.4578918e-33 -7.419135e-12 0.00014560026 1.584836e-05
000030 35 bd 66 a3 88 3b 3c b0 f0 c8 0c a6 60 7c a5 13
       -1.2508391e-17 -6.84786e-10 -4.884458e-16 4.17745e-27
000040 42 68 43 8e c3 84 11 99 2c 13 02 80 50 64 26 80
       -2.4085804e-30 -7.523135e-24 -1.90549e-40 -3.525734e-39
000050 6b e6 1b 22 c5 65 8d 2d f4 be 2a 01 ef 62 a7 39
       2.11284e-18 1.6075039e-11 3.136107e-38 0.00031926433
000060 b1 6e 88 16 1f fa 02 80 67 14 26 b9 ce 61 ac 16
       2.204184e-25 -2.73398e-40 -0.00015838594 2.7849822e-25
000070 ea e6 03 00 5c 54 d7 31 94 8f ec 39 d8 93 85 38
       3.58343e-40 6.266914e-09 0.00045120402 6.369472e-05
000080 a8 e9 a1 a5 d1 4e ea ab ac b2 a4 14 f4 93 f7 2e
       -2.808738e-16 -1.6648576e-12 1.6630242e-26 1.1258541e-10
000090 20 59 76 20 f6 54 99 ad eb de 98 90 14 7c 15 99
       2.08665e-19 -1.7431816e-11 -6.029689e-29 -7.728177e-24
0000a0 3e 5a 09 26 59 94 1f 27 00 39 1a 03 71 d9 a1 ae
       4.7653724e-16 2.2146102e-15 4.5321965e-37 -7.360058e-11
0000b0 05 9e 54 b1 81 13 9f 05 a1 e9 62 94 82 64 64 bb
       -3.0939884e-09 1.4959453e-35 -1.1456159e-26 -0.0034849946
0000c0 4f b3 38 27 fe 37 97 35
       2.5632333e-15 1.1266673e-06

gnn.convs.2.bias f4 [50]
000000 da 70 aa 38 32 f3 1f 37 33 1b 51 b7 33 24 9c 36
       8.127252e-05 9.533762e-06 -1.2463704e-05 4.6533764e-06
000010 4a 9c dc 36 81 51 81 b5 75 93 97 37 10 cc 59 b6
       6.5747054e-06 -9.63497e-07 1.8069268e-05 -3.24543e-06
000020 a7 2a 57 38 79 90 79 32 43 aa 8f 37 88 47 f2 37
       5.1299718e-05 1.4526557e-08 1.7126213e-05 2.8881957e-05
000030 6a 41 cb 36 49 15 c2 b7 13 4d 84 37 38 71 38 b5
       6.0574866e-06 -2.3136514e-05 1.5771517e-05 -6.8710096e-07
000040 cd e6 9f 37 d8 fc 2a 37 ca b1 86 b5 c8 24 db b7
       1.9061752e-05 1.0191659e-05 -1.0035521e-06 -2.6123962e-05
000050 81 22 5e 38 1e fe 2c 34 b7 ae 97 b3 b5 bc 02 b4
       5.296106e-05 1.6111196e-07 -7.063266e-08 -1.2175845e-07
000060 a5 e6 ae 37 d8 6d 89 32 8b 4c 85 b8 4c fc 04 b7
       2.0849819e-05 1.599885e-08 -6.3561914e-05 -7.926556e-06
000070 8d e9 92 b4 0a f5 2e 34 aa b0 87 34 f4 65 11 b8
       -2.736455e-07 1.6294157e-07 2.527425e-07 -3.4665645e-05
000080 9d f8 c1 33 59 f8 45 b3 2c 3b 2d b8 d9 9e 01 b8
       9.032485e-08 -4.6093508e-08 -4.1301522e-05 -3.0903935e-05
000090 86 c3 ae b4 5b b2 df 34 9b 3f 00 36 1b de 03 b3
       -3.2552288e-07 4.1666758e-07 1.911051e-06 -3.0702818e-08
0000a0 07 c9 8a 37 99 c7 80 b3 c9 15 b0 b3 f8 63 a2 38
       1.6544493e-05 -5.996771e-08 -8.199601e-08 7.7433826e-05
0000b0 5e 1e 26 32 34 88 ce b5 c0 6b 60 34 dd bd 88 b8
       9.669376e-09 -1.5387836e-06 2.0900825e-07 -6.52035e-05
0000c0 00 d6 f1 35 4b ba 26 b5
       1.8018181e-06 -6.211091e-07

gnn.convs.2.lin.weight f4 [50, 50]
000000 1b 7c 24 3e 2a 19 7d bd 50 fd 25 be 8a 4d f0 3c
       0.16062967 -0.061791576 -0.16209912 0.029333849
000010 56 33 d1 bd be f0 43 3e 30 45 01 3e 47 95 ce 3d
       -0.1021487 0.19134805 0.12624049 0.10087066
000020 0b ee 42 be 8a e8 a9 3c 1e 57 79 bd eb 26 56 be
       -0.19036119 0.020740766 -0.060874097 -0.20913284
000030 22 e4 72 3e 3e 7c 80 bd 50 d5 e0 3d d9 c2 b4 3e
       0.23719838 -0.06273697 0.10978186 0.35304907
000040 fe f5 d6 3d b8 2d 19 be 64 63 91 3e 8c 10 8f be
       0.10496138 -0.14958847 0.28396142 -0.27942312
000050 92 fb 0f 3d 16 76 7d 3d 81 b8 28 3f 68 4e 66 3e
       0.035152026 0.061880194 0.6590653 0.22490847
000060 32 26 a1 be 01 7e 0c bd 79 ea 14 be 99 fb d9 3c
       -0.31474453 -0.034299854 -0.14542569 0.026609229
000070 98 4b b2 bd d5 53 28 3e 1f 29 f8 bd fe 8f 88 3c
       -0.087058246 0.1643823 -0.12117218 0.016670223
000080 2b 58 ca bc 0a 5d 6b 3e 4d 2e b3 be 68 f2 d0 be
       -0.024700245 0.2298471 -0.34996262 -0.4080994
000090 43 24 f0 be 92 0f d0 3d 9d eb a9 3d 78 52 06 be
       -0.46902665 0.1015922 0.08296893 -0.13117397
0000a0 33 ba 86 bd 44 a3 98 bd 5f 24 4a be c2 55 32 bc
       -0.065784834 -0.074530154 -0.19740437 -0.010884704
0000b0 f8 95 9e 3b e8 a9 13 bd fa cd b7 3d e5 d9 dc bd
       0.004839655 -0.036050707 0.08974834 -0.107837476
0000c0 69 f3 d2 bd ee c8 65 3e c7 8c b5 3c c7 7a 60 3d
       -0.10300333 0.2243993 0.022161854 0.05480459
0000d0 d2 70 ab 3e 27 2a 0b bd 67 11 a6 3d 5a 87 79 be
       0.33484513 -0.033975746 0.08108788 -0.24368039
0000e0 4a eb 85 3e a5 37 bf 3c 33 f1 2b 3d 4a 53 9a 3d
       0.26156074 0.023341963 0.041978072 0.075354174
0000f0 9d 33 13 3d 59 79 63 bd 1c d8 0c be af 60 af 3e
       0.035937894 -0.055535648 -0.13754314 0.3425345
000100 f8 4c 4b 3c 9b 7d d5 bb fc d4 87 3e 25 e5 08 3e
       0.0124084875 -0.0065152175 0.26529682 0.13368662
000110 a0 4d 8d 3e 0b 38 64 3e 3e 76 14 be 03 e2 9f 3e
       0.27598286 0.22287004 -0.14498231 0.3122712
000120 94 bc 44 bb 5f b2 8d bd 6e df fb bc 12 29 28 bd
       -0.0030019628 -0.06918787 -0.030746188 -0.041054793
000130 bc c0 0d bd 5b 93 2b be 0a 05 ee bd 60 e4 2b be
       -0.034607634 -0.1675543 -0.11622055 -0.16786337
000140 59 65 33 be 11 c6 6e be 6d b5 1a 3e 65 1a 93 bd
       -0.1751913 -0.23317744 0.15108271 -0.07182769
000150 de 52 0f be 23 c7 e4 3d 31 71 92 bd b0 d2 4f be
       -0.13996455 0.11170795 -0.07150496 -0.20295215
000160 7a 5f 75 3e eb ef 98 bb 41 0b 9c bc 1f 26 32 3e
       0.23962203 -0.0046672723 -0.019048335 0.17397355
000170 db 02 66 3d 26 5f 87 bd f5 75 db 3d 17 28 a4 bd
       0.056155067 -0.06609945 0.10715858 -0.08015459
000180 aa 7b 02 3c e4 09 4e bd d6 83 fa bd 58 c4 95 be
       0.007964054 -0.0503024 -0.12232177 -0.2925136
000190 ce 55 22 be b3 c0 48 bd 02 4a b2 bd c7 75 12 be
       -0.15853044 -0.049011897 -0.08705522 -0.14302741
0001a0 6d 90 6f 3e cb 19 b4 3e 0b d6 f7 bd f2 df cc bd
       0.23394938 0.35175928 -0.12101372 -0.10003652
0001b0 ee 80 95 bd d5 b6 f1 3d cb b2 32 bd 8c 44 8b 3e
       -0.07299982 0.118024506 -0.04362754 0.27200735
0001c0 de 33 d1 bd 69 e1 94 bd 85 31 14 be 45 fd 11 bc
       -0.10214971 -0.07269556 -0.14472015 -0.008910482
0001d0 01 6a 46 be 5f c1 b5 be df e8 26 be 9a c0 80 3e
       -0.19376375 -0.35499093 -0.16299771 0.25146943
0001e0 28 7b c2 bc cf 61 ff bd 2e b6 85 bd ec cb 55 3e
       -0.023740366 -0.124698274 -0.06528889 0.20878571
0001f0 46 7b c1 bd 11 64 59 3e e0 88 2b be f5 9d 2a bd
       -0.09447341 0.21229579 -0.16751432 -0.041654546
000200 6f c4 3d 3e 2b 22 f6 3c f5 1f bb bd e6 a7 18 be
       0.18531965 0.03004559 -0.09136955 -0.14907798
000210 79 1f af be c0 0b 83 bd 85 99 d5 3d 47 63 89 be
       -0.342037 -0.063987255 0.10429672 -0.26833555
000220 fe 7f 0e 3b b5 31 2b 3d a4 49 2b be e3 8b 83 3d
       0.002174377 0.04179545 -0.1672731 0.06423166
000230 6f 1b 65 bd d4 b3 0f bd dc cd db 3e bd 48 15 3e
       -0.055934366 -0.035083607 0.42930496 0.14578529
000240 6f 22 5e be a5 67 df 3b f2 f1 c7 3d 75 c8 ab 3d
       -0.21692823 0.0068177753 0.09762944 0.083878435
000250 c9 e0 2d 3e f5 01 43 3e cb 10 7c bd ef a1 27 3c
       0.1698028 0.19043715 -0.061539453 0.010231479
000260 ab ae a2 3d 65 e7 d1 bd bd 3d cc 3d 1b cc 45 3d
       0.079434715 -0.10249213 0.09972713 0.048290353
000270 96 17 ad bc e3 43 fe bd e9 1b 1c 3d 4d 4b 05 3d
       -0.02112941 -0.12415292 0.038112555 0.032542516
000280 5e f8 01 bd 75 6f 1c 3d 2d d6 6e be a9 f7 21 3d
       -0.031731002 0.03819223 -0.23323889 0.039542828
000290 9a c0 ce bc 58 e7 f2 bc d6 b0 ae bc 49 1f 8f bd
       -0.025238324 -0.029651329 -0.021324556 -0.06988389
0002a0 77 c0 a9 3d c3 41 9e 3d 7b af 2d ba 6c 06 0e be
       0.08288663 0.07727387 -0.0006625575 -0.13869637
0002b0 7e 28 d9 bc 2b 05 76 3d 4e 91 9b bc a7 3f 0a be
       -0.026508566 0.060063522 -0.018990185 -0.13500844
0002c0 08 cd 84 3d 95 29 7f bc 85 97 4d 3d 39 f2 8f bd
       0.06484419 -0.015573879 0.05019333 -0.07028622
0002d0 ee 98 9d bc d3 40 83 bd 7f 62 5a bd cc fa ac 3b
       -0.019237962 -0.064088486 -0.05331659 0.0052789208
0002e0 75 d0 c5 bd 17 5e f8 bc 85 b0 cb bd 03 35 49 3c
       -0.09658901 -0.030318303 -0.09945778 0.012280705
0002f0 63 a9 53 bc ea 0a 59 3b 29 04 82 3d 38 43 ba ba
       -0.012918803 0.0033118078 0.0634845 -0.0014210707
000300 62 a2 a7 3d 45 8f 01 3e 1e d6 89 bd 37 d1 b2 bc
       0.08185269 0.12652309 -0.06730293 -0.021828277
000310 5d cd 4c bd 53 fb a0 3d 06 dd 03 be 57 89 52 3d
       -0.050000537 0.07860436 -0.12877283 0.05140051
000320 86 84 f1 3c c4 6c fe bd 36 8e 18 3e 10 a8 51 3e
       0.029482137 -0.12423089 0.14897999 0.20474267
000330 4b 21 3e 3d df 19 94 3e 05 ca 89 be ee 50 9e be
       0.04641847 0.28925988 -0.2691194 -0.3092112
000340 02 fd 71 bd fc 2e d9 bd 7e 7f e6 bd 07 06 19 3e
       -0.059079178 -0.10604665 -0.11254786 0.14943705
000350 d1 f2 9a 3e 98 6f 29 3d 2c 91 8c bc da 2c 26 be
       0.3026338 0.04136619 -0.017159067 -0.16228047
000360 fe a0 95 bd 96 9e bd 3e 23 a0 16 3e 3a 75 00 bd
       -0.073060974 0.37035054 0.14709525 -0.031361796
000370 d0 bc 6c be a0 5c 97 3e 82 e4 27 bd 88 18 1b 3c
       -0.23118901 0.29562855 -0.040989406 0.009466298
000380 72 20 3d bc e2 07 a8 3d 09 8b 93 be ed 51 19 3e
       -0.01154338 0.082046285 -0.28817013 0.14972658
000390 63 fc 83 3d 05 30 81 3c a1 90 5a 3e d0 30 5d be
       0.06444623 0.015769968 0.21344234 -0.21600652
0003a0 8f 26 5e be e1 26 a1 bc 06 e5 db 3e b7 1b 06 3f
       -0.21694396 -0.01967186 0.4294817 0.5238604
0003b0 61 38 0e 3c 66 77 8d bc 83 6e 82 bd 70 82 ae 3d
       0.008680434 -0.017268848 -0.06368735 0.08520973
0003c0 50 31 b8 bd ae aa 65 bc b6 be 00 be ff b6 84 be
       -0.089937806 -0.014017744 -0.1257275 -0.25920865
0003d0 a6 25 9d be 03 2a 69 3e a0 78 13 be 58 35 f1 bd
       -0.30692786 0.22769932 -0.14401484 -0.11777753
0003e0 db bb 47 be cd 94 c7 3d b6 e5 1d be d4 8c 52 3c
       -0.19505255 0.09745178 -0.15419659 0.012850959
0003f0 d0 d5 0e 3e c1 4c d3 bd 9b ea 78 3d 57 42 95 3c
       0.1394875 -0.10317374 0.060770612 0.01822011

gnn.convs.2.lin_edge.weight f4 [50, 1]
000000 a3 97 11 00 c9 4f c1 bb d8 a2 28 35 02 84 91 37
       1.6156e-39 -0.0058994037 6.2821846e-07 1.7346818e-05
000010 c4 ed ac 9c 08 68 4b 26 40 3f 87 29 5b 89 1e 38
       -1.1443466e-21 7.057076e-16 6.0061765e-14 3.7798058e-05
000020 8a 90 4b 89 f8 24 01 2d 79 b5 15 b9 9a 6e 85 37
       -2.4503198e-33 7.34101e-12 -0.00014277351 1.5906338e-05
000030 0a 0f 3f a3 4e 2c 3d 30 f6 96 39 25 41 b5 8e 93
       -1.0357315e-17 6.882076e-10 1.609734e-16 -3.602457e-27
000040 c2 3f 45 8e d4 9c 22 99 d9 cc 02 80 c4 46 2e 80
       -2.4312823e-30 -8.406875e-24 -2.57156e-40 -4.249819e-39
000050 ac 0f 12 22 cc 64 be ad e3 99 2a 01 85 c9 04 3a
       1.9794986e-18 -2.1645262e-11 3.1334477e-38 0.0005065429
000060 bf 81 88 16 c5 a1 03 00 75 de c4 b8 98 d5 bf 16
       2.2053866e-25 3.33538e-40 -9.387444e-05 3.099251e-25
000070 69 61 00 00 95 e5 d7 b1 f5 4d 19 ba e0 69 85 38
       3.4944e-41 -6.283424e-09 -0.00058481033 6.361655e-05
000080 01 c4 a4 a5 7d 4e f0 ab ba ae a4 14 ca 93 f7 ae
       -2.8582282e-16 -1.707481e-12 1.6628686e-26 -1.1258512e-10
000090 90 88 9c 20 f7 af 9d 2d 6b db 9b 90 d8 0f 16 19
       2.6517797e-19 1.7926978e-11 -6.147479e-29 7.758018e-24
0000a0 2c d5 09 a6 f3 e5 27 27 ed fc 1c 03 37 b4 a1 ae
       -4.7820325e-16 2.3300561e-15 4.6134624e-37 -7.353445e-11
0000b0 17 b9 78 30 2f 61 9f 05 5d 12 62 94 6c 32 63 3b
       9.0484903e-10 1.4987988e-35 -1.1413706e-26 0.0034667505
0000c0 84 6a ab 29 00 1e 97 35
       7.612403e-14 1.1259108e-06

gnn.batch_norms.0.weight f4 [50]
000000 e1 fe 01 3f de cf ea 3e 83 5b 2f 3f b9 3a 0d 3f
       0.5077954 0.45861715 0.6849901 0.5516773
000010 17 3c f7 3e 0a 8e 2a 3f 38 a9 0b 3f c3 74 1f 3f
       0.48288032 0.66622984 0.5455508 0.6228754
000020 60 75 2e 3f 4e 88 1b 3f fc b9 30 3f 8b 16 15 3f
       0.6814785 0.6075486 0.6903379 0.5823752
000030 16 c0 14 3f 49 b8 11 3f 26 fa 3d 3f 2f ae 07 3f
       0.581056 0.5692182 0.7420982 0.5300016
000040 a3 7e 03 3f fd d1 24 3f e0 eb 00 3f a1 85 ff 3e
       0.5136511 0.64382917 0.50359917 0.49906638
000050 c2 8f 2f 3f 77 45 01 3f 9c 63 05 3f 53 66 01 3f
       0.6857873 0.5049662 0.52105117 0.5054676
000060 4a 95 17 3f 03 1c 0e 3f cb 31 30 3f cf 07 33 3f
       0.5921217 0.5551149 0.6882598 0.6993379
000070 75 87 2e 3f 21 7b 20 3f c9 d4 3c 3f 20 8e 04 3f
       0.6817544 0.6268788 0.73762184 0.51779366
000080 db 4b 12 3f fb ec 2d 3f 96 77 40 3f ee 9f 14 3f
       0.57146996 0.6793973 0.75182474 0.58056533
000090 46 45 1b 3f 91 49 f0 3e 0b 94 19 3f ba de 17 3f
       0.6065258 0.46931127 0.5999152 0.5932423
0000a0 fa 9a ef 3e 48 4d 38 3f 77 26 27 3f 2c 73 0e 3f
       0.46797925 0.7199292 0.6529307 0.5564449
0000b0 ed c9 17 3f 93 5b 03 3f c3 0c 2a 3f 7d 9d eb 3e
       0.5929249 0.51311606 0.6642572 0.46018592
0000c0 ff ba 02 3f 4d ed 25 3f
       0.51066583 0.6481522

gnn.batch_norms.0.bias f4 [50]
000000 f6 3a 50 3d 6d a6 d4 bd c7 a1 c1 bd 23 9e ed bd
       0.05083748 -0.10383306 -0.09454685 -0.11602428
000010 50 f5 ab be 3c f3 74 be 53 7b 00 bf 59 f3 b2 bd
       -0.33585596 -0.23920912 -0.5018818 -0.08737821
000020 4d b2 38 be 8d c7 37 be 63 38 c4 be 28 6f e1 bc
       -0.18036766 -0.17947216 -0.3832427 -0.027518824
000030 d9 9e 12 be 04 72 ec bd c0 17 b0 be ae 81 ea bc
       -0.14318408 -0.11545184 -0.3439312 -0.02862629
000040 6e 79 8f be 6f a5 92 be 82 b1 58 be c2 9d 94 be
       -0.2802233 -0.2864184 -0.21161464 -0.2902661
000050 65 45 13 be 88 ec c7 be 55 00 a0 bd 39 6b 56 be
       -0.1438194 -0.39047647 -0.07812563 -0.2093934
000060 e2 52 34 be 62 e8 f4 bd 96 1e 83 be 2f d7 66 be
       -0.17609742 -0.11958386 -0.25609273 -0.22543024
000070 28 2c 94 be d4 21 69 be 30 b4 90 be a6 9a 58 be
       -0.2893994 -0.2276681 -0.28262472 -0.21152744
000080 ec 77 53 be 15 de 30 be bc 5a 0d bf ca d2 8a be
       -0.20651215 -0.17272218 -0.55216575 -0.27113944
000090 d3 b4 a4 be 76 31 5a be 62 03 53 be 6c ea f1 bd
       -0.32169208 -0.2130793 -0.20606759 -0.118122905
0000a0 19 5f 24 be 18 d5 55 be b0 c8 bf be 3f aa 4d be
       -0.16051902 -0.2088207 -0.374578 -0.20084475
0000b0 bd f0 36 be 25 6c cd be 6e c8 7a be ce c9 1c bd
       -0.17865272 -0.4012157 -0.2449052 -0.038278393
0000c0 fc 86 2d be 7e b1 1b be
       -0.16946024 -0.15204427

gnn.batch_norms.0.running_mean f4 [50]
000000 1b d8 58 b9 6d 9c ec bb f2 69 b1 ba f6 1f 76 bb
       -0.00020679871 -0.007220796 -0.0013535602 -0.0037555671
000010 22 1d 3e bb 50 13 03 bc 63 60 39 3b 87 a1 3f 39
       -0.0029009064 -0.00800021 0.002828621 0.00018275353
000020 df aa f5 3a ca 6b 5a ba e8 69 c9 bb cc 8e 6a bb
       0.001874294 -0.0008332102 -0.006146658 -0.003579068
000030 8d 6e 32 bb e7 81 1d 3b 96 e6 a0 bb 91 eb 3a bb
       -0.0027226538 0.0024033727 -0.0049103005 -0.0028521756
000040 ec 6d a6 bc 8f be c0 bb 34 dc 2d 3a 76 02 b8 bb
       -0.020316087 -0.0058820914 0.0006632239 -0.0056155277
000050 34 83 8b bb 67 44 ee ba 7e 49 6b bb e6 43 cc bb
       -0.004257584 -0.0018178344 -0.003590196 -0.00623368
000060 ac 02 07 bb bd 7a 8a b8 27 0e 2f 3a 07 c2 04 bb
       -0.0020600958 -6.6032146e-05 0.0006677829 -0.002025725
000070 68 4c d2 ba 4e 6f a2 bb db 31 38 bb ee 85 06 bc
       -0.0016044499 -0.004957116 -0.0028105888 -0.008210642
000080 0d 95 ca ba 92 f3 15 b9 73 70 81 bb bb f8 98 bb
       -0.0015455798 -0.00014300484 -0.0039501726 -0.004668323
000090 c2 f9 48 bb d3 7f 74 3d 04 a0 30 bb 2b 42 78 39
       -0.0030666445 0.059692215 -0.0026950845 0.00023675773
0000a0 90 f6 e1 ba 23 23 f4 b9 fa db 0a 3c d2 b6 89 b8
       -0.0017239619 -0.00046565486 0.008475298 -6.566722e-05
0000b0 8b ce 87 39 e1 18 a3 b9 6c cf 80 bb 7f 48 e9 39
       0.00025903093 -0.0003110832 -0.0039309766 0.00044495237
0000c0 b0 63 84 ba 62 9f 4c bc
       -0.001010051 -0.012489172

gnn.batch_norms.0.running_var f4 [50]
000000 75 ab fe 36 83 69 38 37 1f 30 fc 37 7c c1 7d 37
       7.58975e-06 1.0991821e-05 3.006315e-05 1.5125024e-05
000010 55 c8 03 38 8e 4f f2 37 4e 1f a4 37 7a 5d 4e 37
       3.1419408e-05 2.8885694e-05 1.95649e-05 1.2300321e-05
000020 7f 03 cb 37 e8 fc e9 37 90 9e 63 37 2c 1e 8d 37
       2.4201114e-05 2.7893533e-05 1.3567173e-05 1.682256e-05
000030 91 cc 00 37 a5 ad 0f 37 cc 69 6f 37 5b 92 2d 38
       7.677024e-06 8.563894e-06 1.4270143e-05 4.138272e-05
000040 a3 e0 e7 37 10 bb 39 37 a4 ce a0 37 ad 62 91 37
       2.764195e-05 1.1070413e-05 1.916971e-05 1.7331296e-05
000050 56 85 b8 37 f9 81 ac 37 9d 83 93 37 c5 fc 7c 37
       2.1996599e-05 2.0564521e-05 1.7585053e-05 1.5079223e-05
000060 4f 8f 70 37 27 d9 19 37 f6 8b ab 36 11 0d 11 37
       1.4338481e-05 9.17007e-06 5.1124907e-06 8.645716e-06
000070 8e 40 07 38 7b e6 ea 36 af 8f b7 36 99 39 9d 37
       3.224663e-05 7.000575e-06 5.470552e-06 1.874268e-05
000080 6e 8a f7 37 dd bb e7 37 a7 26 cb 37 c4 f6 1f 38
       2.9509156e-05 2.7624827e-05 2.4217485e-05 3.8138372e-05
000090 db 17 a0 37 22 76 cd 38 b0 4c 1d 37 fa e2 a8 37
       1.9084595e-05 9.797166e-05 9.375784e-06 2.0132855e-05
0000a0 46 ce ca 36 3d 5c 57 37 f0 cb 21 37 96 51 60 37
       6.0440825e-06 1.28364745e-05 9.643831e-06 1.3370436e-05
0000b0 b2 d9 37 37 09 86 49 37 86 fa a9 37 ea 7b c1 37
       1.0958336e-05 1.2011741e-05 2.0263029e-05 2.3065095e-05
0000c0 be 9e f6 37 bd 48 28 37
       2.9399405e-05 1.0030516e-05

gnn.batch_norms.1.weight f4 [50]
000000 0c 81 8a 3f fb 31 94 3f 94 7a 7c 3f d1 99 ae 3f
       1.0820632 1.1577753 0.9862454 1.3640691
000010 88 cd 65 3f af 27 59 3f 64 64 9d 3f 23 ca 8a 3f
       0.8976674 0.8482618 1.2296262 1.0842937
000020 00 da 83 3f 80 fb 8f 3f 93 d3 5b 3f c9 4c 87 3f
       1.0300903 1.1248627 0.8586971 1.0570308
000030 53 5f 94 3f 6f c8 98 3f 71 07 8a 3f cb ac 96 3f
       1.1591591 1.1936167 1.0783521 1.1771482
000040 d2 65 7b 3f c4 b8 94 3f 17 17 8d 3f 61 74 87 3f
       0.9820224 1.1618886 1.1022671 1.0582391
000050 70 71 83 3f 11 ad 88 3f a0 45 89 3f 4f a2 66 3f
       1.0268993 1.0677816 1.0724373 0.90091413
000060 5b 65 72 3f e4 5b ab 3f 20 43 94 3f d7 89 90 3f
       0.94685906 1.3387418 1.1582985 1.1292065
000070 ce 53 7d 3f df 74 86 3f 20 2f 93 3f 40 33 8a 3f
       0.98956 1.0504416 1.1498756 1.079689
000080 2b de 8a 3f c3 7b 49 3f bb 62 88 3f f2 84 87 3f
       1.084905 0.7870447 1.065513 1.0587447
000090 be f0 7e 3f 32 56 83 3f 66 67 92 3f e7 3c 84 3f
       0.99586093 1.026068 1.1437805 1.0331086
0000a0 5f 61 8c 3f e3 01 68 3f c4 80 8c 3f 50 d0 53 3f
       1.0967215 0.9062788 1.0976796 0.82739735
0000b0 be e1 99 3f 84 22 a5 3f 74 00 71 3f 3a fb 8f 3f
       1.2022016 1.2901158 0.94141316 1.1248543
0000c0 9f 35 8b 3f fd 0b 91 3f
       1.0875739 1.1331784
